{
  "layers" : [
    {
      "begin_n" : 0,
      "static_sizes_k" : 0,
      "end_mask_h" : true,
      "end_w" : 0,
      "end_h" : 0,
      "begin_h" : 0,
      "stride_n" : 1,
      "end_seq" : 1,
      "attributes" : {
        "basic_block_head" : 1
      },
      "begin_mask_seq" : false,
      "begin_mask_h" : true,
      "stride_k" : 1,
      "squeeze_mask_h" : false,
      "type" : "general_slice",
      "begin_mask_k" : false,
      "static_sizes_w" : 0,
      "begin_w" : 0,
      "end_mask_k" : true,
      "use_static_sizes" : false,
      "stride_h" : 1,
      "static_sizes_n" : 0,
      "begin_mask_n" : false,
      "weights" : {

      },
      "name" : "feature_layer\/strided_slice",
      "stride_seq" : 1,
      "end_k" : 0,
      "static_sizes_seq" : 0,
      "top" : "feature_layer\/strided_slice",
      "begin_seq" : 0,
      "begin_k" : 1,
      "squeeze_mask_k" : false,
      "end_mask_w" : true,
      "end_mask_seq" : false,
      "end_mask_n" : false,
      "debug_info" : "feature_layer\/strided_slice",
      "stride_w" : 1,
      "squeeze_mask_seq" : false,
      "static_sizes_h" : 0,
      "begin_mask_w" : true,
      "bottom" : "input_1",
      "end_n" : 1,
      "squeeze_mask_w" : false,
      "squeeze_mask_n" : false
    },
    {
      "begin_n" : 0,
      "static_sizes_k" : 0,
      "end_mask_h" : true,
      "end_w" : 0,
      "end_h" : 0,
      "begin_h" : 0,
      "stride_n" : 1,
      "end_seq" : 1,
      "begin_mask_seq" : false,
      "begin_mask_h" : true,
      "squeeze_mask_h" : false,
      "stride_k" : 1,
      "type" : "general_slice",
      "begin_mask_k" : false,
      "static_sizes_w" : 0,
      "begin_w" : 0,
      "end_mask_k" : false,
      "use_static_sizes" : false,
      "stride_h" : 1,
      "static_sizes_n" : 0,
      "begin_mask_n" : false,
      "weights" : {

      },
      "name" : "token_layer\/strided_slice",
      "stride_seq" : 1,
      "end_k" : 1,
      "static_sizes_seq" : 0,
      "top" : "token_layer\/strided_slice",
      "begin_seq" : 0,
      "squeeze_mask_k" : true,
      "begin_k" : 0,
      "end_mask_w" : true,
      "end_mask_seq" : false,
      "end_mask_n" : false,
      "debug_info" : "token_layer\/strided_slice",
      "stride_w" : 1,
      "squeeze_mask_seq" : false,
      "static_sizes_h" : 0,
      "begin_mask_w" : true,
      "bottom" : "input_1",
      "end_n" : 1,
      "squeeze_mask_w" : false,
      "squeeze_mask_n" : false
    },
    {
      "bottom" : "feature_layer\/strided_slice",
      "alpha" : 1,
      "operation" : 117,
      "weights" : {

      },
      "fused_relu" : 0,
      "debug_info" : "lambda\/Cast_floor",
      "top" : "lambda\/Cast_floor",
      "type" : "elementwise",
      "name" : "lambda\/Cast_floor",
      "beta" : 0
    },
    {
      "bottom" : "feature_layer\/strided_slice",
      "alpha" : 1,
      "operation" : 118,
      "weights" : {

      },
      "fused_relu" : 0,
      "debug_info" : "lambda\/Cast_ceil",
      "top" : "lambda\/Cast_ceil",
      "type" : "elementwise",
      "name" : "lambda\/Cast_ceil",
      "beta" : 0
    },
    {
      "bottom" : "",
      "k" : 1,
      "n" : 1,
      "weights" : {

      },
      "h" : 1,
      "debug_info" : "lambda\/Cast_cond",
      "constant_blob" : 1,
      "top" : "lambda\/Cast_cond_load_constant_5",
      "w" : 1,
      "type" : "load_constant",
      "name" : "lambda\/Cast_cond_load_constant_5"
    },
    {
      "bottom" : "feature_layer\/strided_slice,lambda\/Cast_cond_load_constant_5",
      "alpha" : 1,
      "operation" : 105,
      "weights" : {

      },
      "fused_relu" : 0,
      "debug_info" : "lambda\/Cast_cond",
      "top" : "lambda\/Cast_cond",
      "type" : "elementwise",
      "name" : "lambda\/Cast_cond",
      "beta" : 0
    },
    {
      "bottom" : "lambda\/Cast_cond,lambda\/Cast_floor,lambda\/Cast_ceil",
      "alpha" : 1,
      "operation" : 101,
      "weights" : {

      },
      "fused_relu" : 0,
      "debug_info" : "lambda\/Cast",
      "nd_mode" : true,
      "top" : "lambda\/Cast",
      "type" : "elementwise",
      "name" : "lambda\/Cast",
      "beta" : 0
    },
    {
      "bottom" : "token_layer\/strided_slice",
      "alpha" : 1,
      "operation" : 117,
      "weights" : {

      },
      "fused_relu" : 0,
      "debug_info" : "embedding\/Cast_floor",
      "top" : "embedding\/Cast_floor",
      "type" : "elementwise",
      "name" : "embedding\/Cast_floor",
      "beta" : 0
    },
    {
      "bottom" : "token_layer\/strided_slice",
      "alpha" : 1,
      "operation" : 118,
      "weights" : {

      },
      "fused_relu" : 0,
      "debug_info" : "embedding\/Cast_ceil",
      "top" : "embedding\/Cast_ceil",
      "type" : "elementwise",
      "name" : "embedding\/Cast_ceil",
      "beta" : 0
    },
    {
      "bottom" : "",
      "k" : 1,
      "n" : 1,
      "weights" : {

      },
      "h" : 1,
      "debug_info" : "embedding\/Cast_cond",
      "constant_blob" : 3,
      "top" : "embedding\/Cast_cond_load_constant_9",
      "w" : 1,
      "type" : "load_constant",
      "name" : "embedding\/Cast_cond_load_constant_9"
    },
    {
      "bottom" : "token_layer\/strided_slice,embedding\/Cast_cond_load_constant_9",
      "alpha" : 1,
      "operation" : 105,
      "weights" : {

      },
      "fused_relu" : 0,
      "debug_info" : "embedding\/Cast_cond",
      "top" : "embedding\/Cast_cond",
      "type" : "elementwise",
      "name" : "embedding\/Cast_cond",
      "beta" : 0
    },
    {
      "bottom" : "embedding\/Cast_cond,embedding\/Cast_floor,embedding\/Cast_ceil",
      "alpha" : 1,
      "operation" : 101,
      "weights" : {

      },
      "fused_relu" : 0,
      "debug_info" : "embedding\/Cast",
      "nd_mode" : true,
      "top" : "embedding\/Cast",
      "type" : "elementwise",
      "name" : "embedding\/Cast",
      "beta" : 0
    },
    {
      "bottom" : "",
      "k" : 1,
      "n" : 1,
      "weights" : {

      },
      "h" : 1,
      "debug_info" : "embedding\/NotEqual",
      "constant_blob" : 5,
      "top" : "embedding\/NotEqual_load_constant_11",
      "w" : 1,
      "type" : "load_constant",
      "name" : "embedding\/NotEqual_load_constant_11"
    },
    {
      "bottom" : "token_layer\/strided_slice,embedding\/NotEqual_load_constant_11",
      "alpha" : 1,
      "operation" : 107,
      "weights" : {

      },
      "fused_relu" : 0,
      "debug_info" : "embedding\/NotEqual",
      "top" : "embedding\/NotEqual",
      "type" : "elementwise",
      "name" : "embedding\/NotEqual",
      "beta" : 0
    },
    {
      "depth" : 100,
      "bottom" : "lambda\/Cast",
      "weights" : {

      },
      "debug_info" : "lambda\/one_hot",
      "top" : "lambda\/one_hot",
      "type" : "one_hot",
      "name" : "lambda\/one_hot"
    },
    {
      "size_of_axes" : 1,
      "bottom" : "embedding\/Cast",
      "axes_0" : -1,
      "weights" : {

      },
      "nd_axis" : 0,
      "debug_info" : "embedding\/embedding_lookup_expand_dims",
      "top" : "embedding\/embedding_lookup_expand_dims",
      "type" : "expand_dims",
      "name" : "embedding\/embedding_lookup_expand_dims"
    },
    {
      "nB" : 41858,
      "top" : "embedding\/embedding_lookup",
      "has_biases" : 0,
      "nd_mode" : true,
      "nC" : 64,
      "blob_weights" : 7,
      "weights" : {

      },
      "is_lookup" : 1,
      "type" : "inner_product",
      "has_relu" : 0,
      "bottom" : "embedding\/embedding_lookup_expand_dims",
      "debug_info" : "embedding\/embedding_lookup",
      "has_tanh" : 0,
      "hint_fallback_from_metal" : 1,
      "name" : "embedding\/embedding_lookup",
      "has_prelu" : 0
    },
    {
      "size_of_axes" : 1,
      "bottom" : "embedding\/NotEqual",
      "axes_0" : -1,
      "weights" : {

      },
      "nd_axis" : 0,
      "debug_info" : "concatenate\/ExpandDims",
      "top" : "concatenate\/ExpandDims",
      "type" : "expand_dims",
      "name" : "concatenate\/ExpandDims"
    },
    {
      "axis_mode" : 2,
      "bottom" : "lambda\/one_hot",
      "weights" : {

      },
      "mode" : 0,
      "nd_axis" : 2,
      "nd_mode" : true,
      "debug_info" : "lambda_1\/Sum",
      "use_version" : 1,
      "top" : "lambda_1\/Sum_presqueeze",
      "type" : "reduce",
      "name" : "lambda_1\/Sum_presqueeze"
    },
    {
      "size_of_axes" : 1,
      "bottom" : "lambda_1\/Sum_presqueeze",
      "axes_0" : 2,
      "weights" : {

      },
      "nd_axis" : 0,
      "debug_info" : "lambda_1\/Sum",
      "version" : 1,
      "top" : "lambda_1\/Sum",
      "type" : "squeeze",
      "name" : "lambda_1\/Sum"
    },
    {
      "axis_h" : 1,
      "axis_w" : 0,
      "bottom" : "lambda_1\/Sum",
      "axis_k" : 2,
      "axis_n" : 3,
      "axis_seq" : 4,
      "weights" : {

      },
      "debug_info" : "dense\/Tensordot\/transpose",
      "top" : "dense\/Tensordot\/transpose",
      "type" : "transpose",
      "name" : "dense\/Tensordot\/transpose"
    },
    {
      "name" : "dense\/Tensordot\/Reshape",
      "weights" : {

      },
      "dst_w" : 100,
      "version" : 1,
      "dst_n" : 1,
      "dst_nd_rank" : 2,
      "type" : "reshape",
      "dst_h" : -1,
      "mode" : 0,
      "dynamic_shape" : false,
      "bottom" : "dense\/Tensordot\/transpose",
      "debug_info" : "dense\/Tensordot\/Reshape",
      "dst_seq" : 1,
      "dst_k" : 1,
      "top" : "dense\/Tensordot\/Reshape"
    },
    {
      "nB" : 100,
      "top" : "dense\/Tensordot\/MatMul",
      "has_biases" : 0,
      "weights" : {

      },
      "nC" : 16,
      "blob_weights" : 9,
      "type" : "inner_product",
      "has_relu" : 0,
      "bottom" : "dense\/Tensordot\/Reshape",
      "debug_info" : "dense\/Tensordot\/MatMul",
      "has_tanh" : 0,
      "nd_mode" : true,
      "name" : "dense\/Tensordot\/MatMul",
      "has_prelu" : 0
    },
    {
      "name" : "dense\/Tensordot",
      "weights" : {

      },
      "dst_w" : 16,
      "version" : 1,
      "dst_n" : 1,
      "dst_nd_rank" : 3,
      "type" : "reshape",
      "dst_h" : 53,
      "mode" : 0,
      "dynamic_shape" : false,
      "bottom" : "dense\/Tensordot\/MatMul",
      "debug_info" : "dense\/Tensordot",
      "dst_seq" : 1,
      "dst_k" : -1,
      "top" : "dense\/Tensordot"
    },
    {
      "top" : "dense\/BiasAdd\/ReadVariableOp",
      "w" : 16,
      "h" : 1,
      "name" : "dense\/BiasAdd\/ReadVariableOp",
      "nd_rank" : 1,
      "type" : "load_constant",
      "k" : 1,
      "bottom" : "",
      "debug_info" : "dense\/BiasAdd\/ReadVariableOp",
      "n" : 1,
      "weights" : {

      },
      "constant_blob" : 11
    },
    {
      "bottom" : "dense\/Tensordot,dense\/BiasAdd\/ReadVariableOp",
      "alpha" : 1,
      "operation" : 0,
      "weights" : {

      },
      "fused_relu" : 0,
      "debug_info" : "dense\/BiasAdd",
      "nd_mode" : true,
      "top" : "dense\/BiasAdd",
      "type" : "elementwise",
      "name" : "dense\/BiasAdd",
      "beta" : 0
    },
    {
      "bottom" : "embedding\/embedding_lookup,dense\/BiasAdd",
      "weights" : {

      },
      "nd_mode" : true,
      "axis" : 2,
      "debug_info" : "concatenate\/concat",
      "top" : "concatenate\/concat",
      "type" : "general_concat",
      "name" : "concatenate\/concat"
    },
    {
      "bottom" : "dense\/BiasAdd",
      "weights" : {

      },
      "nd_mode" : 1,
      "axis" : -1,
      "debug_info" : "concatenate\/ones_like\/Shape",
      "top" : "concatenate\/ones_like\/Shape",
      "type" : "get_shape",
      "name" : "concatenate\/ones_like\/Shape"
    },
    {
      "axis_h" : 1,
      "axis_w" : 0,
      "bottom" : "concatenate\/concat",
      "axis_k" : 2,
      "axis_n" : 3,
      "axis_seq" : 4,
      "weights" : {

      },
      "debug_info" : "dense_1\/Tensordot\/transpose",
      "top" : "dense_1\/Tensordot\/transpose",
      "type" : "transpose",
      "name" : "dense_1\/Tensordot\/transpose"
    },
    {
      "bottom" : "concatenate\/ones_like\/Shape",
      "weights" : {

      },
      "nd_mode" : 1,
      "debug_info" : "concatenate\/ones_like",
      "value" : 1,
      "top" : "concatenate\/ones_like",
      "type" : "fill",
      "name" : "concatenate\/ones_like"
    },
    {
      "bottom" : "concatenate\/ExpandDims,concatenate\/ones_like",
      "weights" : {

      },
      "nd_mode" : true,
      "debug_info" : "concatenate\/concat_1",
      "axis" : 2,
      "top" : "concatenate\/concat_1",
      "type" : "general_concat",
      "name" : "concatenate\/concat_1",
      "attributes" : {
        "basic_block_head" : 1
      }
    },
    {
      "bottom" : "concatenate\/concat_1",
      "alpha" : 1,
      "operation" : 117,
      "weights" : {

      },
      "fused_relu" : 0,
      "debug_info" : "cast_0_floor",
      "top" : "cast_0_floor",
      "type" : "elementwise",
      "name" : "cast_0_floor",
      "beta" : 0
    },
    {
      "bottom" : "concatenate\/concat_1",
      "alpha" : 1,
      "operation" : 118,
      "weights" : {

      },
      "fused_relu" : 0,
      "debug_info" : "cast_0_ceil",
      "top" : "cast_0_ceil",
      "type" : "elementwise",
      "name" : "cast_0_ceil",
      "beta" : 0
    },
    {
      "bottom" : "",
      "k" : 1,
      "n" : 1,
      "weights" : {

      },
      "h" : 1,
      "debug_info" : "cast_0_cond",
      "constant_blob" : 13,
      "top" : "cast_0_cond_load_constant_30",
      "w" : 1,
      "type" : "load_constant",
      "name" : "cast_0_cond_load_constant_30"
    },
    {
      "bottom" : "concatenate\/concat_1,cast_0_cond_load_constant_30",
      "alpha" : 1,
      "operation" : 105,
      "weights" : {

      },
      "fused_relu" : 0,
      "debug_info" : "cast_0_cond",
      "top" : "cast_0_cond",
      "type" : "elementwise",
      "name" : "cast_0_cond",
      "beta" : 0
    },
    {
      "bottom" : "cast_0_cond,cast_0_floor,cast_0_ceil",
      "alpha" : 1,
      "operation" : 101,
      "weights" : {

      },
      "fused_relu" : 0,
      "debug_info" : "cast_0",
      "nd_mode" : true,
      "top" : "cast_0",
      "type" : "elementwise",
      "name" : "cast_0",
      "beta" : 0
    },
    {
      "axis_mode" : 1,
      "bottom" : "cast_0",
      "weights" : {

      },
      "mode" : 2,
      "nd_mode" : true,
      "debug_info" : "reduce_prod_0",
      "use_version" : 1,
      "top" : "reduce_prod_0_presqueeze",
      "type" : "reduce",
      "name" : "reduce_prod_0_presqueeze"
    },
    {
      "size_of_axes" : 1,
      "bottom" : "reduce_prod_0_presqueeze",
      "axes_0" : -1,
      "weights" : {

      },
      "nd_axis" : 0,
      "debug_info" : "reduce_prod_0",
      "version" : 1,
      "top" : "reduce_prod_0",
      "type" : "squeeze",
      "name" : "reduce_prod_0"
    },
    {
      "bottom" : "",
      "k" : 1,
      "n" : 1,
      "weights" : {

      },
      "h" : 1,
      "debug_info" : "concatenate\/All",
      "constant_blob" : 15,
      "top" : "concatenate\/All_load_constant_33",
      "w" : 1,
      "type" : "load_constant",
      "name" : "concatenate\/All_load_constant_33"
    },
    {
      "bottom" : "reduce_prod_0,concatenate\/All_load_constant_33",
      "alpha" : 1,
      "operation" : 107,
      "weights" : {

      },
      "fused_relu" : 0,
      "debug_info" : "concatenate\/All",
      "top" : "concatenate\/All",
      "type" : "elementwise",
      "name" : "concatenate\/All",
      "beta" : 0
    },
    {
      "size_of_axes" : 1,
      "bottom" : "concatenate\/All",
      "axes_0" : -1,
      "weights" : {

      },
      "nd_axis" : 0,
      "debug_info" : "bidirectional\/ExpandDims",
      "top" : "bidirectional\/ExpandDims",
      "type" : "expand_dims",
      "name" : "bidirectional\/ExpandDims"
    },
    {
      "size_of_axes" : 1,
      "bottom" : "concatenate\/All",
      "axes_0" : -1,
      "weights" : {

      },
      "nd_axis" : 0,
      "debug_info" : "bidirectional\/ExpandDims_1",
      "top" : "bidirectional\/ExpandDims_1",
      "type" : "expand_dims",
      "name" : "bidirectional\/ExpandDims_1"
    },
    {
      "name" : "dense_1\/Tensordot\/Reshape",
      "weights" : {

      },
      "dst_w" : 80,
      "version" : 1,
      "dst_n" : 1,
      "dst_nd_rank" : 2,
      "type" : "reshape",
      "dst_h" : -1,
      "mode" : 0,
      "dynamic_shape" : false,
      "bottom" : "dense_1\/Tensordot\/transpose",
      "debug_info" : "dense_1\/Tensordot\/Reshape",
      "dst_seq" : 1,
      "dst_k" : 1,
      "top" : "dense_1\/Tensordot\/Reshape"
    },
    {
      "axis_h" : 2,
      "axis_w" : 0,
      "bottom" : "bidirectional\/ExpandDims",
      "axis_k" : 1,
      "axis_n" : 3,
      "axis_seq" : 4,
      "weights" : {

      },
      "debug_info" : "bidirectional\/transpose_1",
      "top" : "bidirectional\/transpose_1",
      "type" : "transpose",
      "name" : "bidirectional\/transpose_1"
    },
    {
      "axis_h" : 2,
      "axis_w" : 0,
      "bottom" : "bidirectional\/ExpandDims_1",
      "axis_k" : 1,
      "axis_n" : 3,
      "axis_seq" : 4,
      "weights" : {

      },
      "debug_info" : "bidirectional\/transpose_4",
      "top" : "bidirectional\/transpose_4",
      "type" : "transpose",
      "name" : "bidirectional\/transpose_4"
    },
    {
      "nB" : 80,
      "top" : "dense_1\/Tensordot\/MatMul",
      "has_biases" : 0,
      "weights" : {

      },
      "nC" : 256,
      "blob_weights" : 17,
      "type" : "inner_product",
      "has_relu" : 0,
      "bottom" : "dense_1\/Tensordot\/Reshape",
      "debug_info" : "dense_1\/Tensordot\/MatMul",
      "has_tanh" : 0,
      "nd_mode" : true,
      "name" : "dense_1\/Tensordot\/MatMul",
      "has_prelu" : 0
    },
    {
      "begin_n" : 0,
      "static_sizes_k" : 0,
      "end_mask_h" : true,
      "end_w" : 1,
      "end_h" : 1,
      "begin_h" : 0,
      "stride_n" : 1,
      "end_seq" : 1,
      "begin_mask_seq" : false,
      "begin_mask_h" : true,
      "squeeze_mask_h" : false,
      "stride_k" : 1,
      "type" : "general_slice",
      "begin_mask_k" : true,
      "static_sizes_w" : 0,
      "begin_w" : 0,
      "end_mask_k" : true,
      "use_static_sizes" : false,
      "stride_h" : 1,
      "static_sizes_n" : 0,
      "begin_mask_n" : false,
      "weights" : {

      },
      "name" : "bidirectional\/ReverseV2_1",
      "stride_seq" : 1,
      "end_k" : 1,
      "static_sizes_seq" : 0,
      "top" : "bidirectional\/ReverseV2_1",
      "begin_seq" : 0,
      "squeeze_mask_k" : false,
      "begin_k" : 0,
      "end_mask_w" : true,
      "end_mask_seq" : false,
      "end_mask_n" : false,
      "debug_info" : "bidirectional\/ReverseV2_1",
      "stride_w" : -1,
      "squeeze_mask_seq" : false,
      "static_sizes_h" : 0,
      "begin_mask_w" : true,
      "bottom" : "bidirectional\/transpose_4",
      "end_n" : 1,
      "squeeze_mask_w" : false,
      "squeeze_mask_n" : false
    },
    {
      "name" : "dense_1\/Tensordot",
      "weights" : {

      },
      "dst_w" : 256,
      "version" : 1,
      "dst_n" : 1,
      "dst_nd_rank" : 3,
      "type" : "reshape",
      "dst_h" : 53,
      "mode" : 0,
      "dynamic_shape" : false,
      "bottom" : "dense_1\/Tensordot\/MatMul",
      "debug_info" : "dense_1\/Tensordot",
      "dst_seq" : 1,
      "dst_k" : -1,
      "top" : "dense_1\/Tensordot"
    },
    {
      "top" : "dense_1\/BiasAdd\/ReadVariableOp",
      "w" : 256,
      "h" : 1,
      "name" : "dense_1\/BiasAdd\/ReadVariableOp",
      "nd_rank" : 1,
      "type" : "load_constant",
      "k" : 1,
      "bottom" : "",
      "debug_info" : "dense_1\/BiasAdd\/ReadVariableOp",
      "n" : 1,
      "weights" : {

      },
      "constant_blob" : 19
    },
    {
      "bottom" : "dense_1\/Tensordot,dense_1\/BiasAdd\/ReadVariableOp",
      "alpha" : 1,
      "operation" : 0,
      "weights" : {

      },
      "fused_relu" : 0,
      "debug_info" : "dense_1\/BiasAdd",
      "nd_mode" : true,
      "top" : "dense_1\/BiasAdd",
      "type" : "elementwise",
      "name" : "dense_1\/BiasAdd",
      "beta" : 0
    },
    {
      "bottom" : "dense_1\/BiasAdd",
      "weights" : {

      },
      "mode" : 1,
      "debug_info" : "dense_1\/Tanh",
      "top" : "dense_1\/Tanh",
      "type" : "activation",
      "name" : "dense_1\/Tanh"
    },
    {
      "bottom" : "dense_1\/Tanh",
      "weights" : {

      },
      "nd_mode" : 1,
      "axis" : -1,
      "debug_info" : "bidirectional\/Shape",
      "top" : "bidirectional\/Shape",
      "type" : "get_shape",
      "name" : "bidirectional\/Shape"
    },
    {
      "axis_h" : 2,
      "axis_w" : 0,
      "bottom" : "dense_1\/Tanh",
      "axis_k" : 1,
      "axis_n" : 3,
      "axis_seq" : 4,
      "weights" : {

      },
      "debug_info" : "bidirectional\/transpose",
      "top" : "bidirectional\/transpose",
      "type" : "transpose",
      "name" : "bidirectional\/transpose"
    },
    {
      "bottom" : "dense_1\/Tanh",
      "weights" : {

      },
      "nd_mode" : 1,
      "axis" : -1,
      "debug_info" : "bidirectional\/Shape_2",
      "top" : "bidirectional\/Shape_2",
      "type" : "get_shape",
      "name" : "bidirectional\/Shape_2"
    },
    {
      "axis_h" : 2,
      "axis_w" : 0,
      "bottom" : "dense_1\/Tanh",
      "axis_k" : 1,
      "axis_n" : 3,
      "axis_seq" : 4,
      "weights" : {

      },
      "debug_info" : "bidirectional\/transpose_3",
      "top" : "bidirectional\/transpose_3",
      "type" : "transpose",
      "name" : "bidirectional\/transpose_3"
    },
    {
      "begin_n" : 0,
      "static_sizes_k" : 0,
      "end_mask_h" : false,
      "end_w" : 1,
      "end_h" : 1,
      "begin_h" : 0,
      "stride_n" : 1,
      "end_seq" : 1,
      "begin_mask_seq" : false,
      "begin_mask_h" : false,
      "squeeze_mask_h" : false,
      "stride_k" : 1,
      "type" : "general_slice",
      "begin_mask_k" : false,
      "static_sizes_w" : 0,
      "begin_w" : 0,
      "end_mask_k" : false,
      "use_static_sizes" : false,
      "stride_h" : 1,
      "static_sizes_n" : 0,
      "begin_mask_n" : false,
      "weights" : {

      },
      "name" : "bidirectional\/strided_slice",
      "stride_seq" : 1,
      "end_k" : 1,
      "static_sizes_seq" : 0,
      "top" : "bidirectional\/strided_slice",
      "begin_seq" : 0,
      "squeeze_mask_k" : false,
      "begin_k" : 0,
      "end_mask_w" : false,
      "end_mask_seq" : false,
      "end_mask_n" : false,
      "debug_info" : "bidirectional\/strided_slice",
      "stride_w" : 2147483647,
      "squeeze_mask_seq" : false,
      "static_sizes_h" : 0,
      "begin_mask_w" : false,
      "bottom" : "bidirectional\/Shape",
      "end_n" : 1,
      "squeeze_mask_w" : true,
      "squeeze_mask_n" : false
    },
    {
      "begin_n" : 0,
      "static_sizes_k" : 0,
      "end_mask_h" : true,
      "end_w" : 1,
      "end_h" : 0,
      "begin_h" : 0,
      "stride_n" : 1,
      "end_seq" : 1,
      "begin_mask_seq" : false,
      "begin_mask_h" : true,
      "squeeze_mask_h" : false,
      "stride_k" : 1,
      "type" : "general_slice",
      "begin_mask_k" : true,
      "static_sizes_w" : 0,
      "begin_w" : 0,
      "end_mask_k" : true,
      "use_static_sizes" : false,
      "stride_h" : 1,
      "static_sizes_n" : 0,
      "begin_mask_n" : false,
      "weights" : {

      },
      "name" : "bidirectional\/strided_slice_2",
      "stride_seq" : 1,
      "end_k" : 0,
      "static_sizes_seq" : 0,
      "top" : "bidirectional\/strided_slice_2",
      "begin_seq" : 0,
      "squeeze_mask_k" : false,
      "begin_k" : 0,
      "end_mask_w" : false,
      "end_mask_seq" : false,
      "end_mask_n" : false,
      "debug_info" : "bidirectional\/strided_slice_2",
      "stride_w" : 1,
      "squeeze_mask_seq" : false,
      "static_sizes_h" : 0,
      "begin_mask_w" : false,
      "bottom" : "bidirectional\/transpose",
      "end_n" : 1,
      "squeeze_mask_w" : true,
      "squeeze_mask_n" : false
    },
    {
      "begin_n" : 0,
      "static_sizes_k" : 0,
      "end_mask_h" : false,
      "end_w" : 1,
      "end_h" : 1,
      "begin_h" : 0,
      "stride_n" : 1,
      "end_seq" : 1,
      "begin_mask_seq" : false,
      "begin_mask_h" : false,
      "squeeze_mask_h" : false,
      "stride_k" : 1,
      "type" : "general_slice",
      "begin_mask_k" : false,
      "static_sizes_w" : 0,
      "begin_w" : 0,
      "end_mask_k" : false,
      "use_static_sizes" : false,
      "stride_h" : 1,
      "static_sizes_n" : 0,
      "begin_mask_n" : false,
      "weights" : {

      },
      "name" : "bidirectional\/strided_slice_4",
      "stride_seq" : 1,
      "end_k" : 1,
      "static_sizes_seq" : 0,
      "top" : "bidirectional\/strided_slice_4",
      "begin_seq" : 0,
      "squeeze_mask_k" : false,
      "begin_k" : 0,
      "end_mask_w" : false,
      "end_mask_seq" : false,
      "end_mask_n" : false,
      "debug_info" : "bidirectional\/strided_slice_4",
      "stride_w" : 2147483647,
      "squeeze_mask_seq" : false,
      "static_sizes_h" : 0,
      "begin_mask_w" : false,
      "bottom" : "bidirectional\/Shape_2",
      "end_n" : 1,
      "squeeze_mask_w" : true,
      "squeeze_mask_n" : false
    },
    {
      "begin_n" : 0,
      "static_sizes_k" : 0,
      "end_mask_h" : true,
      "end_w" : 1,
      "end_h" : 1,
      "begin_h" : 0,
      "stride_n" : 1,
      "end_seq" : 1,
      "begin_mask_seq" : false,
      "begin_mask_h" : true,
      "squeeze_mask_h" : false,
      "stride_k" : 1,
      "type" : "general_slice",
      "begin_mask_k" : true,
      "static_sizes_w" : 0,
      "begin_w" : 0,
      "end_mask_k" : true,
      "use_static_sizes" : false,
      "stride_h" : 1,
      "static_sizes_n" : 0,
      "begin_mask_n" : false,
      "weights" : {

      },
      "name" : "bidirectional\/ReverseV2",
      "stride_seq" : 1,
      "end_k" : 1,
      "static_sizes_seq" : 0,
      "top" : "bidirectional\/ReverseV2",
      "begin_seq" : 0,
      "squeeze_mask_k" : false,
      "begin_k" : 0,
      "end_mask_w" : true,
      "end_mask_seq" : false,
      "end_mask_n" : false,
      "debug_info" : "bidirectional\/ReverseV2",
      "stride_w" : -1,
      "squeeze_mask_seq" : false,
      "static_sizes_h" : 0,
      "begin_mask_w" : true,
      "bottom" : "bidirectional\/transpose_3",
      "end_n" : 1,
      "squeeze_mask_w" : false,
      "squeeze_mask_n" : false
    },
    {
      "begin_n" : 0,
      "static_sizes_k" : 0,
      "end_mask_h" : true,
      "end_w" : 1,
      "end_h" : 0,
      "begin_h" : 0,
      "stride_n" : 1,
      "end_seq" : 1,
      "begin_mask_seq" : false,
      "begin_mask_h" : true,
      "squeeze_mask_h" : false,
      "stride_k" : 1,
      "type" : "general_slice",
      "begin_mask_k" : true,
      "static_sizes_w" : 0,
      "begin_w" : 0,
      "end_mask_k" : true,
      "use_static_sizes" : false,
      "stride_h" : 1,
      "static_sizes_n" : 0,
      "begin_mask_n" : false,
      "weights" : {

      },
      "name" : "bidirectional\/strided_slice_6",
      "stride_seq" : 1,
      "end_k" : 0,
      "static_sizes_seq" : 0,
      "top" : "bidirectional\/strided_slice_6",
      "begin_seq" : 0,
      "squeeze_mask_k" : false,
      "begin_k" : 0,
      "end_mask_w" : false,
      "end_mask_seq" : false,
      "end_mask_n" : false,
      "debug_info" : "bidirectional\/strided_slice_6",
      "stride_w" : 1,
      "squeeze_mask_seq" : false,
      "static_sizes_h" : 0,
      "begin_mask_w" : false,
      "bottom" : "bidirectional\/transpose_3",
      "end_n" : 1,
      "squeeze_mask_w" : true,
      "squeeze_mask_n" : false
    },
    {
      "top" : "bidirectional\/zeros\/packed\/1",
      "w" : 1,
      "h" : 1,
      "name" : "bidirectional\/zeros\/packed\/1",
      "nd_rank" : 1,
      "type" : "load_constant",
      "k" : 1,
      "bottom" : "",
      "debug_info" : "bidirectional\/zeros\/packed\/1",
      "n" : 1,
      "weights" : {

      },
      "constant_blob" : 21
    },
    {
      "bottom" : "bidirectional\/strided_slice,bidirectional\/zeros\/packed\/1",
      "weights" : {

      },
      "nd_mode" : true,
      "axis" : 0,
      "debug_info" : "bidirectional\/zeros\/packed",
      "top" : "bidirectional\/zeros\/packed",
      "type" : "general_concat",
      "name" : "bidirectional\/zeros\/packed"
    },
    {
      "top" : "bidirectional\/zeros_1\/packed\/1",
      "w" : 1,
      "h" : 1,
      "name" : "bidirectional\/zeros_1\/packed\/1",
      "nd_rank" : 1,
      "type" : "load_constant",
      "k" : 1,
      "bottom" : "",
      "debug_info" : "bidirectional\/zeros_1\/packed\/1",
      "n" : 1,
      "weights" : {

      },
      "constant_blob" : 23
    },
    {
      "bottom" : "bidirectional\/strided_slice,bidirectional\/zeros_1\/packed\/1",
      "weights" : {

      },
      "nd_mode" : true,
      "axis" : 0,
      "debug_info" : "bidirectional\/zeros_1\/packed",
      "top" : "bidirectional\/zeros_1\/packed",
      "type" : "general_concat",
      "name" : "bidirectional\/zeros_1\/packed"
    },
    {
      "nB" : 256,
      "top" : "bidirectional\/MatMul",
      "has_biases" : 0,
      "weights" : {

      },
      "nC" : 1024,
      "blob_weights" : 25,
      "type" : "inner_product",
      "has_relu" : 0,
      "bottom" : "bidirectional\/strided_slice_2",
      "debug_info" : "bidirectional\/MatMul",
      "has_tanh" : 0,
      "nd_mode" : true,
      "name" : "bidirectional\/MatMul",
      "has_prelu" : 0
    },
    {
      "top" : "bidirectional\/zeros_2\/packed\/1",
      "w" : 1,
      "h" : 1,
      "name" : "bidirectional\/zeros_2\/packed\/1",
      "nd_rank" : 1,
      "type" : "load_constant",
      "k" : 1,
      "bottom" : "",
      "debug_info" : "bidirectional\/zeros_2\/packed\/1",
      "n" : 1,
      "weights" : {

      },
      "constant_blob" : 27
    },
    {
      "bottom" : "bidirectional\/strided_slice_4,bidirectional\/zeros_2\/packed\/1",
      "weights" : {

      },
      "nd_mode" : true,
      "axis" : 0,
      "debug_info" : "bidirectional\/zeros_2\/packed",
      "top" : "bidirectional\/zeros_2\/packed",
      "type" : "general_concat",
      "name" : "bidirectional\/zeros_2\/packed"
    },
    {
      "top" : "bidirectional\/zeros_3\/packed\/1",
      "w" : 1,
      "h" : 1,
      "name" : "bidirectional\/zeros_3\/packed\/1",
      "nd_rank" : 1,
      "type" : "load_constant",
      "k" : 1,
      "bottom" : "",
      "debug_info" : "bidirectional\/zeros_3\/packed\/1",
      "n" : 1,
      "weights" : {

      },
      "constant_blob" : 29
    },
    {
      "bottom" : "bidirectional\/strided_slice_4,bidirectional\/zeros_3\/packed\/1",
      "weights" : {

      },
      "nd_mode" : true,
      "axis" : 0,
      "debug_info" : "bidirectional\/zeros_3\/packed",
      "top" : "bidirectional\/zeros_3\/packed",
      "type" : "general_concat",
      "name" : "bidirectional\/zeros_3\/packed"
    },
    {
      "nB" : 256,
      "top" : "bidirectional\/MatMul_2",
      "has_biases" : 0,
      "weights" : {

      },
      "nC" : 1024,
      "blob_weights" : 31,
      "type" : "inner_product",
      "has_relu" : 0,
      "bottom" : "bidirectional\/strided_slice_6",
      "debug_info" : "bidirectional\/MatMul_2",
      "has_tanh" : 0,
      "nd_mode" : true,
      "name" : "bidirectional\/MatMul_2",
      "has_prelu" : 0
    },
    {
      "bottom" : "bidirectional\/zeros\/packed",
      "weights" : {

      },
      "nd_mode" : 1,
      "debug_info" : "bidirectional\/zeros",
      "value" : 0,
      "top" : "bidirectional\/zeros",
      "type" : "fill",
      "name" : "bidirectional\/zeros"
    },
    {
      "bottom" : "bidirectional\/zeros_1\/packed",
      "weights" : {

      },
      "nd_mode" : 1,
      "debug_info" : "bidirectional\/zeros_1",
      "value" : 0,
      "top" : "bidirectional\/zeros_1",
      "type" : "fill",
      "name" : "bidirectional\/zeros_1",
      "attributes" : {
        "basic_block_head" : 1
      }
    },
    {
      "top" : "bidirectional\/TensorArray",
      "w" : 256,
      "h" : 1,
      "weights" : {

      },
      "nd_rank" : 3,
      "type" : "load_constant",
      "k" : 53,
      "attributes" : {
        "basic_block_head" : 1
      },
      "bottom" : "",
      "debug_info" : "bidirectional\/TensorArray",
      "n" : 1,
      "name" : "bidirectional\/TensorArray",
      "constant_blob" : 33
    },
    {
      "top" : "bidirectional\/TensorArray_1",
      "w" : 256,
      "h" : 1,
      "name" : "bidirectional\/TensorArray_1",
      "nd_rank" : 3,
      "type" : "load_constant",
      "k" : 53,
      "bottom" : "",
      "debug_info" : "bidirectional\/TensorArray_1",
      "n" : 1,
      "weights" : {

      },
      "constant_blob" : 35
    },
    {
      "top" : "bidirectional\/TensorArray_2",
      "w" : 1,
      "h" : 1,
      "name" : "bidirectional\/TensorArray_2",
      "nd_rank" : 3,
      "type" : "load_constant",
      "k" : 53,
      "bottom" : "",
      "debug_info" : "bidirectional\/TensorArray_2",
      "n" : 1,
      "weights" : {

      },
      "constant_blob" : 37
    },
    {
      "bottom" : "bidirectional\/zeros_2\/packed",
      "weights" : {

      },
      "nd_mode" : 1,
      "debug_info" : "bidirectional\/zeros_2",
      "value" : 0,
      "top" : "bidirectional\/zeros_2",
      "type" : "fill",
      "name" : "bidirectional\/zeros_2"
    },
    {
      "bottom" : "bidirectional\/zeros_3\/packed",
      "weights" : {

      },
      "nd_mode" : 1,
      "debug_info" : "bidirectional\/zeros_3",
      "value" : 0,
      "top" : "bidirectional\/zeros_3",
      "type" : "fill",
      "name" : "bidirectional\/zeros_3",
      "attributes" : {
        "basic_block_head" : 1
      }
    },
    {
      "top" : "bidirectional\/TensorArray_3",
      "w" : 256,
      "h" : 1,
      "weights" : {

      },
      "nd_rank" : 3,
      "type" : "load_constant",
      "k" : 53,
      "attributes" : {
        "basic_block_head" : 1
      },
      "bottom" : "",
      "debug_info" : "bidirectional\/TensorArray_3",
      "n" : 1,
      "name" : "bidirectional\/TensorArray_3",
      "constant_blob" : 39
    },
    {
      "top" : "bidirectional\/TensorArray_4",
      "w" : 256,
      "h" : 1,
      "name" : "bidirectional\/TensorArray_4",
      "nd_rank" : 3,
      "type" : "load_constant",
      "k" : 53,
      "bottom" : "",
      "debug_info" : "bidirectional\/TensorArray_4",
      "n" : 1,
      "weights" : {

      },
      "constant_blob" : 41
    },
    {
      "top" : "bidirectional\/TensorArray_5",
      "w" : 1,
      "h" : 1,
      "name" : "bidirectional\/TensorArray_5",
      "nd_rank" : 3,
      "type" : "load_constant",
      "k" : 53,
      "bottom" : "",
      "debug_info" : "bidirectional\/TensorArray_5",
      "n" : 1,
      "weights" : {

      },
      "constant_blob" : 43
    },
    {
      "nB" : 256,
      "top" : "bidirectional\/MatMul_1",
      "has_biases" : 0,
      "weights" : {

      },
      "nC" : 1024,
      "blob_weights" : 45,
      "type" : "inner_product",
      "has_relu" : 0,
      "bottom" : "bidirectional\/zeros",
      "debug_info" : "bidirectional\/MatMul_1",
      "has_tanh" : 0,
      "nd_mode" : true,
      "name" : "bidirectional\/MatMul_1",
      "has_prelu" : 0
    },
    {
      "top" : "bidirectional\/TensorArrayUnstack_1\/range",
      "w" : 53,
      "h" : 1,
      "name" : "bidirectional\/TensorArrayUnstack_1\/range",
      "nd_rank" : 1,
      "type" : "load_constant",
      "k" : 1,
      "bottom" : "",
      "debug_info" : "bidirectional\/TensorArrayUnstack_1\/range",
      "n" : 1,
      "weights" : {

      },
      "constant_blob" : 47
    },
    {
      "axis_mode" : 1,
      "bottom" : "bidirectional\/TensorArrayUnstack_1\/range",
      "weights" : {

      },
      "mode" : 9,
      "nd_axis" : 0,
      "nd_mode" : true,
      "debug_info" : "bidirectional\/TensorArrayUnstack_1\/range_max",
      "use_version" : 1,
      "top" : "bidirectional\/TensorArrayUnstack_1\/range_max_presqueeze",
      "type" : "reduce",
      "name" : "bidirectional\/TensorArrayUnstack_1\/range_max_presqueeze"
    },
    {
      "size_of_axes" : 1,
      "bottom" : "bidirectional\/TensorArrayUnstack_1\/range_max_presqueeze",
      "axes_0" : 0,
      "weights" : {

      },
      "nd_axis" : 0,
      "debug_info" : "bidirectional\/TensorArrayUnstack_1\/range_max",
      "version" : 1,
      "top" : "bidirectional\/TensorArrayUnstack_1\/range_max",
      "type" : "squeeze",
      "name" : "bidirectional\/TensorArrayUnstack_1\/range_max"
    },
    {
      "bottom" : "bidirectional\/TensorArray_2",
      "weights" : {

      },
      "nd_mode" : 1,
      "axis" : -1,
      "debug_info" : "bidirectional\/TensorArray_2_full_shape",
      "top" : "bidirectional\/TensorArray_2_full_shape",
      "type" : "get_shape",
      "name" : "bidirectional\/TensorArray_2_full_shape"
    },
    {
      "begin_n" : 0,
      "static_sizes_k" : 0,
      "end_mask_h" : false,
      "end_w" : 1,
      "end_h" : 1,
      "begin_h" : 0,
      "stride_n" : 1,
      "end_seq" : 1,
      "begin_mask_seq" : false,
      "begin_mask_h" : false,
      "squeeze_mask_h" : false,
      "stride_k" : 1,
      "type" : "general_slice",
      "begin_mask_k" : false,
      "static_sizes_w" : 0,
      "begin_w" : 0,
      "end_mask_k" : false,
      "use_static_sizes" : false,
      "stride_h" : 1,
      "static_sizes_n" : 0,
      "begin_mask_n" : false,
      "weights" : {

      },
      "name" : "bidirectional\/TensorArray_2_length",
      "stride_seq" : 1,
      "end_k" : 1,
      "static_sizes_seq" : 0,
      "top" : "bidirectional\/TensorArray_2_length",
      "begin_seq" : 0,
      "squeeze_mask_k" : false,
      "begin_k" : 0,
      "end_mask_w" : false,
      "end_mask_seq" : false,
      "end_mask_n" : false,
      "debug_info" : "bidirectional\/TensorArray_2_length",
      "stride_w" : 1,
      "squeeze_mask_seq" : false,
      "static_sizes_h" : 0,
      "begin_mask_w" : false,
      "bottom" : "bidirectional\/TensorArray_2_full_shape",
      "end_n" : 1,
      "squeeze_mask_w" : false,
      "squeeze_mask_n" : false
    },
    {
      "bottom" : "bidirectional\/transpose_1",
      "weights" : {

      },
      "nd_mode" : 1,
      "axis" : -1,
      "debug_info" : "bidirectional\/TensorArray_2_raw_value_elem_shape",
      "top" : "bidirectional\/TensorArray_2_raw_value_elem_shape",
      "type" : "get_shape",
      "name" : "bidirectional\/TensorArray_2_raw_value_elem_shape"
    },
    {
      "begin_n" : 0,
      "static_sizes_k" : 0,
      "end_mask_h" : false,
      "end_w" : -1,
      "end_h" : 1,
      "begin_h" : 0,
      "stride_n" : 1,
      "end_seq" : 1,
      "begin_mask_seq" : false,
      "begin_mask_h" : false,
      "squeeze_mask_h" : false,
      "stride_k" : 1,
      "type" : "general_slice",
      "begin_mask_k" : false,
      "static_sizes_w" : 0,
      "begin_w" : 1,
      "end_mask_k" : false,
      "use_static_sizes" : false,
      "stride_h" : 1,
      "static_sizes_n" : 0,
      "begin_mask_n" : false,
      "weights" : {

      },
      "name" : "bidirectional\/TensorArray_2_value_elem_shape",
      "stride_seq" : 1,
      "end_k" : 1,
      "static_sizes_seq" : 0,
      "top" : "bidirectional\/TensorArray_2_value_elem_shape",
      "begin_seq" : 0,
      "squeeze_mask_k" : false,
      "begin_k" : 0,
      "end_mask_w" : true,
      "end_mask_seq" : false,
      "end_mask_n" : false,
      "debug_info" : "bidirectional\/TensorArray_2_value_elem_shape",
      "stride_w" : 1,
      "squeeze_mask_seq" : false,
      "static_sizes_h" : 0,
      "begin_mask_w" : false,
      "bottom" : "bidirectional\/TensorArray_2_raw_value_elem_shape",
      "end_n" : 1,
      "squeeze_mask_w" : false,
      "squeeze_mask_n" : false
    },
    {
      "begin_n" : 0,
      "static_sizes_k" : 0,
      "end_mask_h" : false,
      "end_w" : -1,
      "end_h" : 1,
      "begin_h" : 0,
      "stride_n" : 1,
      "end_seq" : 1,
      "begin_mask_seq" : false,
      "begin_mask_h" : false,
      "squeeze_mask_h" : false,
      "stride_k" : 1,
      "type" : "general_slice",
      "begin_mask_k" : false,
      "static_sizes_w" : 0,
      "begin_w" : 1,
      "end_mask_k" : false,
      "use_static_sizes" : false,
      "stride_h" : 1,
      "static_sizes_n" : 0,
      "begin_mask_n" : false,
      "weights" : {

      },
      "name" : "bidirectional\/TensorArray_2_ls_elem_shape",
      "stride_seq" : 1,
      "end_k" : 1,
      "static_sizes_seq" : 0,
      "top" : "bidirectional\/TensorArray_2_ls_elem_shape",
      "begin_seq" : 0,
      "squeeze_mask_k" : false,
      "begin_k" : 0,
      "end_mask_w" : true,
      "end_mask_seq" : false,
      "end_mask_n" : false,
      "debug_info" : "bidirectional\/TensorArray_2_ls_elem_shape",
      "stride_w" : 1,
      "squeeze_mask_seq" : false,
      "static_sizes_h" : 0,
      "begin_mask_w" : false,
      "bottom" : "bidirectional\/TensorArray_2_full_shape",
      "end_n" : 1,
      "squeeze_mask_w" : false,
      "squeeze_mask_n" : false
    },
    {
      "bottom" : "bidirectional\/TensorArray_2_ls_elem_shape,bidirectional\/TensorArray_2_value_elem_shape",
      "alpha" : 1,
      "operation" : 107,
      "weights" : {

      },
      "fused_relu" : 0,
      "debug_info" : "bidirectional\/TensorArray_2_elem_shape_not_equal",
      "top" : "bidirectional\/TensorArray_2_elem_shape_not_equal",
      "type" : "elementwise",
      "name" : "bidirectional\/TensorArray_2_elem_shape_not_equal",
      "beta" : 0
    },
    {
      "axis_mode" : 31,
      "bottom" : "bidirectional\/TensorArray_2_elem_shape_not_equal",
      "weights" : {

      },
      "mode" : 0,
      "debug_info" : "bidirectional\/TensorArray_2_reduce_any",
      "use_version" : 1,
      "top" : "bidirectional\/TensorArray_2_reduce_any_presqueeze",
      "type" : "reduce",
      "name" : "bidirectional\/TensorArray_2_reduce_any_presqueeze"
    },
    {
      "size_of_axes" : 1,
      "bottom" : "bidirectional\/TensorArray_2_reduce_any_presqueeze",
      "axes_0" : 0,
      "weights" : {

      },
      "nd_axis" : 0,
      "debug_info" : "bidirectional\/TensorArray_2_reduce_any",
      "version" : 1,
      "top" : "bidirectional\/TensorArray_2_reduce_any",
      "type" : "squeeze",
      "name" : "bidirectional\/TensorArray_2_reduce_any",
      "squeeze_all" : true
    },
    {
      "weights" : {

      },
      "debug_info" : "bidirectional\/TensorArray_2_condition_re_initialize",
      "top" : "",
      "type" : "cf_if",
      "name" : "bidirectional\/TensorArray_2_condition_re_initialize_if",
      "bottom" : "bidirectional\/TensorArray_2_reduce_any"
    },
    {
      "bottom" : "bidirectional\/TensorArray_2_length,bidirectional\/TensorArray_2_value_elem_shape",
      "weights" : {

      },
      "nd_mode" : true,
      "debug_info" : "bidirectional\/TensorArray_2_re_initialize_shape",
      "axis" : 0,
      "top" : "bidirectional\/TensorArray_2_re_initialize_shape",
      "type" : "general_concat",
      "name" : "bidirectional\/TensorArray_2_re_initialize_shape",
      "attributes" : {
        "basic_block_head" : 1
      }
    },
    {
      "bottom" : "bidirectional\/TensorArray_2_re_initialize_shape",
      "weights" : {

      },
      "nd_mode" : 1,
      "debug_info" : "bidirectional\/TensorArray_2_re_initialize",
      "value" : 0,
      "top" : "bidirectional\/TensorArray_2_re_initialize",
      "type" : "fill",
      "name" : "bidirectional\/TensorArray_2_re_initialize"
    },
    {
      "bottom" : "bidirectional\/TensorArray_2_re_initialize",
      "weights" : {

      },
      "debug_info" : "bidirectional\/TensorArray_2_re_initialize_assign",
      "top" : "bidirectional\/TensorArray_2_@ssa_version_1",
      "type" : "copy",
      "name" : "bidirectional\/TensorArray_2_re_initialize_assign",
      "attributes" : {
        "basic_block_head" : 1
      }
    },
    {
      "bottom" : "",
      "weights" : {

      },
      "debug_info" : "",
      "top" : "",
      "type" : "cf_end",
      "name" : "bidirectional\/TensorArray_2_condition_re_initialize_end",
      "attributes" : {
        "basic_block_head" : 1
      }
    },
    {
      "bottom" : "bidirectional\/TensorArrayUnstack_1\/range_max,bidirectional\/TensorArray_2_length",
      "alpha" : 1,
      "operation" : 106,
      "beta" : 0,
      "weights" : {

      },
      "fused_relu" : 0,
      "debug_info" : "bidirectional\/TensorArray_2_is_growing",
      "top" : "bidirectional\/TensorArray_2_is_growing",
      "type" : "elementwise",
      "name" : "bidirectional\/TensorArray_2_is_growing",
      "attributes" : {
        "constant_if_condition" : 30,
        "basic_block_head" : 1
      }
    },
    {
      "bottom" : "bidirectional\/TensorArray_2_is_growing",
      "weights" : {

      },
      "debug_info" : "bidirectional\/TensorArray_2_condition",
      "top" : "",
      "type" : "cf_if",
      "name" : "bidirectional\/TensorArray_2_condition_if",
      "attributes" : {
        "constant_if_condition" : 30
      }
    },
    {
      "name" : "bidirectional\/TensorArray_2_extra_length0",
      "fused_relu" : 0,
      "beta" : 0,
      "operation" : 33,
      "type" : "elementwise",
      "alpha" : 1,
      "attributes" : {
        "basic_block_head" : 1
      },
      "bottom" : "bidirectional\/TensorArrayUnstack_1\/range_max,bidirectional\/TensorArray_2_length",
      "debug_info" : "bidirectional\/TensorArray_2_extra_length0",
      "nd_mode" : true,
      "weights" : {

      },
      "top" : "bidirectional\/TensorArray_2_extra_length0"
    },
    {
      "bottom" : "bidirectional\/TensorArray_2_extra_length0",
      "alpha" : 1,
      "operation" : 0,
      "weights" : {

      },
      "fused_relu" : 0,
      "debug_info" : "bidirectional\/TensorArray_2_extra_length1",
      "top" : "bidirectional\/TensorArray_2_extra_length1",
      "type" : "elementwise",
      "name" : "bidirectional\/TensorArray_2_extra_length1",
      "beta" : 0
    },
    {
      "bottom" : "bidirectional\/TensorArray_2_extra_length1,bidirectional\/TensorArray_2_value_elem_shape",
      "weights" : {

      },
      "nd_mode" : true,
      "axis" : 0,
      "debug_info" : "bidirectional\/TensorArray_2_alloc_shape",
      "top" : "bidirectional\/TensorArray_2_alloc_shape",
      "type" : "general_concat",
      "name" : "bidirectional\/TensorArray_2_alloc_shape"
    },
    {
      "bottom" : "bidirectional\/TensorArray_2_alloc_shape",
      "weights" : {

      },
      "nd_mode" : 1,
      "debug_info" : "bidirectional\/TensorArray_2_alloc",
      "value" : 0,
      "top" : "bidirectional\/TensorArray_2_alloc",
      "type" : "fill",
      "name" : "bidirectional\/TensorArray_2_alloc"
    },
    {
      "bottom" : "bidirectional\/TensorArray_2,bidirectional\/TensorArray_2_@ssa_version_1",
      "weights" : {

      },
      "debug_info" : "",
      "top" : "bidirectional\/TensorArray_2_@ssa_version_4",
      "type" : "phi_virtual",
      "name" : "phi_bidirectional\/TensorArray_2_@ssa_version_4",
      "attributes" : {
        "basic_block_head" : 1
      }
    },
    {
      "bottom" : "bidirectional\/TensorArray_2_@ssa_version_4,bidirectional\/TensorArray_2_alloc",
      "weights" : {

      },
      "nd_mode" : true,
      "axis" : 0,
      "debug_info" : "bidirectional\/TensorArray_2_new",
      "top" : "bidirectional\/TensorArray_2_new",
      "type" : "general_concat",
      "name" : "bidirectional\/TensorArray_2_new"
    },
    {
      "weights" : {

      },
      "debug_info" : "bidirectional\/TensorArray_2_assign",
      "top" : "bidirectional\/TensorArray_2_@ssa_version_2",
      "type" : "copy",
      "name" : "bidirectional\/TensorArray_2_assign",
      "bottom" : "bidirectional\/TensorArray_2_new"
    },
    {
      "bottom" : "",
      "weights" : {

      },
      "debug_info" : "",
      "top" : "",
      "type" : "cf_end",
      "name" : "bidirectional\/TensorArray_2_condition_end",
      "attributes" : {
        "basic_block_head" : 1
      }
    },
    {
      "bottom" : "bidirectional\/TensorArray_2,bidirectional\/TensorArray_2_@ssa_version_2,bidirectional\/TensorArray_2_@ssa_version_1",
      "weights" : {

      },
      "debug_info" : "",
      "top" : "bidirectional\/TensorArray_2_@ssa_version_5",
      "type" : "phi_virtual",
      "name" : "phi_bidirectional\/TensorArray_2_@ssa_version_5",
      "attributes" : {
        "basic_block_head" : 1
      }
    },
    {
      "bottom" : "bidirectional\/TensorArray_2_@ssa_version_5,bidirectional\/TensorArrayUnstack_1\/range,bidirectional\/transpose_1",
      "weights" : {

      },
      "mode" : 0,
      "debug_info" : "bidirectional\/TensorArrayUnstack_1\/TensorArrayScatter\/TensorArrayScatterV3",
      "axis" : 0,
      "top" : "bidirectional\/TensorArrayUnstack_1\/TensorArrayScatter\/TensorArrayScatterV3",
      "type" : "scatter_nd",
      "name" : "bidirectional\/TensorArrayUnstack_1\/TensorArrayScatter\/TensorArrayScatterV3",
      "accumulation_mode" : 0
    },
    {
      "top" : "bidirectional\/TensorArrayUnstack\/range",
      "w" : 53,
      "h" : 1,
      "name" : "bidirectional\/TensorArrayUnstack\/range",
      "nd_rank" : 1,
      "type" : "load_constant",
      "k" : 1,
      "bottom" : "",
      "debug_info" : "bidirectional\/TensorArrayUnstack\/range",
      "n" : 1,
      "weights" : {

      },
      "constant_blob" : 49
    },
    {
      "axis_mode" : 1,
      "bottom" : "bidirectional\/TensorArrayUnstack\/range",
      "weights" : {

      },
      "mode" : 9,
      "nd_axis" : 0,
      "nd_mode" : true,
      "debug_info" : "bidirectional\/TensorArrayUnstack\/range_max",
      "use_version" : 1,
      "top" : "bidirectional\/TensorArrayUnstack\/range_max_presqueeze",
      "type" : "reduce",
      "name" : "bidirectional\/TensorArrayUnstack\/range_max_presqueeze"
    },
    {
      "size_of_axes" : 1,
      "bottom" : "bidirectional\/TensorArrayUnstack\/range_max_presqueeze",
      "axes_0" : 0,
      "weights" : {

      },
      "nd_axis" : 0,
      "debug_info" : "bidirectional\/TensorArrayUnstack\/range_max",
      "version" : 1,
      "top" : "bidirectional\/TensorArrayUnstack\/range_max",
      "type" : "squeeze",
      "name" : "bidirectional\/TensorArrayUnstack\/range_max"
    },
    {
      "bottom" : "bidirectional\/TensorArray",
      "weights" : {

      },
      "nd_mode" : 1,
      "axis" : -1,
      "debug_info" : "bidirectional\/TensorArray_full_shape",
      "top" : "bidirectional\/TensorArray_full_shape",
      "type" : "get_shape",
      "name" : "bidirectional\/TensorArray_full_shape"
    },
    {
      "begin_n" : 0,
      "static_sizes_k" : 0,
      "end_mask_h" : false,
      "end_w" : 1,
      "end_h" : 1,
      "begin_h" : 0,
      "stride_n" : 1,
      "end_seq" : 1,
      "begin_mask_seq" : false,
      "begin_mask_h" : false,
      "squeeze_mask_h" : false,
      "stride_k" : 1,
      "type" : "general_slice",
      "begin_mask_k" : false,
      "static_sizes_w" : 0,
      "begin_w" : 0,
      "end_mask_k" : false,
      "use_static_sizes" : false,
      "stride_h" : 1,
      "static_sizes_n" : 0,
      "begin_mask_n" : false,
      "weights" : {

      },
      "name" : "bidirectional\/TensorArray_length",
      "stride_seq" : 1,
      "end_k" : 1,
      "static_sizes_seq" : 0,
      "top" : "bidirectional\/TensorArray_length",
      "begin_seq" : 0,
      "squeeze_mask_k" : false,
      "begin_k" : 0,
      "end_mask_w" : false,
      "end_mask_seq" : false,
      "end_mask_n" : false,
      "debug_info" : "bidirectional\/TensorArray_length",
      "stride_w" : 1,
      "squeeze_mask_seq" : false,
      "static_sizes_h" : 0,
      "begin_mask_w" : false,
      "bottom" : "bidirectional\/TensorArray_full_shape",
      "end_n" : 1,
      "squeeze_mask_w" : false,
      "squeeze_mask_n" : false
    },
    {
      "bottom" : "bidirectional\/transpose",
      "weights" : {

      },
      "nd_mode" : 1,
      "axis" : -1,
      "debug_info" : "bidirectional\/TensorArray_raw_value_elem_shape",
      "top" : "bidirectional\/TensorArray_raw_value_elem_shape",
      "type" : "get_shape",
      "name" : "bidirectional\/TensorArray_raw_value_elem_shape"
    },
    {
      "begin_n" : 0,
      "static_sizes_k" : 0,
      "end_mask_h" : false,
      "end_w" : -1,
      "end_h" : 1,
      "begin_h" : 0,
      "stride_n" : 1,
      "end_seq" : 1,
      "begin_mask_seq" : false,
      "begin_mask_h" : false,
      "squeeze_mask_h" : false,
      "stride_k" : 1,
      "type" : "general_slice",
      "begin_mask_k" : false,
      "static_sizes_w" : 0,
      "begin_w" : 1,
      "end_mask_k" : false,
      "use_static_sizes" : false,
      "stride_h" : 1,
      "static_sizes_n" : 0,
      "begin_mask_n" : false,
      "weights" : {

      },
      "name" : "bidirectional\/TensorArray_value_elem_shape",
      "stride_seq" : 1,
      "end_k" : 1,
      "static_sizes_seq" : 0,
      "top" : "bidirectional\/TensorArray_value_elem_shape",
      "begin_seq" : 0,
      "squeeze_mask_k" : false,
      "begin_k" : 0,
      "end_mask_w" : true,
      "end_mask_seq" : false,
      "end_mask_n" : false,
      "debug_info" : "bidirectional\/TensorArray_value_elem_shape",
      "stride_w" : 1,
      "squeeze_mask_seq" : false,
      "static_sizes_h" : 0,
      "begin_mask_w" : false,
      "bottom" : "bidirectional\/TensorArray_raw_value_elem_shape",
      "end_n" : 1,
      "squeeze_mask_w" : false,
      "squeeze_mask_n" : false
    },
    {
      "begin_n" : 0,
      "static_sizes_k" : 0,
      "end_mask_h" : false,
      "end_w" : -1,
      "end_h" : 1,
      "begin_h" : 0,
      "stride_n" : 1,
      "end_seq" : 1,
      "begin_mask_seq" : false,
      "begin_mask_h" : false,
      "squeeze_mask_h" : false,
      "stride_k" : 1,
      "type" : "general_slice",
      "begin_mask_k" : false,
      "static_sizes_w" : 0,
      "begin_w" : 1,
      "end_mask_k" : false,
      "use_static_sizes" : false,
      "stride_h" : 1,
      "static_sizes_n" : 0,
      "begin_mask_n" : false,
      "weights" : {

      },
      "name" : "bidirectional\/TensorArray_ls_elem_shape",
      "stride_seq" : 1,
      "end_k" : 1,
      "static_sizes_seq" : 0,
      "top" : "bidirectional\/TensorArray_ls_elem_shape",
      "begin_seq" : 0,
      "squeeze_mask_k" : false,
      "begin_k" : 0,
      "end_mask_w" : true,
      "end_mask_seq" : false,
      "end_mask_n" : false,
      "debug_info" : "bidirectional\/TensorArray_ls_elem_shape",
      "stride_w" : 1,
      "squeeze_mask_seq" : false,
      "static_sizes_h" : 0,
      "begin_mask_w" : false,
      "bottom" : "bidirectional\/TensorArray_full_shape",
      "end_n" : 1,
      "squeeze_mask_w" : false,
      "squeeze_mask_n" : false
    },
    {
      "bottom" : "bidirectional\/TensorArray_ls_elem_shape,bidirectional\/TensorArray_value_elem_shape",
      "alpha" : 1,
      "operation" : 107,
      "weights" : {

      },
      "fused_relu" : 0,
      "debug_info" : "bidirectional\/TensorArray_elem_shape_not_equal",
      "top" : "bidirectional\/TensorArray_elem_shape_not_equal",
      "type" : "elementwise",
      "name" : "bidirectional\/TensorArray_elem_shape_not_equal",
      "beta" : 0
    },
    {
      "axis_mode" : 31,
      "bottom" : "bidirectional\/TensorArray_elem_shape_not_equal",
      "weights" : {

      },
      "mode" : 0,
      "debug_info" : "bidirectional\/TensorArray_reduce_any",
      "use_version" : 1,
      "top" : "bidirectional\/TensorArray_reduce_any_presqueeze",
      "type" : "reduce",
      "name" : "bidirectional\/TensorArray_reduce_any_presqueeze"
    },
    {
      "size_of_axes" : 1,
      "bottom" : "bidirectional\/TensorArray_reduce_any_presqueeze",
      "axes_0" : 0,
      "weights" : {

      },
      "nd_axis" : 0,
      "debug_info" : "bidirectional\/TensorArray_reduce_any",
      "version" : 1,
      "top" : "bidirectional\/TensorArray_reduce_any",
      "type" : "squeeze",
      "name" : "bidirectional\/TensorArray_reduce_any",
      "squeeze_all" : true
    },
    {
      "weights" : {

      },
      "debug_info" : "bidirectional\/TensorArray_condition_re_initialize",
      "top" : "",
      "type" : "cf_if",
      "name" : "bidirectional\/TensorArray_condition_re_initialize_if",
      "bottom" : "bidirectional\/TensorArray_reduce_any"
    },
    {
      "bottom" : "bidirectional\/TensorArray_length,bidirectional\/TensorArray_value_elem_shape",
      "weights" : {

      },
      "nd_mode" : true,
      "debug_info" : "bidirectional\/TensorArray_re_initialize_shape",
      "axis" : 0,
      "top" : "bidirectional\/TensorArray_re_initialize_shape",
      "type" : "general_concat",
      "name" : "bidirectional\/TensorArray_re_initialize_shape",
      "attributes" : {
        "basic_block_head" : 1
      }
    },
    {
      "bottom" : "bidirectional\/TensorArray_re_initialize_shape",
      "weights" : {

      },
      "nd_mode" : 1,
      "debug_info" : "bidirectional\/TensorArray_re_initialize",
      "value" : 0,
      "top" : "bidirectional\/TensorArray_re_initialize",
      "type" : "fill",
      "name" : "bidirectional\/TensorArray_re_initialize"
    },
    {
      "bottom" : "bidirectional\/TensorArray_re_initialize",
      "weights" : {

      },
      "debug_info" : "bidirectional\/TensorArray_re_initialize_assign",
      "top" : "bidirectional\/TensorArray_@ssa_version_1",
      "type" : "copy",
      "name" : "bidirectional\/TensorArray_re_initialize_assign",
      "attributes" : {
        "basic_block_head" : 1
      }
    },
    {
      "bottom" : "",
      "weights" : {

      },
      "debug_info" : "",
      "top" : "",
      "type" : "cf_end",
      "name" : "bidirectional\/TensorArray_condition_re_initialize_end",
      "attributes" : {
        "basic_block_head" : 1
      }
    },
    {
      "bottom" : "bidirectional\/TensorArrayUnstack\/range_max,bidirectional\/TensorArray_length",
      "alpha" : 1,
      "operation" : 106,
      "beta" : 0,
      "weights" : {

      },
      "fused_relu" : 0,
      "debug_info" : "bidirectional\/TensorArray_is_growing",
      "top" : "bidirectional\/TensorArray_is_growing",
      "type" : "elementwise",
      "name" : "bidirectional\/TensorArray_is_growing",
      "attributes" : {
        "constant_if_condition" : 30,
        "basic_block_head" : 1
      }
    },
    {
      "bottom" : "bidirectional\/TensorArray_is_growing",
      "weights" : {

      },
      "debug_info" : "bidirectional\/TensorArray_condition",
      "top" : "",
      "type" : "cf_if",
      "name" : "bidirectional\/TensorArray_condition_if",
      "attributes" : {
        "constant_if_condition" : 30
      }
    },
    {
      "name" : "bidirectional\/TensorArray_extra_length0",
      "fused_relu" : 0,
      "beta" : 0,
      "operation" : 33,
      "type" : "elementwise",
      "alpha" : 1,
      "attributes" : {
        "basic_block_head" : 1
      },
      "bottom" : "bidirectional\/TensorArrayUnstack\/range_max,bidirectional\/TensorArray_length",
      "debug_info" : "bidirectional\/TensorArray_extra_length0",
      "nd_mode" : true,
      "weights" : {

      },
      "top" : "bidirectional\/TensorArray_extra_length0"
    },
    {
      "bottom" : "bidirectional\/TensorArray_extra_length0",
      "alpha" : 1,
      "operation" : 0,
      "weights" : {

      },
      "fused_relu" : 0,
      "debug_info" : "bidirectional\/TensorArray_extra_length1",
      "top" : "bidirectional\/TensorArray_extra_length1",
      "type" : "elementwise",
      "name" : "bidirectional\/TensorArray_extra_length1",
      "beta" : 0
    },
    {
      "bottom" : "bidirectional\/TensorArray_extra_length1,bidirectional\/TensorArray_value_elem_shape",
      "weights" : {

      },
      "nd_mode" : true,
      "axis" : 0,
      "debug_info" : "bidirectional\/TensorArray_alloc_shape",
      "top" : "bidirectional\/TensorArray_alloc_shape",
      "type" : "general_concat",
      "name" : "bidirectional\/TensorArray_alloc_shape"
    },
    {
      "bottom" : "bidirectional\/TensorArray_alloc_shape",
      "weights" : {

      },
      "nd_mode" : 1,
      "debug_info" : "bidirectional\/TensorArray_alloc",
      "value" : 0,
      "top" : "bidirectional\/TensorArray_alloc",
      "type" : "fill",
      "name" : "bidirectional\/TensorArray_alloc"
    },
    {
      "bottom" : "bidirectional\/TensorArray,bidirectional\/TensorArray_@ssa_version_1",
      "weights" : {

      },
      "debug_info" : "",
      "top" : "bidirectional\/TensorArray_@ssa_version_4",
      "type" : "phi_virtual",
      "name" : "phi_bidirectional\/TensorArray_@ssa_version_4",
      "attributes" : {
        "basic_block_head" : 1
      }
    },
    {
      "bottom" : "bidirectional\/TensorArray_@ssa_version_4,bidirectional\/TensorArray_alloc",
      "weights" : {

      },
      "nd_mode" : true,
      "axis" : 0,
      "debug_info" : "bidirectional\/TensorArray_new",
      "top" : "bidirectional\/TensorArray_new",
      "type" : "general_concat",
      "name" : "bidirectional\/TensorArray_new"
    },
    {
      "weights" : {

      },
      "debug_info" : "bidirectional\/TensorArray_assign",
      "top" : "bidirectional\/TensorArray_@ssa_version_2",
      "type" : "copy",
      "name" : "bidirectional\/TensorArray_assign",
      "bottom" : "bidirectional\/TensorArray_new"
    },
    {
      "bottom" : "",
      "weights" : {

      },
      "debug_info" : "",
      "top" : "",
      "type" : "cf_end",
      "name" : "bidirectional\/TensorArray_condition_end",
      "attributes" : {
        "basic_block_head" : 1
      }
    },
    {
      "bottom" : "bidirectional\/TensorArray,bidirectional\/TensorArray_@ssa_version_2,bidirectional\/TensorArray_@ssa_version_1",
      "weights" : {

      },
      "debug_info" : "",
      "top" : "bidirectional\/TensorArray_@ssa_version_5",
      "type" : "phi_virtual",
      "name" : "phi_bidirectional\/TensorArray_@ssa_version_5",
      "attributes" : {
        "basic_block_head" : 1
      }
    },
    {
      "bottom" : "bidirectional\/TensorArray_@ssa_version_5,bidirectional\/TensorArrayUnstack\/range,bidirectional\/transpose",
      "weights" : {

      },
      "mode" : 0,
      "debug_info" : "bidirectional\/TensorArrayUnstack\/TensorArrayScatter\/TensorArrayScatterV3",
      "axis" : 0,
      "top" : "bidirectional\/TensorArrayUnstack\/TensorArrayScatter\/TensorArrayScatterV3",
      "type" : "scatter_nd",
      "name" : "bidirectional\/TensorArrayUnstack\/TensorArrayScatter\/TensorArrayScatterV3",
      "accumulation_mode" : 0
    },
    {
      "nB" : 256,
      "top" : "bidirectional\/MatMul_3",
      "has_biases" : 0,
      "weights" : {

      },
      "nC" : 1024,
      "blob_weights" : 51,
      "type" : "inner_product",
      "has_relu" : 0,
      "bottom" : "bidirectional\/zeros_2",
      "debug_info" : "bidirectional\/MatMul_3",
      "has_tanh" : 0,
      "nd_mode" : true,
      "name" : "bidirectional\/MatMul_3",
      "has_prelu" : 0
    },
    {
      "top" : "bidirectional\/TensorArrayUnstack_3\/range",
      "w" : 53,
      "h" : 1,
      "name" : "bidirectional\/TensorArrayUnstack_3\/range",
      "nd_rank" : 1,
      "type" : "load_constant",
      "k" : 1,
      "bottom" : "",
      "debug_info" : "bidirectional\/TensorArrayUnstack_3\/range",
      "n" : 1,
      "weights" : {

      },
      "constant_blob" : 53
    },
    {
      "axis_mode" : 1,
      "bottom" : "bidirectional\/TensorArrayUnstack_3\/range",
      "weights" : {

      },
      "mode" : 9,
      "nd_axis" : 0,
      "nd_mode" : true,
      "debug_info" : "bidirectional\/TensorArrayUnstack_3\/range_max",
      "use_version" : 1,
      "top" : "bidirectional\/TensorArrayUnstack_3\/range_max_presqueeze",
      "type" : "reduce",
      "name" : "bidirectional\/TensorArrayUnstack_3\/range_max_presqueeze"
    },
    {
      "size_of_axes" : 1,
      "bottom" : "bidirectional\/TensorArrayUnstack_3\/range_max_presqueeze",
      "axes_0" : 0,
      "weights" : {

      },
      "nd_axis" : 0,
      "debug_info" : "bidirectional\/TensorArrayUnstack_3\/range_max",
      "version" : 1,
      "top" : "bidirectional\/TensorArrayUnstack_3\/range_max",
      "type" : "squeeze",
      "name" : "bidirectional\/TensorArrayUnstack_3\/range_max"
    },
    {
      "bottom" : "bidirectional\/TensorArray_5",
      "weights" : {

      },
      "nd_mode" : 1,
      "axis" : -1,
      "debug_info" : "bidirectional\/TensorArray_5_full_shape",
      "top" : "bidirectional\/TensorArray_5_full_shape",
      "type" : "get_shape",
      "name" : "bidirectional\/TensorArray_5_full_shape"
    },
    {
      "begin_n" : 0,
      "static_sizes_k" : 0,
      "end_mask_h" : false,
      "end_w" : 1,
      "end_h" : 1,
      "begin_h" : 0,
      "stride_n" : 1,
      "end_seq" : 1,
      "begin_mask_seq" : false,
      "begin_mask_h" : false,
      "squeeze_mask_h" : false,
      "stride_k" : 1,
      "type" : "general_slice",
      "begin_mask_k" : false,
      "static_sizes_w" : 0,
      "begin_w" : 0,
      "end_mask_k" : false,
      "use_static_sizes" : false,
      "stride_h" : 1,
      "static_sizes_n" : 0,
      "begin_mask_n" : false,
      "weights" : {

      },
      "name" : "bidirectional\/TensorArray_5_length",
      "stride_seq" : 1,
      "end_k" : 1,
      "static_sizes_seq" : 0,
      "top" : "bidirectional\/TensorArray_5_length",
      "begin_seq" : 0,
      "squeeze_mask_k" : false,
      "begin_k" : 0,
      "end_mask_w" : false,
      "end_mask_seq" : false,
      "end_mask_n" : false,
      "debug_info" : "bidirectional\/TensorArray_5_length",
      "stride_w" : 1,
      "squeeze_mask_seq" : false,
      "static_sizes_h" : 0,
      "begin_mask_w" : false,
      "bottom" : "bidirectional\/TensorArray_5_full_shape",
      "end_n" : 1,
      "squeeze_mask_w" : false,
      "squeeze_mask_n" : false
    },
    {
      "bottom" : "bidirectional\/ReverseV2_1",
      "weights" : {

      },
      "nd_mode" : 1,
      "axis" : -1,
      "debug_info" : "bidirectional\/TensorArray_5_raw_value_elem_shape",
      "top" : "bidirectional\/TensorArray_5_raw_value_elem_shape",
      "type" : "get_shape",
      "name" : "bidirectional\/TensorArray_5_raw_value_elem_shape"
    },
    {
      "begin_n" : 0,
      "static_sizes_k" : 0,
      "end_mask_h" : false,
      "end_w" : -1,
      "end_h" : 1,
      "begin_h" : 0,
      "stride_n" : 1,
      "end_seq" : 1,
      "begin_mask_seq" : false,
      "begin_mask_h" : false,
      "squeeze_mask_h" : false,
      "stride_k" : 1,
      "type" : "general_slice",
      "begin_mask_k" : false,
      "static_sizes_w" : 0,
      "begin_w" : 1,
      "end_mask_k" : false,
      "use_static_sizes" : false,
      "stride_h" : 1,
      "static_sizes_n" : 0,
      "begin_mask_n" : false,
      "weights" : {

      },
      "name" : "bidirectional\/TensorArray_5_value_elem_shape",
      "stride_seq" : 1,
      "end_k" : 1,
      "static_sizes_seq" : 0,
      "top" : "bidirectional\/TensorArray_5_value_elem_shape",
      "begin_seq" : 0,
      "squeeze_mask_k" : false,
      "begin_k" : 0,
      "end_mask_w" : true,
      "end_mask_seq" : false,
      "end_mask_n" : false,
      "debug_info" : "bidirectional\/TensorArray_5_value_elem_shape",
      "stride_w" : 1,
      "squeeze_mask_seq" : false,
      "static_sizes_h" : 0,
      "begin_mask_w" : false,
      "bottom" : "bidirectional\/TensorArray_5_raw_value_elem_shape",
      "end_n" : 1,
      "squeeze_mask_w" : false,
      "squeeze_mask_n" : false
    },
    {
      "begin_n" : 0,
      "static_sizes_k" : 0,
      "end_mask_h" : false,
      "end_w" : -1,
      "end_h" : 1,
      "begin_h" : 0,
      "stride_n" : 1,
      "end_seq" : 1,
      "begin_mask_seq" : false,
      "begin_mask_h" : false,
      "squeeze_mask_h" : false,
      "stride_k" : 1,
      "type" : "general_slice",
      "begin_mask_k" : false,
      "static_sizes_w" : 0,
      "begin_w" : 1,
      "end_mask_k" : false,
      "use_static_sizes" : false,
      "stride_h" : 1,
      "static_sizes_n" : 0,
      "begin_mask_n" : false,
      "weights" : {

      },
      "name" : "bidirectional\/TensorArray_5_ls_elem_shape",
      "stride_seq" : 1,
      "end_k" : 1,
      "static_sizes_seq" : 0,
      "top" : "bidirectional\/TensorArray_5_ls_elem_shape",
      "begin_seq" : 0,
      "squeeze_mask_k" : false,
      "begin_k" : 0,
      "end_mask_w" : true,
      "end_mask_seq" : false,
      "end_mask_n" : false,
      "debug_info" : "bidirectional\/TensorArray_5_ls_elem_shape",
      "stride_w" : 1,
      "squeeze_mask_seq" : false,
      "static_sizes_h" : 0,
      "begin_mask_w" : false,
      "bottom" : "bidirectional\/TensorArray_5_full_shape",
      "end_n" : 1,
      "squeeze_mask_w" : false,
      "squeeze_mask_n" : false
    },
    {
      "bottom" : "bidirectional\/TensorArray_5_ls_elem_shape,bidirectional\/TensorArray_5_value_elem_shape",
      "alpha" : 1,
      "operation" : 107,
      "weights" : {

      },
      "fused_relu" : 0,
      "debug_info" : "bidirectional\/TensorArray_5_elem_shape_not_equal",
      "top" : "bidirectional\/TensorArray_5_elem_shape_not_equal",
      "type" : "elementwise",
      "name" : "bidirectional\/TensorArray_5_elem_shape_not_equal",
      "beta" : 0
    },
    {
      "axis_mode" : 31,
      "bottom" : "bidirectional\/TensorArray_5_elem_shape_not_equal",
      "weights" : {

      },
      "mode" : 0,
      "debug_info" : "bidirectional\/TensorArray_5_reduce_any",
      "use_version" : 1,
      "top" : "bidirectional\/TensorArray_5_reduce_any_presqueeze",
      "type" : "reduce",
      "name" : "bidirectional\/TensorArray_5_reduce_any_presqueeze"
    },
    {
      "size_of_axes" : 1,
      "bottom" : "bidirectional\/TensorArray_5_reduce_any_presqueeze",
      "axes_0" : 0,
      "weights" : {

      },
      "nd_axis" : 0,
      "debug_info" : "bidirectional\/TensorArray_5_reduce_any",
      "version" : 1,
      "top" : "bidirectional\/TensorArray_5_reduce_any",
      "type" : "squeeze",
      "name" : "bidirectional\/TensorArray_5_reduce_any",
      "squeeze_all" : true
    },
    {
      "weights" : {

      },
      "debug_info" : "bidirectional\/TensorArray_5_condition_re_initialize",
      "top" : "",
      "type" : "cf_if",
      "name" : "bidirectional\/TensorArray_5_condition_re_initialize_if",
      "bottom" : "bidirectional\/TensorArray_5_reduce_any"
    },
    {
      "bottom" : "bidirectional\/TensorArray_5_length,bidirectional\/TensorArray_5_value_elem_shape",
      "weights" : {

      },
      "nd_mode" : true,
      "debug_info" : "bidirectional\/TensorArray_5_re_initialize_shape",
      "axis" : 0,
      "top" : "bidirectional\/TensorArray_5_re_initialize_shape",
      "type" : "general_concat",
      "name" : "bidirectional\/TensorArray_5_re_initialize_shape",
      "attributes" : {
        "basic_block_head" : 1
      }
    },
    {
      "bottom" : "bidirectional\/TensorArray_5_re_initialize_shape",
      "weights" : {

      },
      "nd_mode" : 1,
      "debug_info" : "bidirectional\/TensorArray_5_re_initialize",
      "value" : 0,
      "top" : "bidirectional\/TensorArray_5_re_initialize",
      "type" : "fill",
      "name" : "bidirectional\/TensorArray_5_re_initialize"
    },
    {
      "bottom" : "bidirectional\/TensorArray_5_re_initialize",
      "weights" : {

      },
      "debug_info" : "bidirectional\/TensorArray_5_re_initialize_assign",
      "top" : "bidirectional\/TensorArray_5_@ssa_version_1",
      "type" : "copy",
      "name" : "bidirectional\/TensorArray_5_re_initialize_assign",
      "attributes" : {
        "basic_block_head" : 1
      }
    },
    {
      "bottom" : "",
      "weights" : {

      },
      "debug_info" : "",
      "top" : "",
      "type" : "cf_end",
      "name" : "bidirectional\/TensorArray_5_condition_re_initialize_end",
      "attributes" : {
        "basic_block_head" : 1
      }
    },
    {
      "bottom" : "bidirectional\/TensorArrayUnstack_3\/range_max,bidirectional\/TensorArray_5_length",
      "alpha" : 1,
      "operation" : 106,
      "beta" : 0,
      "weights" : {

      },
      "fused_relu" : 0,
      "debug_info" : "bidirectional\/TensorArray_5_is_growing",
      "top" : "bidirectional\/TensorArray_5_is_growing",
      "type" : "elementwise",
      "name" : "bidirectional\/TensorArray_5_is_growing",
      "attributes" : {
        "constant_if_condition" : 30,
        "basic_block_head" : 1
      }
    },
    {
      "bottom" : "bidirectional\/TensorArray_5_is_growing",
      "weights" : {

      },
      "debug_info" : "bidirectional\/TensorArray_5_condition",
      "top" : "",
      "type" : "cf_if",
      "name" : "bidirectional\/TensorArray_5_condition_if",
      "attributes" : {
        "constant_if_condition" : 30
      }
    },
    {
      "name" : "bidirectional\/TensorArray_5_extra_length0",
      "fused_relu" : 0,
      "beta" : 0,
      "operation" : 33,
      "type" : "elementwise",
      "alpha" : 1,
      "attributes" : {
        "basic_block_head" : 1
      },
      "bottom" : "bidirectional\/TensorArrayUnstack_3\/range_max,bidirectional\/TensorArray_5_length",
      "debug_info" : "bidirectional\/TensorArray_5_extra_length0",
      "nd_mode" : true,
      "weights" : {

      },
      "top" : "bidirectional\/TensorArray_5_extra_length0"
    },
    {
      "bottom" : "bidirectional\/TensorArray_5_extra_length0",
      "alpha" : 1,
      "operation" : 0,
      "weights" : {

      },
      "fused_relu" : 0,
      "debug_info" : "bidirectional\/TensorArray_5_extra_length1",
      "top" : "bidirectional\/TensorArray_5_extra_length1",
      "type" : "elementwise",
      "name" : "bidirectional\/TensorArray_5_extra_length1",
      "beta" : 0
    },
    {
      "bottom" : "bidirectional\/TensorArray_5_extra_length1,bidirectional\/TensorArray_5_value_elem_shape",
      "weights" : {

      },
      "nd_mode" : true,
      "axis" : 0,
      "debug_info" : "bidirectional\/TensorArray_5_alloc_shape",
      "top" : "bidirectional\/TensorArray_5_alloc_shape",
      "type" : "general_concat",
      "name" : "bidirectional\/TensorArray_5_alloc_shape"
    },
    {
      "bottom" : "bidirectional\/TensorArray_5_alloc_shape",
      "weights" : {

      },
      "nd_mode" : 1,
      "debug_info" : "bidirectional\/TensorArray_5_alloc",
      "value" : 0,
      "top" : "bidirectional\/TensorArray_5_alloc",
      "type" : "fill",
      "name" : "bidirectional\/TensorArray_5_alloc"
    },
    {
      "bottom" : "bidirectional\/TensorArray_5,bidirectional\/TensorArray_5_@ssa_version_1",
      "weights" : {

      },
      "debug_info" : "",
      "top" : "bidirectional\/TensorArray_5_@ssa_version_4",
      "type" : "phi_virtual",
      "name" : "phi_bidirectional\/TensorArray_5_@ssa_version_4",
      "attributes" : {
        "basic_block_head" : 1
      }
    },
    {
      "bottom" : "bidirectional\/TensorArray_5_@ssa_version_4,bidirectional\/TensorArray_5_alloc",
      "weights" : {

      },
      "nd_mode" : true,
      "axis" : 0,
      "debug_info" : "bidirectional\/TensorArray_5_new",
      "top" : "bidirectional\/TensorArray_5_new",
      "type" : "general_concat",
      "name" : "bidirectional\/TensorArray_5_new"
    },
    {
      "weights" : {

      },
      "debug_info" : "bidirectional\/TensorArray_5_assign",
      "top" : "bidirectional\/TensorArray_5_@ssa_version_2",
      "type" : "copy",
      "name" : "bidirectional\/TensorArray_5_assign",
      "bottom" : "bidirectional\/TensorArray_5_new"
    },
    {
      "bottom" : "",
      "weights" : {

      },
      "debug_info" : "",
      "top" : "",
      "type" : "cf_end",
      "name" : "bidirectional\/TensorArray_5_condition_end",
      "attributes" : {
        "basic_block_head" : 1
      }
    },
    {
      "bottom" : "bidirectional\/TensorArray_5,bidirectional\/TensorArray_5_@ssa_version_2,bidirectional\/TensorArray_5_@ssa_version_1",
      "weights" : {

      },
      "debug_info" : "",
      "top" : "bidirectional\/TensorArray_5_@ssa_version_5",
      "type" : "phi_virtual",
      "name" : "phi_bidirectional\/TensorArray_5_@ssa_version_5",
      "attributes" : {
        "basic_block_head" : 1
      }
    },
    {
      "bottom" : "bidirectional\/TensorArray_5_@ssa_version_5,bidirectional\/TensorArrayUnstack_3\/range,bidirectional\/ReverseV2_1",
      "weights" : {

      },
      "mode" : 0,
      "debug_info" : "bidirectional\/TensorArrayUnstack_3\/TensorArrayScatter\/TensorArrayScatterV3",
      "axis" : 0,
      "top" : "bidirectional\/TensorArrayUnstack_3\/TensorArrayScatter\/TensorArrayScatterV3",
      "type" : "scatter_nd",
      "name" : "bidirectional\/TensorArrayUnstack_3\/TensorArrayScatter\/TensorArrayScatterV3",
      "accumulation_mode" : 0
    },
    {
      "bottom" : "bidirectional\/MatMul_1,bidirectional\/MatMul",
      "alpha" : 1,
      "operation" : 0,
      "weights" : {

      },
      "fused_relu" : 0,
      "debug_info" : "bidirectional\/add",
      "top" : "bidirectional\/add",
      "type" : "elementwise",
      "name" : "bidirectional\/add",
      "beta" : 0
    },
    {
      "bottom" : "bidirectional\/MatMul_3,bidirectional\/MatMul_2",
      "alpha" : 1,
      "operation" : 0,
      "weights" : {

      },
      "fused_relu" : 0,
      "debug_info" : "bidirectional\/add_2",
      "top" : "bidirectional\/add_2",
      "type" : "elementwise",
      "name" : "bidirectional\/add_2",
      "beta" : 0
    },
    {
      "top" : "bidirectional\/TensorArrayUnstack_2\/range",
      "w" : 53,
      "h" : 1,
      "name" : "bidirectional\/TensorArrayUnstack_2\/range",
      "nd_rank" : 1,
      "type" : "load_constant",
      "k" : 1,
      "bottom" : "",
      "debug_info" : "bidirectional\/TensorArrayUnstack_2\/range",
      "n" : 1,
      "weights" : {

      },
      "constant_blob" : 55
    },
    {
      "axis_mode" : 1,
      "bottom" : "bidirectional\/TensorArrayUnstack_2\/range",
      "weights" : {

      },
      "mode" : 9,
      "nd_axis" : 0,
      "nd_mode" : true,
      "debug_info" : "bidirectional\/TensorArrayUnstack_2\/range_max",
      "use_version" : 1,
      "top" : "bidirectional\/TensorArrayUnstack_2\/range_max_presqueeze",
      "type" : "reduce",
      "name" : "bidirectional\/TensorArrayUnstack_2\/range_max_presqueeze"
    },
    {
      "size_of_axes" : 1,
      "bottom" : "bidirectional\/TensorArrayUnstack_2\/range_max_presqueeze",
      "axes_0" : 0,
      "weights" : {

      },
      "nd_axis" : 0,
      "debug_info" : "bidirectional\/TensorArrayUnstack_2\/range_max",
      "version" : 1,
      "top" : "bidirectional\/TensorArrayUnstack_2\/range_max",
      "type" : "squeeze",
      "name" : "bidirectional\/TensorArrayUnstack_2\/range_max"
    },
    {
      "bottom" : "bidirectional\/TensorArray_3",
      "weights" : {

      },
      "nd_mode" : 1,
      "axis" : -1,
      "debug_info" : "bidirectional\/TensorArray_3_full_shape",
      "top" : "bidirectional\/TensorArray_3_full_shape",
      "type" : "get_shape",
      "name" : "bidirectional\/TensorArray_3_full_shape"
    },
    {
      "begin_n" : 0,
      "static_sizes_k" : 0,
      "end_mask_h" : false,
      "end_w" : 1,
      "end_h" : 1,
      "begin_h" : 0,
      "stride_n" : 1,
      "end_seq" : 1,
      "begin_mask_seq" : false,
      "begin_mask_h" : false,
      "squeeze_mask_h" : false,
      "stride_k" : 1,
      "type" : "general_slice",
      "begin_mask_k" : false,
      "static_sizes_w" : 0,
      "begin_w" : 0,
      "end_mask_k" : false,
      "use_static_sizes" : false,
      "stride_h" : 1,
      "static_sizes_n" : 0,
      "begin_mask_n" : false,
      "weights" : {

      },
      "name" : "bidirectional\/TensorArray_3_length",
      "stride_seq" : 1,
      "end_k" : 1,
      "static_sizes_seq" : 0,
      "top" : "bidirectional\/TensorArray_3_length",
      "begin_seq" : 0,
      "squeeze_mask_k" : false,
      "begin_k" : 0,
      "end_mask_w" : false,
      "end_mask_seq" : false,
      "end_mask_n" : false,
      "debug_info" : "bidirectional\/TensorArray_3_length",
      "stride_w" : 1,
      "squeeze_mask_seq" : false,
      "static_sizes_h" : 0,
      "begin_mask_w" : false,
      "bottom" : "bidirectional\/TensorArray_3_full_shape",
      "end_n" : 1,
      "squeeze_mask_w" : false,
      "squeeze_mask_n" : false
    },
    {
      "bottom" : "bidirectional\/ReverseV2",
      "weights" : {

      },
      "nd_mode" : 1,
      "axis" : -1,
      "debug_info" : "bidirectional\/TensorArray_3_raw_value_elem_shape",
      "top" : "bidirectional\/TensorArray_3_raw_value_elem_shape",
      "type" : "get_shape",
      "name" : "bidirectional\/TensorArray_3_raw_value_elem_shape"
    },
    {
      "begin_n" : 0,
      "static_sizes_k" : 0,
      "end_mask_h" : false,
      "end_w" : -1,
      "end_h" : 1,
      "begin_h" : 0,
      "stride_n" : 1,
      "end_seq" : 1,
      "begin_mask_seq" : false,
      "begin_mask_h" : false,
      "squeeze_mask_h" : false,
      "stride_k" : 1,
      "type" : "general_slice",
      "begin_mask_k" : false,
      "static_sizes_w" : 0,
      "begin_w" : 1,
      "end_mask_k" : false,
      "use_static_sizes" : false,
      "stride_h" : 1,
      "static_sizes_n" : 0,
      "begin_mask_n" : false,
      "weights" : {

      },
      "name" : "bidirectional\/TensorArray_3_value_elem_shape",
      "stride_seq" : 1,
      "end_k" : 1,
      "static_sizes_seq" : 0,
      "top" : "bidirectional\/TensorArray_3_value_elem_shape",
      "begin_seq" : 0,
      "squeeze_mask_k" : false,
      "begin_k" : 0,
      "end_mask_w" : true,
      "end_mask_seq" : false,
      "end_mask_n" : false,
      "debug_info" : "bidirectional\/TensorArray_3_value_elem_shape",
      "stride_w" : 1,
      "squeeze_mask_seq" : false,
      "static_sizes_h" : 0,
      "begin_mask_w" : false,
      "bottom" : "bidirectional\/TensorArray_3_raw_value_elem_shape",
      "end_n" : 1,
      "squeeze_mask_w" : false,
      "squeeze_mask_n" : false
    },
    {
      "begin_n" : 0,
      "static_sizes_k" : 0,
      "end_mask_h" : false,
      "end_w" : -1,
      "end_h" : 1,
      "begin_h" : 0,
      "stride_n" : 1,
      "end_seq" : 1,
      "begin_mask_seq" : false,
      "begin_mask_h" : false,
      "squeeze_mask_h" : false,
      "stride_k" : 1,
      "type" : "general_slice",
      "begin_mask_k" : false,
      "static_sizes_w" : 0,
      "begin_w" : 1,
      "end_mask_k" : false,
      "use_static_sizes" : false,
      "stride_h" : 1,
      "static_sizes_n" : 0,
      "begin_mask_n" : false,
      "weights" : {

      },
      "name" : "bidirectional\/TensorArray_3_ls_elem_shape",
      "stride_seq" : 1,
      "end_k" : 1,
      "static_sizes_seq" : 0,
      "top" : "bidirectional\/TensorArray_3_ls_elem_shape",
      "begin_seq" : 0,
      "squeeze_mask_k" : false,
      "begin_k" : 0,
      "end_mask_w" : true,
      "end_mask_seq" : false,
      "end_mask_n" : false,
      "debug_info" : "bidirectional\/TensorArray_3_ls_elem_shape",
      "stride_w" : 1,
      "squeeze_mask_seq" : false,
      "static_sizes_h" : 0,
      "begin_mask_w" : false,
      "bottom" : "bidirectional\/TensorArray_3_full_shape",
      "end_n" : 1,
      "squeeze_mask_w" : false,
      "squeeze_mask_n" : false
    },
    {
      "bottom" : "bidirectional\/TensorArray_3_ls_elem_shape,bidirectional\/TensorArray_3_value_elem_shape",
      "alpha" : 1,
      "operation" : 107,
      "weights" : {

      },
      "fused_relu" : 0,
      "debug_info" : "bidirectional\/TensorArray_3_elem_shape_not_equal",
      "top" : "bidirectional\/TensorArray_3_elem_shape_not_equal",
      "type" : "elementwise",
      "name" : "bidirectional\/TensorArray_3_elem_shape_not_equal",
      "beta" : 0
    },
    {
      "axis_mode" : 31,
      "bottom" : "bidirectional\/TensorArray_3_elem_shape_not_equal",
      "weights" : {

      },
      "mode" : 0,
      "debug_info" : "bidirectional\/TensorArray_3_reduce_any",
      "use_version" : 1,
      "top" : "bidirectional\/TensorArray_3_reduce_any_presqueeze",
      "type" : "reduce",
      "name" : "bidirectional\/TensorArray_3_reduce_any_presqueeze"
    },
    {
      "size_of_axes" : 1,
      "bottom" : "bidirectional\/TensorArray_3_reduce_any_presqueeze",
      "axes_0" : 0,
      "weights" : {

      },
      "nd_axis" : 0,
      "debug_info" : "bidirectional\/TensorArray_3_reduce_any",
      "version" : 1,
      "top" : "bidirectional\/TensorArray_3_reduce_any",
      "type" : "squeeze",
      "name" : "bidirectional\/TensorArray_3_reduce_any",
      "squeeze_all" : true
    },
    {
      "weights" : {

      },
      "debug_info" : "bidirectional\/TensorArray_3_condition_re_initialize",
      "top" : "",
      "type" : "cf_if",
      "name" : "bidirectional\/TensorArray_3_condition_re_initialize_if",
      "bottom" : "bidirectional\/TensorArray_3_reduce_any"
    },
    {
      "bottom" : "bidirectional\/TensorArray_3_length,bidirectional\/TensorArray_3_value_elem_shape",
      "weights" : {

      },
      "nd_mode" : true,
      "debug_info" : "bidirectional\/TensorArray_3_re_initialize_shape",
      "axis" : 0,
      "top" : "bidirectional\/TensorArray_3_re_initialize_shape",
      "type" : "general_concat",
      "name" : "bidirectional\/TensorArray_3_re_initialize_shape",
      "attributes" : {
        "basic_block_head" : 1
      }
    },
    {
      "bottom" : "bidirectional\/TensorArray_3_re_initialize_shape",
      "weights" : {

      },
      "nd_mode" : 1,
      "debug_info" : "bidirectional\/TensorArray_3_re_initialize",
      "value" : 0,
      "top" : "bidirectional\/TensorArray_3_re_initialize",
      "type" : "fill",
      "name" : "bidirectional\/TensorArray_3_re_initialize"
    },
    {
      "bottom" : "bidirectional\/TensorArray_3_re_initialize",
      "weights" : {

      },
      "debug_info" : "bidirectional\/TensorArray_3_re_initialize_assign",
      "top" : "bidirectional\/TensorArray_3_@ssa_version_1",
      "type" : "copy",
      "name" : "bidirectional\/TensorArray_3_re_initialize_assign",
      "attributes" : {
        "basic_block_head" : 1
      }
    },
    {
      "bottom" : "",
      "weights" : {

      },
      "debug_info" : "",
      "top" : "",
      "type" : "cf_end",
      "name" : "bidirectional\/TensorArray_3_condition_re_initialize_end",
      "attributes" : {
        "basic_block_head" : 1
      }
    },
    {
      "bottom" : "bidirectional\/TensorArrayUnstack_2\/range_max,bidirectional\/TensorArray_3_length",
      "alpha" : 1,
      "operation" : 106,
      "beta" : 0,
      "weights" : {

      },
      "fused_relu" : 0,
      "debug_info" : "bidirectional\/TensorArray_3_is_growing",
      "top" : "bidirectional\/TensorArray_3_is_growing",
      "type" : "elementwise",
      "name" : "bidirectional\/TensorArray_3_is_growing",
      "attributes" : {
        "constant_if_condition" : 30,
        "basic_block_head" : 1
      }
    },
    {
      "bottom" : "bidirectional\/TensorArray_3_is_growing",
      "weights" : {

      },
      "debug_info" : "bidirectional\/TensorArray_3_condition",
      "top" : "",
      "type" : "cf_if",
      "name" : "bidirectional\/TensorArray_3_condition_if",
      "attributes" : {
        "constant_if_condition" : 30
      }
    },
    {
      "name" : "bidirectional\/TensorArray_3_extra_length0",
      "fused_relu" : 0,
      "beta" : 0,
      "operation" : 33,
      "type" : "elementwise",
      "alpha" : 1,
      "attributes" : {
        "basic_block_head" : 1
      },
      "bottom" : "bidirectional\/TensorArrayUnstack_2\/range_max,bidirectional\/TensorArray_3_length",
      "debug_info" : "bidirectional\/TensorArray_3_extra_length0",
      "nd_mode" : true,
      "weights" : {

      },
      "top" : "bidirectional\/TensorArray_3_extra_length0"
    },
    {
      "bottom" : "bidirectional\/TensorArray_3_extra_length0",
      "alpha" : 1,
      "operation" : 0,
      "weights" : {

      },
      "fused_relu" : 0,
      "debug_info" : "bidirectional\/TensorArray_3_extra_length1",
      "top" : "bidirectional\/TensorArray_3_extra_length1",
      "type" : "elementwise",
      "name" : "bidirectional\/TensorArray_3_extra_length1",
      "beta" : 0
    },
    {
      "bottom" : "bidirectional\/TensorArray_3_extra_length1,bidirectional\/TensorArray_3_value_elem_shape",
      "weights" : {

      },
      "nd_mode" : true,
      "axis" : 0,
      "debug_info" : "bidirectional\/TensorArray_3_alloc_shape",
      "top" : "bidirectional\/TensorArray_3_alloc_shape",
      "type" : "general_concat",
      "name" : "bidirectional\/TensorArray_3_alloc_shape"
    },
    {
      "bottom" : "bidirectional\/TensorArray_3_alloc_shape",
      "weights" : {

      },
      "nd_mode" : 1,
      "debug_info" : "bidirectional\/TensorArray_3_alloc",
      "value" : 0,
      "top" : "bidirectional\/TensorArray_3_alloc",
      "type" : "fill",
      "name" : "bidirectional\/TensorArray_3_alloc"
    },
    {
      "bottom" : "bidirectional\/TensorArray_3,bidirectional\/TensorArray_3_@ssa_version_1",
      "weights" : {

      },
      "debug_info" : "",
      "top" : "bidirectional\/TensorArray_3_@ssa_version_4",
      "type" : "phi_virtual",
      "name" : "phi_bidirectional\/TensorArray_3_@ssa_version_4",
      "attributes" : {
        "basic_block_head" : 1
      }
    },
    {
      "bottom" : "bidirectional\/TensorArray_3_@ssa_version_4,bidirectional\/TensorArray_3_alloc",
      "weights" : {

      },
      "nd_mode" : true,
      "axis" : 0,
      "debug_info" : "bidirectional\/TensorArray_3_new",
      "top" : "bidirectional\/TensorArray_3_new",
      "type" : "general_concat",
      "name" : "bidirectional\/TensorArray_3_new"
    },
    {
      "weights" : {

      },
      "debug_info" : "bidirectional\/TensorArray_3_assign",
      "top" : "bidirectional\/TensorArray_3_@ssa_version_2",
      "type" : "copy",
      "name" : "bidirectional\/TensorArray_3_assign",
      "bottom" : "bidirectional\/TensorArray_3_new"
    },
    {
      "bottom" : "",
      "weights" : {

      },
      "debug_info" : "",
      "top" : "",
      "type" : "cf_end",
      "name" : "bidirectional\/TensorArray_3_condition_end",
      "attributes" : {
        "basic_block_head" : 1
      }
    },
    {
      "bottom" : "bidirectional\/TensorArray_3,bidirectional\/TensorArray_3_@ssa_version_2,bidirectional\/TensorArray_3_@ssa_version_1",
      "weights" : {

      },
      "debug_info" : "",
      "top" : "bidirectional\/TensorArray_3_@ssa_version_5",
      "type" : "phi_virtual",
      "name" : "phi_bidirectional\/TensorArray_3_@ssa_version_5",
      "attributes" : {
        "basic_block_head" : 1
      }
    },
    {
      "bottom" : "bidirectional\/TensorArray_3_@ssa_version_5,bidirectional\/TensorArrayUnstack_2\/range,bidirectional\/ReverseV2",
      "weights" : {

      },
      "mode" : 0,
      "debug_info" : "bidirectional\/TensorArrayUnstack_2\/TensorArrayScatter\/TensorArrayScatterV3",
      "axis" : 0,
      "top" : "bidirectional\/TensorArrayUnstack_2\/TensorArrayScatter\/TensorArrayScatterV3",
      "type" : "scatter_nd",
      "name" : "bidirectional\/TensorArrayUnstack_2\/TensorArrayScatter\/TensorArrayScatterV3",
      "accumulation_mode" : 0
    },
    {
      "top" : "bidirectional\/BiasAdd\/ReadVariableOp",
      "w" : 1024,
      "h" : 1,
      "name" : "bidirectional\/BiasAdd\/ReadVariableOp",
      "nd_rank" : 1,
      "type" : "load_constant",
      "k" : 1,
      "bottom" : "",
      "debug_info" : "bidirectional\/BiasAdd\/ReadVariableOp",
      "n" : 1,
      "weights" : {

      },
      "constant_blob" : 57
    },
    {
      "bottom" : "bidirectional\/add,bidirectional\/BiasAdd\/ReadVariableOp",
      "alpha" : 1,
      "operation" : 0,
      "weights" : {

      },
      "fused_relu" : 0,
      "debug_info" : "bidirectional\/BiasAdd",
      "nd_mode" : true,
      "top" : "bidirectional\/BiasAdd",
      "type" : "elementwise",
      "name" : "bidirectional\/BiasAdd",
      "beta" : 0
    },
    {
      "top" : "bidirectional\/BiasAdd_1\/ReadVariableOp",
      "w" : 1024,
      "h" : 1,
      "name" : "bidirectional\/BiasAdd_1\/ReadVariableOp",
      "nd_rank" : 1,
      "type" : "load_constant",
      "k" : 1,
      "bottom" : "",
      "debug_info" : "bidirectional\/BiasAdd_1\/ReadVariableOp",
      "n" : 1,
      "weights" : {

      },
      "constant_blob" : 59
    },
    {
      "bottom" : "bidirectional\/add_2,bidirectional\/BiasAdd_1\/ReadVariableOp",
      "alpha" : 1,
      "operation" : 0,
      "weights" : {

      },
      "fused_relu" : 0,
      "debug_info" : "bidirectional\/BiasAdd_1",
      "nd_mode" : true,
      "top" : "bidirectional\/BiasAdd_1",
      "type" : "elementwise",
      "name" : "bidirectional\/BiasAdd_1",
      "beta" : 0
    },
    {
      "begin_104" : 0,
      "begin_63" : 0,
      "begin_59" : 0,
      "begin_64" : 0,
      "begin_105" : 0,
      "begin_65" : 0,
      "begin_0" : 0,
      "begin_70" : 0,
      "begin_66" : 0,
      "begin_106" : 0,
      "begin_110" : 0,
      "begin_2" : 0,
      "begin_71" : 0,
      "begin_67" : 0,
      "begin_68" : 0,
      "begin_107" : 0,
      "begin_111" : 0,
      "begin_4" : 0,
      "begin_72" : 0,
      "begin_73" : 0,
      "begin_69" : 0,
      "begin_6" : 0,
      "begin_74" : 0,
      "begin_108" : 0,
      "type" : "split_nd",
      "begin_8" : 0,
      "begin_112" : 0,
      "begin_75" : 0,
      "begin_10" : 0,
      "begin_80" : 0,
      "begin_76" : 0,
      "begin_109" : 0,
      "begin_113" : 0,
      "begin_11" : 0,
      "nd_axis" : 1,
      "begin_81" : 0,
      "begin_77" : 0,
      "begin_114" : 0,
      "begin_12" : 0,
      "begin_78" : 0,
      "begin_82" : 0,
      "begin_13" : 0,
      "begin_83" : 0,
      "begin_79" : 0,
      "begin_115" : 0,
      "begin_14" : 0,
      "begin_84" : 0,
      "begin_15" : 0,
      "begin_85" : 0,
      "num_splits" : 4,
      "begin_116" : 0,
      "begin_120" : 0,
      "begin_20" : 0,
      "begin_86" : 0,
      "begin_16" : 0,
      "begin_90" : 0,
      "begin_21" : 0,
      "begin_91" : 0,
      "begin_87" : 0,
      "begin_17" : 0,
      "begin_117" : 0,
      "begin_121" : 0,
      "begin_18" : 0,
      "begin_92" : 0,
      "begin_88" : 0,
      "begin_22" : 0,
      "begin_23" : 0,
      "begin_89" : 0,
      "begin_19" : 0,
      "begin_93" : 0,
      "begin_118" : 0,
      "begin_122" : 0,
      "begin_24" : 0,
      "begin_94" : 0,
      "begin_25" : 0,
      "begin_95" : 0,
      "begin_119" : 0,
      "begin_123" : 0,
      "begin_30" : 0,
      "begin_26" : 0,
      "begin_96" : 0,
      "begin_124" : 0,
      "begin_31" : 0,
      "begin_97" : 0,
      "begin_27" : 0,
      "begin_28" : 0,
      "begin_98" : 0,
      "begin_32" : 0,
      "begin_125" : 0,
      "begin_33" : 0,
      "begin_29" : 0,
      "begin_99" : 0,
      "begin_1" : 0,
      "weights" : {

      },
      "begin_34" : 0,
      "bottom" : "bidirectional\/BiasAdd",
      "begin_3" : 0,
      "begin_126" : 0,
      "begin_35" : 0,
      "begin_5" : 0,
      "begin_36" : 0,
      "begin_40" : 0,
      "begin_127" : 0,
      "name" : "bidirectional\/split",
      "begin_41" : 0,
      "begin_37" : 0,
      "begin_7" : 0,
      "begin_42" : 0,
      "begin_38" : 0,
      "begin_9" : 0,
      "begin_39" : 0,
      "begin_43" : 0,
      "begin_44" : 0,
      "begin_45" : 0,
      "begin_50" : 0,
      "begin_46" : 0,
      "begin_51" : 0,
      "begin_47" : 0,
      "begin_100" : 0,
      "begin_52" : 0,
      "debug_info" : "bidirectional\/split",
      "begin_48" : 0,
      "top" : "bidirectional\/split:0,bidirectional\/split:1,bidirectional\/split:2,bidirectional\/split:3",
      "begin_101" : 0,
      "begin_53" : 0,
      "begin_49" : 0,
      "begin_54" : 0,
      "begin_55" : 0,
      "begin_102" : 0,
      "begin_60" : 0,
      "begin_56" : 0,
      "begin_103" : 0,
      "begin_57" : 0,
      "begin_61" : 0,
      "begin_62" : 0,
      "begin_58" : 0
    },
    {
      "begin_104" : 0,
      "begin_63" : 0,
      "begin_59" : 0,
      "begin_64" : 0,
      "begin_105" : 0,
      "begin_65" : 0,
      "begin_0" : 0,
      "begin_70" : 0,
      "begin_66" : 0,
      "begin_106" : 0,
      "begin_110" : 0,
      "begin_2" : 0,
      "begin_71" : 0,
      "begin_67" : 0,
      "begin_68" : 0,
      "begin_107" : 0,
      "begin_111" : 0,
      "begin_4" : 0,
      "begin_72" : 0,
      "begin_73" : 0,
      "begin_69" : 0,
      "begin_6" : 0,
      "begin_74" : 0,
      "begin_108" : 0,
      "type" : "split_nd",
      "begin_8" : 0,
      "begin_112" : 0,
      "begin_75" : 0,
      "begin_10" : 0,
      "begin_80" : 0,
      "begin_76" : 0,
      "begin_109" : 0,
      "begin_113" : 0,
      "begin_11" : 0,
      "nd_axis" : 1,
      "begin_81" : 0,
      "begin_77" : 0,
      "begin_114" : 0,
      "begin_12" : 0,
      "begin_78" : 0,
      "begin_82" : 0,
      "begin_13" : 0,
      "begin_83" : 0,
      "begin_79" : 0,
      "begin_115" : 0,
      "begin_14" : 0,
      "begin_84" : 0,
      "begin_15" : 0,
      "begin_85" : 0,
      "num_splits" : 4,
      "begin_116" : 0,
      "begin_120" : 0,
      "begin_20" : 0,
      "begin_86" : 0,
      "begin_16" : 0,
      "begin_90" : 0,
      "begin_21" : 0,
      "begin_91" : 0,
      "begin_87" : 0,
      "begin_17" : 0,
      "begin_117" : 0,
      "begin_121" : 0,
      "begin_18" : 0,
      "begin_92" : 0,
      "begin_88" : 0,
      "begin_22" : 0,
      "begin_23" : 0,
      "begin_89" : 0,
      "begin_19" : 0,
      "begin_93" : 0,
      "begin_118" : 0,
      "begin_122" : 0,
      "begin_24" : 0,
      "begin_94" : 0,
      "begin_25" : 0,
      "begin_95" : 0,
      "begin_119" : 0,
      "begin_123" : 0,
      "begin_30" : 0,
      "begin_26" : 0,
      "begin_96" : 0,
      "begin_124" : 0,
      "begin_31" : 0,
      "begin_97" : 0,
      "begin_27" : 0,
      "begin_28" : 0,
      "begin_98" : 0,
      "begin_32" : 0,
      "begin_125" : 0,
      "begin_33" : 0,
      "begin_29" : 0,
      "begin_99" : 0,
      "begin_1" : 0,
      "weights" : {

      },
      "begin_34" : 0,
      "bottom" : "bidirectional\/BiasAdd_1",
      "begin_3" : 0,
      "begin_126" : 0,
      "begin_35" : 0,
      "begin_5" : 0,
      "begin_36" : 0,
      "begin_40" : 0,
      "begin_127" : 0,
      "name" : "bidirectional\/split_1",
      "begin_41" : 0,
      "begin_37" : 0,
      "begin_7" : 0,
      "begin_42" : 0,
      "begin_38" : 0,
      "begin_9" : 0,
      "begin_39" : 0,
      "begin_43" : 0,
      "begin_44" : 0,
      "begin_45" : 0,
      "begin_50" : 0,
      "begin_46" : 0,
      "begin_51" : 0,
      "begin_47" : 0,
      "begin_100" : 0,
      "begin_52" : 0,
      "debug_info" : "bidirectional\/split_1",
      "begin_48" : 0,
      "top" : "bidirectional\/split_1:0,bidirectional\/split_1:1,bidirectional\/split_1:2,bidirectional\/split_1:3",
      "begin_101" : 0,
      "begin_53" : 0,
      "begin_49" : 0,
      "begin_54" : 0,
      "begin_55" : 0,
      "begin_102" : 0,
      "begin_60" : 0,
      "begin_56" : 0,
      "begin_103" : 0,
      "begin_57" : 0,
      "begin_61" : 0,
      "begin_62" : 0,
      "begin_58" : 0
    },
    {
      "bottom" : "bidirectional\/split:0",
      "weights" : {

      },
      "mode" : 3,
      "debug_info" : "bidirectional\/Sigmoid",
      "top" : "bidirectional\/Sigmoid",
      "type" : "activation",
      "name" : "bidirectional\/Sigmoid"
    },
    {
      "bottom" : "bidirectional\/split:1",
      "weights" : {

      },
      "mode" : 3,
      "debug_info" : "bidirectional\/Sigmoid_1",
      "top" : "bidirectional\/Sigmoid_1",
      "type" : "activation",
      "name" : "bidirectional\/Sigmoid_1"
    },
    {
      "bottom" : "bidirectional\/split:2",
      "weights" : {

      },
      "mode" : 1,
      "debug_info" : "bidirectional\/Tanh",
      "top" : "bidirectional\/Tanh",
      "type" : "activation",
      "name" : "bidirectional\/Tanh"
    },
    {
      "bottom" : "bidirectional\/split:3",
      "weights" : {

      },
      "mode" : 3,
      "debug_info" : "bidirectional\/Sigmoid_2",
      "top" : "bidirectional\/Sigmoid_2",
      "type" : "activation",
      "name" : "bidirectional\/Sigmoid_2"
    },
    {
      "bottom" : "bidirectional\/split_1:0",
      "weights" : {

      },
      "mode" : 3,
      "debug_info" : "bidirectional\/Sigmoid_3",
      "top" : "bidirectional\/Sigmoid_3",
      "type" : "activation",
      "name" : "bidirectional\/Sigmoid_3"
    },
    {
      "bottom" : "bidirectional\/split_1:1",
      "weights" : {

      },
      "mode" : 3,
      "debug_info" : "bidirectional\/Sigmoid_4",
      "top" : "bidirectional\/Sigmoid_4",
      "type" : "activation",
      "name" : "bidirectional\/Sigmoid_4"
    },
    {
      "bottom" : "bidirectional\/split_1:2",
      "weights" : {

      },
      "mode" : 1,
      "debug_info" : "bidirectional\/Tanh_2",
      "top" : "bidirectional\/Tanh_2",
      "type" : "activation",
      "name" : "bidirectional\/Tanh_2"
    },
    {
      "bottom" : "bidirectional\/split_1:3",
      "weights" : {

      },
      "mode" : 3,
      "debug_info" : "bidirectional\/Sigmoid_5",
      "top" : "bidirectional\/Sigmoid_5",
      "type" : "activation",
      "name" : "bidirectional\/Sigmoid_5"
    },
    {
      "bottom" : "bidirectional\/Sigmoid_1,bidirectional\/zeros_1",
      "alpha" : 1,
      "operation" : 1,
      "weights" : {

      },
      "fused_relu" : 0,
      "debug_info" : "bidirectional\/mul",
      "nd_mode" : true,
      "top" : "bidirectional\/mul",
      "type" : "elementwise",
      "name" : "bidirectional\/mul",
      "beta" : 0
    },
    {
      "bottom" : "bidirectional\/Tanh,bidirectional\/Sigmoid",
      "alpha" : 1,
      "operation" : 1,
      "weights" : {

      },
      "fused_relu" : 0,
      "debug_info" : "bidirectional\/mul_1",
      "top" : "bidirectional\/mul_1",
      "type" : "elementwise",
      "name" : "bidirectional\/mul_1",
      "beta" : 0
    },
    {
      "bottom" : "bidirectional\/Sigmoid_4,bidirectional\/zeros_3",
      "alpha" : 1,
      "operation" : 1,
      "weights" : {

      },
      "fused_relu" : 0,
      "debug_info" : "bidirectional\/mul_3",
      "nd_mode" : true,
      "top" : "bidirectional\/mul_3",
      "type" : "elementwise",
      "name" : "bidirectional\/mul_3",
      "beta" : 0
    },
    {
      "bottom" : "bidirectional\/Tanh_2,bidirectional\/Sigmoid_3",
      "alpha" : 1,
      "operation" : 1,
      "weights" : {

      },
      "fused_relu" : 0,
      "debug_info" : "bidirectional\/mul_4",
      "top" : "bidirectional\/mul_4",
      "type" : "elementwise",
      "name" : "bidirectional\/mul_4",
      "beta" : 0
    },
    {
      "bottom" : "bidirectional\/mul,bidirectional\/mul_1",
      "alpha" : 1,
      "operation" : 0,
      "weights" : {

      },
      "fused_relu" : 0,
      "debug_info" : "bidirectional\/add_1",
      "nd_mode" : true,
      "top" : "bidirectional\/add_1",
      "type" : "elementwise",
      "name" : "bidirectional\/add_1",
      "beta" : 0
    },
    {
      "bottom" : "bidirectional\/mul_3,bidirectional\/mul_4",
      "alpha" : 1,
      "operation" : 0,
      "weights" : {

      },
      "fused_relu" : 0,
      "debug_info" : "bidirectional\/add_3",
      "nd_mode" : true,
      "top" : "bidirectional\/add_3",
      "type" : "elementwise",
      "name" : "bidirectional\/add_3",
      "beta" : 0
    },
    {
      "bottom" : "bidirectional\/add_1",
      "weights" : {

      },
      "mode" : 1,
      "debug_info" : "bidirectional\/Tanh_1",
      "top" : "bidirectional\/Tanh_1",
      "type" : "activation",
      "name" : "bidirectional\/Tanh_1"
    },
    {
      "bottom" : "bidirectional\/add_3",
      "weights" : {

      },
      "mode" : 1,
      "debug_info" : "bidirectional\/Tanh_3",
      "top" : "bidirectional\/Tanh_3",
      "type" : "activation",
      "name" : "bidirectional\/Tanh_3"
    },
    {
      "bottom" : "bidirectional\/Sigmoid_2,bidirectional\/Tanh_1",
      "alpha" : 1,
      "operation" : 1,
      "weights" : {

      },
      "fused_relu" : 0,
      "debug_info" : "bidirectional\/mul_2",
      "nd_mode" : true,
      "top" : "bidirectional\/mul_2",
      "type" : "elementwise",
      "name" : "bidirectional\/mul_2",
      "beta" : 0
    },
    {
      "bottom" : "bidirectional\/Sigmoid_5,bidirectional\/Tanh_3",
      "alpha" : 1,
      "operation" : 1,
      "weights" : {

      },
      "fused_relu" : 0,
      "debug_info" : "bidirectional\/mul_5",
      "nd_mode" : true,
      "top" : "bidirectional\/mul_5",
      "type" : "elementwise",
      "name" : "bidirectional\/mul_5",
      "beta" : 0
    },
    {
      "bottom" : "bidirectional\/mul_2",
      "weights" : {

      },
      "nd_mode" : 1,
      "axis" : -1,
      "debug_info" : "shape_0",
      "top" : "shape_0",
      "type" : "get_shape",
      "name" : "shape_0"
    },
    {
      "bottom" : "shape_0",
      "weights" : {

      },
      "nd_mode" : 1,
      "debug_info" : "bidirectional\/zeros_like",
      "value" : 0,
      "top" : "bidirectional\/zeros_like",
      "type" : "fill",
      "name" : "bidirectional\/zeros_like"
    },
    {
      "bottom" : "bidirectional\/mul_5",
      "weights" : {

      },
      "nd_mode" : 1,
      "debug_info" : "shape_1",
      "axis" : -1,
      "top" : "shape_1",
      "type" : "get_shape",
      "name" : "shape_1",
      "attributes" : {
        "basic_block_head" : 1
      }
    },
    {
      "bottom" : "shape_1",
      "weights" : {

      },
      "nd_mode" : 1,
      "debug_info" : "bidirectional\/zeros_like_1",
      "value" : 0,
      "top" : "bidirectional\/zeros_like_1",
      "type" : "fill",
      "name" : "bidirectional\/zeros_like_1"
    },
    {
      "top" : "bidirectional\/while\/iteration_counter",
      "w" : 1,
      "h" : 1,
      "weights" : {

      },
      "nd_rank" : 1,
      "type" : "load_constant",
      "k" : 1,
      "attributes" : {
        "constant_if_condition" : 10,
        "basic_block_head" : 1
      },
      "bottom" : "",
      "debug_info" : "bidirectional\/while\/iteration_counter",
      "n" : 1,
      "name" : "bidirectional\/while\/iteration_counter",
      "constant_blob" : 61
    },
    {
      "bottom" : "bidirectional\/while\/iteration_counter",
      "weights" : {

      },
      "debug_info" : "fake_exit_0_input_copy",
      "top" : "fake_exit_0",
      "type" : "copy",
      "name" : "fake_exit_0_input_copy",
      "attributes" : {
        "constant_if_condition" : 10,
        "is_output" : 1
      }
    },
    {
      "top" : "bidirectional\/time",
      "w" : 1,
      "h" : 1,
      "name" : "bidirectional\/time",
      "nd_rank" : 1,
      "type" : "load_constant",
      "k" : 1,
      "bottom" : "",
      "debug_info" : "bidirectional\/time",
      "n" : 1,
      "weights" : {

      },
      "constant_blob" : 63
    },
    {
      "bottom" : "bidirectional\/time",
      "weights" : {

      },
      "debug_info" : "fake_exit_1_input_copy",
      "top" : "fake_exit_1",
      "type" : "copy",
      "name" : "fake_exit_1_input_copy",
      "attributes" : {
        "is_output" : 1
      }
    },
    {
      "weights" : {

      },
      "debug_info" : "while_0:2_input_copy",
      "top" : "while_0:2",
      "type" : "copy",
      "name" : "while_0:2_input_copy",
      "bottom" : "bidirectional\/TensorArray_1"
    },
    {
      "bottom" : "bidirectional\/zeros",
      "weights" : {

      },
      "debug_info" : "fake_exit_2_input_copy",
      "top" : "fake_exit_2",
      "type" : "copy",
      "name" : "fake_exit_2_input_copy",
      "attributes" : {
        "is_output" : 1
      }
    },
    {
      "bottom" : "bidirectional\/zeros_1",
      "weights" : {

      },
      "debug_info" : "fake_exit_3_input_copy",
      "top" : "fake_exit_3",
      "type" : "copy",
      "name" : "fake_exit_3_input_copy",
      "attributes" : {
        "is_output" : 1
      }
    },
    {
      "bottom" : "fake_exit_1,fake_exit_1_@ssa_version_1,fake_exit_1_@ssa_version_5,fake_exit_1_@ssa_version_3,fake_exit_1_@ssa_version_4",
      "weights" : {

      },
      "debug_info" : "",
      "top" : "fake_exit_1_@ssa_version_2",
      "type" : "phi_virtual",
      "name" : "phi_fake_exit_1_@ssa_version_2",
      "attributes" : {
        "basic_block_head" : 1
      }
    },
    {
      "bottom" : "fake_exit_0,fake_exit_0_@ssa_version_1,fake_exit_0_@ssa_version_3",
      "weights" : {

      },
      "debug_info" : "",
      "top" : "fake_exit_0_@ssa_version_2",
      "type" : "phi_virtual",
      "name" : "phi_fake_exit_0_@ssa_version_2",
      "attributes" : {
        "constant_if_condition" : 10
      }
    },
    {
      "weights" : {

      },
      "debug_info" : "while_0_renamed",
      "top" : "",
      "type" : "cf_loop",
      "name" : "while_0_renamed_loop_start",
      "bottom" : ""
    },
    {
      "top" : "bidirectional\/while\/Less_load_constant_202",
      "w" : 1,
      "h" : 1,
      "name" : "bidirectional\/while\/Less_load_constant_202",
      "type" : "load_constant",
      "k" : 1,
      "attributes" : {
        "constant_if_condition" : 10
      },
      "bottom" : "",
      "debug_info" : "bidirectional\/while\/Less",
      "n" : 1,
      "weights" : {

      },
      "constant_blob" : 65
    },
    {
      "bottom" : "fake_exit_0_@ssa_version_2,bidirectional\/while\/Less_load_constant_202",
      "alpha" : 1,
      "operation" : 103,
      "beta" : 0,
      "weights" : {

      },
      "fused_relu" : 0,
      "debug_info" : "bidirectional\/while\/Less",
      "top" : "bidirectional\/while\/Less",
      "type" : "elementwise",
      "name" : "bidirectional\/while\/Less",
      "attributes" : {
        "constant_if_condition" : 10
      }
    },
    {
      "top" : "bidirectional\/while\/Less_1_load_constant_203",
      "w" : 1,
      "h" : 1,
      "name" : "bidirectional\/while\/Less_1_load_constant_203",
      "type" : "load_constant",
      "k" : 1,
      "attributes" : {
        "constant_if_condition" : 10
      },
      "bottom" : "",
      "debug_info" : "bidirectional\/while\/Less_1",
      "n" : 1,
      "weights" : {

      },
      "constant_blob" : 67
    },
    {
      "bottom" : "fake_exit_1_@ssa_version_2,bidirectional\/while\/Less_1_load_constant_203",
      "alpha" : 1,
      "operation" : 103,
      "beta" : 0,
      "weights" : {

      },
      "fused_relu" : 0,
      "debug_info" : "bidirectional\/while\/Less_1",
      "top" : "bidirectional\/while\/Less_1",
      "type" : "elementwise",
      "name" : "bidirectional\/while\/Less_1",
      "attributes" : {
        "constant_if_condition" : 10
      }
    },
    {
      "bottom" : "bidirectional\/while\/Less,bidirectional\/while\/Less_1",
      "alpha" : 1,
      "operation" : 110,
      "beta" : 0,
      "weights" : {

      },
      "fused_relu" : 0,
      "debug_info" : "bidirectional\/while\/LogicalAnd",
      "top" : "bidirectional\/while\/LogicalAnd",
      "type" : "elementwise",
      "name" : "bidirectional\/while\/LogicalAnd",
      "attributes" : {
        "constant_if_condition" : 10
      }
    },
    {
      "bottom" : "bidirectional\/while\/LogicalAnd",
      "weights" : {

      },
      "debug_info" : "",
      "top" : "",
      "type" : "cf_if",
      "name" : "while_0_renamed_if",
      "attributes" : {
        "constant_if_condition" : 10
      }
    },
    {
      "bottom" : "while_0:2,while_0:2_@ssa_version_3,while_0:2_@ssa_version_2,while_0:2_@ssa_version_1",
      "weights" : {

      },
      "debug_info" : "",
      "top" : "while_0:2_@ssa_version_4",
      "type" : "phi_virtual",
      "name" : "phi_while_0:2_@ssa_version_4",
      "attributes" : {
        "basic_block_head" : 1
      }
    },
    {
      "weights" : {

      },
      "debug_info" : "",
      "top" : "fake_exit_3_@ssa_version_2",
      "type" : "phi_virtual",
      "name" : "phi_fake_exit_3_@ssa_version_2",
      "bottom" : "fake_exit_3,fake_exit_3_@ssa_version_1"
    },
    {
      "bottom" : "fake_exit_0,fake_exit_0_@ssa_version_1,fake_exit_0_@ssa_version_2",
      "weights" : {

      },
      "debug_info" : "",
      "top" : "fake_exit_0_@ssa_version_3",
      "type" : "phi_virtual",
      "name" : "phi_fake_exit_0_@ssa_version_3",
      "attributes" : {
        "constant_if_condition" : 10
      }
    },
    {
      "weights" : {

      },
      "debug_info" : "",
      "top" : "fake_exit_2_@ssa_version_2",
      "type" : "phi_virtual",
      "name" : "phi_fake_exit_2_@ssa_version_2",
      "bottom" : "fake_exit_2,fake_exit_2_@ssa_version_1"
    },
    {
      "weights" : {

      },
      "debug_info" : "",
      "top" : "fake_exit_1_@ssa_version_3",
      "type" : "phi_virtual",
      "name" : "phi_fake_exit_1_@ssa_version_3",
      "bottom" : "fake_exit_1,fake_exit_1_@ssa_version_1,fake_exit_1_@ssa_version_5,fake_exit_1_@ssa_version_4,fake_exit_1_@ssa_version_2"
    },
    {
      "bottom" : "bidirectional\/TensorArrayUnstack\/TensorArrayScatter\/TensorArrayScatterV3,fake_exit_1_@ssa_version_3",
      "weights" : {

      },
      "mode" : 0,
      "debug_info" : "bidirectional\/while\/TensorArrayReadV3",
      "axis" : 0,
      "top" : "bidirectional\/while\/TensorArrayReadV3_gathered",
      "type" : "gather_nd",
      "name" : "bidirectional\/while\/TensorArrayReadV3",
      "batch_dims" : 0
    },
    {
      "size_of_axes" : 1,
      "bottom" : "bidirectional\/while\/TensorArrayReadV3_gathered",
      "axes_0" : 0,
      "weights" : {

      },
      "nd_axis" : 0,
      "debug_info" : "bidirectional\/while\/TensorArrayReadV3_squeezed",
      "version" : 1,
      "top" : "bidirectional\/while\/TensorArrayReadV3",
      "type" : "squeeze",
      "name" : "bidirectional\/while\/TensorArrayReadV3_squeezed"
    },
    {
      "bottom" : "bidirectional\/TensorArrayUnstack_1\/TensorArrayScatter\/TensorArrayScatterV3,fake_exit_1_@ssa_version_3",
      "weights" : {

      },
      "mode" : 0,
      "debug_info" : "bidirectional\/while\/TensorArrayReadV3_1",
      "axis" : 0,
      "top" : "bidirectional\/while\/TensorArrayReadV3_1_gathered",
      "type" : "gather_nd",
      "name" : "bidirectional\/while\/TensorArrayReadV3_1",
      "batch_dims" : 0
    },
    {
      "size_of_axes" : 1,
      "bottom" : "bidirectional\/while\/TensorArrayReadV3_1_gathered",
      "axes_0" : 0,
      "weights" : {

      },
      "nd_axis" : 0,
      "debug_info" : "bidirectional\/while\/TensorArrayReadV3_1_squeezed",
      "version" : 1,
      "top" : "bidirectional\/while\/TensorArrayReadV3_1",
      "type" : "squeeze",
      "name" : "bidirectional\/while\/TensorArrayReadV3_1_squeezed"
    },
    {
      "nB" : 256,
      "top" : "bidirectional\/while\/MatMul_1",
      "has_biases" : 0,
      "weights" : {

      },
      "nC" : 1024,
      "blob_weights" : 69,
      "type" : "inner_product",
      "has_relu" : 0,
      "bottom" : "fake_exit_2_@ssa_version_2",
      "debug_info" : "bidirectional\/while\/MatMul_1",
      "has_tanh" : 0,
      "nd_mode" : true,
      "name" : "bidirectional\/while\/MatMul_1",
      "has_prelu" : 0
    },
    {
      "bottom" : "fake_exit_0_@ssa_version_3",
      "alpha" : 1,
      "operation" : 0,
      "beta" : 0,
      "weights" : {

      },
      "fused_relu" : 0,
      "debug_info" : "bidirectional\/while\/add",
      "top" : "bidirectional\/while\/add",
      "type" : "elementwise",
      "name" : "bidirectional\/while\/add",
      "attributes" : {
        "constant_if_condition" : 10
      }
    },
    {
      "bottom" : "fake_exit_1_@ssa_version_3",
      "alpha" : 1,
      "operation" : 0,
      "weights" : {

      },
      "fused_relu" : 0,
      "debug_info" : "bidirectional\/while\/add_3",
      "top" : "bidirectional\/while\/add_3",
      "type" : "elementwise",
      "name" : "bidirectional\/while\/add_3",
      "beta" : 0
    },
    {
      "nB" : 256,
      "top" : "bidirectional\/while\/MatMul",
      "has_biases" : 0,
      "weights" : {

      },
      "nC" : 1024,
      "blob_weights" : 71,
      "type" : "inner_product",
      "has_relu" : 0,
      "bottom" : "bidirectional\/while\/TensorArrayReadV3",
      "debug_info" : "bidirectional\/while\/MatMul",
      "has_tanh" : 0,
      "nd_mode" : true,
      "name" : "bidirectional\/while\/MatMul",
      "has_prelu" : 0
    },
    {
      "name" : "bidirectional\/while\/Tile",
      "bottom" : "bidirectional\/while\/TensorArrayReadV3_1",
      "dst_n" : 1,
      "dst_seq" : 1,
      "weights" : {

      },
      "dst_k" : 1,
      "debug_info" : "bidirectional\/while\/Tile",
      "top" : "bidirectional\/while\/Tile",
      "dst_h" : 1,
      "dst_w" : 256,
      "type" : "tile"
    },
    {
      "name" : "bidirectional\/while\/Tile_1",
      "bottom" : "bidirectional\/while\/TensorArrayReadV3_1",
      "dst_n" : 1,
      "dst_seq" : 1,
      "weights" : {

      },
      "dst_k" : 1,
      "debug_info" : "bidirectional\/while\/Tile_1",
      "top" : "bidirectional\/while\/Tile_1",
      "dst_h" : 1,
      "dst_w" : 256,
      "type" : "tile"
    },
    {
      "name" : "bidirectional\/while\/Tile_2",
      "bottom" : "bidirectional\/while\/TensorArrayReadV3_1",
      "dst_n" : 1,
      "dst_seq" : 1,
      "weights" : {

      },
      "dst_k" : 1,
      "debug_info" : "bidirectional\/while\/Tile_2",
      "top" : "bidirectional\/while\/Tile_2",
      "dst_h" : 1,
      "dst_w" : 256,
      "type" : "tile"
    },
    {
      "bottom" : "bidirectional\/while\/MatMul_1,bidirectional\/while\/MatMul",
      "alpha" : 1,
      "operation" : 0,
      "weights" : {

      },
      "fused_relu" : 0,
      "debug_info" : "bidirectional\/while\/add_1",
      "top" : "bidirectional\/while\/add_1",
      "type" : "elementwise",
      "name" : "bidirectional\/while\/add_1",
      "beta" : 0
    },
    {
      "top" : "bidirectional\/forward_lstm\/bias",
      "w" : 1024,
      "h" : 1,
      "name" : "bidirectional\/forward_lstm\/bias",
      "nd_rank" : 1,
      "type" : "load_constant",
      "k" : 1,
      "bottom" : "",
      "debug_info" : "bidirectional\/forward_lstm\/bias",
      "n" : 1,
      "weights" : {

      },
      "constant_blob" : 73
    },
    {
      "bottom" : "bidirectional\/while\/add_1,bidirectional\/forward_lstm\/bias",
      "alpha" : 1,
      "operation" : 0,
      "weights" : {

      },
      "fused_relu" : 0,
      "debug_info" : "bidirectional\/while\/BiasAdd",
      "nd_mode" : true,
      "top" : "bidirectional\/while\/BiasAdd",
      "type" : "elementwise",
      "name" : "bidirectional\/while\/BiasAdd",
      "beta" : 0
    },
    {
      "begin_104" : 0,
      "begin_63" : 0,
      "begin_59" : 0,
      "begin_64" : 0,
      "begin_105" : 0,
      "begin_65" : 0,
      "begin_0" : 0,
      "begin_70" : 0,
      "begin_66" : 0,
      "begin_106" : 0,
      "begin_110" : 0,
      "begin_2" : 0,
      "begin_71" : 0,
      "begin_67" : 0,
      "begin_68" : 0,
      "begin_107" : 0,
      "begin_111" : 0,
      "begin_4" : 0,
      "begin_72" : 0,
      "begin_73" : 0,
      "begin_69" : 0,
      "begin_6" : 0,
      "begin_74" : 0,
      "begin_108" : 0,
      "type" : "split_nd",
      "begin_8" : 0,
      "begin_112" : 0,
      "begin_75" : 0,
      "begin_10" : 0,
      "begin_80" : 0,
      "begin_76" : 0,
      "begin_109" : 0,
      "begin_113" : 0,
      "begin_11" : 0,
      "nd_axis" : 1,
      "begin_81" : 0,
      "begin_77" : 0,
      "begin_114" : 0,
      "begin_12" : 0,
      "begin_78" : 0,
      "begin_82" : 0,
      "begin_13" : 0,
      "begin_83" : 0,
      "begin_79" : 0,
      "begin_115" : 0,
      "begin_14" : 0,
      "begin_84" : 0,
      "begin_15" : 0,
      "begin_85" : 0,
      "num_splits" : 4,
      "begin_116" : 0,
      "begin_120" : 0,
      "begin_20" : 0,
      "begin_86" : 0,
      "begin_16" : 0,
      "begin_90" : 0,
      "begin_21" : 0,
      "begin_91" : 0,
      "begin_87" : 0,
      "begin_17" : 0,
      "begin_117" : 0,
      "begin_121" : 0,
      "begin_18" : 0,
      "begin_92" : 0,
      "begin_88" : 0,
      "begin_22" : 0,
      "begin_23" : 0,
      "begin_89" : 0,
      "begin_19" : 0,
      "begin_93" : 0,
      "begin_118" : 0,
      "begin_122" : 0,
      "begin_24" : 0,
      "begin_94" : 0,
      "begin_25" : 0,
      "begin_95" : 0,
      "begin_119" : 0,
      "begin_123" : 0,
      "begin_30" : 0,
      "begin_26" : 0,
      "begin_96" : 0,
      "begin_124" : 0,
      "begin_31" : 0,
      "begin_97" : 0,
      "begin_27" : 0,
      "begin_28" : 0,
      "begin_98" : 0,
      "begin_32" : 0,
      "begin_125" : 0,
      "begin_33" : 0,
      "begin_29" : 0,
      "begin_99" : 0,
      "begin_1" : 0,
      "weights" : {

      },
      "begin_34" : 0,
      "bottom" : "bidirectional\/while\/BiasAdd",
      "begin_3" : 0,
      "begin_126" : 0,
      "begin_35" : 0,
      "begin_5" : 0,
      "begin_36" : 0,
      "begin_40" : 0,
      "begin_127" : 0,
      "name" : "bidirectional\/while\/split",
      "begin_41" : 0,
      "begin_37" : 0,
      "begin_7" : 0,
      "begin_42" : 0,
      "begin_38" : 0,
      "begin_9" : 0,
      "begin_39" : 0,
      "begin_43" : 0,
      "begin_44" : 0,
      "begin_45" : 0,
      "begin_50" : 0,
      "begin_46" : 0,
      "begin_51" : 0,
      "begin_47" : 0,
      "begin_100" : 0,
      "begin_52" : 0,
      "debug_info" : "bidirectional\/while\/split",
      "begin_48" : 0,
      "top" : "bidirectional\/while\/split:0,bidirectional\/while\/split:1,bidirectional\/while\/split:2,bidirectional\/while\/split:3",
      "begin_101" : 0,
      "begin_53" : 0,
      "begin_49" : 0,
      "begin_54" : 0,
      "begin_55" : 0,
      "begin_102" : 0,
      "begin_60" : 0,
      "begin_56" : 0,
      "begin_103" : 0,
      "begin_57" : 0,
      "begin_61" : 0,
      "begin_62" : 0,
      "begin_58" : 0
    },
    {
      "bottom" : "bidirectional\/while\/split:0",
      "weights" : {

      },
      "mode" : 3,
      "debug_info" : "bidirectional\/while\/Sigmoid",
      "top" : "bidirectional\/while\/Sigmoid",
      "type" : "activation",
      "name" : "bidirectional\/while\/Sigmoid"
    },
    {
      "bottom" : "bidirectional\/while\/split:1",
      "weights" : {

      },
      "mode" : 3,
      "debug_info" : "bidirectional\/while\/Sigmoid_1",
      "top" : "bidirectional\/while\/Sigmoid_1",
      "type" : "activation",
      "name" : "bidirectional\/while\/Sigmoid_1"
    },
    {
      "bottom" : "bidirectional\/while\/split:2",
      "weights" : {

      },
      "mode" : 1,
      "debug_info" : "bidirectional\/while\/Tanh",
      "top" : "bidirectional\/while\/Tanh",
      "type" : "activation",
      "name" : "bidirectional\/while\/Tanh"
    },
    {
      "bottom" : "bidirectional\/while\/split:3",
      "weights" : {

      },
      "mode" : 3,
      "debug_info" : "bidirectional\/while\/Sigmoid_2",
      "top" : "bidirectional\/while\/Sigmoid_2",
      "type" : "activation",
      "name" : "bidirectional\/while\/Sigmoid_2"
    },
    {
      "bottom" : "bidirectional\/while\/Sigmoid_1,fake_exit_3_@ssa_version_2",
      "alpha" : 1,
      "operation" : 1,
      "weights" : {

      },
      "fused_relu" : 0,
      "debug_info" : "bidirectional\/while\/mul",
      "nd_mode" : true,
      "top" : "bidirectional\/while\/mul",
      "type" : "elementwise",
      "name" : "bidirectional\/while\/mul",
      "beta" : 0
    },
    {
      "bottom" : "bidirectional\/while\/Tanh,bidirectional\/while\/Sigmoid",
      "alpha" : 1,
      "operation" : 1,
      "weights" : {

      },
      "fused_relu" : 0,
      "debug_info" : "bidirectional\/while\/mul_1",
      "top" : "bidirectional\/while\/mul_1",
      "type" : "elementwise",
      "name" : "bidirectional\/while\/mul_1",
      "beta" : 0
    },
    {
      "bottom" : "bidirectional\/while\/mul,bidirectional\/while\/mul_1",
      "alpha" : 1,
      "operation" : 0,
      "weights" : {

      },
      "fused_relu" : 0,
      "debug_info" : "bidirectional\/while\/add_2",
      "nd_mode" : true,
      "top" : "bidirectional\/while\/add_2",
      "type" : "elementwise",
      "name" : "bidirectional\/while\/add_2",
      "beta" : 0
    },
    {
      "bottom" : "bidirectional\/while\/add_2",
      "weights" : {

      },
      "mode" : 1,
      "debug_info" : "bidirectional\/while\/Tanh_1",
      "top" : "bidirectional\/while\/Tanh_1",
      "type" : "activation",
      "name" : "bidirectional\/while\/Tanh_1"
    },
    {
      "bottom" : "bidirectional\/while\/Tile_2,bidirectional\/while\/add_2,fake_exit_3_@ssa_version_2",
      "alpha" : 1,
      "operation" : 101,
      "weights" : {

      },
      "fused_relu" : 0,
      "debug_info" : "bidirectional\/while\/Select_2",
      "nd_mode" : true,
      "top" : "bidirectional\/while\/Select_2",
      "type" : "elementwise",
      "name" : "bidirectional\/while\/Select_2",
      "beta" : 0
    },
    {
      "bottom" : "bidirectional\/while\/Sigmoid_2,bidirectional\/while\/Tanh_1",
      "alpha" : 1,
      "operation" : 1,
      "weights" : {

      },
      "fused_relu" : 0,
      "debug_info" : "bidirectional\/while\/mul_2",
      "nd_mode" : true,
      "top" : "bidirectional\/while\/mul_2",
      "type" : "elementwise",
      "name" : "bidirectional\/while\/mul_2",
      "beta" : 0
    },
    {
      "bottom" : "bidirectional\/while\/Tile,bidirectional\/while\/mul_2,bidirectional\/zeros_like",
      "alpha" : 1,
      "operation" : 101,
      "weights" : {

      },
      "fused_relu" : 0,
      "debug_info" : "bidirectional\/while\/Select",
      "nd_mode" : true,
      "top" : "bidirectional\/while\/Select",
      "type" : "elementwise",
      "name" : "bidirectional\/while\/Select",
      "beta" : 0
    },
    {
      "bottom" : "bidirectional\/while\/Tile_1,bidirectional\/while\/mul_2,fake_exit_2_@ssa_version_2",
      "alpha" : 1,
      "operation" : 101,
      "weights" : {

      },
      "fused_relu" : 0,
      "debug_info" : "bidirectional\/while\/Select_1",
      "nd_mode" : true,
      "top" : "bidirectional\/while\/Select_1",
      "type" : "elementwise",
      "name" : "bidirectional\/while\/Select_1",
      "beta" : 0
    },
    {
      "bottom" : "while_0:2_@ssa_version_4",
      "weights" : {

      },
      "nd_mode" : 1,
      "axis" : -1,
      "debug_info" : "while_0:2_full_shape",
      "top" : "while_0:2_full_shape",
      "type" : "get_shape",
      "name" : "while_0:2_full_shape"
    },
    {
      "begin_n" : 0,
      "static_sizes_k" : 0,
      "end_mask_h" : false,
      "end_w" : 1,
      "end_h" : 1,
      "begin_h" : 0,
      "stride_n" : 1,
      "end_seq" : 1,
      "begin_mask_seq" : false,
      "begin_mask_h" : false,
      "squeeze_mask_h" : false,
      "stride_k" : 1,
      "type" : "general_slice",
      "begin_mask_k" : false,
      "static_sizes_w" : 0,
      "begin_w" : 0,
      "end_mask_k" : false,
      "use_static_sizes" : false,
      "stride_h" : 1,
      "static_sizes_n" : 0,
      "begin_mask_n" : false,
      "weights" : {

      },
      "name" : "while_0:2_length",
      "stride_seq" : 1,
      "end_k" : 1,
      "static_sizes_seq" : 0,
      "top" : "while_0:2_length",
      "begin_seq" : 0,
      "squeeze_mask_k" : false,
      "begin_k" : 0,
      "end_mask_w" : false,
      "end_mask_seq" : false,
      "end_mask_n" : false,
      "debug_info" : "while_0:2_length",
      "stride_w" : 1,
      "squeeze_mask_seq" : false,
      "static_sizes_h" : 0,
      "begin_mask_w" : false,
      "bottom" : "while_0:2_full_shape",
      "end_n" : 1,
      "squeeze_mask_w" : false,
      "squeeze_mask_n" : false
    },
    {
      "bottom" : "bidirectional\/while\/Select",
      "weights" : {

      },
      "nd_mode" : 1,
      "axis" : -1,
      "debug_info" : "while_0:2_value_elem_shape",
      "top" : "while_0:2_value_elem_shape",
      "type" : "get_shape",
      "name" : "while_0:2_value_elem_shape"
    },
    {
      "begin_n" : 0,
      "static_sizes_k" : 0,
      "end_mask_h" : false,
      "end_w" : -1,
      "end_h" : 1,
      "begin_h" : 0,
      "stride_n" : 1,
      "end_seq" : 1,
      "begin_mask_seq" : false,
      "begin_mask_h" : false,
      "squeeze_mask_h" : false,
      "stride_k" : 1,
      "type" : "general_slice",
      "begin_mask_k" : false,
      "static_sizes_w" : 0,
      "begin_w" : 1,
      "end_mask_k" : false,
      "use_static_sizes" : false,
      "stride_h" : 1,
      "static_sizes_n" : 0,
      "begin_mask_n" : false,
      "weights" : {

      },
      "name" : "while_0:2_ls_elem_shape",
      "stride_seq" : 1,
      "end_k" : 1,
      "static_sizes_seq" : 0,
      "top" : "while_0:2_ls_elem_shape",
      "begin_seq" : 0,
      "squeeze_mask_k" : false,
      "begin_k" : 0,
      "end_mask_w" : true,
      "end_mask_seq" : false,
      "end_mask_n" : false,
      "debug_info" : "while_0:2_ls_elem_shape",
      "stride_w" : 1,
      "squeeze_mask_seq" : false,
      "static_sizes_h" : 0,
      "begin_mask_w" : false,
      "bottom" : "while_0:2_full_shape",
      "end_n" : 1,
      "squeeze_mask_w" : false,
      "squeeze_mask_n" : false
    },
    {
      "bottom" : "while_0:2_ls_elem_shape,while_0:2_value_elem_shape",
      "alpha" : 1,
      "operation" : 107,
      "weights" : {

      },
      "fused_relu" : 0,
      "debug_info" : "while_0:2_elem_shape_not_equal",
      "top" : "while_0:2_elem_shape_not_equal",
      "type" : "elementwise",
      "name" : "while_0:2_elem_shape_not_equal",
      "beta" : 0
    },
    {
      "axis_mode" : 31,
      "bottom" : "while_0:2_elem_shape_not_equal",
      "weights" : {

      },
      "mode" : 0,
      "debug_info" : "while_0:2_reduce_any",
      "use_version" : 1,
      "top" : "while_0:2_reduce_any_presqueeze",
      "type" : "reduce",
      "name" : "while_0:2_reduce_any_presqueeze"
    },
    {
      "size_of_axes" : 1,
      "bottom" : "while_0:2_reduce_any_presqueeze",
      "axes_0" : 0,
      "weights" : {

      },
      "nd_axis" : 0,
      "debug_info" : "while_0:2_reduce_any",
      "version" : 1,
      "top" : "while_0:2_reduce_any",
      "type" : "squeeze",
      "name" : "while_0:2_reduce_any",
      "squeeze_all" : true
    },
    {
      "weights" : {

      },
      "debug_info" : "while_0:2_condition_re_initialize",
      "top" : "",
      "type" : "cf_if",
      "name" : "while_0:2_condition_re_initialize_if",
      "bottom" : "while_0:2_reduce_any"
    },
    {
      "bottom" : "while_0:2_length,while_0:2_value_elem_shape",
      "weights" : {

      },
      "nd_mode" : true,
      "debug_info" : "while_0:2_re_initialize_shape",
      "axis" : 0,
      "top" : "while_0:2_re_initialize_shape",
      "type" : "general_concat",
      "name" : "while_0:2_re_initialize_shape",
      "attributes" : {
        "basic_block_head" : 1
      }
    },
    {
      "bottom" : "while_0:2_re_initialize_shape",
      "weights" : {

      },
      "nd_mode" : 1,
      "debug_info" : "while_0:2_re_initialize",
      "value" : 0,
      "top" : "while_0:2_re_initialize",
      "type" : "fill",
      "name" : "while_0:2_re_initialize"
    },
    {
      "bottom" : "while_0:2_re_initialize",
      "weights" : {

      },
      "debug_info" : "while_0:2_re_initialize_assign",
      "top" : "while_0:2_@ssa_version_1",
      "type" : "copy",
      "name" : "while_0:2_re_initialize_assign",
      "attributes" : {
        "basic_block_head" : 1
      }
    },
    {
      "bottom" : "",
      "weights" : {

      },
      "debug_info" : "",
      "top" : "",
      "type" : "cf_end",
      "name" : "while_0:2_condition_re_initialize_end",
      "attributes" : {
        "basic_block_head" : 1
      }
    },
    {
      "bottom" : "fake_exit_1,fake_exit_1_@ssa_version_1,fake_exit_1_@ssa_version_5,fake_exit_1_@ssa_version_3,fake_exit_1_@ssa_version_2",
      "weights" : {

      },
      "debug_info" : "",
      "top" : "fake_exit_1_@ssa_version_4",
      "type" : "phi_virtual",
      "name" : "phi_fake_exit_1_@ssa_version_4",
      "attributes" : {
        "basic_block_head" : 1
      }
    },
    {
      "bottom" : "fake_exit_1_@ssa_version_4,while_0:2_length",
      "alpha" : 1,
      "operation" : 106,
      "weights" : {

      },
      "fused_relu" : 0,
      "debug_info" : "while_0:2_is_growing",
      "top" : "while_0:2_is_growing",
      "type" : "elementwise",
      "name" : "while_0:2_is_growing",
      "beta" : 0
    },
    {
      "weights" : {

      },
      "debug_info" : "while_0:2_condition",
      "top" : "",
      "type" : "cf_if",
      "name" : "while_0:2_condition_if",
      "bottom" : "while_0:2_is_growing"
    },
    {
      "bottom" : "fake_exit_1,fake_exit_1_@ssa_version_1,fake_exit_1_@ssa_version_3,fake_exit_1_@ssa_version_4,fake_exit_1_@ssa_version_2",
      "weights" : {

      },
      "debug_info" : "",
      "top" : "fake_exit_1_@ssa_version_5",
      "type" : "phi_virtual",
      "name" : "phi_fake_exit_1_@ssa_version_5",
      "attributes" : {
        "basic_block_head" : 1
      }
    },
    {
      "bottom" : "fake_exit_1_@ssa_version_5,while_0:2_length",
      "alpha" : 1,
      "operation" : 33,
      "weights" : {

      },
      "fused_relu" : 0,
      "debug_info" : "while_0:2_extra_length0",
      "nd_mode" : true,
      "top" : "while_0:2_extra_length0",
      "type" : "elementwise",
      "name" : "while_0:2_extra_length0",
      "beta" : 0
    },
    {
      "bottom" : "while_0:2_extra_length0",
      "alpha" : 1,
      "operation" : 0,
      "weights" : {

      },
      "fused_relu" : 0,
      "debug_info" : "while_0:2_extra_length1",
      "top" : "while_0:2_extra_length1",
      "type" : "elementwise",
      "name" : "while_0:2_extra_length1",
      "beta" : 0
    },
    {
      "bottom" : "while_0:2_extra_length1,while_0:2_value_elem_shape",
      "weights" : {

      },
      "nd_mode" : true,
      "axis" : 0,
      "debug_info" : "while_0:2_alloc_shape",
      "top" : "while_0:2_alloc_shape",
      "type" : "general_concat",
      "name" : "while_0:2_alloc_shape"
    },
    {
      "bottom" : "while_0:2_alloc_shape",
      "weights" : {

      },
      "nd_mode" : 1,
      "debug_info" : "while_0:2_alloc",
      "value" : 0,
      "top" : "while_0:2_alloc",
      "type" : "fill",
      "name" : "while_0:2_alloc"
    },
    {
      "bottom" : "while_0:2,while_0:2_@ssa_version_3,while_0:2_@ssa_version_2,while_0:2_@ssa_version_1,while_0:2_@ssa_version_4",
      "weights" : {

      },
      "debug_info" : "",
      "top" : "while_0:2_@ssa_version_5",
      "type" : "phi_virtual",
      "name" : "phi_while_0:2_@ssa_version_5",
      "attributes" : {
        "basic_block_head" : 1
      }
    },
    {
      "bottom" : "while_0:2_@ssa_version_5,while_0:2_alloc",
      "weights" : {

      },
      "nd_mode" : true,
      "axis" : 0,
      "debug_info" : "while_0:2_new",
      "top" : "while_0:2_new",
      "type" : "general_concat",
      "name" : "while_0:2_new"
    },
    {
      "weights" : {

      },
      "debug_info" : "while_0:2_assign",
      "top" : "while_0:2_@ssa_version_2",
      "type" : "copy",
      "name" : "while_0:2_assign",
      "bottom" : "while_0:2_new"
    },
    {
      "bottom" : "",
      "weights" : {

      },
      "debug_info" : "",
      "top" : "",
      "type" : "cf_end",
      "name" : "while_0:2_condition_end",
      "attributes" : {
        "basic_block_head" : 1
      }
    },
    {
      "bottom" : "fake_exit_1,fake_exit_1_@ssa_version_1,fake_exit_1_@ssa_version_5,fake_exit_1_@ssa_version_3,fake_exit_1_@ssa_version_4,fake_exit_1_@ssa_version_2",
      "weights" : {

      },
      "debug_info" : "",
      "top" : "fake_exit_1_@ssa_version_6",
      "type" : "phi_virtual",
      "name" : "phi_fake_exit_1_@ssa_version_6",
      "attributes" : {
        "basic_block_head" : 1
      }
    },
    {
      "weights" : {

      },
      "debug_info" : "",
      "top" : "while_0:2_@ssa_version_6",
      "type" : "phi_virtual",
      "name" : "phi_while_0:2_@ssa_version_6",
      "bottom" : "while_0:2,while_0:2_@ssa_version_3,while_0:2_@ssa_version_2,while_0:2_@ssa_version_1,while_0:2_@ssa_version_4"
    },
    {
      "size_of_axes" : 1,
      "bottom" : "bidirectional\/while\/Select",
      "axes_0" : 0,
      "weights" : {

      },
      "nd_axis" : 0,
      "debug_info" : "while_0:2_bidirectional\/while\/Select_expanded",
      "top" : "while_0:2_bidirectional\/while\/Select_expanded",
      "type" : "expand_dims",
      "name" : "while_0:2_bidirectional\/while\/Select_expanded"
    },
    {
      "bottom" : "while_0:2_@ssa_version_6,fake_exit_1_@ssa_version_6,while_0:2_bidirectional\/while\/Select_expanded",
      "weights" : {

      },
      "mode" : 0,
      "debug_info" : "bidirectional\/while\/TensorArrayWrite\/TensorArrayWriteV3",
      "axis" : 0,
      "top" : "bidirectional\/while\/TensorArrayWrite\/TensorArrayWriteV3",
      "type" : "scatter_nd",
      "name" : "bidirectional\/while\/TensorArrayWrite\/TensorArrayWriteV3",
      "accumulation_mode" : 0
    },
    {
      "bottom" : "bidirectional\/while\/add",
      "weights" : {

      },
      "debug_info" : "fake_exit_0_ret_copy",
      "top" : "fake_exit_0_@ssa_version_1",
      "type" : "copy",
      "name" : "fake_exit_0_ret_copy",
      "attributes" : {
        "constant_if_condition" : 10
      }
    },
    {
      "weights" : {

      },
      "debug_info" : "fake_exit_1_ret_copy",
      "top" : "fake_exit_1_@ssa_version_1",
      "type" : "copy",
      "name" : "fake_exit_1_ret_copy",
      "bottom" : "bidirectional\/while\/add_3"
    },
    {
      "weights" : {

      },
      "debug_info" : "while_0:2_ret_copy",
      "top" : "while_0:2_@ssa_version_3",
      "type" : "copy",
      "name" : "while_0:2_ret_copy",
      "bottom" : "bidirectional\/while\/TensorArrayWrite\/TensorArrayWriteV3"
    },
    {
      "weights" : {

      },
      "debug_info" : "fake_exit_2_ret_copy",
      "top" : "fake_exit_2_@ssa_version_1",
      "type" : "copy",
      "name" : "fake_exit_2_ret_copy",
      "bottom" : "bidirectional\/while\/Select_1"
    },
    {
      "weights" : {

      },
      "debug_info" : "fake_exit_3_ret_copy",
      "top" : "fake_exit_3_@ssa_version_1",
      "type" : "copy",
      "name" : "fake_exit_3_ret_copy",
      "bottom" : "bidirectional\/while\/Select_2"
    },
    {
      "bottom" : "",
      "weights" : {

      },
      "cf_stack_depth" : 1,
      "debug_info" : "",
      "top" : "",
      "type" : "cf_jump",
      "name" : "while_0_renamed_jump"
    },
    {
      "bottom" : "",
      "weights" : {

      },
      "debug_info" : "",
      "top" : "",
      "type" : "cf_end",
      "name" : "while_0_renamed_end_loop_if",
      "attributes" : {
        "basic_block_head" : 1
      }
    },
    {
      "bottom" : "",
      "weights" : {

      },
      "debug_info" : "",
      "top" : "",
      "type" : "cf_end",
      "name" : "while_0_renamed_end_loop",
      "attributes" : {
        "basic_block_head" : 1
      }
    },
    {
      "top" : "bidirectional\/while_1\/iteration_counter",
      "w" : 1,
      "h" : 1,
      "weights" : {

      },
      "nd_rank" : 1,
      "type" : "load_constant",
      "k" : 1,
      "attributes" : {
        "constant_if_condition" : 10,
        "basic_block_head" : 1
      },
      "bottom" : "",
      "debug_info" : "bidirectional\/while_1\/iteration_counter",
      "n" : 1,
      "name" : "bidirectional\/while_1\/iteration_counter",
      "constant_blob" : 75
    },
    {
      "bottom" : "bidirectional\/while_1\/iteration_counter",
      "weights" : {

      },
      "debug_info" : "fake_exit_4_input_copy",
      "top" : "fake_exit_4",
      "type" : "copy",
      "name" : "fake_exit_4_input_copy",
      "attributes" : {
        "constant_if_condition" : 10,
        "is_output" : 1
      }
    },
    {
      "top" : "bidirectional\/time_1",
      "w" : 1,
      "h" : 1,
      "name" : "bidirectional\/time_1",
      "nd_rank" : 1,
      "type" : "load_constant",
      "k" : 1,
      "bottom" : "",
      "debug_info" : "bidirectional\/time_1",
      "n" : 1,
      "weights" : {

      },
      "constant_blob" : 77
    },
    {
      "bottom" : "bidirectional\/time_1",
      "weights" : {

      },
      "debug_info" : "fake_exit_5_input_copy",
      "top" : "fake_exit_5",
      "type" : "copy",
      "name" : "fake_exit_5_input_copy",
      "attributes" : {
        "is_output" : 1
      }
    },
    {
      "weights" : {

      },
      "debug_info" : "while_1:2_input_copy",
      "top" : "while_1:2",
      "type" : "copy",
      "name" : "while_1:2_input_copy",
      "bottom" : "bidirectional\/TensorArray_4"
    },
    {
      "bottom" : "bidirectional\/zeros_2",
      "weights" : {

      },
      "debug_info" : "fake_exit_6_input_copy",
      "top" : "fake_exit_6",
      "type" : "copy",
      "name" : "fake_exit_6_input_copy",
      "attributes" : {
        "is_output" : 1
      }
    },
    {
      "bottom" : "bidirectional\/zeros_3",
      "weights" : {

      },
      "debug_info" : "fake_exit_7_input_copy",
      "top" : "fake_exit_7",
      "type" : "copy",
      "name" : "fake_exit_7_input_copy",
      "attributes" : {
        "is_output" : 1
      }
    },
    {
      "bottom" : "fake_exit_5,fake_exit_5_@ssa_version_1,fake_exit_5_@ssa_version_5,fake_exit_5_@ssa_version_3,fake_exit_5_@ssa_version_4",
      "weights" : {

      },
      "debug_info" : "",
      "top" : "fake_exit_5_@ssa_version_2",
      "type" : "phi_virtual",
      "name" : "phi_fake_exit_5_@ssa_version_2",
      "attributes" : {
        "basic_block_head" : 1
      }
    },
    {
      "bottom" : "fake_exit_4,fake_exit_4_@ssa_version_1,fake_exit_4_@ssa_version_3",
      "weights" : {

      },
      "debug_info" : "",
      "top" : "fake_exit_4_@ssa_version_2",
      "type" : "phi_virtual",
      "name" : "phi_fake_exit_4_@ssa_version_2",
      "attributes" : {
        "constant_if_condition" : 10
      }
    },
    {
      "weights" : {

      },
      "debug_info" : "while_1_renamed",
      "top" : "",
      "type" : "cf_loop",
      "name" : "while_1_renamed_loop_start",
      "bottom" : ""
    },
    {
      "top" : "bidirectional\/while_1\/Less_load_constant_265",
      "w" : 1,
      "h" : 1,
      "name" : "bidirectional\/while_1\/Less_load_constant_265",
      "type" : "load_constant",
      "k" : 1,
      "attributes" : {
        "constant_if_condition" : 10
      },
      "bottom" : "",
      "debug_info" : "bidirectional\/while_1\/Less",
      "n" : 1,
      "weights" : {

      },
      "constant_blob" : 79
    },
    {
      "bottom" : "fake_exit_4_@ssa_version_2,bidirectional\/while_1\/Less_load_constant_265",
      "alpha" : 1,
      "operation" : 103,
      "beta" : 0,
      "weights" : {

      },
      "fused_relu" : 0,
      "debug_info" : "bidirectional\/while_1\/Less",
      "top" : "bidirectional\/while_1\/Less",
      "type" : "elementwise",
      "name" : "bidirectional\/while_1\/Less",
      "attributes" : {
        "constant_if_condition" : 10
      }
    },
    {
      "top" : "bidirectional\/while_1\/Less_1_load_constant_266",
      "w" : 1,
      "h" : 1,
      "name" : "bidirectional\/while_1\/Less_1_load_constant_266",
      "type" : "load_constant",
      "k" : 1,
      "attributes" : {
        "constant_if_condition" : 10
      },
      "bottom" : "",
      "debug_info" : "bidirectional\/while_1\/Less_1",
      "n" : 1,
      "weights" : {

      },
      "constant_blob" : 81
    },
    {
      "bottom" : "fake_exit_5_@ssa_version_2,bidirectional\/while_1\/Less_1_load_constant_266",
      "alpha" : 1,
      "operation" : 103,
      "beta" : 0,
      "weights" : {

      },
      "fused_relu" : 0,
      "debug_info" : "bidirectional\/while_1\/Less_1",
      "top" : "bidirectional\/while_1\/Less_1",
      "type" : "elementwise",
      "name" : "bidirectional\/while_1\/Less_1",
      "attributes" : {
        "constant_if_condition" : 10
      }
    },
    {
      "bottom" : "bidirectional\/while_1\/Less,bidirectional\/while_1\/Less_1",
      "alpha" : 1,
      "operation" : 110,
      "beta" : 0,
      "weights" : {

      },
      "fused_relu" : 0,
      "debug_info" : "bidirectional\/while_1\/LogicalAnd",
      "top" : "bidirectional\/while_1\/LogicalAnd",
      "type" : "elementwise",
      "name" : "bidirectional\/while_1\/LogicalAnd",
      "attributes" : {
        "constant_if_condition" : 10
      }
    },
    {
      "bottom" : "bidirectional\/while_1\/LogicalAnd",
      "weights" : {

      },
      "debug_info" : "",
      "top" : "",
      "type" : "cf_if",
      "name" : "while_1_renamed_if",
      "attributes" : {
        "constant_if_condition" : 10
      }
    },
    {
      "bottom" : "while_1:2,while_1:2_@ssa_version_3,while_1:2_@ssa_version_2,while_1:2_@ssa_version_1",
      "weights" : {

      },
      "debug_info" : "",
      "top" : "while_1:2_@ssa_version_4",
      "type" : "phi_virtual",
      "name" : "phi_while_1:2_@ssa_version_4",
      "attributes" : {
        "basic_block_head" : 1
      }
    },
    {
      "weights" : {

      },
      "debug_info" : "",
      "top" : "fake_exit_7_@ssa_version_2",
      "type" : "phi_virtual",
      "name" : "phi_fake_exit_7_@ssa_version_2",
      "bottom" : "fake_exit_7,fake_exit_7_@ssa_version_1"
    },
    {
      "bottom" : "fake_exit_4,fake_exit_4_@ssa_version_1,fake_exit_4_@ssa_version_2",
      "weights" : {

      },
      "debug_info" : "",
      "top" : "fake_exit_4_@ssa_version_3",
      "type" : "phi_virtual",
      "name" : "phi_fake_exit_4_@ssa_version_3",
      "attributes" : {
        "constant_if_condition" : 10
      }
    },
    {
      "weights" : {

      },
      "debug_info" : "",
      "top" : "fake_exit_6_@ssa_version_2",
      "type" : "phi_virtual",
      "name" : "phi_fake_exit_6_@ssa_version_2",
      "bottom" : "fake_exit_6,fake_exit_6_@ssa_version_1"
    },
    {
      "weights" : {

      },
      "debug_info" : "",
      "top" : "fake_exit_5_@ssa_version_3",
      "type" : "phi_virtual",
      "name" : "phi_fake_exit_5_@ssa_version_3",
      "bottom" : "fake_exit_5,fake_exit_5_@ssa_version_1,fake_exit_5_@ssa_version_5,fake_exit_5_@ssa_version_4,fake_exit_5_@ssa_version_2"
    },
    {
      "bottom" : "bidirectional\/TensorArrayUnstack_2\/TensorArrayScatter\/TensorArrayScatterV3,fake_exit_5_@ssa_version_3",
      "weights" : {

      },
      "mode" : 0,
      "debug_info" : "bidirectional\/while_1\/TensorArrayReadV3",
      "axis" : 0,
      "top" : "bidirectional\/while_1\/TensorArrayReadV3_gathered",
      "type" : "gather_nd",
      "name" : "bidirectional\/while_1\/TensorArrayReadV3",
      "batch_dims" : 0
    },
    {
      "size_of_axes" : 1,
      "bottom" : "bidirectional\/while_1\/TensorArrayReadV3_gathered",
      "axes_0" : 0,
      "weights" : {

      },
      "nd_axis" : 0,
      "debug_info" : "bidirectional\/while_1\/TensorArrayReadV3_squeezed",
      "version" : 1,
      "top" : "bidirectional\/while_1\/TensorArrayReadV3",
      "type" : "squeeze",
      "name" : "bidirectional\/while_1\/TensorArrayReadV3_squeezed"
    },
    {
      "bottom" : "bidirectional\/TensorArrayUnstack_3\/TensorArrayScatter\/TensorArrayScatterV3,fake_exit_5_@ssa_version_3",
      "weights" : {

      },
      "mode" : 0,
      "debug_info" : "bidirectional\/while_1\/TensorArrayReadV3_1",
      "axis" : 0,
      "top" : "bidirectional\/while_1\/TensorArrayReadV3_1_gathered",
      "type" : "gather_nd",
      "name" : "bidirectional\/while_1\/TensorArrayReadV3_1",
      "batch_dims" : 0
    },
    {
      "size_of_axes" : 1,
      "bottom" : "bidirectional\/while_1\/TensorArrayReadV3_1_gathered",
      "axes_0" : 0,
      "weights" : {

      },
      "nd_axis" : 0,
      "debug_info" : "bidirectional\/while_1\/TensorArrayReadV3_1_squeezed",
      "version" : 1,
      "top" : "bidirectional\/while_1\/TensorArrayReadV3_1",
      "type" : "squeeze",
      "name" : "bidirectional\/while_1\/TensorArrayReadV3_1_squeezed"
    },
    {
      "nB" : 256,
      "top" : "bidirectional\/while_1\/MatMul_1",
      "has_biases" : 0,
      "weights" : {

      },
      "nC" : 1024,
      "blob_weights" : 83,
      "type" : "inner_product",
      "has_relu" : 0,
      "bottom" : "fake_exit_6_@ssa_version_2",
      "debug_info" : "bidirectional\/while_1\/MatMul_1",
      "has_tanh" : 0,
      "nd_mode" : true,
      "name" : "bidirectional\/while_1\/MatMul_1",
      "has_prelu" : 0
    },
    {
      "bottom" : "fake_exit_4_@ssa_version_3",
      "alpha" : 1,
      "operation" : 0,
      "beta" : 0,
      "weights" : {

      },
      "fused_relu" : 0,
      "debug_info" : "bidirectional\/while_1\/add",
      "top" : "bidirectional\/while_1\/add",
      "type" : "elementwise",
      "name" : "bidirectional\/while_1\/add",
      "attributes" : {
        "constant_if_condition" : 10
      }
    },
    {
      "bottom" : "fake_exit_5_@ssa_version_3",
      "alpha" : 1,
      "operation" : 0,
      "weights" : {

      },
      "fused_relu" : 0,
      "debug_info" : "bidirectional\/while_1\/add_3",
      "top" : "bidirectional\/while_1\/add_3",
      "type" : "elementwise",
      "name" : "bidirectional\/while_1\/add_3",
      "beta" : 0
    },
    {
      "nB" : 256,
      "top" : "bidirectional\/while_1\/MatMul",
      "has_biases" : 0,
      "weights" : {

      },
      "nC" : 1024,
      "blob_weights" : 85,
      "type" : "inner_product",
      "has_relu" : 0,
      "bottom" : "bidirectional\/while_1\/TensorArrayReadV3",
      "debug_info" : "bidirectional\/while_1\/MatMul",
      "has_tanh" : 0,
      "nd_mode" : true,
      "name" : "bidirectional\/while_1\/MatMul",
      "has_prelu" : 0
    },
    {
      "name" : "bidirectional\/while_1\/Tile",
      "bottom" : "bidirectional\/while_1\/TensorArrayReadV3_1",
      "dst_n" : 1,
      "dst_seq" : 1,
      "weights" : {

      },
      "dst_k" : 1,
      "debug_info" : "bidirectional\/while_1\/Tile",
      "top" : "bidirectional\/while_1\/Tile",
      "dst_h" : 1,
      "dst_w" : 256,
      "type" : "tile"
    },
    {
      "name" : "bidirectional\/while_1\/Tile_1",
…
        "w" : 3,
        "n" : 1,
        "_rank" : 1,
        "h" : 1
      },
      "bidirectional\/while_1\/mul_2" : {
        "k" : 0,
        "w" : 1024,
        "n" : 1,
        "_rank" : 4,
        "h" : 1
      },
      "dense\/BiasAdd" : {
        "k" : 1,
        "w" : 16,
        "n" : 1,
        "_rank" : 3,
        "h" : 53
      },
      "bidirectional\/Sigmoid_1" : {
        "k" : 0,
        "w" : 1024,
        "n" : 1,
        "_rank" : 4,
        "h" : 1
      },
      "while_1:2_@ssa_version_7" : {
        "k" : 53,
        "w" : 256,
        "n" : 1,
        "_rank" : 3,
        "h" : 1
      },
      "bidirectional\/while_1\/MatMul" : {
        "k" : 1,
        "w" : 1024,
        "n" : 1,
        "_rank" : 2,
        "h" : 1
      },
      "bidirectional\/BiasAdd_1" : {
        "k" : 1,
        "w" : 1024,
        "n" : 1,
        "h" : 1
      },
      "bidirectional\/TensorArray_2_extra_length1" : {
        "k" : 1,
        "w" : 1,
        "n" : 1,
        "_rank" : 1,
        "h" : 1
      },
      "dropout\/cond\/Merge_5d_constant_in_scale" : {
        "k" : 256,
        "w" : 1,
        "n" : 1,
        "h" : 1
      },
      "bidirectional\/TensorArray_new" : {
        "k" : 54,
        "w" : 256,
        "n" : 1,
        "_rank" : 3,
        "h" : 1
      },
      "dropout\/cond\/dropout\/random_uniform\/RandomUniform" : {
        "k" : 1,
        "w" : 3,
        "n" : 1,
        "_rank" : 1,
        "h" : 1
      },
      "leaky_re_lu\/LeakyRelu" : {
        "k" : 1,
        "w" : 256,
        "n" : 1,
        "_rank" : 3,
        "h" : 53
      },
      "while_0:2_re_initialize" : {
        "k" : 1,
        "w" : 1,
        "n" : 1,
        "h" : 1
      },
      "fake_exit_7_@ssa_version_1" : {
        "k" : 1,
        "w" : 1,
        "n" : 1,
        "h" : 1
      },
      "fake_exit_4_@ssa_version_3" : {
        "k" : 1,
        "w" : 1,
        "n" : 1,
        "_rank" : 1,
        "h" : 1
      },
      "concatenate\/All" : {
        "k" : 1,
        "w" : 53,
        "n" : 1,
        "_rank" : 2,
        "h" : 1
      },
      "fake_exit_1_@ssa_version_5" : {
        "k" : 1,
        "w" : 1,
        "n" : 1,
        "_rank" : 1,
        "h" : 1
      },
      "embedding\/NotEqual_load_constant_11" : {
        "k" : 1,
        "w" : 1,
        "n" : 1,
        "h" : 1
      },
      "bidirectional\/while_1\/MatMul_1" : {
        "k" : 1,
        "w" : 1024,
        "n" : 1,
        "h" : 1
      },
      "bidirectional\/TensorArray_3_raw_value_elem_shape" : {
        "k" : 1,
        "w" : 3,
        "n" : 1,
        "_rank" : 1,
        "h" : 1
      },
      "bidirectional\/while_1\/Sigmoid_2" : {
        "k" : 0,
        "w" : 1024,
        "n" : 1,
        "_rank" : 4,
        "h" : 1
      },
      "bidirectional\/TensorArray_5_re_initialize_shape" : {
        "k" : 1,
        "w" : 3,
        "n" : 1,
        "_rank" : 1,
        "h" : 1
      },
      "while_0:2_alloc" : {
        "k" : 1,
        "w" : 1,
        "n" : 1,
        "h" : 1
      },
      "bidirectional\/TensorArray_3_new" : {
        "k" : 54,
        "w" : 256,
        "n" : 1,
        "_rank" : 3,
        "h" : 1
      },
      "bidirectional\/zeros_3" : {
        "k" : 1,
        "w" : 1,
        "n" : 1,
        "h" : 1
      },
      "bidirectional\/zeros_1\/packed" : {
        "k" : 1,
        "w" : 2,
        "n" : 1,
        "_rank" : 1,
        "h" : 1
      },
      "bidirectional\/while_1\/mul" : {
        "k" : 0,
        "w" : 1024,
        "n" : 1,
        "_rank" : 4,
        "h" : 1
      },
      "bidirectional\/while\/MatMul" : {
        "k" : 1,
        "w" : 1024,
        "n" : 1,
        "_rank" : 2,
        "h" : 1
      },
      "lambda\/Cast_ceil" : {
        "k" : 1,
        "w" : 31,
        "n" : 1,
        "_rank" : 3,
        "h" : 53
      },
      "fake_exit_5_@ssa_version_1" : {
        "k" : 1,
        "w" : 1,
        "n" : 1,
        "_rank" : 1,
        "h" : 1
      },
      "dense_4\/BiasAdd\/ReadVariableOp" : {
        "k" : 1,
        "w" : 256,
        "n" : 1,
        "_rank" : 1,
        "h" : 1
      },
      "while_0:2_@ssa_version_5" : {
        "k" : 53,
        "w" : 256,
        "n" : 1,
        "_rank" : 3,
        "h" : 1
      },
      "bidirectional\/while\/Less_1_load_constant_203" : {
        "k" : 1,
        "w" : 1,
        "n" : 1,
        "h" : 1
      },
      "bidirectional\/mul_4" : {
        "k" : 0,
        "w" : 1024,
        "n" : 1,
        "_rank" : 4,
        "h" : 1
      },
      "lambda\/Cast_cond" : {
        "k" : 1,
        "w" : 31,
        "n" : 1,
        "_rank" : 3,
        "h" : 53
      },
      "bidirectional\/add_3" : {
        "k" : 0,
        "w" : 1024,
        "n" : 1,
        "_rank" : 4,
        "h" : 1
      },
      "bidirectional\/TensorArray_2_full_shape" : {
        "k" : 1,
        "w" : 3,
        "n" : 1,
        "_rank" : 1,
        "h" : 1
      },
      "fake_exit_7" : {
        "k" : 1,
        "w" : 1,
        "n" : 1,
        "h" : 1
      },
      "shape_0" : {
        "k" : 1,
        "w" : 4,
        "n" : 1,
        "_rank" : 1,
        "h" : 1
      },
      "while_1:2_alloc" : {
        "k" : 1,
        "w" : 1,
        "n" : 1,
        "h" : 1
      },
      "bidirectional\/while\/BiasAdd" : {
        "k" : 1,
        "w" : 1024,
        "n" : 1,
        "h" : 1
      },
      "bidirectional\/mul_1" : {
        "k" : 0,
        "w" : 1024,
        "n" : 1,
        "_rank" : 4,
        "h" : 1
      },
      "bidirectional\/TensorArrayUnstack_1\/TensorArrayScatter\/TensorArrayScatterV3" : {
        "k" : 53,
        "w" : 1,
        "n" : 1,
        "_rank" : 3,
        "h" : 1
      },
      "bidirectional\/TensorArray_2_re_initialize_shape" : {
        "k" : 1,
        "w" : 3,
        "n" : 1,
        "_rank" : 1,
        "h" : 1
      },
      "fake_exit_3_@ssa_version_1" : {
        "k" : 1,
        "w" : 1,
        "n" : 1,
        "h" : 1
      },
      "fake_exit_0_@ssa_version_3" : {
        "k" : 1,
        "w" : 1,
        "n" : 1,
        "_rank" : 1,
        "h" : 1
      },
      "bidirectional\/while\/Select" : {
        "k" : 1,
        "w" : 1,
        "n" : 1,
        "h" : 1
      },
      "dense\/Tensordot" : {
        "k" : 1,
        "w" : 16,
        "n" : 1,
        "_rank" : 3,
        "h" : 53
      },
      "bidirectional\/while_1\/Tile_2" : {
        "k" : 1,
        "w" : 256,
        "n" : 1,
        "_rank" : 2,
        "h" : 1
      },
      "bidirectional\/while_1\/iteration_counter" : {
        "k" : 1,
        "w" : 1,
        "n" : 1,
        "_rank" : 1,
        "h" : 1
      },
      "bidirectional\/while_1\/Sigmoid_1" : {
        "k" : 0,
        "w" : 1024,
        "n" : 1,
        "_rank" : 4,
        "h" : 1
      },
      "embedding\/Cast_cond_load_constant_9" : {
        "k" : 1,
        "w" : 1,
        "n" : 1,
        "h" : 1
      },
      "bidirectional\/TensorArray_5_value_elem_shape" : {
        "k" : 1,
        "w" : 2,
        "n" : 1,
        "_rank" : 1,
        "h" : 1
      },
      "input_1" : {
        "k" : 1,
        "w" : 32,
        "n" : 1,
        "_rank" : 3,
        "h" : 53
      },
      "bidirectional\/Tanh_3" : {
        "k" : 0,
        "w" : 1024,
        "n" : 1,
        "_rank" : 4,
        "h" : 1
      },
      "bidirectional\/Tanh" : {
        "k" : 0,
        "w" : 1024,
        "n" : 1,
        "_rank" : 4,
        "h" : 1
      },
      "bidirectional\/TensorArray_5_@ssa_version_5" : {
        "k" : 53,
        "w" : 1,
        "n" : 1,
        "_rank" : 3,
        "h" : 1
      },
      "fake_exit_5_@ssa_version_4" : {
        "k" : 1,
        "w" : 1,
        "n" : 1,
        "_rank" : 1,
        "h" : 1
      },
      "cast_0_cond_load_constant_30" : {
        "k" : 1,
        "w" : 1,
        "n" : 1,
        "h" : 1
      },
      "bidirectional\/TensorArray_5_reduce_any_presqueeze" : {
        "k" : 1,
        "w" : 1,
        "n" : 1,
        "_rank" : 1,
        "h" : 1
      },
      "while_0:2_elem_shape_not_equal" : {
        "k" : 1,
        "w" : 1,
        "n" : 1,
        "h" : 1
      },
      "bidirectional\/TensorArray_3_full_shape" : {
        "k" : 1,
        "w" : 3,
        "n" : 1,
        "_rank" : 1,
        "h" : 1
      },
      "bidirectional\/TensorArray_5_alloc" : {
        "k" : 1,
        "w" : 1,
        "n" : 1,
        "h" : 1
      },
      "bidirectional\/while\/Tile_2" : {
        "k" : 1,
        "w" : 256,
        "n" : 1,
        "_rank" : 2,
        "h" : 1
      },
      "while_1:2_value_elem_shape" : {
        "k" : 1,
        "w" : 4,
        "n" : 1,
        "_rank" : 1,
        "h" : 1
      },
      "while_1:2_is_growing" : {
        "k" : 1,
        "w" : 1,
        "n" : 1,
        "_rank" : 1,
        "h" : 1
      },
      "while_0:2_extra_length0" : {
        "k" : 1,
        "w" : 1,
        "n" : 1,
        "_rank" : 1,
        "h" : 1
      },
      "dense_1\/BiasAdd\/ReadVariableOp" : {
        "k" : 1,
        "w" : 256,
        "n" : 1,
        "_rank" : 1,
        "h" : 1
      },
      "while_1:2_@ssa_version_5" : {
        "k" : 53,
        "w" : 256,
        "n" : 1,
        "_rank" : 3,
        "h" : 1
      },
      "while_1:2_re_initialize" : {
        "k" : 1,
        "w" : 1,
        "n" : 1,
        "h" : 1
      },
      "dense_4\/Tensordot\/transpose" : {
        "k" : 1,
        "w" : 1,
        "n" : 1,
        "h" : 1
      },
      "bidirectional\/while_1\/Less_load_constant_265" : {
        "k" : 1,
        "w" : 1,
        "n" : 1,
        "h" : 1
      },
      "bidirectional\/TensorArray_2_reduce_any" : {
        "k" : 1,
        "w" : 1,
        "n" : 1,
        "_rank" : 1,
        "h" : 1
      },
      "lambda_1\/Sum_presqueeze" : {
        "k" : 53,
        "w" : 100,
        "n" : 1,
        "_rank" : 4,
        "h" : 1
      },
      "bidirectional\/MatMul_2" : {
        "k" : 1,
        "w" : 1024,
        "n" : 1,
        "_rank" : 2,
        "h" : 1
      },
      "while_0:2_bidirectional\/while\/Select_expanded" : {
        "k" : 1,
        "w" : 1,
        "n" : 1,
        "_rank" : 5,
        "h" : 1
      },
      "bidirectional\/TensorArray_ls_elem_shape" : {
        "k" : 1,
        "w" : 2,
        "n" : 1,
        "_rank" : 1,
        "h" : 1
      },
      "while_1:2_reduce_any" : {
        "k" : 1,
        "w" : 1,
        "n" : 1,
        "_rank" : 1,
        "h" : 1
      },
      "bidirectional\/TensorArray_5_@ssa_version_4" : {
        "k" : 53,
        "w" : 1,
        "n" : 1,
        "_rank" : 3,
        "h" : 1
      },
      "bidirectional\/while\/split:0" : {
        "k" : 1,
        "w" : 1024,
        "n" : 1,
        "_rank" : 4,
        "h" : 1
      },
      "bidirectional\/while_1\/Tanh" : {
        "k" : 0,
        "w" : 1024,
        "n" : 1,
        "_rank" : 4,
        "h" : 1
      },
      "bidirectional\/TensorArrayUnstack\/range_max_presqueeze" : {
        "k" : 1,
        "w" : 1,
        "n" : 1,
        "_rank" : 1,
        "h" : 1
      },
      "bidirectional\/concat" : {
        "k" : 1,
        "w" : 512,
        "n" : 1,
        "_rank" : 3,
        "h" : 53
      },
      "bidirectional\/TensorArray_2_reduce_any_presqueeze" : {
        "k" : 1,
        "w" : 1,
        "n" : 1,
        "_rank" : 1,
        "h" : 1
      },
      "bidirectional\/split:3" : {
        "k" : 0,
        "w" : 1024,
        "n" : 1,
        "_rank" : 4,
        "h" : 1
      },
      "fake_exit_6" : {
        "k" : 1,
        "w" : 1,
        "n" : 1,
        "h" : 1
      },
      "shape_1" : {
        "k" : 1,
        "w" : 4,
        "n" : 1,
        "_rank" : 1,
        "h" : 1
      },
      "bidirectional\/TensorArray_2_elem_shape_not_equal" : {
        "k" : 1,
        "w" : 2,
        "n" : 1,
        "_rank" : 1,
        "h" : 1
      },
      "embedding\/Cast_cond" : {
        "k" : 1,
        "w" : 53,
        "n" : 1,
        "_rank" : 2,
        "h" : 1
      },
      "bidirectional\/while_1\/add_1" : {
        "k" : 1,
        "w" : 1024,
        "n" : 1,
        "h" : 1
      },
      "punc_label\/Reshape_1" : {
        "k" : 1,
        "w" : 1,
        "n" : 1,
        "h" : 1
      },
      "dropout\/cond\/dropout\/mul_1" : {
        "k" : 1,
        "w" : 1,
        "n" : 1,
        "h" : 1
      },
      "bidirectional\/Sigmoid_2" : {
        "k" : 0,
        "w" : 1024,
        "n" : 1,
        "_rank" : 4,
        "h" : 1
      },
      "while_1:2_length" : {
        "k" : 1,
        "w" : 1,
        "n" : 1,
        "_rank" : 1,
        "h" : 1
      },
      "dropout\/cond\/Merge" : {
        "k" : 1,
        "w" : 1,
        "n" : 1,
        "h" : 1
      },
      "dense_1\/Tanh" : {
        "k" : 1,
        "w" : 256,
        "n" : 1,
        "_rank" : 3,
        "h" : 53
      },
      "while_0:2_@ssa_version_3" : {
        "k" : 1,
        "w" : 1,
        "n" : 1,
        "h" : 1
      },
      "bidirectional\/TensorArray_1" : {
        "k" : 53,
        "w" : 256,
        "n" : 1,
        "_rank" : 3,
        "h" : 1
      },
      "bidirectional\/while_1\/TensorArrayWrite\/TensorArrayWriteV3" : {
        "k" : 1,
        "w" : 1,
        "n" : 1,
        "h" : 1
      },
      "identity_1" : {
        "k" : 1,
        "w" : 256,
        "n" : 1,
        "_rank" : 3,
        "h" : 53
      },
      "while_0:2_length" : {
        "k" : 1,
        "w" : 1,
        "n" : 1,
        "_rank" : 1,
        "h" : 1
      },
      "while_1:2_full_shape" : {
        "k" : 1,
        "w" : 3,
        "n" : 1,
        "_rank" : 1,
        "h" : 1
      },
      "bidirectional\/TensorArrayUnstack_3\/TensorArrayScatter\/TensorArrayScatterV3" : {
        "k" : 53,
        "w" : 1,
        "n" : 1,
        "_rank" : 3,
        "h" : 1
      },
      "concatenate\/ones_like" : {
        "k" : 1,
        "w" : 1,
        "n" : 1,
        "h" : 1
      },
      "bidirectional\/split_1:0" : {
        "k" : 1,
        "w" : 1024,
        "n" : 1,
        "_rank" : 4,
        "h" : 1
      },
      "bidirectional\/while\/Select_1" : {
        "k" : 1,
        "w" : 1,
        "n" : 1,
        "h" : 1
      },
      "bidirectional\/while\/TensorArrayReadV3_1_gathered" : {
        "k" : 1,
        "w" : 1,
        "n" : 1,
        "_rank" : 3,
        "h" : 1
      },
      "concatenate\/concat" : {
        "k" : 1,
        "w" : 80,
        "n" : 1,
        "_rank" : 3,
        "h" : 53
      },
      "bidirectional\/TensorArray_3_reduce_any_presqueeze" : {
        "k" : 1,
        "w" : 1,
        "n" : 1,
        "_rank" : 1,
        "h" : 1
      },
      "dropout\/cond\/Merge_5d_mul_out" : {
        "k" : 256,
        "w" : 1,
        "n" : 1,
        "h" : 1
      },
      "bidirectional\/TensorArray_5_extra_length0" : {
        "k" : 1,
        "w" : 1,
        "n" : 1,
        "_rank" : 1,
        "h" : 1
      },
      "bidirectional\/split:0" : {
        "k" : 1,
        "w" : 1024,
        "n" : 1,
        "_rank" : 4,
        "h" : 1
      },
      "bidirectional\/TensorArray_2_alloc" : {
        "k" : 1,
        "w" : 1,
        "n" : 1,
        "h" : 1
      },
      "bidirectional\/Shape" : {
        "k" : 1,
        "w" : 3,
        "n" : 1,
        "_rank" : 1,
        "h" : 1
      },
      "fake_exit_1_@ssa_version_1" : {
        "k" : 1,
        "w" : 1,
        "n" : 1,
        "_rank" : 1,
        "h" : 1
      },
      "identity_0" : {
        "k" : 1,
        "w" : 1,
        "n" : 1,
        "h" : 1
      },
      "bidirectional\/TensorArray_5_@ssa_version_2" : {
        "k" : 54,
        "w" : 1,
        "n" : 1,
        "_rank" : 3,
        "h" : 1
      },
      "bidirectional\/while\/split:3" : {
        "k" : 0,
        "w" : 1024,
        "n" : 1,
        "_rank" : 4,
        "h" : 1
      },
      "while_1:2_extra_length0" : {
        "k" : 1,
        "w" : 1,
        "n" : 1,
        "_rank" : 1,
        "h" : 1
      },
      "bidirectional\/while\/Tanh" : {
        "k" : 0,
        "w" : 1024,
        "n" : 1,
        "_rank" : 4,
        "h" : 1
      },
      "bidirectional\/TensorArray_5_elem_shape_not_equal" : {
        "k" : 1,
        "w" : 2,
        "n" : 1,
        "_rank" : 1,
        "h" : 1
      },
      "dense_1\/Tensordot\/MatMul" : {
        "k" : 1,
        "w" : 256,
        "n" : 1,
        "_rank" : 2,
        "h" : 53
      },
      "bidirectional\/while_1\/Sigmoid" : {
        "k" : 1,
        "w" : 1024,
        "n" : 1,
        "_rank" : 4,
        "h" : 1
      },
      "bidirectional\/Sigmoid" : {
        "k" : 1,
        "w" : 1024,
        "n" : 1,
        "_rank" : 4,
        "h" : 1
      },
      "bidirectional\/while\/mul_2" : {
        "k" : 0,
        "w" : 1024,
        "n" : 1,
        "_rank" : 4,
        "h" : 1
      },
      "keras_learning_phase" : {
        "k" : 1,
        "w" : 1,
        "n" : 1,
        "_rank" : 1,
        "h" : 1
      },
      "fake_exit_6_@ssa_version_2" : {
        "k" : 1,
        "w" : 1,
        "n" : 1,
        "h" : 1
      },
      "bidirectional\/zeros_like" : {
        "k" : 1,
        "w" : 1,
        "n" : 1,
        "h" : 1
      },
      "fake_exit_5" : {
        "k" : 1,
        "w" : 1,
        "n" : 1,
        "_rank" : 1,
        "h" : 1
      },
      "bidirectional\/TensorArray_2_new" : {
        "k" : 54,
        "w" : 1,
        "n" : 1,
        "_rank" : 3,
        "h" : 1
      },
      "while_1:2_@ssa_version_3" : {
        "k" : 1,
        "w" : 1,
        "n" : 1,
        "h" : 1
      },
      "bidirectional\/while\/add" : {
        "k" : 1,
        "w" : 1,
        "n" : 1,
        "_rank" : 1,
        "h" : 1
      },
      "bidirectional\/TensorArray_5_length" : {
        "k" : 1,
        "w" : 1,
        "n" : 1,
        "_rank" : 1,
        "h" : 1
      },
      "bidirectional\/while\/Less_load_constant_202" : {
        "k" : 1,
        "w" : 1,
        "n" : 1,
        "h" : 1
      },
      "bidirectional\/while\/add_3" : {
        "k" : 1,
        "w" : 1,
        "n" : 1,
        "_rank" : 1,
        "h" : 1
      },
      "lambda_1\/Sum" : {
        "k" : 1,
        "w" : 100,
        "n" : 1,
        "_rank" : 3,
        "h" : 53
      },
      "bidirectional\/transpose_5" : {
        "k" : 1,
        "w" : 256,
        "n" : 1,
        "_rank" : 3,
        "h" : 53
      },
      "bidirectional\/TensorArrayUnstack_2\/range" : {
        "k" : 1,
        "w" : 53,
        "n" : 1,
        "_rank" : 1,
        "h" : 1
      },
      "dense_2\/Tensordot" : {
        "k" : 1,
        "w" : 256,
        "n" : 1,
        "_rank" : 3,
        "h" : 53
      },
      "bidirectional\/while\/iteration_counter" : {
        "k" : 1,
        "w" : 1,
        "n" : 1,
        "_rank" : 1,
        "h" : 1
      },
      "bidirectional\/TensorArray_4" : {
        "k" : 53,
        "w" : 256,
        "n" : 1,
        "_rank" : 3,
        "h" : 1
      },
      "fake_exit_4_@ssa_version_2" : {
        "k" : 1,
        "w" : 1,
        "n" : 1,
        "_rank" : 1,
        "h" : 1
      },
      "bidirectional\/TensorArray_@ssa_version_4" : {
        "k" : 53,
        "w" : 256,
        "n" : 1,
        "_rank" : 3,
        "h" : 1
      },
      "fake_exit_1_@ssa_version_4" : {
        "k" : 1,
        "w" : 1,
        "n" : 1,
        "_rank" : 1,
        "h" : 1
      },
      "bidirectional\/TensorArray_length" : {
        "k" : 1,
        "w" : 1,
        "n" : 1,
        "_rank" : 1,
        "h" : 1
      },
      "bidirectional\/while\/Sigmoid_2" : {
        "k" : 0,
        "w" : 1024,
        "n" : 1,
        "_rank" : 4,
        "h" : 1
      },
      "bidirectional\/TensorArrayUnstack_2\/range_max" : {
        "k" : 1,
        "w" : 1,
        "n" : 1,
        "_rank" : 1,
        "h" : 1
      },
      "bidirectional\/TensorArray_5_@ssa_version_1" : {
        "k" : 1,
        "w" : 1,
        "n" : 1,
        "h" : 1
      },
      "bidirectional\/while\/Less_1" : {
        "k" : 1,
        "w" : 1,
        "n" : 1,
        "_rank" : 1,
        "h" : 1
      },
      "bidirectional\/while\/TensorArrayReadV3_1" : {
        "k" : 1,
        "w" : 1,
        "n" : 1,
        "_rank" : 2,
        "h" : 1
      },
      "dropout\/cond\/dropout\/Cast" : {
        "k" : 1,
        "w" : 3,
        "n" : 1,
        "_rank" : 1,
        "h" : 1
      },
      "bidirectional\/TensorArrayUnstack_2\/range_max_presqueeze" : {
        "k" : 1,
        "w" : 1,
        "n" : 1,
        "_rank" : 1,
        "h" : 1
      },
      "bidirectional\/while_1\/BiasAdd" : {
        "k" : 1,
        "w" : 1024,
        "n" : 1,
        "h" : 1
      },
      "bidirectional\/TensorArray_3_value_elem_shape" : {
        "k" : 1,
        "w" : 2,
        "n" : 1,
        "_rank" : 1,
        "h" : 1
      },
      "bidirectional\/while_1\/Less_1" : {
        "k" : 1,
        "w" : 1,
        "n" : 1,
        "_rank" : 1,
        "h" : 1
      },
      "bidirectional\/while_1\/split:2" : {
        "k" : 0,
        "w" : 1024,
        "n" : 1,
        "_rank" : 4,
        "h" : 1
      },
      "bidirectional\/while_1\/Tile_1" : {
        "k" : 1,
        "w" : 256,
        "n" : 1,
        "_rank" : 2,
        "h" : 1
      },
      "bidirectional\/TensorArray_raw_value_elem_shape" : {
        "k" : 1,
        "w" : 3,
        "n" : 1,
        "_rank" : 1,
        "h" : 1
      },
      "bidirectional\/while\/mul" : {
        "k" : 0,
        "w" : 1024,
        "n" : 1,
        "_rank" : 4,
        "h" : 1
      },
      "feature_layer\/strided_slice" : {
        "k" : 1,
        "w" : 31,
        "n" : 1,
        "_rank" : 3,
        "h" : 53
      },
      "while_0:2_extra_length1" : {
        "k" : 1,
        "w" : 1,
        "n" : 1,
        "_rank" : 1,
        "h" : 1
      },
      "bidirectional\/TensorArray_re_initialize_shape" : {
        "k" : 1,
        "w" : 3,
        "n" : 1,
        "_rank" : 1,
        "h" : 1
      },
      "bidirectional\/TensorArrayStack_1\/range" : {
        "k" : 1,
        "w" : 53,
        "n" : 1,
        "_rank" : 1,
        "h" : 1
      },
      "bidirectional\/TensorArrayUnstack_3\/range_max_presqueeze" : {
        "k" : 1,
        "w" : 1,
        "n" : 1,
        "_rank" : 1,
        "h" : 1
      },
      "bidirectional\/TensorArray_3_reduce_any" : {
        "k" : 1,
        "w" : 1,
        "n" : 1,
        "_rank" : 1,
        "h" : 1
      },
      "while_0:2_@ssa_version_1" : {
        "k" : 1,
        "w" : 1,
        "n" : 1,
        "h" : 1
      },
      "fake_exit_2_@ssa_version_2" : {
        "k" : 1,
        "w" : 1,
        "n" : 1,
        "h" : 1
      },
      "bidirectional\/TensorArray_5_new" : {
        "k" : 54,
        "w" : 1,
        "n" : 1,
        "_rank" : 3,
        "h" : 1
      },
      "dense_2\/Tensordot\/MatMul" : {
        "k" : 1,
        "w" : 256,
        "n" : 1,
        "_rank" : 2,
        "h" : 53
      },
      "bidirectional\/TensorArray_5_full_shape" : {
        "k" : 1,
        "w" : 3,
        "n" : 1,
        "_rank" : 1,
        "h" : 1
      },
      "bidirectional\/while\/Less" : {
        "k" : 1,
        "w" : 1,
        "n" : 1,
        "_rank" : 1,
        "h" : 1
      },
      "bidirectional\/while_1\/split:0" : {
        "k" : 1,
        "w" : 1024,
        "n" : 1,
        "_rank" : 4,
        "h" : 1
      },
      "cast_0_floor" : {
        "k" : 1,
        "w" : 2,
        "n" : 1,
        "_rank" : 3,
        "h" : 53
      },
      "dense\/Tensordot\/transpose" : {
        "k" : 1,
        "w" : 100,
        "n" : 1,
        "_rank" : 3,
        "h" : 53
      },
      "bidirectional\/mul_5" : {
        "k" : 0,
        "w" : 1024,
        "n" : 1,
        "_rank" : 4,
        "h" : 1
      },
      "bidirectional\/while_1\/add" : {
        "k" : 1,
        "w" : 1,
        "n" : 1,
        "_rank" : 1,
        "h" : 1
      },
      "bidirectional\/TensorArray_3_extra_length0" : {
        "k" : 1,
        "w" : 1,
        "n" : 1,
        "_rank" : 1,
        "h" : 1
      },
      "bidirectional\/TensorArray_alloc_shape" : {
        "k" : 1,
        "w" : 3,
        "n" : 1,
        "_rank" : 1,
        "h" : 1
      },
      "bidirectional\/ExpandDims_1" : {
        "k" : 1,
        "w" : 1,
        "n" : 1,
        "_rank" : 3,
        "h" : 53
      },
      "dropout\/cond\/Merge_mvn" : {
        "k" : 1,
        "w" : 1,
        "n" : 1,
        "h" : 1
      },
      "dropout\/cond\/dropout\/GreaterEqual" : {
        "k" : 1,
        "w" : 3,
        "n" : 1,
        "_rank" : 1,
        "h" : 1
      },
      "dense_1\/Tensordot\/transpose" : {
        "k" : 1,
        "w" : 80,
        "n" : 1,
        "_rank" : 3,
        "h" : 53
      },
      "bidirectional\/while\/TensorArrayReadV3_gathered" : {
        "k" : 1,
        "w" : 256,
        "n" : 1,
        "_rank" : 3,
        "h" : 1
      },
      "reduce_prod_0" : {
        "k" : 1,
        "w" : 53,
        "n" : 1,
        "_rank" : 2,
        "h" : 1
      },
      "fake_exit_0_@ssa_version_2" : {
        "k" : 1,
        "w" : 1,
        "n" : 1,
        "_rank" : 1,
        "h" : 1
      },
      "bidirectional\/mul_2" : {
        "k" : 0,
        "w" : 1024,
        "n" : 1,
        "_rank" : 4,
        "h" : 1
      },
      "concatenate\/All_load_constant_33" : {
        "k" : 1,
        "w" : 1,
        "n" : 1,
        "h" : 1
      },
      "token_layer\/strided_slice" : {
        "k" : 1,
        "w" : 53,
        "n" : 1,
        "_rank" : 2,
        "h" : 1
      },
      "bidirectional\/add_1" : {
        "k" : 0,
        "w" : 1024,
        "n" : 1,
        "_rank" : 4,
        "h" : 1
      },
      "bidirectional\/TensorArray_reduce_any" : {
        "k" : 1,
        "w" : 1,
        "n" : 1,
        "_rank" : 1,
        "h" : 1
      },
      "bidirectional\/Sigmoid_3" : {
        "k" : 1,
        "w" : 1024,
        "n" : 1,
        "_rank" : 4,
        "h" : 1
      },
      "bidirectional\/while\/TensorArrayReadV3" : {
        "k" : 1,
        "w" : 256,
        "n" : 1,
        "_rank" : 2,
        "h" : 1
      },
      "fake_exit_4" : {
        "k" : 1,
        "w" : 1,
        "n" : 1,
        "_rank" : 1,
        "h" : 1
      },
      "dropout\/cond\/dropout\/Shape" : {
        "k" : 1,
        "w" : 3,
        "n" : 1,
        "_rank" : 1,
        "h" : 1
      },
      "bidirectional\/BiasAdd_1\/ReadVariableOp" : {
        "k" : 1,
        "w" : 1024,
        "n" : 1,
        "_rank" : 1,
        "h" : 1
      },
      "bidirectional\/while\/Tile" : {
        "k" : 1,
        "w" : 256,
        "n" : 1,
        "_rank" : 2,
        "h" : 1
      },
      "bidirectional\/BiasAdd" : {
        "k" : 1,
        "w" : 1024,
        "n" : 1,
        "h" : 1
      },
      "punc_label\/Softmax" : {
        "k" : 1,
        "w" : 28,
        "n" : 1,
        "_rank" : 2,
        "h" : 1
      },
      "bidirectional\/zeros_like_1" : {
        "k" : 1,
        "w" : 1,
        "n" : 1,
        "h" : 1
      },
      "lambda\/one_hot" : {
        "k" : 53,
        "w" : 100,
        "n" : 1,
        "_rank" : 4,
        "h" : 31
      },
      "fake_exit_5_@ssa_version_3" : {
        "k" : 1,
        "w" : 1,
        "n" : 1,
        "_rank" : 1,
        "h" : 1
      },
      "cast_0_cond" : {
        "k" : 1,
        "w" : 2,
        "n" : 1,
        "_rank" : 3,
        "h" : 53
      },
      "bidirectional\/zeros_1" : {
        "k" : 1,
        "w" : 1,
        "n" : 1,
        "h" : 1
      },
      "dense_1\/Tensordot\/Reshape" : {
        "k" : 1,
        "w" : 80,
        "n" : 1,
        "_rank" : 2,
        "h" : 53
      },
      "bidirectional\/time_1" : {
        "k" : 1,
        "w" : 1,
        "n" : 1,
        "_rank" : 1,
        "h" : 1
      },
      "bidirectional\/split_1:1" : {
        "k" : 0,
        "w" : 1024,
        "n" : 1,
        "_rank" : 4,
        "h" : 1
      },
      "layer_normalization\/batchnorm\/add_1" : {
        "k" : 1,
        "w" : 1,
        "n" : 1,
        "h" : 1
      },
      "bidirectional\/while\/mul_1" : {
        "k" : 0,
        "w" : 1024,
        "n" : 1,
        "_rank" : 4,
        "h" : 1
      },
      "bidirectional\/TensorArrayStack_1\/TensorArrayGatherV3" : {
        "k" : 53,
        "w" : 256,
        "n" : 1,
        "_rank" : 3,
        "h" : 1
      },
      "bidirectional\/while\/Tile_1" : {
        "k" : 1,
        "w" : 256,
        "n" : 1,
        "_rank" : 2,
        "h" : 1
      },
      "bidirectional\/Tanh_2" : {
        "k" : 0,
        "w" : 1024,
        "n" : 1,
        "_rank" : 4,
        "h" : 1
      },
      "bidirectional\/TensorArray_extra_length0" : {
        "k" : 1,
        "w" : 1,
        "n" : 1,
        "_rank" : 1,
        "h" : 1
      },
      "while_1:2_@ssa_version_1" : {
        "k" : 1,
        "w" : 1,
        "n" : 1,
        "h" : 1
      },
      "bidirectional\/TensorArray_2_alloc_shape" : {
        "k" : 1,
        "w" : 3,
        "n" : 1,
        "_rank" : 1,
        "h" : 1
      },
      "concatenate\/ones_like\/Shape" : {
        "k" : 1,
        "w" : 3,
        "n" : 1,
        "_rank" : 1,
        "h" : 1
      },
      "bidirectional\/while\/add_2" : {
        "k" : 0,
        "w" : 1024,
        "n" : 1,
        "_rank" : 4,
        "h" : 1
      },
      "bidirectional\/TensorArrayUnstack_1\/range_max_presqueeze" : {
        "k" : 1,
        "w" : 1,
        "n" : 1,
        "_rank" : 1,
        "h" : 1
      },
      "bidirectional\/transpose_4" : {
        "k" : 53,
        "w" : 1,
        "n" : 1,
        "_rank" : 3,
        "h" : 1
      },
      "while_0:2_@ssa_version_6" : {
        "k" : 53,
        "w" : 256,
        "n" : 1,
        "_rank" : 3,
        "h" : 1
      },
      "while_0:2_ls_elem_shape" : {
        "k" : 1,
        "w" : 2,
        "n" : 1,
        "_rank" : 1,
        "h" : 1
      },
      "bidirectional\/TensorArray_reduce_any_presqueeze" : {
        "k" : 1,
        "w" : 1,
        "n" : 1,
        "_rank" : 1,
        "h" : 1
      },
      "fake_exit_5_@ssa_version_6" : {
        "k" : 1,
        "w" : 1,
        "n" : 1,
        "_rank" : 1,
        "h" : 1
      },
      "lambda\/Cast" : {
        "k" : 1,
        "w" : 31,
        "n" : 1,
        "_rank" : 3,
        "h" : 53
      },
      "while_1:2_extra_length1" : {
        "k" : 1,
        "w" : 1,
        "n" : 1,
        "_rank" : 1,
        "h" : 1
      },
      "bidirectional\/zeros_1\/packed\/1" : {
        "k" : 1,
        "w" : 1,
        "n" : 1,
        "_rank" : 1,
        "h" : 1
      },
      "bidirectional\/TensorArray_3_re_initialize_shape" : {
        "k" : 1,
        "w" : 3,
        "n" : 1,
        "_rank" : 1,
        "h" : 1
      },
      "bidirectional\/TensorArray_2_@ssa_version_5" : {
        "k" : 53,
        "w" : 1,
        "n" : 1,
        "_rank" : 3,
        "h" : 1
      },
      "while_0:2_is_growing" : {
        "k" : 1,
        "w" : 1,
        "n" : 1,
        "_rank" : 1,
        "h" : 1
      },
      "bidirectional\/zeros\/packed" : {
        "k" : 1,
        "w" : 2,
        "n" : 1,
        "_rank" : 1,
        "h" : 1
      },
      "while_0:2_alloc_shape" : {
        "k" : 1,
        "w" : 5,
        "n" : 1,
        "_rank" : 1,
        "h" : 1
      },
      "bidirectional\/TensorArray_5_alloc_shape" : {
        "k" : 1,
        "w" : 3,
        "n" : 1,
        "_rank" : 1,
        "h" : 1
      },
      "embedding\/NotEqual" : {
        "k" : 1,
        "w" : 53,
        "n" : 1,
        "_rank" : 2,
        "h" : 1
      },
      "bidirectional\/TensorArray_2_is_growing" : {
        "k" : 1,
        "w" : 1,
        "n" : 1,
        "_rank" : 1,
        "h" : 1
      },
      "bidirectional\/TensorArray_2_extra_length0" : {
        "k" : 1,
        "w" : 1,
        "n" : 1,
        "_rank" : 1,
        "h" : 1
      },
      "bidirectional\/TensorArray_3_alloc_shape" : {
        "k" : 1,
        "w" : 3,
        "n" : 1,
        "_rank" : 1,
        "h" : 1
      },
      "bidirectional\/zeros_3\/packed\/1" : {
        "k" : 1,
        "w" : 1,
        "n" : 1,
        "_rank" : 1,
        "h" : 1
      },
      "bidirectional\/TensorArray_5_ls_elem_shape" : {
        "k" : 1,
        "w" : 2,
        "n" : 1,
        "_rank" : 1,
        "h" : 1
      },
      "fake_exit_3" : {
        "k" : 1,
        "w" : 1,
        "n" : 1,
        "h" : 1
      },
      "bidirectional\/while\/split:1" : {
        "k" : 0,
        "w" : 1024,
        "n" : 1,
        "_rank" : 4,
        "h" : 1
      },
      "while_0:2_reduce_any" : {
        "k" : 1,
        "w" : 1,
        "n" : 1,
        "_rank" : 1,
        "h" : 1
      },
      "bidirectional\/mul" : {
        "k" : 0,
        "w" : 1024,
        "n" : 1,
        "_rank" : 4,
        "h" : 1
      },
      "bidirectional\/TensorArrayUnstack\/TensorArrayScatter\/TensorArrayScatterV3" : {
        "k" : 53,
        "w" : 256,
        "n" : 1,
        "_rank" : 3,
        "h" : 1
      },
      "punc_label\/BiasAdd" : {
        "k" : 1,
        "w" : 28,
        "n" : 1,
        "_rank" : 2,
        "h" : 1
      },
      "bidirectional\/while_1\/Less_1_load_constant_266" : {
        "k" : 1,
        "w" : 1,
        "n" : 1,
        "h" : 1
      },
      "bidirectional\/MatMul_1" : {
        "k" : 1,
        "w" : 1024,
        "n" : 1,
        "h" : 1
      },
      "bidirectional\/TensorArray_3_elem_shape_not_equal" : {
        "k" : 1,
        "w" : 2,
        "n" : 1,
        "_rank" : 1,
        "h" : 1
      },
      "bidirectional\/while_1\/TensorArrayReadV3_1" : {
        "k" : 1,
        "w" : 1,
        "n" : 1,
        "_rank" : 2,
        "h" : 1
      },
      "bidirectional\/while_1\/add_2" : {
        "k" : 0,
        "w" : 1024,
        "n" : 1,
        "_rank" : 4,
        "h" : 1
      },
      "dense_4\/Tensordot\/MatMul" : {
        "k" : 1,
        "w" : 256,
        "n" : 1,
        "h" : 1
      },
      "bidirectional\/TensorArray_2_@ssa_version_4" : {
        "k" : 53,
        "w" : 1,
        "n" : 1,
        "_rank" : 3,
        "h" : 1
      },
      "bidirectional\/add" : {
        "k" : 1,
        "w" : 1024,
        "n" : 1,
        "h" : 1
      },
      "dense_4\/Tensordot\/Reshape" : {
        "k" : 1,
        "w" : 1,
        "n" : 1,
        "h" : 1
      },
      "bidirectional\/TensorArray_@ssa_version_5" : {
        "k" : 53,
        "w" : 256,
        "n" : 1,
        "_rank" : 3,
        "h" : 1
      },
      "while_1:2_@ssa_version_6" : {
        "k" : 53,
        "w" : 256,
        "n" : 1,
        "_rank" : 3,
        "h" : 1
      },
      "bidirectional\/split:1" : {
        "k" : 0,
        "w" : 1024,
        "n" : 1,
        "_rank" : 4,
        "h" : 1
      },
      "bidirectional\/strided_slice_6" : {
        "k" : 1,
        "w" : 256,
        "n" : 1,
        "_rank" : 2,
        "h" : 1
      },
      "bidirectional\/TensorArray_extra_length1" : {
        "k" : 1,
        "w" : 1,
        "n" : 1,
        "_rank" : 1,
        "h" : 1
      },
      "bidirectional\/TensorArray_3_is_growing" : {
        "k" : 1,
        "w" : 1,
        "n" : 1,
        "_rank" : 1,
        "h" : 1
      },
      "bidirectional\/TensorArray_3_length" : {
        "k" : 1,
        "w" : 1,
        "n" : 1,
        "_rank" : 1,
        "h" : 1
      },
      "bidirectional\/strided_slice" : {
        "k" : 1,
        "w" : 1,
        "n" : 1,
        "_rank" : 0,
        "h" : 1
      },
      "bidirectional\/TensorArray_2" : {
        "k" : 53,
        "w" : 1,
        "n" : 1,
        "_rank" : 3,
        "h" : 1
      },
      "dense_1\/Tensordot" : {
        "k" : 1,
        "w" : 256,
        "n" : 1,
        "_rank" : 3,
        "h" : 53
      },
      "bidirectional\/while\/LogicalAnd" : {
        "k" : 1,
        "w" : 1,
        "n" : 1,
        "_rank" : 1,
        "h" : 1
      },
      "bidirectional\/zeros_2\/packed\/1" : {
        "k" : 1,
        "w" : 1,
        "n" : 1,
        "_rank" : 1,
        "h" : 1
      },
      "lambda\/Cast_floor" : {
        "k" : 1,
        "w" : 31,
        "n" : 1,
        "_rank" : 3,
        "h" : 53
      },
      "bidirectional\/TensorArray_value_elem_shape" : {
        "k" : 1,
        "w" : 2,
        "n" : 1,
        "_rank" : 1,
        "h" : 1
      },
      "while_0:2_full_shape" : {
        "k" : 1,
        "w" : 3,
        "n" : 1,
        "_rank" : 1,
        "h" : 1
      },
      "cast_0_ceil" : {
        "k" : 1,
        "w" : 2,
        "n" : 1,
        "_rank" : 3,
        "h" : 53
      },
      "bidirectional\/TensorArray" : {
        "k" : 53,
        "w" : 256,
        "n" : 1,
        "_rank" : 3,
        "h" : 1
      },
      "bidirectional\/TensorArrayUnstack_1\/range_max" : {
        "k" : 1,
        "w" : 1,
        "n" : 1,
        "_rank" : 1,
        "h" : 1
      },
      "dense\/Tensordot\/MatMul" : {
        "k" : 1,
        "w" : 16,
        "n" : 1,
        "_rank" : 2,
        "h" : 53
      },
      "bidirectional\/strided_slice_4" : {
        "k" : 1,
        "w" : 1,
        "n" : 1,
        "_rank" : 0,
        "h" : 1
      },
      "bidirectional\/while_1\/mul_1" : {
        "k" : 0,
        "w" : 1024,
        "n" : 1,
        "_rank" : 4,
        "h" : 1
      },
      "bidirectional\/TensorArrayStack\/TensorArrayGatherV3" : {
        "k" : 53,
        "w" : 256,
        "n" : 1,
        "_rank" : 3,
        "h" : 1
      },
      "fake_exit_6_@ssa_version_1" : {
        "k" : 1,
        "w" : 1,
        "n" : 1,
        "h" : 1
      },
      "bidirectional\/while\/Tanh_1" : {
        "k" : 0,
        "w" : 1024,
        "n" : 1,
        "_rank" : 4,
        "h" : 1
      },
      "dense\/BiasAdd\/ReadVariableOp" : {
        "k" : 1,
        "w" : 16,
        "n" : 1,
        "_rank" : 1,
        "h" : 1
      },
      "while_1:2_ls_elem_shape" : {
        "k" : 1,
        "w" : 2,
        "n" : 1,
        "_rank" : 1,
        "h" : 1
      },
      "dense_4\/Relu" : {
        "k" : 1,
        "w" : 256,
        "n" : 1,
        "h" : 1
      },
      "bidirectional\/zeros\/packed\/1" : {
        "k" : 1,
        "w" : 1,
        "n" : 1,
        "_rank" : 1,
        "h" : 1
      },
      "bidirectional\/Sigmoid_4" : {
        "k" : 0,
        "w" : 1024,
        "n" : 1,
        "_rank" : 4,
        "h" : 1
      },
      "bidirectional\/TensorArray_@ssa_version_1" : {
        "k" : 1,
        "w" : 1,
        "n" : 1,
        "h" : 1
      },
      "bidirectional\/while\/add_1" : {
        "k" : 1,
        "w" : 1024,
        "n" : 1,
        "h" : 1
      },
      "bidirectional\/TensorArray_5_reduce_any" : {
        "k" : 1,
        "w" : 1,
        "n" : 1,
        "_rank" : 1,
        "h" : 1
      },
      "dropout\/cond\/Merge_5d_constant_in_bias" : {
        "k" : 256,
        "w" : 1,
        "n" : 1,
        "h" : 1
      },
      "embedding\/Cast_floor" : {
        "k" : 1,
        "w" : 53,
        "n" : 1,
        "_rank" : 2,
        "h" : 1
      },
      "bidirectional\/transpose_3" : {
        "k" : 53,
        "w" : 256,
        "n" : 1,
        "_rank" : 3,
        "h" : 1
      },
      "while_0:2_@ssa_version_4" : {
        "k" : 53,
        "w" : 256,
        "n" : 1,
        "_rank" : 3,
        "h" : 1
      },
      "while_1:2_bidirectional\/while_1\/Select_expanded" : {
        "k" : 1,
        "w" : 1,
        "n" : 1,
        "_rank" : 5,
        "h" : 1
      },
      "bidirectional\/while\/MatMul_1" : {
        "k" : 1,
        "w" : 1024,
        "n" : 1,
        "h" : 1
      },
      "bidirectional\/strided_slice_2" : {
        "k" : 1,
        "w" : 256,
        "n" : 1,
        "_rank" : 2,
        "h" : 1
      },
      "fake_exit_2" : {
        "k" : 1,
        "w" : 1,
        "n" : 1,
        "h" : 1
      },
      "fake_exit_4_@ssa_version_1" : {
        "k" : 1,
        "w" : 1,
        "n" : 1,
        "_rank" : 1,
        "h" : 1
      },
      "bidirectional\/TensorArray_2_ls_elem_shape" : {
        "k" : 1,
        "w" : 2,
        "n" : 1,
        "_rank" : 1,
        "h" : 1
      },
      "bidirectional\/TensorArray_re_initialize" : {
        "k" : 1,
        "w" : 1,
        "n" : 1,
        "h" : 1
      },
      "fake_exit_1_@ssa_version_3" : {
        "k" : 1,
        "w" : 1,
        "n" : 1,
        "_rank" : 1,
        "h" : 1
      },
      "bidirectional\/TensorArray_full_shape" : {
        "k" : 1,
        "w" : 3,
        "n" : 1,
        "_rank" : 1,
        "h" : 1
      },
      "dense_2\/Tensordot\/transpose" : {
        "k" : 1,
        "w" : 512,
        "n" : 1,
        "_rank" : 3,
        "h" : 53
      },
      "bidirectional\/split_1:2" : {
        "k" : 0,
        "w" : 1024,
        "n" : 1,
        "_rank" : 4,
        "h" : 1
      },
      "while_1:2_elem_shape_not_equal" : {
        "k" : 1,
        "w" : 1,
        "n" : 1,
        "h" : 1
      },
      "dropout\/cond\/dropout\/mul" : {
        "k" : 1,
        "w" : 256,
        "n" : 1,
        "_rank" : 3,
        "h" : 53
      },
      "bidirectional\/TensorArrayUnstack_2\/TensorArrayScatter\/TensorArrayScatterV3" : {
        "k" : 53,
        "w" : 256,
        "n" : 1,
        "_rank" : 3,
        "h" : 1
      },
      "bidirectional\/TensorArray_3_ls_elem_shape" : {
        "k" : 1,
        "w" : 2,
        "n" : 1,
        "_rank" : 1,
        "h" : 1
      },
      "bidirectional\/TensorArray_2_raw_value_elem_shape" : {
        "k" : 1,
        "w" : 3,
        "n" : 1,
        "_rank" : 1,
        "h" : 1
      },
      "dropout\/cond\/Merge_@ssa_version_1" : {
        "k" : 1,
        "w" : 256,
        "n" : 1,
        "_rank" : 3,
        "h" : 53
      },
      "dropout\/cond\/Merge_@ssa_version_2" : {
        "k" : 1,
        "w" : 1,
        "n" : 1,
        "h" : 1
      },
      "dense\/Tensordot\/Reshape" : {
        "k" : 1,
        "w" : 100,
        "n" : 1,
        "_rank" : 2,
        "h" : 53
      },
      "bidirectional\/TensorArray_2_@ssa_version_2" : {
        "k" : 54,
        "w" : 1,
        "n" : 1,
        "_rank" : 3,
        "h" : 1
      },
      "fake_exit_2_@ssa_version_1" : {
        "k" : 1,
        "w" : 1,
        "n" : 1,
        "h" : 1
      },
      "bidirectional\/ReverseV2_2" : {
        "k" : 1,
        "w" : 256,
        "n" : 1,
        "_rank" : 3,
        "h" : 53
      },
      "bidirectional\/TensorArrayUnstack_3\/range" : {
        "k" : 1,
        "w" : 53,
        "n" : 1,
        "_rank" : 1,
        "h" : 1
      },
      "lambda\/Cast_cond_load_constant_5" : {
        "k" : 1,
        "w" : 1,
        "n" : 1,
        "h" : 1
      },
      "bidirectional\/TensorArray_5" : {
        "k" : 53,
        "w" : 1,
        "n" : 1,
        "_rank" : 3,
        "h" : 1
      },
      "dense_1\/BiasAdd" : {
        "k" : 1,
        "w" : 256,
        "n" : 1,
        "_rank" : 3,
        "h" : 53
      },
      "fake_exit_7_@ssa_version_2" : {
        "k" : 1,
        "w" : 1,
        "n" : 1,
        "h" : 1
      },
      "bidirectional\/MatMul" : {
        "k" : 1,
        "w" : 1024,
        "n" : 1,
        "_rank" : 2,
        "h" : 1
      },
      "fake_exit_1_@ssa_version_6" : {
        "k" : 1,
        "w" : 1,
        "n" : 1,
        "_rank" : 1,
        "h" : 1
      },
      "bidirectional\/TensorArray_3_@ssa_version_5" : {
        "k" : 53,
        "w" : 256,
        "n" : 1,
        "_rank" : 3,
        "h" : 1
      },
      "concatenate\/concat_1" : {
        "k" : 1,
        "w" : 2,
        "n" : 1,
        "_rank" : 3,
        "h" : 53
      },
      "fake_exit_0_@ssa_version_1" : {
        "k" : 1,
        "w" : 1,
        "n" : 1,
        "_rank" : 1,
        "h" : 1
      },
      "while_0:2" : {
        "k" : 53,
        "w" : 256,
        "n" : 1,
        "_rank" : 3,
        "h" : 1
      },
      "bidirectional\/TensorArray_2_length" : {
        "k" : 1,
        "w" : 1,
        "n" : 1,
        "_rank" : 1,
        "h" : 1
      },
      "bidirectional\/forward_lstm\/bias" : {
        "k" : 1,
        "w" : 1024,
        "n" : 1,
        "_rank" : 1,
        "h" : 1
      },
      "embedding\/Cast" : {
        "k" : 1,
        "w" : 53,
        "n" : 1,
        "_rank" : 2,
        "h" : 1
      },
      "while_1:2_@ssa_version_4" : {
        "k" : 53,
        "w" : 256,
        "n" : 1,
        "_rank" : 3,
        "h" : 1
      },
      "cast_0" : {
        "k" : 1,
        "w" : 2,
        "n" : 1,
        "_rank" : 3,
        "h" : 53
      },
      "while_1:2_new" : {
        "k" : 54,
        "w" : 256,
        "n" : 1,
        "_rank" : 3,
        "h" : 1
      },
      "bidirectional\/mul_3" : {
        "k" : 0,
        "w" : 1024,
        "n" : 1,
        "_rank" : 4,
        "h" : 1
      },
      "bidirectional\/TensorArray_5_extra_length1" : {
        "k" : 1,
        "w" : 1,
        "n" : 1,
        "_rank" : 1,
        "h" : 1
      },
      "embedding\/Cast_ceil" : {
        "k" : 1,
        "w" : 53,
        "n" : 1,
        "_rank" : 2,
        "h" : 1
      },
      "bidirectional\/add_2" : {
        "k" : 1,
        "w" : 1024,
        "n" : 1,
        "h" : 1
      },
      "bidirectional\/TensorArray_2_@ssa_version_1" : {
        "k" : 1,
        "w" : 1,
        "n" : 1,
        "h" : 1
      },
      "fake_exit_5_@ssa_version_2" : {
        "k" : 1,
        "w" : 1,
        "n" : 1,
        "_rank" : 1,
        "h" : 1
      },
      "dense_2\/BiasAdd" : {
        "k" : 1,
        "w" : 256,
        "n" : 1,
        "_rank" : 3,
        "h" : 53
      },
      "bidirectional\/zeros_2" : {
        "k" : 1,
        "w" : 1,
        "n" : 1,
        "h" : 1
      },
      "while_0:2_re_initialize_shape" : {
        "k" : 1,
        "w" : 5,
        "n" : 1,
        "_rank" : 1,
        "h" : 1
      },
      "bidirectional\/TensorArray_5_raw_value_elem_shape" : {
        "k" : 1,
        "w" : 3,
        "n" : 1,
        "_rank" : 1,
        "h" : 1
      },
      "bidirectional\/ReverseV2" : {
        "k" : 53,
        "w" : 256,
        "n" : 1,
        "_rank" : 3,
        "h" : 1
      },
      "fake_exit_1" : {
        "k" : 1,
        "w" : 1,
        "n" : 1,
        "_rank" : 1,
        "h" : 1
      },
      "bidirectional\/TensorArray_5_re_initialize" : {
        "k" : 1,
        "w" : 1,
        "n" : 1,
        "h" : 1
      },
      "bidirectional\/while_1\/Select_2" : {
        "k" : 1,
        "w" : 1,
        "n" : 1,
        "h" : 1
      },
      "dense_2\/Tensordot\/Reshape" : {
        "k" : 1,
        "w" : 512,
        "n" : 1,
        "_rank" : 2,
        "h" : 53
      },
      "bidirectional\/MatMul_3" : {
        "k" : 1,
        "w" : 1024,
        "n" : 1,
        "h" : 1
      },
      "bidirectional\/TensorArrayStack\/range" : {
        "k" : 1,
        "w" : 53,
        "n" : 1,
        "_rank" : 1,
        "h" : 1
      },
      "bidirectional\/TensorArray_3_@ssa_version_4" : {
        "k" : 53,
        "w" : 256,
        "n" : 1,
        "_rank" : 3,
        "h" : 1
      },
      "bidirectional\/TensorArrayUnstack\/range" : {
        "k" : 1,
        "w" : 53,
        "n" : 1,
        "_rank" : 1,
        "h" : 1
      },
      "fake_exit_3_@ssa_version_2" : {
        "k" : 1,
        "w" : 1,
        "n" : 1,
        "h" : 1
      },
      "punc_label\/Reshape" : {
        "k" : 1,
        "w" : 256,
        "n" : 1,
        "_rank" : 2,
        "h" : 1
      },
      "bidirectional\/while_1\/TensorArrayReadV3_gathered" : {
        "k" : 1,
        "w" : 256,
        "n" : 1,
        "_rank" : 3,
        "h" : 1
      },
      "bidirectional\/time" : {
        "k" : 1,
        "w" : 1,
        "n" : 1,
        "_rank" : 1,
        "h" : 1
      },
      "bidirectional\/transpose_2" : {
        "k" : 1,
        "w" : 256,
        "n" : 1,
        "_rank" : 3,
        "h" : 53
      },
      "while_0:2_@ssa_version_2" : {
        "k" : 54,
        "w" : 256,
        "n" : 1,
        "_rank" : 3,
        "h" : 1
      },
      "concatenate\/ExpandDims" : {
        "k" : 1,
        "w" : 1,
        "n" : 1,
        "_rank" : 3,
        "h" : 53
      },
      "bidirectional\/while_1\/Select_1" : {
        "k" : 1,
        "w" : 1,
        "n" : 1,
        "h" : 1
      },
      "while_1:2_re_initialize_shape" : {
        "k" : 1,
        "w" : 5,
        "n" : 1,
        "_rank" : 1,
        "h" : 1
      },
      "bidirectional\/while\/Sigmoid" : {
        "k" : 1,
        "w" : 1024,
        "n" : 1,
        "_rank" : 4,
        "h" : 1
      },
      "dropout\/cond\/dropout\/GreaterEqual_load_constant_338" : {
        "k" : 1,
        "w" : 1,
        "n" : 1,
        "h" : 1
      },
      "fake_exit_5_@ssa_version_5" : {
        "k" : 1,
        "w" : 1,
        "n" : 1,
        "_rank" : 1,
        "h" : 1
      },
      "dense_4\/Tensordot" : {
        "k" : 1,
        "w" : 1,
        "n" : 1,
        "h" : 1
      },
      "bidirectional\/BiasAdd\/ReadVariableOp" : {
        "k" : 1,
        "w" : 1024,
        "n" : 1,
        "_rank" : 1,
        "h" : 1
      },
      "bidirectional\/Tanh_1" : {
        "k" : 0,
        "w" : 1024,
        "n" : 1,
        "_rank" : 4,
        "h" : 1
      },
      "bidirectional\/while_1\/Tanh_1" : {
        "k" : 0,
        "w" : 1024,
        "n" : 1,
        "_rank" : 4,
        "h" : 1
      },
      "dropout\/cond\/Merge_reshape" : {
        "k" : 1,
        "w" : 1,
        "n" : 1,
        "h" : 1
      },
      "bidirectional\/while_1\/TensorArrayReadV3" : {
        "k" : 1,
        "w" : 256,
        "n" : 1,
        "_rank" : 2,
        "h" : 1
      },
      "bidirectional\/ExpandDims" : {
        "k" : 1,
        "w" : 1,
        "n" : 1,
        "_rank" : 3,
        "h" : 53
      },
      "bidirectional\/while_1\/Select" : {
        "k" : 1,
        "w" : 1,
        "n" : 1,
        "h" : 1
      }
    },
    "global_shapes" : {

    }
  },
  "subnetworks" : {

  }
}