{
  "layers" : [
    {
      "bottom" : "input",
      "weights" : {

      },
      "nd_mode" : 1,
      "debug_info" : "",
      "axis" : -1,
      "top" : "fastspeech2\/tf_op_layer_Shape\/Shape",
      "type" : "get_shape",
      "name" : "fastspeech2\/tf_op_layer_Shape\/Shape",
      "attributes" : {
        "basic_block_head" : 1
      }
    },
    {
      "size_of_axes" : 1,
      "bottom" : "input",
      "axes_0" : -1,
      "weights" : {

      },
      "nd_axis" : 0,
      "debug_info" : "",
      "top" : "fastspeech2\/embedding\/embedding_lookup_expand_dims",
      "type" : "expand_dims",
      "name" : "fastspeech2\/embedding\/embedding_lookup_expand_dims"
    },
    {
      "nB" : 71,
      "top" : "fastspeech2\/embedding\/embedding_lookup",
      "has_biases" : 0,
      "nd_mode" : true,
      "nC" : 256,
      "blob_weights_f16" : 1,
      "weights" : {

      },
      "is_lookup" : 1,
      "type" : "inner_product",
      "has_relu" : 0,
      "bottom" : "fastspeech2\/embedding\/embedding_lookup_expand_dims",
      "debug_info" : "",
      "has_tanh" : 0,
      "hint_fallback_from_metal" : 1,
      "name" : "fastspeech2\/embedding\/embedding_lookup",
      "has_prelu" : 0
    },
    {
      "begin_n" : 0,
      "static_sizes_k" : 0,
      "end_mask_h" : true,
      "end_w" : 0,
      "end_h" : 0,
      "begin_h" : 0,
      "stride_n" : 1,
      "end_seq" : 1,
      "begin_mask_seq" : false,
      "begin_mask_h" : true,
      "squeeze_mask_h" : false,
      "stride_k" : 1,
      "type" : "general_slice",
      "begin_mask_k" : false,
      "static_sizes_w" : 0,
      "begin_w" : 0,
      "end_mask_k" : false,
      "use_static_sizes" : false,
      "stride_h" : 1,
      "static_sizes_n" : 0,
      "begin_mask_n" : false,
      "weights" : {

      },
      "name" : "fastspeech2\/tf_op_layer_strided_slice_3\/strided_slice_3",
      "stride_seq" : 1,
      "end_k" : 1,
      "static_sizes_seq" : 0,
      "top" : "fastspeech2\/tf_op_layer_strided_slice_3\/strided_slice_3",
      "begin_seq" : 0,
      "squeeze_mask_k" : true,
      "begin_k" : 0,
      "end_mask_w" : true,
      "end_mask_seq" : false,
      "end_mask_n" : false,
      "debug_info" : "",
      "stride_w" : 1,
      "squeeze_mask_seq" : false,
      "static_sizes_h" : 0,
      "begin_mask_w" : true,
      "bottom" : "input_feature_scale",
      "end_n" : 1,
      "squeeze_mask_w" : false,
      "squeeze_mask_n" : false
    },
    {
      "begin_n" : 0,
      "static_sizes_k" : 0,
      "end_mask_h" : true,
      "end_w" : 0,
      "end_h" : 0,
      "begin_h" : 0,
      "stride_n" : 1,
      "end_seq" : 1,
      "begin_mask_seq" : false,
      "begin_mask_h" : true,
      "squeeze_mask_h" : false,
      "stride_k" : 1,
      "type" : "general_slice",
      "begin_mask_k" : false,
      "static_sizes_w" : 0,
      "begin_w" : 0,
      "end_mask_k" : false,
      "use_static_sizes" : false,
      "stride_h" : 1,
      "static_sizes_n" : 0,
      "begin_mask_n" : false,
      "weights" : {

      },
      "name" : "fastspeech2\/tf_op_layer_strided_slice_4\/strided_slice_4",
      "stride_seq" : 1,
      "end_k" : 1,
      "static_sizes_seq" : 0,
      "top" : "fastspeech2\/tf_op_layer_strided_slice_4\/strided_slice_4",
      "begin_seq" : 0,
      "squeeze_mask_k" : true,
      "begin_k" : 0,
      "end_mask_w" : true,
      "end_mask_seq" : false,
      "end_mask_n" : false,
      "debug_info" : "",
      "stride_w" : 1,
      "squeeze_mask_seq" : false,
      "static_sizes_h" : 0,
      "begin_mask_w" : true,
      "bottom" : "input_feature_bias",
      "end_n" : 1,
      "squeeze_mask_w" : false,
      "squeeze_mask_n" : false
    },
    {
      "begin_n" : 0,
      "static_sizes_k" : 0,
      "end_mask_h" : true,
      "end_w" : 0,
      "end_h" : 0,
      "begin_h" : 0,
      "stride_n" : 1,
      "end_seq" : 1,
      "begin_mask_seq" : false,
      "begin_mask_h" : true,
      "squeeze_mask_h" : false,
      "stride_k" : 1,
      "type" : "general_slice",
      "begin_mask_k" : false,
      "static_sizes_w" : 0,
      "begin_w" : 0,
      "end_mask_k" : false,
      "use_static_sizes" : false,
      "stride_h" : 1,
      "static_sizes_n" : 0,
      "begin_mask_n" : false,
      "weights" : {

      },
      "name" : "fastspeech2\/tf_op_layer_strided_slice_5\/strided_slice_5",
      "stride_seq" : 1,
      "end_k" : 1,
      "static_sizes_seq" : 0,
      "top" : "fastspeech2\/tf_op_layer_strided_slice_5\/strided_slice_5",
      "begin_seq" : 0,
      "squeeze_mask_k" : true,
      "begin_k" : 0,
      "end_mask_w" : true,
      "end_mask_seq" : false,
      "end_mask_n" : false,
      "debug_info" : "",
      "stride_w" : 1,
      "squeeze_mask_seq" : false,
      "static_sizes_h" : 0,
      "begin_mask_w" : true,
      "bottom" : "input_feature_variance_scale_switch",
      "end_n" : 1,
      "squeeze_mask_w" : false,
      "squeeze_mask_n" : false
    },
    {
      "begin_n" : 0,
      "static_sizes_k" : 0,
      "end_mask_h" : true,
      "end_w" : 0,
      "end_h" : 0,
      "begin_h" : 0,
      "stride_n" : 1,
      "end_seq" : 1,
      "begin_mask_seq" : false,
      "begin_mask_h" : true,
      "squeeze_mask_h" : false,
      "stride_k" : 1,
      "type" : "general_slice",
      "begin_mask_k" : false,
      "static_sizes_w" : 0,
      "begin_w" : 0,
      "end_mask_k" : false,
      "use_static_sizes" : false,
      "stride_h" : 1,
      "static_sizes_n" : 0,
      "begin_mask_n" : false,
      "weights" : {

      },
      "name" : "fastspeech2\/tf_op_layer_strided_slice_6\/strided_slice_6",
      "stride_seq" : 1,
      "end_k" : 1,
      "static_sizes_seq" : 0,
      "top" : "fastspeech2\/tf_op_layer_strided_slice_6\/strided_slice_6",
      "begin_seq" : 0,
      "squeeze_mask_k" : true,
      "begin_k" : 0,
      "end_mask_w" : true,
      "end_mask_seq" : false,
      "end_mask_n" : false,
      "debug_info" : "",
      "stride_w" : 1,
      "squeeze_mask_seq" : false,
      "static_sizes_h" : 0,
      "begin_mask_w" : true,
      "bottom" : "input_feature_scale",
      "end_n" : 1,
      "squeeze_mask_w" : false,
      "squeeze_mask_n" : false
    },
    {
      "size_of_axes" : 1,
      "bottom" : "input_length",
      "axes_0" : -1,
      "weights" : {

      },
      "nd_axis" : 0,
      "debug_info" : "",
      "top" : "fastspeech2\/tf_op_layer_ExpandDims\/ExpandDims",
      "type" : "expand_dims",
      "name" : "fastspeech2\/tf_op_layer_ExpandDims\/ExpandDims"
    },
    {
      "begin_n" : 0,
      "static_sizes_k" : 0,
      "end_mask_h" : true,
      "end_w" : 0,
      "end_h" : 0,
      "begin_h" : 0,
      "stride_n" : 1,
      "end_seq" : 1,
      "begin_mask_seq" : false,
      "begin_mask_h" : true,
      "squeeze_mask_h" : false,
      "stride_k" : 1,
      "type" : "general_slice",
      "begin_mask_k" : false,
      "static_sizes_w" : 0,
      "begin_w" : 0,
      "end_mask_k" : false,
      "use_static_sizes" : false,
      "stride_h" : 1,
      "static_sizes_n" : 0,
      "begin_mask_n" : false,
      "weights" : {

      },
      "name" : "fastspeech2\/tf_op_layer_strided_slice_10\/strided_slice_10",
      "stride_seq" : 1,
      "end_k" : 2,
      "static_sizes_seq" : 0,
      "top" : "fastspeech2\/tf_op_layer_strided_slice_10\/strided_slice_10",
      "begin_seq" : 0,
      "squeeze_mask_k" : true,
      "begin_k" : 1,
      "end_mask_w" : true,
      "end_mask_seq" : false,
      "end_mask_n" : false,
      "debug_info" : "",
      "stride_w" : 1,
      "squeeze_mask_seq" : false,
      "static_sizes_h" : 0,
      "begin_mask_w" : true,
      "bottom" : "input_feature_scale",
      "end_n" : 1,
      "squeeze_mask_w" : false,
      "squeeze_mask_n" : false
    },
    {
      "begin_n" : 0,
      "static_sizes_k" : 0,
      "end_mask_h" : true,
      "end_w" : 0,
      "end_h" : 0,
      "begin_h" : 0,
      "stride_n" : 1,
      "end_seq" : 1,
      "begin_mask_seq" : false,
      "begin_mask_h" : true,
      "squeeze_mask_h" : false,
      "stride_k" : 1,
      "type" : "general_slice",
      "begin_mask_k" : false,
      "static_sizes_w" : 0,
      "begin_w" : 0,
      "end_mask_k" : false,
      "use_static_sizes" : false,
      "stride_h" : 1,
      "static_sizes_n" : 0,
      "begin_mask_n" : false,
      "weights" : {

      },
      "name" : "fastspeech2\/tf_op_layer_strided_slice_11\/strided_slice_11",
      "stride_seq" : 1,
      "end_k" : 2,
      "static_sizes_seq" : 0,
      "top" : "fastspeech2\/tf_op_layer_strided_slice_11\/strided_slice_11",
      "begin_seq" : 0,
      "squeeze_mask_k" : true,
      "begin_k" : 1,
      "end_mask_w" : true,
      "end_mask_seq" : false,
      "end_mask_n" : false,
      "debug_info" : "",
      "stride_w" : 1,
      "squeeze_mask_seq" : false,
      "static_sizes_h" : 0,
      "begin_mask_w" : true,
      "bottom" : "input_feature_bias",
      "end_n" : 1,
      "squeeze_mask_w" : false,
      "squeeze_mask_n" : false
    },
    {
      "begin_n" : 0,
      "static_sizes_k" : 0,
      "end_mask_h" : true,
      "end_w" : 0,
      "end_h" : 0,
      "begin_h" : 0,
      "stride_n" : 1,
      "end_seq" : 1,
      "begin_mask_seq" : false,
      "begin_mask_h" : true,
      "squeeze_mask_h" : false,
      "stride_k" : 1,
      "type" : "general_slice",
      "begin_mask_k" : false,
      "static_sizes_w" : 0,
      "begin_w" : 0,
      "end_mask_k" : false,
      "use_static_sizes" : false,
      "stride_h" : 1,
      "static_sizes_n" : 0,
      "begin_mask_n" : false,
      "weights" : {

      },
      "name" : "fastspeech2\/tf_op_layer_strided_slice_12\/strided_slice_12",
      "stride_seq" : 1,
      "end_k" : 2,
      "static_sizes_seq" : 0,
      "top" : "fastspeech2\/tf_op_layer_strided_slice_12\/strided_slice_12",
      "begin_seq" : 0,
      "squeeze_mask_k" : true,
      "begin_k" : 1,
      "end_mask_w" : true,
      "end_mask_seq" : false,
      "end_mask_n" : false,
      "debug_info" : "",
      "stride_w" : 1,
      "squeeze_mask_seq" : false,
      "static_sizes_h" : 0,
      "begin_mask_w" : true,
      "bottom" : "input_feature_variance_scale_switch",
      "end_n" : 1,
      "squeeze_mask_w" : false,
      "squeeze_mask_n" : false
    },
    {
      "begin_n" : 0,
      "static_sizes_k" : 0,
      "end_mask_h" : true,
      "end_w" : 0,
      "end_h" : 0,
      "begin_h" : 0,
      "stride_n" : 1,
      "end_seq" : 1,
      "begin_mask_seq" : false,
      "begin_mask_h" : true,
      "squeeze_mask_h" : false,
      "stride_k" : 1,
      "type" : "general_slice",
      "begin_mask_k" : false,
      "static_sizes_w" : 0,
      "begin_w" : 0,
      "end_mask_k" : false,
      "use_static_sizes" : false,
      "stride_h" : 1,
      "static_sizes_n" : 0,
      "begin_mask_n" : false,
      "weights" : {

      },
      "name" : "fastspeech2\/tf_op_layer_strided_slice_13\/strided_slice_13",
      "stride_seq" : 1,
      "end_k" : 2,
      "static_sizes_seq" : 0,
      "top" : "fastspeech2\/tf_op_layer_strided_slice_13\/strided_slice_13",
      "begin_seq" : 0,
      "squeeze_mask_k" : true,
      "begin_k" : 1,
      "end_mask_w" : true,
      "end_mask_seq" : false,
      "end_mask_n" : false,
      "debug_info" : "",
      "stride_w" : 1,
      "squeeze_mask_seq" : false,
      "static_sizes_h" : 0,
      "begin_mask_w" : true,
      "bottom" : "input_feature_scale",
      "end_n" : 1,
      "squeeze_mask_w" : false,
      "squeeze_mask_n" : false
    },
    {
      "begin_n" : 0,
      "static_sizes_k" : 0,
      "end_mask_h" : true,
      "end_w" : 0,
      "end_h" : 0,
      "begin_h" : 0,
      "stride_n" : 1,
      "end_seq" : 1,
      "begin_mask_seq" : false,
      "begin_mask_h" : true,
      "squeeze_mask_h" : false,
      "stride_k" : 1,
      "type" : "general_slice",
      "begin_mask_k" : false,
      "static_sizes_w" : 0,
      "begin_w" : 0,
      "end_mask_k" : false,
      "use_static_sizes" : false,
      "stride_h" : 1,
      "static_sizes_n" : 0,
      "begin_mask_n" : false,
      "weights" : {

      },
      "name" : "fastspeech2\/tf_op_layer_strided_slice_14\/strided_slice_14",
      "stride_seq" : 1,
      "end_k" : 3,
      "static_sizes_seq" : 0,
      "top" : "fastspeech2\/tf_op_layer_strided_slice_14\/strided_slice_14",
      "begin_seq" : 0,
      "squeeze_mask_k" : true,
      "begin_k" : 2,
      "end_mask_w" : true,
      "end_mask_seq" : false,
      "end_mask_n" : false,
      "debug_info" : "",
      "stride_w" : 1,
      "squeeze_mask_seq" : false,
      "static_sizes_h" : 0,
      "begin_mask_w" : true,
      "bottom" : "input_feature_scale",
      "end_n" : 1,
      "squeeze_mask_w" : false,
      "squeeze_mask_n" : false
    },
    {
      "begin_n" : 0,
      "static_sizes_k" : 0,
      "end_mask_h" : true,
      "end_w" : 0,
      "end_h" : 0,
      "begin_h" : 0,
      "stride_n" : 1,
      "end_seq" : 1,
      "begin_mask_seq" : false,
      "begin_mask_h" : true,
      "squeeze_mask_h" : false,
      "stride_k" : 1,
      "type" : "general_slice",
      "begin_mask_k" : false,
      "static_sizes_w" : 0,
      "begin_w" : 0,
      "end_mask_k" : false,
      "use_static_sizes" : false,
      "stride_h" : 1,
      "static_sizes_n" : 0,
      "begin_mask_n" : false,
      "weights" : {

      },
      "name" : "fastspeech2\/tf_op_layer_strided_slice_15\/strided_slice_15",
      "stride_seq" : 1,
      "end_k" : 3,
      "static_sizes_seq" : 0,
      "top" : "fastspeech2\/tf_op_layer_strided_slice_15\/strided_slice_15",
      "begin_seq" : 0,
      "squeeze_mask_k" : true,
      "begin_k" : 2,
      "end_mask_w" : true,
      "end_mask_seq" : false,
      "end_mask_n" : false,
      "debug_info" : "",
      "stride_w" : 1,
      "squeeze_mask_seq" : false,
      "static_sizes_h" : 0,
      "begin_mask_w" : true,
      "bottom" : "input_feature_bias",
      "end_n" : 1,
      "squeeze_mask_w" : false,
      "squeeze_mask_n" : false
    },
    {
      "begin_n" : 0,
      "static_sizes_k" : 0,
      "end_mask_h" : true,
      "end_w" : 0,
      "end_h" : 0,
      "begin_h" : 0,
      "stride_n" : 1,
      "end_seq" : 1,
      "begin_mask_seq" : false,
      "begin_mask_h" : true,
      "squeeze_mask_h" : false,
      "stride_k" : 1,
      "type" : "general_slice",
      "begin_mask_k" : false,
      "static_sizes_w" : 0,
      "begin_w" : 0,
      "end_mask_k" : false,
      "use_static_sizes" : false,
      "stride_h" : 1,
      "static_sizes_n" : 0,
      "begin_mask_n" : false,
      "weights" : {

      },
      "name" : "fastspeech2\/tf_op_layer_strided_slice_16\/strided_slice_16",
      "stride_seq" : 1,
      "end_k" : 3,
      "static_sizes_seq" : 0,
      "top" : "fastspeech2\/tf_op_layer_strided_slice_16\/strided_slice_16",
      "begin_seq" : 0,
      "squeeze_mask_k" : true,
      "begin_k" : 2,
      "end_mask_w" : true,
      "end_mask_seq" : false,
      "end_mask_n" : false,
      "debug_info" : "",
      "stride_w" : 1,
      "squeeze_mask_seq" : false,
      "static_sizes_h" : 0,
      "begin_mask_w" : true,
      "bottom" : "input_feature_variance_scale_switch",
      "end_n" : 1,
      "squeeze_mask_w" : false,
      "squeeze_mask_n" : false
    },
    {
      "begin_n" : 0,
      "static_sizes_k" : 0,
      "end_mask_h" : true,
      "end_w" : 0,
      "end_h" : 0,
      "begin_h" : 0,
      "stride_n" : 1,
      "end_seq" : 1,
      "begin_mask_seq" : false,
      "begin_mask_h" : true,
      "squeeze_mask_h" : false,
      "stride_k" : 1,
      "type" : "general_slice",
      "begin_mask_k" : false,
      "static_sizes_w" : 0,
      "begin_w" : 0,
      "end_mask_k" : false,
      "use_static_sizes" : false,
      "stride_h" : 1,
      "static_sizes_n" : 0,
      "begin_mask_n" : false,
      "weights" : {

      },
      "name" : "fastspeech2\/tf_op_layer_strided_slice_17\/strided_slice_17",
      "stride_seq" : 1,
      "end_k" : 3,
      "static_sizes_seq" : 0,
      "top" : "fastspeech2\/tf_op_layer_strided_slice_17\/strided_slice_17",
      "begin_seq" : 0,
      "squeeze_mask_k" : true,
      "begin_k" : 2,
      "end_mask_w" : true,
      "end_mask_seq" : false,
      "end_mask_n" : false,
      "debug_info" : "",
      "stride_w" : 1,
      "squeeze_mask_seq" : false,
      "static_sizes_h" : 0,
      "begin_mask_w" : true,
      "bottom" : "input_feature_scale",
      "end_n" : 1,
      "squeeze_mask_w" : false,
      "squeeze_mask_n" : false
    },
    {
      "begin_n" : 0,
      "static_sizes_k" : 0,
      "end_mask_h" : false,
      "end_w" : 2,
      "end_h" : 1,
      "begin_h" : 0,
      "stride_n" : 1,
      "end_seq" : 1,
      "begin_mask_seq" : false,
      "begin_mask_h" : false,
      "squeeze_mask_h" : false,
      "stride_k" : 1,
      "type" : "general_slice",
      "begin_mask_k" : false,
      "static_sizes_w" : 0,
      "begin_w" : 1,
      "end_mask_k" : false,
      "use_static_sizes" : false,
      "stride_h" : 1,
      "static_sizes_n" : 0,
      "begin_mask_n" : false,
      "weights" : {

      },
      "name" : "fastspeech2\/tf_op_layer_strided_slice\/strided_slice",
      "stride_seq" : 1,
      "end_k" : 1,
      "static_sizes_seq" : 0,
      "top" : "fastspeech2\/tf_op_layer_strided_slice\/strided_slice",
      "begin_seq" : 0,
      "squeeze_mask_k" : false,
      "begin_k" : 0,
      "end_mask_w" : false,
      "end_mask_seq" : false,
      "end_mask_n" : false,
      "debug_info" : "",
      "stride_w" : 2147483647,
      "squeeze_mask_seq" : false,
      "static_sizes_h" : 0,
      "begin_mask_w" : false,
      "bottom" : "fastspeech2\/tf_op_layer_Shape\/Shape",
      "end_n" : 1,
      "squeeze_mask_w" : true,
      "squeeze_mask_n" : false
    },
    {
      "size_of_axes" : 1,
      "bottom" : "fastspeech2\/embedding\/embedding_lookup",
      "axes_0" : -3,
      "weights" : {

      },
      "nd_axis" : 0,
      "debug_info" : "",
      "top" : "fastspeech2\/encoder\/conv1d\/conv1d\/ExpandDims",
      "type" : "expand_dims",
      "name" : "fastspeech2\/encoder\/conv1d\/conv1d\/ExpandDims"
    },
    {
      "bottom" : "fastspeech2\/embedding\/embedding_lookup",
      "weights" : {

      },
      "nd_mode" : 1,
      "axis" : -1,
      "debug_info" : "",
      "top" : "fastspeech2\/encoder\/Shape",
      "type" : "get_shape",
      "name" : "fastspeech2\/encoder\/Shape"
    },
    {
      "alpha" : -1,
      "bottom" : "fastspeech2\/tf_op_layer_strided_slice_6\/strided_slice_6",
      "weights" : {

      },
      "mode" : 6,
      "debug_info" : "",
      "top" : "_neg_y_fastspeech2\/tf_op_layer_Sub\/Sub",
      "type" : "activation",
      "name" : "_neg_y_fastspeech2\/tf_op_layer_Sub\/Sub",
      "beta" : 0
    },
    {
      "bottom" : "_neg_y_fastspeech2\/tf_op_layer_Sub\/Sub",
      "alpha" : 1,
      "operation" : 2,
      "weights" : {

      },
      "fused_relu" : 0,
      "debug_info" : "",
      "top" : "fastspeech2\/tf_op_layer_Sub\/Sub",
      "type" : "elementwise",
      "name" : "fastspeech2\/tf_op_layer_Sub\/Sub",
      "beta" : 0
    },
    {
      "alpha" : -1,
      "bottom" : "fastspeech2\/tf_op_layer_strided_slice_13\/strided_slice_13",
      "weights" : {

      },
      "mode" : 6,
      "debug_info" : "",
      "top" : "_neg_y_fastspeech2\/tf_op_layer_Sub_1\/Sub_1",
      "type" : "activation",
      "name" : "_neg_y_fastspeech2\/tf_op_layer_Sub_1\/Sub_1",
      "beta" : 0
    },
    {
      "bottom" : "_neg_y_fastspeech2\/tf_op_layer_Sub_1\/Sub_1",
      "alpha" : 1,
      "operation" : 2,
      "weights" : {

      },
      "fused_relu" : 0,
      "debug_info" : "",
      "top" : "fastspeech2\/tf_op_layer_Sub_1\/Sub_1",
      "type" : "elementwise",
      "name" : "fastspeech2\/tf_op_layer_Sub_1\/Sub_1",
      "beta" : 0
    },
    {
      "alpha" : -1,
      "bottom" : "fastspeech2\/tf_op_layer_strided_slice_17\/strided_slice_17",
      "weights" : {

      },
      "mode" : 6,
      "debug_info" : "",
      "top" : "_neg_y_fastspeech2\/tf_op_layer_Sub_2\/Sub_2",
      "type" : "activation",
      "name" : "_neg_y_fastspeech2\/tf_op_layer_Sub_2\/Sub_2",
      "beta" : 0
    },
    {
      "bottom" : "_neg_y_fastspeech2\/tf_op_layer_Sub_2\/Sub_2",
      "alpha" : 1,
      "operation" : 2,
      "weights" : {

      },
      "fused_relu" : 0,
      "debug_info" : "",
      "top" : "fastspeech2\/tf_op_layer_Sub_2\/Sub_2",
      "type" : "elementwise",
      "name" : "fastspeech2\/tf_op_layer_Sub_2\/Sub_2",
      "beta" : 0
    },
    {
      "end" : 1,
      "bottom" : "fastspeech2\/tf_op_layer_strided_slice\/strided_slice",
      "weights" : {

      },
      "debug_info" : "",
      "top" : "fastspeech2\/tf_op_layer_Range\/Range",
      "type" : "range",
      "name" : "fastspeech2\/tf_op_layer_Range\/Range"
    },
    {
      "axis_seq" : 4,
      "name" : "transpose_1",
      "axis_n" : 3,
      "axis_h" : 2,
      "type" : "transpose",
      "attributes" : {
        "basic_block_head" : 1
      },
      "bottom" : "fastspeech2\/encoder\/conv1d\/conv1d\/ExpandDims",
      "axis_w" : 1,
      "axis_k" : 0,
      "debug_info" : "",
      "weights" : {

      },
      "top" : "transpose_1"
    },
    {
      "pad_r" : 0,
      "fused_relu" : 0,
      "fused_tanh" : 0,
      "debug_info" : "",
      "pad_fill_mode" : 0,
      "pad_b" : 0,
      "pad_l" : 0,
      "top" : "fastspeech2\/encoder\/conv1d\/conv1dx",
      "K" : 256,
      "blob_biases" : 3,
      "name" : "fastspeech2\/encoder\/conv1d\/conv1dx",
      "has_batch_norm" : 0,
      "type" : "convolution",
      "n_groups" : 1,
      "pad_t" : 0,
      "has_biases" : 1,
      "C" : 256,
      "bottom" : "transpose_1",
      "weights" : {

      },
      "Nx" : 9,
      "pad_mode" : 1,
      "pad_value" : 0,
      "Ny" : 1,
      "n_parallel" : 1,
      "blob_weights_f16" : 5,
      "fused_activation_mode" : 0
    },
    {
      "axis_h" : 0,
      "axis_w" : 2,
      "bottom" : "fastspeech2\/encoder\/conv1d\/conv1dx",
      "axis_k" : 1,
      "axis_n" : 3,
      "axis_seq" : 4,
      "weights" : {

      },
      "debug_info" : "",
      "top" : "fastspeech2\/encoder\/conv1d\/conv1d",
      "type" : "transpose",
      "name" : "fastspeech2\/encoder\/conv1d\/conv1d"
    },
    {
      "begin_n" : 0,
      "static_sizes_k" : 0,
      "end_mask_h" : false,
      "end_w" : 2,
      "end_h" : 1,
      "begin_h" : 0,
      "stride_n" : 1,
      "end_seq" : 1,
      "begin_mask_seq" : false,
      "begin_mask_h" : false,
      "squeeze_mask_h" : false,
      "stride_k" : 1,
      "type" : "general_slice",
      "begin_mask_k" : false,
      "static_sizes_w" : 0,
      "begin_w" : 1,
      "end_mask_k" : false,
      "use_static_sizes" : false,
      "stride_h" : 1,
      "static_sizes_n" : 0,
      "begin_mask_n" : false,
      "weights" : {

      },
      "name" : "fastspeech2\/encoder\/strided_slice",
      "stride_seq" : 1,
      "end_k" : 1,
      "static_sizes_seq" : 0,
      "top" : "fastspeech2\/encoder\/strided_slice",
      "begin_seq" : 0,
      "squeeze_mask_k" : false,
      "begin_k" : 0,
      "end_mask_w" : false,
      "end_mask_seq" : false,
      "end_mask_n" : false,
      "debug_info" : "",
      "stride_w" : 2147483647,
      "squeeze_mask_seq" : false,
      "static_sizes_h" : 0,
      "begin_mask_w" : false,
      "bottom" : "fastspeech2\/encoder\/Shape",
      "end_n" : 1,
      "squeeze_mask_w" : true,
      "squeeze_mask_n" : false
    },
    {
      "bottom" : "fastspeech2\/tf_op_layer_Range\/Range,fastspeech2\/tf_op_layer_ExpandDims\/ExpandDims",
      "alpha" : 1,
      "operation" : 103,
      "weights" : {

      },
      "fused_relu" : 0,
      "debug_info" : "",
      "top" : "fastspeech2\/tf_op_layer_Less\/Less",
      "type" : "elementwise",
      "name" : "fastspeech2\/tf_op_layer_Less\/Less",
      "beta" : 0
    },
    {
      "size_of_axes" : 1,
      "bottom" : "fastspeech2\/encoder\/conv1d\/conv1d",
      "axes_0" : -3,
      "weights" : {

      },
      "nd_axis" : 0,
      "debug_info" : "",
      "version" : 1,
      "top" : "fastspeech2\/encoder\/conv1d\/Relu",
      "type" : "squeeze",
      "name" : "fastspeech2\/encoder\/conv1d\/conv1d\/Squeeze"
    },
    {
      "top" : "fastspeech2\/encoder\/strided_slice_1\/stack_1\/1",
      "w" : 1,
      "h" : 1,
      "name" : "fastspeech2\/encoder\/strided_slice_1\/stack_1\/1",
      "nd_rank" : 1,
      "type" : "load_constant",
      "k" : 1,
      "bottom" : "",
      "debug_info" : "",
      "n" : 1,
      "weights" : {

      },
      "constant_blob" : 7
    },
    {
      "bottom" : "fastspeech2\/encoder\/strided_slice,fastspeech2\/encoder\/strided_slice_1\/stack_1\/1",
      "weights" : {

      },
      "nd_mode" : true,
      "axis" : 0,
      "debug_info" : "",
      "top" : "fastspeech2\/encoder\/strided_slice_1\/stack_1",
      "type" : "general_concat",
      "name" : "fastspeech2\/encoder\/strided_slice_1\/stack_1"
    },
    {
      "bottom" : "fastspeech2\/tf_op_layer_Less\/Less",
      "weights" : {

      },
      "mode" : 6,
      "debug_info" : "",
      "top" : "fastspeech2\/tf_op_layer_Cast_1\/Cast_1",
      "type" : "activation",
      "name" : "fastspeech2\/tf_op_layer_Cast_1\/Cast_1",
      "beta" : 0
    },
    {
      "top" : "fastspeech2\/encoder\/strided_slice_1\/input",
      "w" : 256,
      "h" : 256,
      "name" : "fastspeech2\/encoder\/strided_slice_1\/input",
      "nd_rank" : 2,
      "type" : "load_constant",
      "k" : 1,
      "bottom" : "",
      "debug_info" : "",
      "n" : 1,
      "weights" : {

      },
      "constant_blob" : 9
    },
    {
      "top" : "fastspeech2\/encoder\/strided_slice_1_begin_0",
      "w" : 2,
      "h" : 1,
      "name" : "fastspeech2\/encoder\/strided_slice_1_begin_0",
      "nd_rank" : 1,
      "type" : "load_constant",
      "k" : 1,
      "bottom" : "",
      "debug_info" : "",
      "n" : 1,
      "weights" : {

      },
      "constant_blob" : 11
    },
    {
      "begin_n" : 0,
      "static_sizes_k" : 0,
      "end_mask_h" : true,
      "end_w" : 1,
      "end_h" : 1,
      "begin_h" : 0,
      "stride_n" : 1,
      "end_seq" : 1,
      "begin_mask_seq" : false,
      "begin_mask_h" : true,
      "squeeze_mask_h" : false,
      "stride_k" : 1,
      "type" : "general_slice",
      "begin_mask_k" : false,
      "static_sizes_w" : 0,
      "begin_w" : 0,
      "end_mask_k" : false,
      "use_static_sizes" : false,
      "stride_h" : 1,
      "static_sizes_n" : 0,
      "begin_mask_n" : false,
      "weights" : {

      },
      "name" : "fastspeech2\/encoder\/strided_slice_1",
      "stride_seq" : 1,
      "end_k" : 1,
      "static_sizes_seq" : 0,
      "top" : "fastspeech2\/encoder\/strided_slice_1",
      "begin_seq" : 0,
      "squeeze_mask_k" : false,
      "begin_k" : 0,
      "end_mask_w" : false,
      "end_mask_seq" : false,
      "end_mask_n" : false,
      "debug_info" : "",
      "stride_w" : 1,
      "squeeze_mask_seq" : false,
      "static_sizes_h" : 0,
      "begin_mask_w" : true,
      "bottom" : "fastspeech2\/encoder\/strided_slice_1\/input,fastspeech2\/encoder\/strided_slice_1_begin_0,fastspeech2\/encoder\/strided_slice_1\/stack_1",
      "end_n" : 1,
      "squeeze_mask_w" : false,
      "squeeze_mask_n" : false
    },
    {
      "top" : "fastspeech2\/encoder\/batch_normalization\/batchnorm\/mul",
      "w" : 256,
      "h" : 1,
      "weights" : {

      },
      "nd_rank" : 1,
      "type" : "load_constant",
      "k" : 1,
      "attributes" : {
        "basic_block_head" : 1
      },
      "bottom" : "",
      "debug_info" : "",
      "n" : 1,
      "name" : "fastspeech2\/encoder\/batch_normalization\/batchnorm\/mul",
      "constant_blob" : 13
    },
    {
      "bottom" : "fastspeech2\/encoder\/conv1d\/Relu,fastspeech2\/encoder\/batch_normalization\/batchnorm\/mul",
      "alpha" : 1,
      "operation" : 1,
      "weights" : {

      },
      "fused_relu" : 0,
      "debug_info" : "",
      "nd_mode" : true,
      "top" : "fastspeech2\/encoder\/batch_normalization\/batchnorm\/mul_1",
      "type" : "elementwise",
      "name" : "fastspeech2\/encoder\/batch_normalization\/batchnorm\/mul_1",
      "beta" : 0
    },
    {
      "top" : "fastspeech2\/encoder\/batch_normalization\/batchnorm\/sub",
      "w" : 256,
      "h" : 1,
      "name" : "fastspeech2\/encoder\/batch_normalization\/batchnorm\/sub",
      "nd_rank" : 1,
      "type" : "load_constant",
      "k" : 1,
      "bottom" : "",
      "debug_info" : "",
      "n" : 1,
      "weights" : {

      },
      "constant_blob" : 15
    },
    {
      "bottom" : "fastspeech2\/encoder\/batch_normalization\/batchnorm\/mul_1,fastspeech2\/encoder\/batch_normalization\/batchnorm\/sub",
      "alpha" : 1,
      "operation" : 0,
      "weights" : {

      },
      "fused_relu" : 0,
      "debug_info" : "",
      "nd_mode" : true,
      "top" : "fastspeech2\/encoder\/batch_normalization\/batchnorm\/add_1",
      "type" : "elementwise",
      "name" : "fastspeech2\/encoder\/batch_normalization\/batchnorm\/add_1",
      "beta" : 0
    },
    {
      "bottom" : "fastspeech2\/encoder\/batch_normalization\/batchnorm\/add_1,fastspeech2\/encoder\/strided_slice_1",
      "alpha" : 1,
      "operation" : 0,
      "weights" : {

      },
      "fused_relu" : 0,
      "debug_info" : "",
      "nd_mode" : true,
      "top" : "fastspeech2\/encoder\/add",
      "type" : "elementwise",
      "name" : "fastspeech2\/encoder\/add",
      "beta" : 0
    },
    {
      "nB" : 256,
      "top" : "fastspeech2\/encoder\/ffn_block\/multi_head_attention_add_on\/MatMul",
      "has_biases" : 0,
      "blob_weights_f16" : 17,
      "nC" : 512,
      "weights" : {

      },
      "type" : "inner_product",
      "has_relu" : 0,
      "bottom" : "fastspeech2\/encoder\/add",
      "debug_info" : "",
      "has_tanh" : 0,
      "nd_mode" : true,
      "name" : "fastspeech2\/encoder\/ffn_block\/multi_head_attention_add_on\/MatMul",
      "has_prelu" : 0
    },
    {
      "nB" : 256,
      "top" : "fastspeech2\/encoder\/ffn_block\/multi_head_attention_add_on\/MatMul_1",
      "has_biases" : 0,
      "blob_weights_f16" : 19,
      "nC" : 512,
      "weights" : {

      },
      "type" : "inner_product",
      "has_relu" : 0,
      "bottom" : "fastspeech2\/encoder\/add",
      "debug_info" : "",
      "has_tanh" : 0,
      "nd_mode" : true,
      "name" : "fastspeech2\/encoder\/ffn_block\/multi_head_attention_add_on\/MatMul_1",
      "has_prelu" : 0
    },
    {
      "nB" : 256,
      "top" : "fastspeech2\/encoder\/ffn_block\/multi_head_attention_add_on\/MatMul_2",
      "has_biases" : 0,
      "blob_weights_f16" : 21,
      "nC" : 512,
      "weights" : {

      },
      "type" : "inner_product",
      "has_relu" : 0,
      "bottom" : "fastspeech2\/encoder\/add",
      "debug_info" : "",
      "has_tanh" : 0,
      "nd_mode" : true,
      "name" : "fastspeech2\/encoder\/ffn_block\/multi_head_attention_add_on\/MatMul_2",
      "has_prelu" : 0
    },
    {
      "begin_104" : 0,
      "begin_63" : 0,
      "begin_59" : 0,
      "begin_64" : 0,
      "begin_105" : 0,
      "begin_65" : 0,
      "begin_0" : 0,
      "begin_70" : 0,
      "begin_66" : 0,
      "begin_106" : 0,
      "begin_110" : 0,
      "begin_2" : 0,
      "begin_71" : 0,
      "begin_67" : 0,
      "begin_68" : 0,
      "begin_107" : 0,
      "begin_111" : 0,
      "begin_4" : 0,
      "begin_72" : 0,
      "begin_73" : 0,
      "begin_69" : 0,
      "begin_6" : 0,
      "begin_74" : 0,
      "begin_108" : 0,
      "type" : "split_nd",
      "begin_8" : 0,
      "begin_112" : 0,
      "begin_75" : 0,
      "begin_10" : 0,
      "begin_80" : 0,
      "begin_76" : 0,
      "begin_109" : 0,
      "begin_113" : 0,
      "begin_11" : 0,
      "nd_axis" : 2,
      "begin_81" : 0,
      "begin_77" : 0,
      "begin_114" : 0,
      "begin_12" : 0,
      "begin_78" : 0,
      "begin_82" : 0,
      "begin_13" : 0,
      "begin_83" : 0,
      "begin_79" : 0,
      "begin_115" : 0,
      "begin_14" : 0,
      "begin_84" : 0,
      "begin_15" : 0,
      "begin_85" : 0,
      "begin_116" : 0,
      "begin_120" : 0,
      "begin_20" : 0,
      "begin_86" : 0,
      "begin_16" : 0,
      "begin_90" : 0,
      "begin_21" : 0,
      "begin_91" : 0,
      "begin_87" : 0,
      "begin_17" : 0,
      "begin_117" : 0,
      "begin_121" : 0,
      "begin_18" : 0,
      "begin_92" : 0,
      "begin_88" : 0,
      "begin_22" : 0,
      "begin_23" : 0,
      "begin_89" : 0,
      "begin_19" : 0,
      "begin_93" : 0,
      "begin_118" : 0,
      "begin_122" : 0,
      "begin_24" : 0,
      "begin_94" : 0,
      "begin_25" : 0,
      "begin_95" : 0,
      "begin_119" : 0,
      "begin_123" : 0,
      "begin_30" : 0,
      "begin_26" : 0,
      "begin_96" : 0,
      "begin_124" : 0,
      "begin_31" : 0,
      "begin_97" : 0,
      "begin_27" : 0,
      "begin_28" : 0,
      "begin_98" : 0,
      "begin_32" : 0,
      "begin_125" : 0,
      "begin_33" : 0,
      "begin_29" : 0,
      "begin_99" : 0,
      "begin_1" : 0,
      "weights" : {

      },
      "begin_34" : 0,
      "bottom" : "fastspeech2\/encoder\/ffn_block\/multi_head_attention_add_on\/MatMul",
      "begin_3" : 0,
      "begin_126" : 0,
      "begin_35" : 0,
      "begin_5" : 0,
      "begin_36" : 0,
      "begin_40" : 0,
      "begin_127" : 0,
      "name" : "fastspeech2\/encoder\/ffn_block\/multi_head_attention_add_on\/split",
      "begin_41" : 0,
      "begin_37" : 0,
      "begin_7" : 0,
      "begin_42" : 0,
      "begin_38" : 0,
      "begin_9" : 0,
      "begin_39" : 0,
      "begin_43" : 0,
      "begin_44" : 0,
      "begin_45" : 0,
      "begin_50" : 0,
      "begin_46" : 0,
      "begin_51" : 0,
      "begin_47" : 0,
      "begin_100" : 0,
      "begin_52" : 0,
      "debug_info" : "",
      "begin_48" : 0,
      "top" : "fastspeech2\/encoder\/ffn_block\/multi_head_attention_add_on\/split:0,fastspeech2\/encoder\/ffn_block\/multi_head_attention_add_on\/split:1",
      "begin_101" : 0,
      "begin_53" : 0,
      "begin_49" : 0,
      "begin_54" : 0,
      "begin_55" : 0,
      "begin_102" : 0,
      "begin_60" : 0,
      "begin_56" : 0,
      "begin_103" : 0,
      "begin_57" : 0,
      "begin_61" : 0,
      "begin_62" : 0,
      "begin_58" : 0
    },
    {
      "begin_104" : 0,
      "begin_63" : 0,
      "begin_59" : 0,
      "begin_64" : 0,
      "begin_105" : 0,
      "begin_65" : 0,
      "begin_0" : 0,
      "begin_70" : 0,
      "begin_66" : 0,
      "begin_106" : 0,
      "begin_110" : 0,
      "begin_2" : 0,
      "begin_71" : 0,
      "begin_67" : 0,
      "begin_68" : 0,
      "begin_107" : 0,
      "begin_111" : 0,
      "begin_4" : 0,
      "begin_72" : 0,
      "begin_73" : 0,
      "begin_69" : 0,
      "begin_6" : 0,
      "begin_74" : 0,
      "begin_108" : 0,
      "type" : "split_nd",
      "begin_8" : 0,
      "begin_112" : 0,
      "begin_75" : 0,
      "begin_10" : 0,
      "begin_80" : 0,
      "begin_76" : 0,
      "begin_109" : 0,
      "begin_113" : 0,
      "begin_11" : 0,
      "nd_axis" : 2,
      "begin_81" : 0,
      "begin_77" : 0,
      "begin_114" : 0,
      "begin_12" : 0,
      "begin_78" : 0,
      "begin_82" : 0,
      "begin_13" : 0,
      "begin_83" : 0,
      "begin_79" : 0,
      "begin_115" : 0,
      "begin_14" : 0,
      "begin_84" : 0,
      "begin_15" : 0,
      "begin_85" : 0,
      "begin_116" : 0,
      "begin_120" : 0,
      "begin_20" : 0,
      "begin_86" : 0,
      "begin_16" : 0,
      "begin_90" : 0,
      "begin_21" : 0,
      "begin_91" : 0,
      "begin_87" : 0,
      "begin_17" : 0,
      "begin_117" : 0,
      "begin_121" : 0,
      "begin_18" : 0,
      "begin_92" : 0,
      "begin_88" : 0,
      "begin_22" : 0,
      "begin_23" : 0,
      "begin_89" : 0,
      "begin_19" : 0,
      "begin_93" : 0,
      "begin_118" : 0,
      "begin_122" : 0,
      "begin_24" : 0,
      "begin_94" : 0,
      "begin_25" : 0,
      "begin_95" : 0,
      "begin_119" : 0,
      "begin_123" : 0,
      "begin_30" : 0,
      "begin_26" : 0,
      "begin_96" : 0,
      "begin_124" : 0,
      "begin_31" : 0,
      "begin_97" : 0,
      "begin_27" : 0,
      "begin_28" : 0,
      "begin_98" : 0,
      "begin_32" : 0,
      "begin_125" : 0,
      "begin_33" : 0,
      "begin_29" : 0,
      "begin_99" : 0,
      "begin_1" : 0,
      "weights" : {

      },
      "begin_34" : 0,
      "bottom" : "fastspeech2\/encoder\/ffn_block\/multi_head_attention_add_on\/MatMul_1",
      "begin_3" : 0,
      "begin_126" : 0,
      "begin_35" : 0,
      "begin_5" : 0,
      "begin_36" : 0,
      "begin_40" : 0,
      "begin_127" : 0,
      "name" : "fastspeech2\/encoder\/ffn_block\/multi_head_attention_add_on\/split_1",
      "begin_41" : 0,
      "begin_37" : 0,
      "begin_7" : 0,
      "begin_42" : 0,
      "begin_38" : 0,
      "begin_9" : 0,
      "begin_39" : 0,
      "begin_43" : 0,
      "begin_44" : 0,
      "begin_45" : 0,
      "begin_50" : 0,
      "begin_46" : 0,
      "begin_51" : 0,
      "begin_47" : 0,
      "begin_100" : 0,
      "begin_52" : 0,
      "debug_info" : "",
      "begin_48" : 0,
      "top" : "fastspeech2\/encoder\/ffn_block\/multi_head_attention_add_on\/split_1:0,fastspeech2\/encoder\/ffn_block\/multi_head_attention_add_on\/split_1:1",
      "begin_101" : 0,
      "begin_53" : 0,
      "begin_49" : 0,
      "begin_54" : 0,
      "begin_55" : 0,
      "begin_102" : 0,
      "begin_60" : 0,
      "begin_56" : 0,
      "begin_103" : 0,
      "begin_57" : 0,
      "begin_61" : 0,
      "begin_62" : 0,
      "begin_58" : 0
    },
    {
      "begin_104" : 0,
      "begin_63" : 0,
      "begin_59" : 0,
      "begin_64" : 0,
      "begin_105" : 0,
      "begin_65" : 0,
      "begin_0" : 0,
      "begin_70" : 0,
      "begin_66" : 0,
      "begin_106" : 0,
      "begin_110" : 0,
      "begin_2" : 0,
      "begin_71" : 0,
      "begin_67" : 0,
      "begin_68" : 0,
      "begin_107" : 0,
      "begin_111" : 0,
      "begin_4" : 0,
      "begin_72" : 0,
      "begin_73" : 0,
      "begin_69" : 0,
      "begin_6" : 0,
      "begin_74" : 0,
      "begin_108" : 0,
      "type" : "split_nd",
      "begin_8" : 0,
      "begin_112" : 0,
      "begin_75" : 0,
      "begin_10" : 0,
      "begin_80" : 0,
      "begin_76" : 0,
      "begin_109" : 0,
      "begin_113" : 0,
      "begin_11" : 0,
      "nd_axis" : 2,
      "begin_81" : 0,
      "begin_77" : 0,
      "begin_114" : 0,
      "begin_12" : 0,
      "begin_78" : 0,
      "begin_82" : 0,
      "begin_13" : 0,
      "begin_83" : 0,
      "begin_79" : 0,
      "begin_115" : 0,
      "begin_14" : 0,
      "begin_84" : 0,
      "begin_15" : 0,
      "begin_85" : 0,
      "begin_116" : 0,
      "begin_120" : 0,
      "begin_20" : 0,
      "begin_86" : 0,
      "begin_16" : 0,
      "begin_90" : 0,
      "begin_21" : 0,
      "begin_91" : 0,
      "begin_87" : 0,
      "begin_17" : 0,
      "begin_117" : 0,
      "begin_121" : 0,
      "begin_18" : 0,
      "begin_92" : 0,
      "begin_88" : 0,
      "begin_22" : 0,
      "begin_23" : 0,
      "begin_89" : 0,
      "begin_19" : 0,
      "begin_93" : 0,
      "begin_118" : 0,
      "begin_122" : 0,
      "begin_24" : 0,
      "begin_94" : 0,
      "begin_25" : 0,
      "begin_95" : 0,
      "begin_119" : 0,
      "begin_123" : 0,
      "begin_30" : 0,
      "begin_26" : 0,
      "begin_96" : 0,
      "begin_124" : 0,
      "begin_31" : 0,
      "begin_97" : 0,
      "begin_27" : 0,
      "begin_28" : 0,
      "begin_98" : 0,
      "begin_32" : 0,
      "begin_125" : 0,
      "begin_33" : 0,
      "begin_29" : 0,
      "begin_99" : 0,
      "begin_1" : 0,
      "weights" : {

      },
      "begin_34" : 0,
      "bottom" : "fastspeech2\/encoder\/ffn_block\/multi_head_attention_add_on\/MatMul_2",
      "begin_3" : 0,
      "begin_126" : 0,
      "begin_35" : 0,
      "begin_5" : 0,
      "begin_36" : 0,
      "begin_40" : 0,
      "begin_127" : 0,
      "name" : "fastspeech2\/encoder\/ffn_block\/multi_head_attention_add_on\/split_2",
      "begin_41" : 0,
      "begin_37" : 0,
      "begin_7" : 0,
      "begin_42" : 0,
      "begin_38" : 0,
      "begin_9" : 0,
      "begin_39" : 0,
      "begin_43" : 0,
      "begin_44" : 0,
      "begin_45" : 0,
      "begin_50" : 0,
      "begin_46" : 0,
      "begin_51" : 0,
      "begin_47" : 0,
      "begin_100" : 0,
      "begin_52" : 0,
      "debug_info" : "",
      "begin_48" : 0,
      "top" : "fastspeech2\/encoder\/ffn_block\/multi_head_attention_add_on\/split_2:0,fastspeech2\/encoder\/ffn_block\/multi_head_attention_add_on\/split_2:1",
      "begin_101" : 0,
      "begin_53" : 0,
      "begin_49" : 0,
      "begin_54" : 0,
      "begin_55" : 0,
      "begin_102" : 0,
      "begin_60" : 0,
      "begin_56" : 0,
      "begin_103" : 0,
      "begin_57" : 0,
      "begin_61" : 0,
      "begin_62" : 0,
      "begin_58" : 0
    },
    {
      "size_of_axes" : 1,
      "bottom" : "fastspeech2\/encoder\/ffn_block\/multi_head_attention_add_on\/split:0",
      "axes_0" : 1,
      "weights" : {

      },
      "nd_axis" : 0,
      "debug_info" : "",
      "top" : "fastspeech2\/encoder\/ffn_block\/multi_head_attention_add_on\/ExpandDims",
      "type" : "expand_dims",
      "name" : "fastspeech2\/encoder\/ffn_block\/multi_head_attention_add_on\/ExpandDims"
    },
    {
      "size_of_axes" : 1,
      "bottom" : "fastspeech2\/encoder\/ffn_block\/multi_head_attention_add_on\/split:1",
      "axes_0" : 1,
      "weights" : {

      },
      "nd_axis" : 0,
      "debug_info" : "",
      "top" : "fastspeech2\/encoder\/ffn_block\/multi_head_attention_add_on\/ExpandDims_1",
      "type" : "expand_dims",
      "name" : "fastspeech2\/encoder\/ffn_block\/multi_head_attention_add_on\/ExpandDims_1"
    },
    {
      "size_of_axes" : 1,
      "bottom" : "fastspeech2\/encoder\/ffn_block\/multi_head_attention_add_on\/split_1:0",
      "axes_0" : 1,
      "weights" : {

      },
      "nd_axis" : 0,
      "debug_info" : "",
      "top" : "fastspeech2\/encoder\/ffn_block\/multi_head_attention_add_on\/ExpandDims_2",
      "type" : "expand_dims",
      "name" : "fastspeech2\/encoder\/ffn_block\/multi_head_attention_add_on\/ExpandDims_2"
    },
    {
      "size_of_axes" : 1,
      "bottom" : "fastspeech2\/encoder\/ffn_block\/multi_head_attention_add_on\/split_1:1",
      "axes_0" : 1,
      "weights" : {

      },
      "nd_axis" : 0,
      "debug_info" : "",
      "top" : "fastspeech2\/encoder\/ffn_block\/multi_head_attention_add_on\/ExpandDims_3",
      "type" : "expand_dims",
      "name" : "fastspeech2\/encoder\/ffn_block\/multi_head_attention_add_on\/ExpandDims_3"
    },
    {
      "size_of_axes" : 1,
      "bottom" : "fastspeech2\/encoder\/ffn_block\/multi_head_attention_add_on\/split_2:0",
      "axes_0" : 1,
      "weights" : {

      },
      "nd_axis" : 0,
      "debug_info" : "",
      "top" : "fastspeech2\/encoder\/ffn_block\/multi_head_attention_add_on\/ExpandDims_4",
      "type" : "expand_dims",
      "name" : "fastspeech2\/encoder\/ffn_block\/multi_head_attention_add_on\/ExpandDims_4"
    },
    {
      "size_of_axes" : 1,
      "bottom" : "fastspeech2\/encoder\/ffn_block\/multi_head_attention_add_on\/split_2:1",
      "axes_0" : 1,
      "weights" : {

      },
      "nd_axis" : 0,
      "debug_info" : "",
      "top" : "fastspeech2\/encoder\/ffn_block\/multi_head_attention_add_on\/ExpandDims_5",
      "type" : "expand_dims",
      "name" : "fastspeech2\/encoder\/ffn_block\/multi_head_attention_add_on\/ExpandDims_5"
    },
    {
      "weights" : {

      },
      "debug_info" : "",
      "top" : "fastspeech2\/encoder\/ffn_block\/multi_head_attention_add_on\/concat",
      "type" : "concat",
      "name" : "fastspeech2\/encoder\/ffn_block\/multi_head_attention_add_on\/concat",
      "bottom" : "fastspeech2\/encoder\/ffn_block\/multi_head_attention_add_on\/ExpandDims,fastspeech2\/encoder\/ffn_block\/multi_head_attention_add_on\/ExpandDims_1"
    },
    {
      "weights" : {

      },
      "debug_info" : "",
      "top" : "fastspeech2\/encoder\/ffn_block\/multi_head_attention_add_on\/concat_1",
      "type" : "concat",
      "name" : "fastspeech2\/encoder\/ffn_block\/multi_head_attention_add_on\/concat_1",
      "bottom" : "fastspeech2\/encoder\/ffn_block\/multi_head_attention_add_on\/ExpandDims_2,fastspeech2\/encoder\/ffn_block\/multi_head_attention_add_on\/ExpandDims_3"
    },
    {
      "weights" : {

      },
      "debug_info" : "",
      "top" : "fastspeech2\/encoder\/ffn_block\/multi_head_attention_add_on\/concat_2",
      "type" : "concat",
      "name" : "fastspeech2\/encoder\/ffn_block\/multi_head_attention_add_on\/concat_2",
      "bottom" : "fastspeech2\/encoder\/ffn_block\/multi_head_attention_add_on\/ExpandDims_4,fastspeech2\/encoder\/ffn_block\/multi_head_attention_add_on\/ExpandDims_5"
    },
    {
      "bottom" : "fastspeech2\/encoder\/ffn_block\/multi_head_attention_add_on\/concat",
      "alpha" : 0.0625,
      "operation" : 1,
      "weights" : {

      },
      "fused_relu" : 0,
      "debug_info" : "",
      "top" : "fastspeech2\/encoder\/ffn_block\/multi_head_attention_add_on\/truediv",
      "type" : "elementwise",
      "name" : "fastspeech2\/encoder\/ffn_block\/multi_head_attention_add_on\/truediv",
      "beta" : 0
    },
    {
      "bottom" : "fastspeech2\/encoder\/ffn_block\/multi_head_attention_add_on\/truediv,fastspeech2\/encoder\/ffn_block\/multi_head_attention_add_on\/concat_1",
      "weights" : {

      },
      "transpose_y" : true,
      "debug_info" : "",
      "top" : "fastspeech2\/encoder\/ffn_block\/multi_head_attention_add_on\/MatMul_3",
      "type" : "batch_matmul",
      "name" : "fastspeech2\/encoder\/ffn_block\/multi_head_attention_add_on\/MatMul_3",
      "channel_mode" : false
    },
    {
      "bottom" : "fastspeech2\/encoder\/ffn_block\/multi_head_attention_add_on\/MatMul_3",
      "weights" : {

      },
      "nd_axis" : -1,
      "debug_info" : "",
      "top" : "fastspeech2\/encoder\/ffn_block\/multi_head_attention_add_on\/Softmax",
      "type" : "softmax_nd",
      "name" : "fastspeech2\/encoder\/ffn_block\/multi_head_attention_add_on\/Softmax"
    },
    {
      "bottom" : "fastspeech2\/encoder\/ffn_block\/multi_head_attention_add_on\/Softmax,fastspeech2\/encoder\/ffn_block\/multi_head_attention_add_on\/concat_2",
      "weights" : {

      },
      "debug_info" : "",
      "top" : "fastspeech2\/encoder\/ffn_block\/multi_head_attention_add_on\/MatMul_4",
      "type" : "batch_matmul",
      "name" : "fastspeech2\/encoder\/ffn_block\/multi_head_attention_add_on\/MatMul_4",
      "channel_mode" : false
    },
    {
      "axis_h" : 2,
      "axis_w" : 0,
      "bottom" : "fastspeech2\/encoder\/ffn_block\/multi_head_attention_add_on\/MatMul_4",
      "axis_k" : 1,
      "axis_n" : 3,
      "axis_seq" : 4,
      "weights" : {

      },
      "debug_info" : "",
      "top" : "fastspeech2\/encoder\/ffn_block\/multi_head_attention_add_on\/transpose_4",
      "type" : "transpose",
      "name" : "fastspeech2\/encoder\/ffn_block\/multi_head_attention_add_on\/transpose_4"
    },
    {
      "begin_104" : 0,
      "begin_63" : 0,
      "begin_59" : 0,
      "begin_64" : 0,
      "begin_105" : 0,
      "begin_65" : 0,
      "begin_0" : 0,
      "begin_70" : 0,
      "begin_66" : 0,
      "begin_106" : 0,
      "begin_110" : 0,
      "begin_2" : 0,
      "begin_71" : 0,
      "begin_67" : 0,
      "begin_68" : 0,
      "begin_107" : 0,
      "begin_111" : 0,
      "begin_4" : 0,
      "begin_72" : 0,
      "begin_73" : 0,
      "begin_69" : 0,
      "begin_6" : 0,
      "begin_74" : 0,
      "begin_108" : 0,
      "type" : "split_nd",
      "begin_8" : 0,
      "begin_112" : 0,
      "begin_75" : 0,
      "begin_10" : 0,
      "begin_80" : 0,
      "begin_76" : 0,
      "begin_109" : 0,
      "begin_113" : 0,
      "begin_11" : 0,
      "nd_axis" : 2,
      "begin_81" : 0,
      "begin_77" : 0,
      "begin_114" : 0,
      "begin_12" : 0,
      "begin_78" : 0,
      "begin_82" : 0,
      "begin_13" : 0,
      "begin_83" : 0,
      "begin_79" : 0,
      "begin_115" : 0,
      "begin_14" : 0,
      "begin_84" : 0,
      "begin_15" : 0,
      "begin_85" : 0,
      "begin_116" : 0,
      "begin_120" : 0,
      "begin_20" : 0,
      "begin_86" : 0,
      "begin_16" : 0,
      "begin_90" : 0,
      "begin_21" : 0,
      "begin_91" : 0,
      "begin_87" : 0,
      "begin_17" : 0,
      "begin_117" : 0,
      "begin_121" : 0,
      "begin_18" : 0,
      "begin_92" : 0,
      "begin_88" : 0,
      "begin_22" : 0,
      "begin_23" : 0,
      "begin_89" : 0,
      "begin_19" : 0,
      "begin_93" : 0,
      "begin_118" : 0,
      "begin_122" : 0,
      "begin_24" : 0,
      "begin_94" : 0,
      "begin_25" : 0,
      "begin_95" : 0,
      "begin_119" : 0,
      "begin_123" : 0,
      "begin_30" : 0,
      "begin_26" : 0,
      "begin_96" : 0,
      "begin_124" : 0,
      "begin_31" : 0,
      "begin_97" : 0,
      "begin_27" : 0,
      "begin_28" : 0,
      "begin_98" : 0,
      "begin_32" : 0,
      "begin_125" : 0,
      "begin_33" : 0,
      "begin_29" : 0,
      "begin_99" : 0,
      "begin_1" : 0,
      "weights" : {

      },
      "begin_34" : 0,
      "bottom" : "fastspeech2\/encoder\/ffn_block\/multi_head_attention_add_on\/transpose_4",
      "begin_3" : 0,
      "begin_126" : 0,
      "begin_35" : 0,
      "begin_5" : 0,
      "begin_36" : 0,
      "begin_40" : 0,
      "begin_127" : 0,
      "name" : "fastspeech2\/encoder\/ffn_block\/multi_head_attention_add_on\/split_3",
      "begin_41" : 0,
      "begin_37" : 0,
      "begin_7" : 0,
      "begin_42" : 0,
      "begin_38" : 0,
      "begin_9" : 0,
      "begin_39" : 0,
      "begin_43" : 0,
      "begin_44" : 0,
      "begin_45" : 0,
      "begin_50" : 0,
      "begin_46" : 0,
      "begin_51" : 0,
      "begin_47" : 0,
      "begin_100" : 0,
      "begin_52" : 0,
      "debug_info" : "",
      "begin_48" : 0,
      "top" : "fastspeech2\/encoder\/ffn_block\/multi_head_attention_add_on\/split_3:0,fastspeech2\/encoder\/ffn_block\/multi_head_attention_add_on\/split_3:1",
      "begin_101" : 0,
      "begin_53" : 0,
      "begin_49" : 0,
      "begin_54" : 0,
      "begin_55" : 0,
      "begin_102" : 0,
      "begin_60" : 0,
      "begin_56" : 0,
      "begin_103" : 0,
      "begin_57" : 0,
      "begin_61" : 0,
      "begin_62" : 0,
      "begin_58" : 0
    },
    {
      "size_of_axes" : 1,
      "bottom" : "fastspeech2\/encoder\/ffn_block\/multi_head_attention_add_on\/split_3:0",
      "axes_0" : 2,
      "weights" : {

      },
      "nd_axis" : 0,
      "debug_info" : "",
      "version" : 1,
      "top" : "fastspeech2\/encoder\/ffn_block\/multi_head_attention_add_on\/Squeeze",
      "type" : "squeeze",
      "name" : "fastspeech2\/encoder\/ffn_block\/multi_head_attention_add_on\/Squeeze"
    },
    {
      "size_of_axes" : 1,
      "bottom" : "fastspeech2\/encoder\/ffn_block\/multi_head_attention_add_on\/split_3:1",
      "axes_0" : 2,
      "weights" : {

      },
      "nd_axis" : 0,
      "debug_info" : "",
      "version" : 1,
      "top" : "fastspeech2\/encoder\/ffn_block\/multi_head_attention_add_on\/Squeeze_1",
      "type" : "squeeze",
      "name" : "fastspeech2\/encoder\/ffn_block\/multi_head_attention_add_on\/Squeeze_1"
    },
    {
      "bottom" : "fastspeech2\/encoder\/ffn_block\/multi_head_attention_add_on\/Squeeze,fastspeech2\/encoder\/ffn_block\/multi_head_attention_add_on\/Squeeze_1",
      "weights" : {

      },
      "nd_mode" : true,
      "axis" : 2,
      "debug_info" : "",
      "top" : "fastspeech2\/encoder\/ffn_block\/multi_head_attention_add_on\/concat_3",
      "type" : "general_concat",
      "name" : "fastspeech2\/encoder\/ffn_block\/multi_head_attention_add_on\/concat_3"
    },
    {
      "nB" : 512,
      "top" : "fastspeech2\/encoder\/ffn_block\/multi_head_attention_add_on\/add",
      "has_biases" : 1,
      "blob_weights_f16" : 25,
      "nC" : 256,
      "weights" : {

      },
      "type" : "inner_product",
      "has_relu" : 0,
      "bottom" : "fastspeech2\/encoder\/ffn_block\/multi_head_attention_add_on\/concat_3",
      "blob_biases" : 23,
      "has_tanh" : 0,
      "debug_info" : "",
      "name" : "fastspeech2\/encoder\/ffn_block\/multi_head_attention_add_on\/add",
      "has_prelu" : 0
    },
    {
      "bottom" : "fastspeech2\/encoder\/add,fastspeech2\/encoder\/ffn_block\/multi_head_attention_add_on\/add",
      "alpha" : 1,
      "operation" : 0,
      "weights" : {

      },
      "fused_relu" : 0,
      "debug_info" : "",
      "nd_mode" : true,
      "top" : "fastspeech2\/encoder\/ffn_block\/add",
      "type" : "elementwise",
      "name" : "fastspeech2\/encoder\/ffn_block\/add",
      "beta" : 0
    },
    {
      "bottom" : "fastspeech2\/encoder\/ffn_block\/add",
      "weights" : {
        "wBeta" : 27,
        "wGamma" : 29
      },
      "eps" : 9.9999999747524271e-07,
      "tf_layernorm" : 1,
      "debug_info" : "",
      "top" : "fastspeech2\/encoder\/ffn_block\/layer_normalization\/batchnorm\/add_1",
      "type" : "instancenorm_1d",
      "name" : "instancenorm_test"
    },
    {
      "size_of_axes" : 1,
      "bottom" : "fastspeech2\/encoder\/ffn_block\/layer_normalization\/batchnorm\/add_1",
      "axes_0" : -3,
      "weights" : {

      },
      "nd_axis" : 0,
      "debug_info" : "",
      "top" : "fastspeech2\/encoder\/ffn_block\/conv1d_1\/conv1d\/ExpandDims",
      "type" : "expand_dims",
      "name" : "fastspeech2\/encoder\/ffn_block\/conv1d_1\/conv1d\/ExpandDims"
    },
    {
      "axis_h" : 2,
      "axis_w" : 1,
      "bottom" : "fastspeech2\/encoder\/ffn_block\/conv1d_1\/conv1d\/ExpandDims",
      "axis_k" : 0,
      "axis_n" : 3,
      "axis_seq" : 4,
      "weights" : {

      },
      "debug_info" : "",
      "top" : "transpose_3",
      "type" : "transpose",
      "name" : "transpose_3"
    },
    {
      "pad_r" : 0,
      "fused_relu" : 0,
      "fused_tanh" : 0,
      "debug_info" : "",
      "pad_fill_mode" : 0,
      "pad_b" : 0,
      "pad_l" : 0,
      "top" : "transpose_5",
      "K" : 256,
      "blob_biases" : 31,
      "name" : "fastspeech2\/encoder\/ffn_block\/conv1d_1\/conv1dx",
      "has_batch_norm" : 0,
      "type" : "convolution",
      "n_groups" : 1,
      "pad_t" : 0,
      "has_biases" : 1,
      "C" : 1024,
      "bottom" : "transpose_3",
      "weights" : {

      },
      "Nx" : 9,
      "pad_mode" : 1,
      "pad_value" : 0,
      "Ny" : 1,
      "n_parallel" : 1,
      "blob_weights_f16" : 33,
      "fused_activation_mode" : 0
    },
    {
      "pad_r" : 0,
      "fused_relu" : 0,
      "fused_tanh" : 0,
      "debug_info" : "",
      "pad_fill_mode" : 0,
      "pad_b" : 0,
      "pad_l" : 0,
      "top" : "fastspeech2\/encoder\/ffn_block\/conv1d_2\/conv1dx",
      "K" : 1024,
      "blob_biases" : 35,
      "name" : "fastspeech2\/encoder\/ffn_block\/conv1d_2\/conv1dx",
      "has_batch_norm" : 0,
      "type" : "convolution",
      "n_groups" : 1,
      "pad_t" : 0,
      "has_biases" : 1,
      "C" : 256,
      "bottom" : "transpose_5",
      "weights" : {

      },
      "Nx" : 1,
      "pad_mode" : 1,
      "pad_value" : 0,
      "Ny" : 1,
      "n_parallel" : 1,
      "blob_weights_f16" : 37
    },
    {
      "axis_h" : 0,
      "axis_w" : 2,
      "bottom" : "fastspeech2\/encoder\/ffn_block\/conv1d_2\/conv1dx",
      "axis_k" : 1,
      "axis_n" : 3,
      "axis_seq" : 4,
      "weights" : {

      },
      "debug_info" : "",
      "top" : "fastspeech2\/encoder\/ffn_block\/conv1d_2\/conv1d",
      "type" : "transpose",
      "name" : "fastspeech2\/encoder\/ffn_block\/conv1d_2\/conv1d"
    },
    {
      "size_of_axes" : 1,
      "bottom" : "fastspeech2\/encoder\/ffn_block\/conv1d_2\/conv1d",
      "axes_0" : -3,
      "weights" : {

      },
      "nd_axis" : 0,
      "debug_info" : "",
      "version" : 1,
      "top" : "fastspeech2\/encoder\/ffn_block\/conv1d_2\/BiasAdd",
      "type" : "squeeze",
      "name" : "fastspeech2\/encoder\/ffn_block\/conv1d_2\/conv1d\/Squeeze"
    },
    {
      "bottom" : "fastspeech2\/encoder\/ffn_block\/layer_normalization\/batchnorm\/add_1,fastspeech2\/encoder\/ffn_block\/conv1d_2\/BiasAdd",
      "alpha" : 1,
      "operation" : 0,
      "weights" : {

      },
      "fused_relu" : 0,
      "debug_info" : "",
      "nd_mode" : true,
      "top" : "fastspeech2\/encoder\/ffn_block\/add_1",
      "type" : "elementwise",
      "name" : "fastspeech2\/encoder\/ffn_block\/add_1",
      "beta" : 0
    },
    {
      "bottom" : "fastspeech2\/encoder\/ffn_block\/add_1",
      "weights" : {
        "wBeta" : 39,
        "wGamma" : 41
      },
      "eps" : 9.9999999747524271e-07,
      "tf_layernorm" : 1,
      "debug_info" : "",
      "top" : "fastspeech2\/encoder\/ffn_block\/layer_normalization_1\/batchnorm\/add_1",
      "type" : "instancenorm_1d",
      "name" : "instancenorm_test"
    },
    {
      "nB" : 256,
      "top" : "fastspeech2\/encoder\/ffn_block_1\/multi_head_attention_add_on_1\/MatMul",
      "has_biases" : 0,
      "blob_weights_f16" : 43,
      "nC" : 512,
      "weights" : {

      },
      "type" : "inner_product",
      "has_relu" : 0,
      "bottom" : "fastspeech2\/encoder\/ffn_block\/layer_normalization_1\/batchnorm\/add_1",
      "debug_info" : "",
      "has_tanh" : 0,
      "nd_mode" : true,
      "name" : "fastspeech2\/encoder\/ffn_block_1\/multi_head_attention_add_on_1\/MatMul",
      "has_prelu" : 0
    },
    {
      "nB" : 256,
      "top" : "fastspeech2\/encoder\/ffn_block_1\/multi_head_attention_add_on_1\/MatMul_1",
      "has_biases" : 0,
      "blob_weights_f16" : 45,
      "nC" : 512,
      "weights" : {

      },
      "type" : "inner_product",
      "has_relu" : 0,
      "bottom" : "fastspeech2\/encoder\/ffn_block\/layer_normalization_1\/batchnorm\/add_1",
      "debug_info" : "",
      "has_tanh" : 0,
      "nd_mode" : true,
      "name" : "fastspeech2\/encoder\/ffn_block_1\/multi_head_attention_add_on_1\/MatMul_1",
      "has_prelu" : 0
    },
    {
      "nB" : 256,
      "top" : "fastspeech2\/encoder\/ffn_block_1\/multi_head_attention_add_on_1\/MatMul_2",
      "has_biases" : 0,
      "blob_weights_f16" : 47,
      "nC" : 512,
      "weights" : {

      },
      "type" : "inner_product",
      "has_relu" : 0,
      "bottom" : "fastspeech2\/encoder\/ffn_block\/layer_normalization_1\/batchnorm\/add_1",
      "debug_info" : "",
      "has_tanh" : 0,
      "nd_mode" : true,
      "name" : "fastspeech2\/encoder\/ffn_block_1\/multi_head_attention_add_on_1\/MatMul_2",
      "has_prelu" : 0
    },
    {
      "begin_104" : 0,
      "begin_63" : 0,
      "begin_59" : 0,
      "begin_64" : 0,
      "begin_105" : 0,
      "begin_65" : 0,
      "begin_0" : 0,
      "begin_70" : 0,
      "begin_66" : 0,
      "begin_106" : 0,
      "begin_110" : 0,
      "begin_2" : 0,
      "begin_71" : 0,
      "begin_67" : 0,
      "begin_68" : 0,
      "begin_107" : 0,
      "begin_111" : 0,
      "begin_4" : 0,
      "begin_72" : 0,
      "begin_73" : 0,
      "begin_69" : 0,
      "begin_6" : 0,
      "begin_74" : 0,
      "begin_108" : 0,
      "type" : "split_nd",
      "begin_8" : 0,
      "begin_112" : 0,
      "begin_75" : 0,
      "begin_10" : 0,
      "begin_80" : 0,
      "begin_76" : 0,
      "begin_109" : 0,
      "begin_113" : 0,
      "begin_11" : 0,
      "nd_axis" : 2,
      "begin_81" : 0,
      "begin_77" : 0,
      "begin_114" : 0,
      "begin_12" : 0,
      "begin_78" : 0,
      "begin_82" : 0,
      "begin_13" : 0,
      "begin_83" : 0,
      "begin_79" : 0,
      "begin_115" : 0,
      "begin_14" : 0,
      "begin_84" : 0,
      "begin_15" : 0,
      "begin_85" : 0,
      "begin_116" : 0,
      "begin_120" : 0,
      "begin_20" : 0,
      "begin_86" : 0,
      "begin_16" : 0,
      "begin_90" : 0,
      "begin_21" : 0,
      "begin_91" : 0,
      "begin_87" : 0,
      "begin_17" : 0,
      "begin_117" : 0,
      "begin_121" : 0,
      "begin_18" : 0,
      "begin_92" : 0,
      "begin_88" : 0,
      "begin_22" : 0,
      "begin_23" : 0,
      "begin_89" : 0,
      "begin_19" : 0,
      "begin_93" : 0,
      "begin_118" : 0,
      "begin_122" : 0,
      "begin_24" : 0,
      "begin_94" : 0,
      "begin_25" : 0,
      "begin_95" : 0,
      "begin_119" : 0,
      "begin_123" : 0,
      "begin_30" : 0,
      "begin_26" : 0,
      "begin_96" : 0,
      "begin_124" : 0,
      "begin_31" : 0,
      "begin_97" : 0,
      "begin_27" : 0,
      "begin_28" : 0,
      "begin_98" : 0,
      "begin_32" : 0,
      "begin_125" : 0,
      "begin_33" : 0,
      "begin_29" : 0,
      "begin_99" : 0,
      "begin_1" : 0,
      "weights" : {

      },
      "begin_34" : 0,
      "bottom" : "fastspeech2\/encoder\/ffn_block_1\/multi_head_attention_add_on_1\/MatMul",
      "begin_3" : 0,
      "begin_126" : 0,
      "begin_35" : 0,
      "begin_5" : 0,
      "begin_36" : 0,
      "begin_40" : 0,
      "begin_127" : 0,
      "name" : "fastspeech2\/encoder\/ffn_block_1\/multi_head_attention_add_on_1\/split",
      "begin_41" : 0,
      "begin_37" : 0,
      "begin_7" : 0,
      "begin_42" : 0,
      "begin_38" : 0,
      "begin_9" : 0,
      "begin_39" : 0,
      "begin_43" : 0,
      "begin_44" : 0,
      "begin_45" : 0,
      "begin_50" : 0,
      "begin_46" : 0,
      "begin_51" : 0,
      "begin_47" : 0,
      "begin_100" : 0,
      "begin_52" : 0,
      "debug_info" : "",
      "begin_48" : 0,
      "top" : "fastspeech2\/encoder\/ffn_block_1\/multi_head_attention_add_on_1\/split:0,fastspeech2\/encoder\/ffn_block_1\/multi_head_attention_add_on_1\/split:1",
      "begin_101" : 0,
      "begin_53" : 0,
      "begin_49" : 0,
      "begin_54" : 0,
      "begin_55" : 0,
      "begin_102" : 0,
      "begin_60" : 0,
      "begin_56" : 0,
      "begin_103" : 0,
      "begin_57" : 0,
      "begin_61" : 0,
      "begin_62" : 0,
      "begin_58" : 0
    },
    {
      "begin_104" : 0,
      "begin_63" : 0,
      "begin_59" : 0,
      "begin_64" : 0,
      "begin_105" : 0,
      "begin_65" : 0,
      "begin_0" : 0,
      "begin_70" : 0,
      "begin_66" : 0,
      "begin_106" : 0,
      "begin_110" : 0,
      "begin_2" : 0,
      "begin_71" : 0,
      "begin_67" : 0,
      "begin_68" : 0,
      "begin_107" : 0,
      "begin_111" : 0,
      "begin_4" : 0,
      "begin_72" : 0,
      "begin_73" : 0,
      "begin_69" : 0,
      "begin_6" : 0,
      "begin_74" : 0,
      "begin_108" : 0,
      "type" : "split_nd",
      "begin_8" : 0,
      "begin_112" : 0,
      "begin_75" : 0,
      "begin_10" : 0,
      "begin_80" : 0,
      "begin_76" : 0,
      "begin_109" : 0,
      "begin_113" : 0,
      "begin_11" : 0,
      "nd_axis" : 2,
      "begin_81" : 0,
      "begin_77" : 0,
      "begin_114" : 0,
      "begin_12" : 0,
      "begin_78" : 0,
      "begin_82" : 0,
      "begin_13" : 0,
      "begin_83" : 0,
      "begin_79" : 0,
      "begin_115" : 0,
      "begin_14" : 0,
      "begin_84" : 0,
      "begin_15" : 0,
      "begin_85" : 0,
      "begin_116" : 0,
      "begin_120" : 0,
      "begin_20" : 0,
      "begin_86" : 0,
      "begin_16" : 0,
      "begin_90" : 0,
      "begin_21" : 0,
      "begin_91" : 0,
      "begin_87" : 0,
      "begin_17" : 0,
      "begin_117" : 0,
      "begin_121" : 0,
      "begin_18" : 0,
      "begin_92" : 0,
      "begin_88" : 0,
      "begin_22" : 0,
      "begin_23" : 0,
      "begin_89" : 0,
      "begin_19" : 0,
      "begin_93" : 0,
      "begin_118" : 0,
      "begin_122" : 0,
      "begin_24" : 0,
      "begin_94" : 0,
      "begin_25" : 0,
      "begin_95" : 0,
      "begin_119" : 0,
      "begin_123" : 0,
      "begin_30" : 0,
      "begin_26" : 0,
      "begin_96" : 0,
      "begin_124" : 0,
      "begin_31" : 0,
      "begin_97" : 0,
      "begin_27" : 0,
      "begin_28" : 0,
      "begin_98" : 0,
      "begin_32" : 0,
      "begin_125" : 0,
      "begin_33" : 0,
      "begin_29" : 0,
      "begin_99" : 0,
      "begin_1" : 0,
      "weights" : {

      },
      "begin_34" : 0,
      "bottom" : "fastspeech2\/encoder\/ffn_block_1\/multi_head_attention_add_on_1\/MatMul_1",
      "begin_3" : 0,
      "begin_126" : 0,
      "begin_35" : 0,
      "begin_5" : 0,
      "begin_36" : 0,
      "begin_40" : 0,
      "begin_127" : 0,
      "name" : "fastspeech2\/encoder\/ffn_block_1\/multi_head_attention_add_on_1\/split_1",
      "begin_41" : 0,
      "begin_37" : 0,
      "begin_7" : 0,
      "begin_42" : 0,
      "begin_38" : 0,
      "begin_9" : 0,
      "begin_39" : 0,
      "begin_43" : 0,
      "begin_44" : 0,
      "begin_45" : 0,
      "begin_50" : 0,
      "begin_46" : 0,
      "begin_51" : 0,
      "begin_47" : 0,
      "begin_100" : 0,
      "begin_52" : 0,
      "debug_info" : "",
      "begin_48" : 0,
      "top" : "fastspeech2\/encoder\/ffn_block_1\/multi_head_attention_add_on_1\/split_1:0,fastspeech2\/encoder\/ffn_block_1\/multi_head_attention_add_on_1\/split_1:1",
      "begin_101" : 0,
      "begin_53" : 0,
      "begin_49" : 0,
      "begin_54" : 0,
      "begin_55" : 0,
      "begin_102" : 0,
      "begin_60" : 0,
      "begin_56" : 0,
      "begin_103" : 0,
      "begin_57" : 0,
      "begin_61" : 0,
      "begin_62" : 0,
      "begin_58" : 0
    },
    {
      "begin_104" : 0,
      "begin_63" : 0,
      "begin_59" : 0,
      "begin_64" : 0,
      "begin_105" : 0,
      "begin_65" : 0,
      "begin_0" : 0,
      "begin_70" : 0,
      "begin_66" : 0,
      "begin_106" : 0,
      "begin_110" : 0,
      "begin_2" : 0,
      "begin_71" : 0,
      "begin_67" : 0,
      "begin_68" : 0,
      "begin_107" : 0,
      "begin_111" : 0,
      "begin_4" : 0,
      "begin_72" : 0,
      "begin_73" : 0,
      "begin_69" : 0,
      "begin_6" : 0,
      "begin_74" : 0,
      "begin_108" : 0,
      "type" : "split_nd",
      "begin_8" : 0,
      "begin_112" : 0,
      "begin_75" : 0,
      "begin_10" : 0,
      "begin_80" : 0,
      "begin_76" : 0,
      "begin_109" : 0,
      "begin_113" : 0,
      "begin_11" : 0,
      "nd_axis" : 2,
      "begin_81" : 0,
      "begin_77" : 0,
      "begin_114" : 0,
      "begin_12" : 0,
      "begin_78" : 0,
      "begin_82" : 0,
      "begin_13" : 0,
      "begin_83" : 0,
      "begin_79" : 0,
      "begin_115" : 0,
      "begin_14" : 0,
      "begin_84" : 0,
      "begin_15" : 0,
      "begin_85" : 0,
      "begin_116" : 0,
      "begin_120" : 0,
      "begin_20" : 0,
      "begin_86" : 0,
      "begin_16" : 0,
      "begin_90" : 0,
      "begin_21" : 0,
      "begin_91" : 0,
      "begin_87" : 0,
      "begin_17" : 0,
      "begin_117" : 0,
      "begin_121" : 0,
      "begin_18" : 0,
      "begin_92" : 0,
      "begin_88" : 0,
      "begin_22" : 0,
      "begin_23" : 0,
      "begin_89" : 0,
      "begin_19" : 0,
      "begin_93" : 0,
      "begin_118" : 0,
      "begin_122" : 0,
      "begin_24" : 0,
      "begin_94" : 0,
      "begin_25" : 0,
      "begin_95" : 0,
      "begin_119" : 0,
      "begin_123" : 0,
      "begin_30" : 0,
      "begin_26" : 0,
      "begin_96" : 0,
      "begin_124" : 0,
      "begin_31" : 0,
      "begin_97" : 0,
      "begin_27" : 0,
      "begin_28" : 0,
      "begin_98" : 0,
      "begin_32" : 0,
      "begin_125" : 0,
      "begin_33" : 0,
      "begin_29" : 0,
      "begin_99" : 0,
      "begin_1" : 0,
      "weights" : {

      },
      "begin_34" : 0,
      "bottom" : "fastspeech2\/encoder\/ffn_block_1\/multi_head_attention_add_on_1\/MatMul_2",
      "begin_3" : 0,
      "begin_126" : 0,
      "begin_35" : 0,
      "begin_5" : 0,
      "begin_36" : 0,
      "begin_40" : 0,
      "begin_127" : 0,
      "name" : "fastspeech2\/encoder\/ffn_block_1\/multi_head_attention_add_on_1\/split_2",
      "begin_41" : 0,
      "begin_37" : 0,
      "begin_7" : 0,
      "begin_42" : 0,
      "begin_38" : 0,
      "begin_9" : 0,
      "begin_39" : 0,
      "begin_43" : 0,
      "begin_44" : 0,
      "begin_45" : 0,
      "begin_50" : 0,
      "begin_46" : 0,
      "begin_51" : 0,
      "begin_47" : 0,
      "begin_100" : 0,
      "begin_52" : 0,
      "debug_info" : "",
      "begin_48" : 0,
      "top" : "fastspeech2\/encoder\/ffn_block_1\/multi_head_attention_add_on_1\/split_2:0,fastspeech2\/encoder\/ffn_block_1\/multi_head_attention_add_on_1\/split_2:1",
      "begin_101" : 0,
      "begin_53" : 0,
      "begin_49" : 0,
      "begin_54" : 0,
      "begin_55" : 0,
      "begin_102" : 0,
      "begin_60" : 0,
      "begin_56" : 0,
      "begin_103" : 0,
      "begin_57" : 0,
      "begin_61" : 0,
      "begin_62" : 0,
      "begin_58" : 0
    },
    {
      "size_of_axes" : 1,
      "bottom" : "fastspeech2\/encoder\/ffn_block_1\/multi_head_attention_add_on_1\/split:0",
      "axes_0" : 1,
      "weights" : {

      },
      "nd_axis" : 0,
      "debug_info" : "",
      "top" : "fastspeech2\/encoder\/ffn_block_1\/multi_head_attention_add_on_1\/ExpandDims",
      "type" : "expand_dims",
      "name" : "fastspeech2\/encoder\/ffn_block_1\/multi_head_attention_add_on_1\/ExpandDims"
    },
    {
      "size_of_axes" : 1,
      "bottom" : "fastspeech2\/encoder\/ffn_block_1\/multi_head_attention_add_on_1\/split:1",
      "axes_0" : 1,
      "weights" : {

      },
      "nd_axis" : 0,
      "debug_info" : "",
      "top" : "fastspeech2\/encoder\/ffn_block_1\/multi_head_attention_add_on_1\/ExpandDims_1",
      "type" : "expand_dims",
      "name" : "fastspeech2\/encoder\/ffn_block_1\/multi_head_attention_add_on_1\/ExpandDims_1"
    },
    {
      "size_of_axes" : 1,
      "bottom" : "fastspeech2\/encoder\/ffn_block_1\/multi_head_attention_add_on_1\/split_1:0",
      "axes_0" : 1,
      "weights" : {

      },
      "nd_axis" : 0,
      "debug_info" : "",
      "top" : "fastspeech2\/encoder\/ffn_block_1\/multi_head_attention_add_on_1\/ExpandDims_2",
      "type" : "expand_dims",
      "name" : "fastspeech2\/encoder\/ffn_block_1\/multi_head_attention_add_on_1\/ExpandDims_2"
    },
    {
      "size_of_axes" : 1,
      "bottom" : "fastspeech2\/encoder\/ffn_block_1\/multi_head_attention_add_on_1\/split_1:1",
      "axes_0" : 1,
      "weights" : {

      },
      "nd_axis" : 0,
      "debug_info" : "",
      "top" : "fastspeech2\/encoder\/ffn_block_1\/multi_head_attention_add_on_1\/ExpandDims_3",
      "type" : "expand_dims",
      "name" : "fastspeech2\/encoder\/ffn_block_1\/multi_head_attention_add_on_1\/ExpandDims_3"
    },
    {
      "size_of_axes" : 1,
      "bottom" : "fastspeech2\/encoder\/ffn_block_1\/multi_head_attention_add_on_1\/split_2:0",
      "axes_0" : 1,
      "weights" : {

      },
      "nd_axis" : 0,
      "debug_info" : "",
      "top" : "fastspeech2\/encoder\/ffn_block_1\/multi_head_attention_add_on_1\/ExpandDims_4",
      "type" : "expand_dims",
      "name" : "fastspeech2\/encoder\/ffn_block_1\/multi_head_attention_add_on_1\/ExpandDims_4"
    },
    {
      "size_of_axes" : 1,
      "bottom" : "fastspeech2\/encoder\/ffn_block_1\/multi_head_attention_add_on_1\/split_2:1",
      "axes_0" : 1,
      "weights" : {

      },
      "nd_axis" : 0,
      "debug_info" : "",
      "top" : "fastspeech2\/encoder\/ffn_block_1\/multi_head_attention_add_on_1\/ExpandDims_5",
      "type" : "expand_dims",
      "name" : "fastspeech2\/encoder\/ffn_block_1\/multi_head_attention_add_on_1\/ExpandDims_5"
    },
    {
      "weights" : {

      },
      "debug_info" : "",
      "top" : "fastspeech2\/encoder\/ffn_block_1\/multi_head_attention_add_on_1\/concat",
      "type" : "concat",
      "name" : "fastspeech2\/encoder\/ffn_block_1\/multi_head_attention_add_on_1\/concat",
      "bottom" : "fastspeech2\/encoder\/ffn_block_1\/multi_head_attention_add_on_1\/ExpandDims,fastspeech2\/encoder\/ffn_block_1\/multi_head_attention_add_on_1\/ExpandDims_1"
    },
    {
      "weights" : {

      },
      "debug_info" : "",
      "top" : "fastspeech2\/encoder\/ffn_block_1\/multi_head_attention_add_on_1\/concat_1",
      "type" : "concat",
      "name" : "fastspeech2\/encoder\/ffn_block_1\/multi_head_attention_add_on_1\/concat_1",
      "bottom" : "fastspeech2\/encoder\/ffn_block_1\/multi_head_attention_add_on_1\/ExpandDims_2,fastspeech2\/encoder\/ffn_block_1\/multi_head_attention_add_on_1\/ExpandDims_3"
    },
    {
      "weights" : {

      },
      "debug_info" : "",
      "top" : "fastspeech2\/encoder\/ffn_block_1\/multi_head_attention_add_on_1\/concat_2",
      "type" : "concat",
      "name" : "fastspeech2\/encoder\/ffn_block_1\/multi_head_attention_add_on_1\/concat_2",
      "bottom" : "fastspeech2\/encoder\/ffn_block_1\/multi_head_attention_add_on_1\/ExpandDims_4,fastspeech2\/encoder\/ffn_block_1\/multi_head_attention_add_on_1\/ExpandDims_5"
    },
    {
      "bottom" : "fastspeech2\/encoder\/ffn_block_1\/multi_head_attention_add_on_1\/concat",
      "alpha" : 0.0625,
      "operation" : 1,
      "weights" : {

      },
      "fused_relu" : 0,
      "debug_info" : "",
      "top" : "fastspeech2\/encoder\/ffn_block_1\/multi_head_attention_add_on_1\/truediv",
      "type" : "elementwise",
      "name" : "fastspeech2\/encoder\/ffn_block_1\/multi_head_attention_add_on_1\/truediv",
      "beta" : 0
    },
    {
      "bottom" : "fastspeech2\/encoder\/ffn_block_1\/multi_head_attention_add_on_1\/truediv,fastspeech2\/encoder\/ffn_block_1\/multi_head_attention_add_on_1\/concat_1",
      "weights" : {

      },
      "transpose_y" : true,
      "debug_info" : "",
      "top" : "fastspeech2\/encoder\/ffn_block_1\/multi_head_attention_add_on_1\/MatMul_3",
      "type" : "batch_matmul",
      "name" : "fastspeech2\/encoder\/ffn_block_1\/multi_head_attention_add_on_1\/MatMul_3",
      "channel_mode" : false
    },
    {
      "bottom" : "fastspeech2\/encoder\/ffn_block_1\/multi_head_attention_add_on_1\/MatMul_3",
      "weights" : {

      },
      "nd_axis" : -1,
      "debug_info" : "",
      "top" : "fastspeech2\/encoder\/ffn_block_1\/multi_head_attention_add_on_1\/Softmax",
      "type" : "softmax_nd",
      "name" : "fastspeech2\/encoder\/ffn_block_1\/multi_head_attention_add_on_1\/Softmax"
    },
    {
      "bottom" : "fastspeech2\/encoder\/ffn_block_1\/multi_head_attention_add_on_1\/Softmax,fastspeech2\/encoder\/ffn_block_1\/multi_head_attention_add_on_1\/concat_2",
      "weights" : {

      },
      "debug_info" : "",
      "top" : "fastspeech2\/encoder\/ffn_block_1\/multi_head_attention_add_on_1\/MatMul_4",
      "type" : "batch_matmul",
      "name" : "fastspeech2\/encoder\/ffn_block_1\/multi_head_attention_add_on_1\/MatMul_4",
      "channel_mode" : false
    },
    {
      "axis_h" : 2,
      "axis_w" : 0,
      "bottom" : "fastspeech2\/encoder\/ffn_block_1\/multi_head_attention_add_on_1\/MatMul_4",
      "axis_k" : 1,
      "axis_n" : 3,
      "axis_seq" : 4,
      "weights" : {

      },
      "debug_info" : "",
      "top" : "fastspeech2\/encoder\/ffn_block_1\/multi_head_attention_add_on_1\/transpose_4",
      "type" : "transpose",
      "name" : "fastspeech2\/encoder\/ffn_block_1\/multi_head_attention_add_on_1\/transpose_4"
    },
    {
      "begin_104" : 0,
      "begin_63" : 0,
      "begin_59" : 0,
      "begin_64" : 0,
      "begin_105" : 0,
      "begin_65" : 0,
      "begin_0" : 0,
      "begin_70" : 0,
      "begin_66" : 0,
      "begin_106" : 0,
      "begin_110" : 0,
      "begin_2" : 0,
      "begin_71" : 0,
      "begin_67" : 0,
      "begin_68" : 0,
      "begin_107" : 0,
      "begin_111" : 0,
      "begin_4" : 0,
      "begin_72" : 0,
      "begin_73" : 0,
      "begin_69" : 0,
      "begin_6" : 0,
      "begin_74" : 0,
      "begin_108" : 0,
      "type" : "split_nd",
      "begin_8" : 0,
      "begin_112" : 0,
      "begin_75" : 0,
      "begin_10" : 0,
      "begin_80" : 0,
      "begin_76" : 0,
      "begin_109" : 0,
      "begin_113" : 0,
      "begin_11" : 0,
      "nd_axis" : 2,
      "begin_81" : 0,
      "begin_77" : 0,
      "begin_114" : 0,
      "begin_12" : 0,
      "begin_78" : 0,
      "begin_82" : 0,
      "begin_13" : 0,
      "begin_83" : 0,
      "begin_79" : 0,
      "begin_115" : 0,
      "begin_14" : 0,
      "begin_84" : 0,
      "begin_15" : 0,
      "begin_85" : 0,
      "begin_116" : 0,
      "begin_120" : 0,
      "begin_20" : 0,
      "begin_86" : 0,
      "begin_16" : 0,
      "begin_90" : 0,
      "begin_21" : 0,
      "begin_91" : 0,
      "begin_87" : 0,
      "begin_17" : 0,
      "begin_117" : 0,
      "begin_121" : 0,
      "begin_18" : 0,
      "begin_92" : 0,
      "begin_88" : 0,
      "begin_22" : 0,
      "begin_23" : 0,
      "begin_89" : 0,
      "begin_19" : 0,
      "begin_93" : 0,
      "begin_118" : 0,
      "begin_122" : 0,
      "begin_24" : 0,
      "begin_94" : 0,
      "begin_25" : 0,
      "begin_95" : 0,
      "begin_119" : 0,
      "begin_123" : 0,
      "begin_30" : 0,
      "begin_26" : 0,
      "begin_96" : 0,
      "begin_124" : 0,
      "begin_31" : 0,
      "begin_97" : 0,
      "begin_27" : 0,
      "begin_28" : 0,
      "begin_98" : 0,
      "begin_32" : 0,
      "begin_125" : 0,
      "begin_33" : 0,
      "begin_29" : 0,
      "begin_99" : 0,
      "begin_1" : 0,
      "weights" : {

      },
      "begin_34" : 0,
      "bottom" : "fastspeech2\/encoder\/ffn_block_1\/multi_head_attention_add_on_1\/transpose_4",
      "begin_3" : 0,
      "begin_126" : 0,
      "begin_35" : 0,
      "begin_5" : 0,
      "begin_36" : 0,
      "begin_40" : 0,
      "begin_127" : 0,
      "name" : "fastspeech2\/encoder\/ffn_block_1\/multi_head_attention_add_on_1\/split_3",
      "begin_41" : 0,
      "begin_37" : 0,
      "begin_7" : 0,
      "begin_42" : 0,
      "begin_38" : 0,
      "begin_9" : 0,
      "begin_39" : 0,
      "begin_43" : 0,
      "begin_44" : 0,
      "begin_45" : 0,
      "begin_50" : 0,
      "begin_46" : 0,
      "begin_51" : 0,
      "begin_47" : 0,
      "begin_100" : 0,
      "begin_52" : 0,
      "debug_info" : "",
      "begin_48" : 0,
      "top" : "fastspeech2\/encoder\/ffn_block_1\/multi_head_attention_add_on_1\/split_3:0,fastspeech2\/encoder\/ffn_block_1\/multi_head_attention_add_on_1\/split_3:1",
      "begin_101" : 0,
      "begin_53" : 0,
      "begin_49" : 0,
      "begin_54" : 0,
      "begin_55" : 0,
      "begin_102" : 0,
      "begin_60" : 0,
      "begin_56" : 0,
      "begin_103" : 0,
      "begin_57" : 0,
      "begin_61" : 0,
      "begin_62" : 0,
      "begin_58" : 0
    },
    {
      "size_of_axes" : 1,
      "bottom" : "fastspeech2\/encoder\/ffn_block_1\/multi_head_attention_add_on_1\/split_3:0",
      "axes_0" : 2,
      "weights" : {

      },
      "nd_axis" : 0,
      "debug_info" : "",
      "version" : 1,
      "top" : "fastspeech2\/encoder\/ffn_block_1\/multi_head_attention_add_on_1\/Squeeze",
      "type" : "squeeze",
      "name" : "fastspeech2\/encoder\/ffn_block_1\/multi_head_attention_add_on_1\/Squeeze"
    },
    {
      "size_of_axes" : 1,
      "bottom" : "fastspeech2\/encoder\/ffn_block_1\/multi_head_attention_add_on_1\/split_3:1",
      "axes_0" : 2,
      "weights" : {

      },
      "nd_axis" : 0,
      "debug_info" : "",
      "version" : 1,
      "top" : "fastspeech2\/encoder\/ffn_block_1\/multi_head_attention_add_on_1\/Squeeze_1",
      "type" : "squeeze",
      "name" : "fastspeech2\/encoder\/ffn_block_1\/multi_head_attention_add_on_1\/Squeeze_1"
    },
    {
      "bottom" : "fastspeech2\/encoder\/ffn_block_1\/multi_head_attention_add_on_1\/Squeeze,fastspeech2\/encoder\/ffn_block_1\/multi_head_attention_add_on_1\/Squeeze_1",
      "weights" : {

      },
      "nd_mode" : true,
      "axis" : 2,
      "debug_info" : "",
      "top" : "fastspeech2\/encoder\/ffn_block_1\/multi_head_attention_add_on_1\/concat_3",
      "type" : "general_concat",
      "name" : "fastspeech2\/encoder\/ffn_block_1\/multi_head_attention_add_on_1\/concat_3"
    },
    {
      "nB" : 512,
      "top" : "fastspeech2\/encoder\/ffn_block_1\/multi_head_attention_add_on_1\/add",
      "has_biases" : 1,
      "blob_weights_f16" : 51,
      "nC" : 256,
      "weights" : {

      },
      "type" : "inner_product",
      "has_relu" : 0,
      "bottom" : "fastspeech2\/encoder\/ffn_block_1\/multi_head_attention_add_on_1\/concat_3",
      "blob_biases" : 49,
      "has_tanh" : 0,
      "debug_info" : "",
      "name" : "fastspeech2\/encoder\/ffn_block_1\/multi_head_attention_add_on_1\/add",
      "has_prelu" : 0
    },
    {
      "bottom" : "fastspeech2\/encoder\/ffn_block\/layer_normalization_1\/batchnorm\/add_1,fastspeech2\/encoder\/ffn_block_1\/multi_head_attention_add_on_1\/add",
      "alpha" : 1,
      "operation" : 0,
      "weights" : {

      },
      "fused_relu" : 0,
      "debug_info" : "",
      "nd_mode" : true,
      "top" : "fastspeech2\/encoder\/ffn_block_1\/add",
      "type" : "elementwise",
      "name" : "fastspeech2\/encoder\/ffn_block_1\/add",
      "beta" : 0
    },
    {
      "bottom" : "fastspeech2\/encoder\/ffn_block_1\/add",
      "weights" : {
        "wBeta" : 53,
        "wGamma" : 55
      },
      "eps" : 9.9999999747524271e-07,
      "tf_layernorm" : 1,
      "debug_info" : "",
      "top" : "fastspeech2\/encoder\/ffn_block_1\/layer_normalization_2\/batchnorm\/add_1",
      "type" : "instancenorm_1d",
      "name" : "instancenorm_test"
    },
    {
      "size_of_axes" : 1,
      "bottom" : "fastspeech2\/encoder\/ffn_block_1\/layer_normalization_2\/batchnorm\/add_1",
      "axes_0" : -3,
      "weights" : {

      },
      "nd_axis" : 0,
      "debug_info" : "",
      "top" : "fastspeech2\/encoder\/ffn_block_1\/conv1d_3\/conv1d\/ExpandDims",
      "type" : "expand_dims",
      "name" : "fastspeech2\/encoder\/ffn_block_1\/conv1d_3\/conv1d\/ExpandDims"
    },
    {
      "axis_h" : 2,
      "axis_w" : 1,
      "bottom" : "fastspeech2\/encoder\/ffn_block_1\/conv1d_3\/conv1d\/ExpandDims",
      "axis_k" : 0,
      "axis_n" : 3,
      "axis_seq" : 4,
      "weights" : {

      },
      "debug_info" : "",
      "top" : "transpose_7",
      "type" : "transpose",
      "name" : "transpose_7"
    },
    {
      "pad_r" : 0,
      "fused_relu" : 0,
      "fused_tanh" : 0,
      "debug_info" : "",
      "pad_fill_mode" : 0,
      "pad_b" : 0,
      "pad_l" : 0,
      "top" : "transpose_9",
      "K" : 256,
      "blob_biases" : 57,
      "name" : "fastspeech2\/encoder\/ffn_block_1\/conv1d_3\/conv1dx",
      "has_batch_norm" : 0,
      "type" : "convolution",
      "n_groups" : 1,
      "pad_t" : 0,
      "has_biases" : 1,
      "C" : 1024,
      "bottom" : "transpose_7",
      "weights" : {

      },
      "Nx" : 9,
      "pad_mode" : 1,
      "pad_value" : 0,
      "Ny" : 1,
      "n_parallel" : 1,
      "blob_weights_f16" : 59,
      "fused_activation_mode" : 0
    },
    {
      "pad_r" : 0,
      "fused_relu" : 0,
      "fused_tanh" : 0,
      "debug_info" : "",
      "pad_fill_mode" : 0,
      "pad_b" : 0,
      "pad_l" : 0,
      "top" : "fastspeech2\/encoder\/ffn_block_1\/conv1d_4\/conv1dx",
      "K" : 1024,
      "blob_biases" : 61,
      "name" : "fastspeech2\/encoder\/ffn_block_1\/conv1d_4\/conv1dx",
      "has_batch_norm" : 0,
      "type" : "convolution",
      "n_groups" : 1,
      "pad_t" : 0,
      "has_biases" : 1,
      "C" : 256,
      "bottom" : "transpose_9",
      "weights" : {

      },
      "Nx" : 1,
      "pad_mode" : 1,
      "pad_value" : 0,
      "Ny" : 1,
      "n_parallel" : 1,
      "blob_weights_f16" : 63
    },
    {
      "axis_h" : 0,
      "axis_w" : 2,
      "bottom" : "fastspeech2\/encoder\/ffn_block_1\/conv1d_4\/conv1dx",
      "axis_k" : 1,
      "axis_n" : 3,
      "axis_seq" : 4,
      "weights" : {

      },
      "debug_info" : "",
      "top" : "fastspeech2\/encoder\/ffn_block_1\/conv1d_4\/conv1d",
      "type" : "transpose",
      "name" : "fastspeech2\/encoder\/ffn_block_1\/conv1d_4\/conv1d"
    },
    {
      "size_of_axes" : 1,
      "bottom" : "fastspeech2\/encoder\/ffn_block_1\/conv1d_4\/conv1d",
      "axes_0" : -3,
      "weights" : {

      },
      "nd_axis" : 0,
      "debug_info" : "",
      "version" : 1,
      "top" : "fastspeech2\/encoder\/ffn_block_1\/conv1d_4\/BiasAdd",
      "type" : "squeeze",
      "name" : "fastspeech2\/encoder\/ffn_block_1\/conv1d_4\/conv1d\/Squeeze"
    },
    {
      "bottom" : "fastspeech2\/encoder\/ffn_block_1\/layer_normalization_2\/batchnorm\/add_1,fastspeech2\/encoder\/ffn_block_1\/conv1d_4\/BiasAdd",
      "alpha" : 1,
      "operation" : 0,
      "weights" : {

      },
      "fused_relu" : 0,
      "debug_info" : "",
      "nd_mode" : true,
      "top" : "fastspeech2\/encoder\/ffn_block_1\/add_1",
      "type" : "elementwise",
      "name" : "fastspeech2\/encoder\/ffn_block_1\/add_1",
      "beta" : 0
    },
    {
      "bottom" : "fastspeech2\/encoder\/ffn_block_1\/add_1",
      "weights" : {
        "wBeta" : 65,
        "wGamma" : 67
      },
      "eps" : 9.9999999747524271e-07,
      "tf_layernorm" : 1,
      "debug_info" : "",
      "top" : "fastspeech2\/encoder\/ffn_block_1\/layer_normalization_3\/batchnorm\/add_1",
      "type" : "instancenorm_1d",
      "name" : "instancenorm_test"
    },
    {
      "nB" : 256,
      "top" : "fastspeech2\/encoder\/ffn_block_2\/multi_head_attention_add_on_2\/MatMul",
      "has_biases" : 0,
      "blob_weights_f16" : 69,
      "nC" : 512,
      "weights" : {

      },
      "type" : "inner_product",
      "has_relu" : 0,
      "bottom" : "fastspeech2\/encoder\/ffn_block_1\/layer_normalization_3\/batchnorm\/add_1",
      "debug_info" : "",
      "has_tanh" : 0,
      "nd_mode" : true,
      "name" : "fastspeech2\/encoder\/ffn_block_2\/multi_head_attention_add_on_2\/MatMul",
      "has_prelu" : 0
    },
    {
      "nB" : 256,
      "top" : "fastspeech2\/encoder\/ffn_block_2\/multi_head_attention_add_on_2\/MatMul_1",
      "has_biases" : 0,
      "blob_weights_f16" : 71,
      "nC" : 512,
      "weights" : {

      },
      "type" : "inner_product",
      "has_relu" : 0,
      "bottom" : "fastspeech2\/encoder\/ffn_block_1\/layer_normalization_3\/batchnorm\/add_1",
      "debug_info" : "",
      "has_tanh" : 0,
      "nd_mode" : true,
      "name" : "fastspeech2\/encoder\/ffn_block_2\/multi_head_attention_add_on_2\/MatMul_1",
      "has_prelu" : 0
    },
    {
      "nB" : 256,
      "top" : "fastspeech2\/encoder\/ffn_block_2\/multi_head_attention_add_on_2\/MatMul_2",
      "has_biases" : 0,
      "blob_weights_f16" : 73,
      "nC" : 512,
      "weights" : {

      },
      "type" : "inner_product",
      "has_relu" : 0,
      "bottom" : "fastspeech2\/encoder\/ffn_block_1\/layer_normalization_3\/batchnorm\/add_1",
      "debug_info" : "",
      "has_tanh" : 0,
      "nd_mode" : true,
      "name" : "fastspeech2\/encoder\/ffn_block_2\/multi_head_attention_add_on_2\/MatMul_2",
      "has_prelu" : 0
    },
    {
      "begin_104" : 0,
      "begin_63" : 0,
      "begin_59" : 0,
      "begin_64" : 0,
      "begin_105" : 0,
      "begin_65" : 0,
      "begin_0" : 0,
      "begin_70" : 0,
      "begin_66" : 0,
      "begin_106" : 0,
      "begin_110" : 0,
      "begin_2" : 0,
      "begin_71" : 0,
      "begin_67" : 0,
      "begin_68" : 0,
      "begin_107" : 0,
      "begin_111" : 0,
      "begin_4" : 0,
      "begin_72" : 0,
      "begin_73" : 0,
      "begin_69" : 0,
      "begin_6" : 0,
      "begin_74" : 0,
      "begin_108" : 0,
      "type" : "split_nd",
      "begin_8" : 0,
      "begin_112" : 0,
      "begin_75" : 0,
      "begin_10" : 0,
      "begin_80" : 0,
      "begin_76" : 0,
      "begin_109" : 0,
      "begin_113" : 0,
      "begin_11" : 0,
      "nd_axis" : 2,
      "begin_81" : 0,
      "begin_77" : 0,
      "begin_114" : 0,
      "begin_12" : 0,
      "begin_78" : 0,
      "begin_82" : 0,
      "begin_13" : 0,
      "begin_83" : 0,
      "begin_79" : 0,
      "begin_115" : 0,
      "begin_14" : 0,
      "begin_84" : 0,
      "begin_15" : 0,
      "begin_85" : 0,
      "begin_116" : 0,
      "begin_120" : 0,
      "begin_20" : 0,
      "begin_86" : 0,
      "begin_16" : 0,
      "begin_90" : 0,
      "begin_21" : 0,
      "begin_91" : 0,
      "begin_87" : 0,
      "begin_17" : 0,
      "begin_117" : 0,
      "begin_121" : 0,
      "begin_18" : 0,
      "begin_92" : 0,
      "begin_88" : 0,
      "begin_22" : 0,
      "begin_23" : 0,
      "begin_89" : 0,
      "begin_19" : 0,
      "begin_93" : 0,
      "begin_118" : 0,
      "begin_122" : 0,
      "begin_24" : 0,
      "begin_94" : 0,
      "begin_25" : 0,
      "begin_95" : 0,
      "begin_119" : 0,
      "begin_123" : 0,
      "begin_30" : 0,
      "begin_26" : 0,
      "begin_96" : 0,
      "begin_124" : 0,
      "begin_31" : 0,
      "begin_97" : 0,
      "begin_27" : 0,
      "begin_28" : 0,
      "begin_98" : 0,
      "begin_32" : 0,
      "begin_125" : 0,
      "begin_33" : 0,
      "begin_29" : 0,
      "begin_99" : 0,
      "begin_1" : 0,
      "weights" : {

      },
      "begin_34" : 0,
      "bottom" : "fastspeech2\/encoder\/ffn_block_2\/multi_head_attention_add_on_2\/MatMul",
      "begin_3" : 0,
      "begin_126" : 0,
      "begin_35" : 0,
      "begin_5" : 0,
      "begin_36" : 0,
      "begin_40" : 0,
      "begin_127" : 0,
      "name" : "fastspeech2\/encoder\/ffn_block_2\/multi_head_attention_add_on_2\/split",
      "begin_41" : 0,
      "begin_37" : 0,
      "begin_7" : 0,
      "begin_42" : 0,
      "begin_38" : 0,
      "begin_9" : 0,
      "begin_39" : 0,
      "begin_43" : 0,
      "begin_44" : 0,
      "begin_45" : 0,
      "begin_50" : 0,
      "begin_46" : 0,
      "begin_51" : 0,
      "begin_47" : 0,
      "begin_100" : 0,
      "begin_52" : 0,
      "debug_info" : "",
      "begin_48" : 0,
      "top" : "fastspeech2\/encoder\/ffn_block_2\/multi_head_attention_add_on_2\/split:0,fastspeech2\/encoder\/ffn_block_2\/multi_head_attention_add_on_2\/split:1",
      "begin_101" : 0,
      "begin_53" : 0,
      "begin_49" : 0,
      "begin_54" : 0,
      "begin_55" : 0,
      "begin_102" : 0,
      "begin_60" : 0,
      "begin_56" : 0,
      "begin_103" : 0,
      "begin_57" : 0,
      "begin_61" : 0,
      "begin_62" : 0,
      "begin_58" : 0
    },
    {
      "begin_104" : 0,
      "begin_63" : 0,
      "begin_59" : 0,
      "begin_64" : 0,
      "begin_105" : 0,
      "begin_65" : 0,
      "begin_0" : 0,
      "begin_70" : 0,
      "begin_66" : 0,
      "begin_106" : 0,
      "begin_110" : 0,
      "begin_2" : 0,
      "begin_71" : 0,
      "begin_67" : 0,
      "begin_68" : 0,
      "begin_107" : 0,
      "begin_111" : 0,
      "begin_4" : 0,
      "begin_72" : 0,
      "begin_73" : 0,
      "begin_69" : 0,
      "begin_6" : 0,
      "begin_74" : 0,
      "begin_108" : 0,
      "type" : "split_nd",
      "begin_8" : 0,
      "begin_112" : 0,
      "begin_75" : 0,
      "begin_10" : 0,
      "begin_80" : 0,
      "begin_76" : 0,
      "begin_109" : 0,
      "begin_113" : 0,
      "begin_11" : 0,
      "nd_axis" : 2,
      "begin_81" : 0,
      "begin_77" : 0,
      "begin_114" : 0,
      "begin_12" : 0,
      "begin_78" : 0,
      "begin_82" : 0,
      "begin_13" : 0,
      "begin_83" : 0,
      "begin_79" : 0,
      "begin_115" : 0,
      "begin_14" : 0,
      "begin_84" : 0,
      "begin_15" : 0,
      "begin_85" : 0,
      "begin_116" : 0,
      "begin_120" : 0,
      "begin_20" : 0,
      "begin_86" : 0,
      "begin_16" : 0,
      "begin_90" : 0,
      "begin_21" : 0,
      "begin_91" : 0,
      "begin_87" : 0,
      "begin_17" : 0,
      "begin_117" : 0,
      "begin_121" : 0,
      "begin_18" : 0,
      "begin_92" : 0,
      "begin_88" : 0,
      "begin_22" : 0,
      "begin_23" : 0,
      "begin_89" : 0,
      "begin_19" : 0,
      "begin_93" : 0,
      "begin_118" : 0,
      "begin_122" : 0,
      "begin_24" : 0,
      "begin_94" : 0,
      "begin_25" : 0,
      "begin_95" : 0,
      "begin_119" : 0,
      "begin_123" : 0,
      "begin_30" : 0,
      "begin_26" : 0,
      "begin_96" : 0,
      "begin_124" : 0,
      "begin_31" : 0,
      "begin_97" : 0,
      "begin_27" : 0,
      "begin_28" : 0,
      "begin_98" : 0,
      "begin_32" : 0,
      "begin_125" : 0,
      "begin_33" : 0,
      "begin_29" : 0,
      "begin_99" : 0,
      "begin_1" : 0,
      "weights" : {

      },
      "begin_34" : 0,
      "bottom" : "fastspeech2\/encoder\/ffn_block_2\/multi_head_attention_add_on_2\/MatMul_1",
      "begin_3" : 0,
      "begin_126" : 0,
      "begin_35" : 0,
      "begin_5" : 0,
      "begin_36" : 0,
      "begin_40" : 0,
      "begin_127" : 0,
      "name" : "fastspeech2\/encoder\/ffn_block_2\/multi_head_attention_add_on_2\/split_1",
      "begin_41" : 0,
      "begin_37" : 0,
      "begin_7" : 0,
      "begin_42" : 0,
      "begin_38" : 0,
      "begin_9" : 0,
      "begin_39" : 0,
      "begin_43" : 0,
      "begin_44" : 0,
      "begin_45" : 0,
      "begin_50" : 0,
      "begin_46" : 0,
      "begin_51" : 0,
      "begin_47" : 0,
      "begin_100" : 0,
      "begin_52" : 0,
      "debug_info" : "",
      "begin_48" : 0,
      "top" : "fastspeech2\/encoder\/ffn_block_2\/multi_head_attention_add_on_2\/split_1:0,fastspeech2\/encoder\/ffn_block_2\/multi_head_attention_add_on_2\/split_1:1",
      "begin_101" : 0,
      "begin_53" : 0,
      "begin_49" : 0,
      "begin_54" : 0,
      "begin_55" : 0,
      "begin_102" : 0,
      "begin_60" : 0,
      "begin_56" : 0,
      "begin_103" : 0,
      "begin_57" : 0,
      "begin_61" : 0,
      "begin_62" : 0,
      "begin_58" : 0
    },
    {
      "begin_104" : 0,
      "begin_63" : 0,
      "begin_59" : 0,
      "begin_64" : 0,
      "begin_105" : 0,
      "begin_65" : 0,
      "begin_0" : 0,
      "begin_70" : 0,
      "begin_66" : 0,
      "begin_106" : 0,
      "begin_110" : 0,
      "begin_2" : 0,
      "begin_71" : 0,
      "begin_67" : 0,
      "begin_68" : 0,
      "begin_107" : 0,
      "begin_111" : 0,
      "begin_4" : 0,
      "begin_72" : 0,
      "begin_73" : 0,
      "begin_69" : 0,
      "begin_6" : 0,
      "begin_74" : 0,
      "begin_108" : 0,
      "type" : "split_nd",
      "begin_8" : 0,
      "begin_112" : 0,
      "begin_75" : 0,
      "begin_10" : 0,
      "begin_80" : 0,
      "begin_76" : 0,
      "begin_109" : 0,
      "begin_113" : 0,
      "begin_11" : 0,
      "nd_axis" : 2,
      "begin_81" : 0,
      "begin_77" : 0,
      "begin_114" : 0,
      "begin_12" : 0,
      "begin_78" : 0,
      "begin_82" : 0,
      "begin_13" : 0,
      "begin_83" : 0,
      "begin_79" : 0,
      "begin_115" : 0,
      "begin_14" : 0,
      "begin_84" : 0,
      "begin_15" : 0,
      "begin_85" : 0,
      "begin_116" : 0,
      "begin_120" : 0,
      "begin_20" : 0,
      "begin_86" : 0,
      "begin_16" : 0,
      "begin_90" : 0,
      "begin_21" : 0,
      "begin_91" : 0,
      "begin_87" : 0,
      "begin_17" : 0,
      "begin_117" : 0,
      "begin_121" : 0,
      "begin_18" : 0,
      "begin_92" : 0,
      "begin_88" : 0,
      "begin_22" : 0,
      "begin_23" : 0,
      "begin_89" : 0,
      "begin_19" : 0,
      "begin_93" : 0,
      "begin_118" : 0,
      "begin_122" : 0,
      "begin_24" : 0,
      "begin_94" : 0,
      "begin_25" : 0,
      "begin_95" : 0,
      "begin_119" : 0,
      "begin_123" : 0,
      "begin_30" : 0,
      "begin_26" : 0,
      "begin_96" : 0,
      "begin_124" : 0,
      "begin_31" : 0,
      "begin_97" : 0,
      "begin_27" : 0,
      "begin_28" : 0,
      "begin_98" : 0,
      "begin_32" : 0,
      "begin_125" : 0,
      "begin_33" : 0,
      "begin_29" : 0,
      "begin_99" : 0,
      "begin_1" : 0,
      "weights" : {

      },
      "begin_34" : 0,
      "bottom" : "fastspeech2\/encoder\/ffn_block_2\/multi_head_attention_add_on_2\/MatMul_2",
      "begin_3" : 0,
      "begin_126" : 0,
      "begin_35" : 0,
      "begin_5" : 0,
      "begin_36" : 0,
      "begin_40" : 0,
      "begin_127" : 0,
      "name" : "fastspeech2\/encoder\/ffn_block_2\/multi_head_attention_add_on_2\/split_2",
      "begin_41" : 0,
      "begin_37" : 0,
      "begin_7" : 0,
      "begin_42" : 0,
      "begin_38" : 0,
      "begin_9" : 0,
      "begin_39" : 0,
      "begin_43" : 0,
      "begin_44" : 0,
      "begin_45" : 0,
      "begin_50" : 0,
      "begin_46" : 0,
      "begin_51" : 0,
      "begin_47" : 0,
      "begin_100" : 0,
      "begin_52" : 0,
      "debug_info" : "",
      "begin_48" : 0,
      "top" : "fastspeech2\/encoder\/ffn_block_2\/multi_head_attention_add_on_2\/split_2:0,fastspeech2\/encoder\/ffn_block_2\/multi_head_attention_add_on_2\/split_2:1",
      "begin_101" : 0,
      "begin_53" : 0,
      "begin_49" : 0,
      "begin_54" : 0,
      "begin_55" : 0,
      "begin_102" : 0,
      "begin_60" : 0,
      "begin_56" : 0,
      "begin_103" : 0,
      "begin_57" : 0,
      "begin_61" : 0,
      "begin_62" : 0,
      "begin_58" : 0
    },
    {
      "size_of_axes" : 1,
      "bottom" : "fastspeech2\/encoder\/ffn_block_2\/multi_head_attention_add_on_2\/split:0",
      "axes_0" : 1,
      "weights" : {

      },
      "nd_axis" : 0,
      "debug_info" : "",
      "top" : "fastspeech2\/encoder\/ffn_block_2\/multi_head_attention_add_on_2\/ExpandDims",
      "type" : "expand_dims",
      "name" : "fastspeech2\/encoder\/ffn_block_2\/multi_head_attention_add_on_2\/ExpandDims"
    },
    {
      "size_of_axes" : 1,
      "bottom" : "fastspeech2\/encoder\/ffn_block_2\/multi_head_attention_add_on_2\/split:1",
      "axes_0" : 1,
      "weights" : {

      },
      "nd_axis" : 0,
      "debug_info" : "",
      "top" : "fastspeech2\/encoder\/ffn_block_2\/multi_head_attention_add_on_2\/ExpandDims_1",
      "type" : "expand_dims",
      "name" : "fastspeech2\/encoder\/ffn_block_2\/multi_head_attention_add_on_2\/ExpandDims_1"
    },
    {
      "size_of_axes" : 1,
      "bottom" : "fastspeech2\/encoder\/ffn_block_2\/multi_head_attention_add_on_2\/split_1:0",
      "axes_0" : 1,
      "weights" : {

      },
      "nd_axis" : 0,
      "debug_info" : "",
      "top" : "fastspeech2\/encoder\/ffn_block_2\/multi_head_attention_add_on_2\/ExpandDims_2",
      "type" : "expand_dims",
      "name" : "fastspeech2\/encoder\/ffn_block_2\/multi_head_attention_add_on_2\/ExpandDims_2"
    },
    {
      "size_of_axes" : 1,
      "bottom" : "fastspeech2\/encoder\/ffn_block_2\/multi_head_attention_add_on_2\/split_1:1",
      "axes_0" : 1,
      "weights" : {

      },
      "nd_axis" : 0,
      "debug_info" : "",
      "top" : "fastspeech2\/encoder\/ffn_block_2\/multi_head_attention_add_on_2\/ExpandDims_3",
      "type" : "expand_dims",
      "name" : "fastspeech2\/encoder\/ffn_block_2\/multi_head_attention_add_on_2\/ExpandDims_3"
    },
    {
      "size_of_axes" : 1,
      "bottom" : "fastspeech2\/encoder\/ffn_block_2\/multi_head_attention_add_on_2\/split_2:0",
      "axes_0" : 1,
      "weights" : {

      },
      "nd_axis" : 0,
      "debug_info" : "",
      "top" : "fastspeech2\/encoder\/ffn_block_2\/multi_head_attention_add_on_2\/ExpandDims_4",
      "type" : "expand_dims",
      "name" : "fastspeech2\/encoder\/ffn_block_2\/multi_head_attention_add_on_2\/ExpandDims_4"
    },
    {
      "size_of_axes" : 1,
      "bottom" : "fastspeech2\/encoder\/ffn_block_2\/multi_head_attention_add_on_2\/split_2:1",
      "axes_0" : 1,
      "weights" : {

      },
      "nd_axis" : 0,
      "debug_info" : "",
      "top" : "fastspeech2\/encoder\/ffn_block_2\/multi_head_attention_add_on_2\/ExpandDims_5",
      "type" : "expand_dims",
      "name" : "fastspeech2\/encoder\/ffn_block_2\/multi_head_attention_add_on_2\/ExpandDims_5"
    },
    {
      "weights" : {

      },
      "debug_info" : "",
      "top" : "fastspeech2\/encoder\/ffn_block_2\/multi_head_attention_add_on_2\/concat",
      "type" : "concat",
      "name" : "fastspeech2\/encoder\/ffn_block_2\/multi_head_attention_add_on_2\/concat",
      "bottom" : "fastspeech2\/encoder\/ffn_block_2\/multi_head_attention_add_on_2\/ExpandDims,fastspeech2\/encoder\/ffn_block_2\/multi_head_attention_add_on_2\/ExpandDims_1"
    },
    {
      "weights" : {

      },
      "debug_info" : "",
      "top" : "fastspeech2\/encoder\/ffn_block_2\/multi_head_attention_add_on_2\/concat_1",
      "type" : "concat",
      "name" : "fastspeech2\/encoder\/ffn_block_2\/multi_head_attention_add_on_2\/concat_1",
      "bottom" : "fastspeech2\/encoder\/ffn_block_2\/multi_head_attention_add_on_2\/ExpandDims_2,fastspeech2\/encoder\/ffn_block_2\/multi_head_attention_add_on_2\/ExpandDims_3"
    },
    {
      "weights" : {

      },
      "debug_info" : "",
      "top" : "fastspeech2\/encoder\/ffn_block_2\/multi_head_attention_add_on_2\/concat_2",
      "type" : "concat",
      "name" : "fastspeech2\/encoder\/ffn_block_2\/multi_head_attention_add_on_2\/concat_2",
      "bottom" : "fastspeech2\/encoder\/ffn_block_2\/multi_head_attention_add_on_2\/ExpandDims_4,fastspeech2\/encoder\/ffn_block_2\/multi_head_attention_add_on_2\/ExpandDims_5"
    },
    {
      "bottom" : "fastspeech2\/encoder\/ffn_block_2\/multi_head_attention_add_on_2\/concat",
      "alpha" : 0.0625,
      "operation" : 1,
      "weights" : {

      },
      "fused_relu" : 0,
      "debug_info" : "",
      "top" : "fastspeech2\/encoder\/ffn_block_2\/multi_head_attention_add_on_2\/truediv",
      "type" : "elementwise",
      "name" : "fastspeech2\/encoder\/ffn_block_2\/multi_head_attention_add_on_2\/truediv",
      "beta" : 0
    },
    {
      "bottom" : "fastspeech2\/encoder\/ffn_block_2\/multi_head_attention_add_on_2\/truediv,fastspeech2\/encoder\/ffn_block_2\/multi_head_attention_add_on_2\/concat_1",
      "weights" : {

      },
      "transpose_y" : true,
      "debug_info" : "",
      "top" : "fastspeech2\/encoder\/ffn_block_2\/multi_head_attention_add_on_2\/MatMul_3",
      "type" : "batch_matmul",
      "name" : "fastspeech2\/encoder\/ffn_block_2\/multi_head_attention_add_on_2\/MatMul_3",
      "channel_mode" : false
    },
    {
      "bottom" : "fastspeech2\/encoder\/ffn_block_2\/multi_head_attention_add_on_2\/MatMul_3",
      "weights" : {

      },
      "nd_axis" : -1,
      "debug_info" : "",
      "top" : "fastspeech2\/encoder\/ffn_block_2\/multi_head_attention_add_on_2\/Softmax",
      "type" : "softmax_nd",
      "name" : "fastspeech2\/encoder\/ffn_block_2\/multi_head_attention_add_on_2\/Softmax"
    },
    {
      "bottom" : "fastspeech2\/encoder\/ffn_block_2\/multi_head_attention_add_on_2\/Softmax,fastspeech2\/encoder\/ffn_block_2\/multi_head_attention_add_on_2\/concat_2",
      "weights" : {

      },
      "debug_info" : "",
      "top" : "fastspeech2\/encoder\/ffn_block_2\/multi_head_attention_add_on_2\/MatMul_4",
      "type" : "batch_matmul",
      "name" : "fastspeech2\/encoder\/ffn_block_2\/multi_head_attention_add_on_2\/MatMul_4",
      "channel_mode" : false
    },
    {
      "axis_h" : 2,
      "axis_w" : 0,
      "bottom" : "fastspeech2\/encoder\/ffn_block_2\/multi_head_attention_add_on_2\/MatMul_4",
      "axis_k" : 1,
      "axis_n" : 3,
      "axis_seq" : 4,
      "weights" : {

      },
      "debug_info" : "",
      "top" : "fastspeech2\/encoder\/ffn_block_2\/multi_head_attention_add_on_2\/transpose_4",
      "type" : "transpose",
      "name" : "fastspeech2\/encoder\/ffn_block_2\/multi_head_attention_add_on_2\/transpose_4"
    },
    {
      "begin_104" : 0,
      "begin_63" : 0,
      "begin_59" : 0,
      "begin_64" : 0,
      "begin_105" : 0,
      "begin_65" : 0,
      "begin_0" : 0,
      "begin_70" : 0,
      "begin_66" : 0,
      "begin_106" : 0,
      "begin_110" : 0,
      "begin_2" : 0,
      "begin_71" : 0,
      "begin_67" : 0,
      "begin_68" : 0,
      "begin_107" : 0,
      "begin_111" : 0,
      "begin_4" : 0,
      "begin_72" : 0,
      "begin_73" : 0,
      "begin_69" : 0,
      "begin_6" : 0,
      "begin_74" : 0,
      "begin_108" : 0,
      "type" : "split_nd",
      "begin_8" : 0,
      "begin_112" : 0,
      "begin_75" : 0,
      "begin_10" : 0,
      "begin_80" : 0,
      "begin_76" : 0,
      "begin_109" : 0,
      "begin_113" : 0,
      "begin_11" : 0,
      "nd_axis" : 2,
      "begin_81" : 0,
      "begin_77" : 0,
      "begin_114" : 0,
      "begin_12" : 0,
      "begin_78" : 0,
      "begin_82" : 0,
      "begin_13" : 0,
      "begin_83" : 0,
      "begin_79" : 0,
      "begin_115" : 0,
      "begin_14" : 0,
      "begin_84" : 0,
      "begin_15" : 0,
      "begin_85" : 0,
      "begin_116" : 0,
      "begin_120" : 0,
      "begin_20" : 0,
      "begin_86" : 0,
      "begin_16" : 0,
      "begin_90" : 0,
      "begin_21" : 0,
      "begin_91" : 0,
      "begin_87" : 0,
      "begin_17" : 0,
      "begin_117" : 0,
      "begin_121" : 0,
      "begin_18" : 0,
      "begin_92" : 0,
      "begin_88" : 0,
      "begin_22" : 0,
      "begin_23" : 0,
      "begin_89" : 0,
      "begin_19" : 0,
      "begin_93" : 0,
      "begin_118" : 0,
      "begin_122" : 0,
      "begin_24" : 0,
      "begin_94" : 0,
      "begin_25" : 0,
      "begin_95" : 0,
      "begin_119" : 0,
      "begin_123" : 0,
      "begin_30" : 0,
      "begin_26" : 0,
      "begin_96" : 0,
      "begin_124" : 0,
      "begin_31" : 0,
      "begin_97" : 0,
      "begin_27" : 0,
      "begin_28" : 0,
      "begin_98" : 0,
      "begin_32" : 0,
      "begin_125" : 0,
      "begin_33" : 0,
      "begin_29" : 0,
      "begin_99" : 0,
      "begin_1" : 0,
      "weights" : {

      },
      "begin_34" : 0,
      "bottom" : "fastspeech2\/encoder\/ffn_block_2\/multi_head_attention_add_on_2\/transpose_4",
      "begin_3" : 0,
      "begin_126" : 0,
      "begin_35" : 0,
      "begin_5" : 0,
      "begin_36" : 0,
      "begin_40" : 0,
      "begin_127" : 0,
      "name" : "fastspeech2\/encoder\/ffn_block_2\/multi_head_attention_add_on_2\/split_3",
      "begin_41" : 0,
      "begin_37" : 0,
      "begin_7" : 0,
      "begin_42" : 0,
      "begin_38" : 0,
      "begin_9" : 0,
      "begin_39" : 0,
      "begin_43" : 0,
      "begin_44" : 0,
      "begin_45" : 0,
      "begin_50" : 0,
      "begin_46" : 0,
      "begin_51" : 0,
      "begin_47" : 0,
      "begin_100" : 0,
      "begin_52" : 0,
      "debug_info" : "",
      "begin_48" : 0,
      "top" : "fastspeech2\/encoder\/ffn_block_2\/multi_head_attention_add_on_2\/split_3:0,fastspeech2\/encoder\/ffn_block_2\/multi_head_attention_add_on_2\/split_3:1",
      "begin_101" : 0,
      "begin_53" : 0,
      "begin_49" : 0,
      "begin_54" : 0,
      "begin_55" : 0,
      "begin_102" : 0,
      "begin_60" : 0,
      "begin_56" : 0,
      "begin_103" : 0,
      "begin_57" : 0,
      "begin_61" : 0,
      "begin_62" : 0,
      "begin_58" : 0
    },
    {
      "size_of_axes" : 1,
      "bottom" : "fastspeech2\/encoder\/ffn_block_2\/multi_head_attention_add_on_2\/split_3:0",
      "axes_0" : 2,
      "weights" : {

      },
      "nd_axis" : 0,
      "debug_info" : "",
      "version" : 1,
      "top" : "fastspeech2\/encoder\/ffn_block_2\/multi_head_attention_add_on_2\/Squeeze",
      "type" : "squeeze",
      "name" : "fastspeech2\/encoder\/ffn_block_2\/multi_head_attention_add_on_2\/Squeeze"
    },
    {
      "size_of_axes" : 1,
      "bottom" : "fastspeech2\/encoder\/ffn_block_2\/multi_head_attention_add_on_2\/split_3:1",
      "axes_0" : 2,
      "weights" : {

      },
      "nd_axis" : 0,
      "debug_info" : "",
      "version" : 1,
      "top" : "fastspeech2\/encoder\/ffn_block_2\/multi_head_attention_add_on_2\/Squeeze_1",
      "type" : "squeeze",
      "name" : "fastspeech2\/encoder\/ffn_block_2\/multi_head_attention_add_on_2\/Squeeze_1"
    },
    {
      "bottom" : "fastspeech2\/encoder\/ffn_block_2\/multi_head_attention_add_on_2\/Squeeze,fastspeech2\/encoder\/ffn_block_2\/multi_head_attention_add_on_2\/Squeeze_1",
      "weights" : {

      },
      "nd_mode" : true,
      "axis" : 2,
      "debug_info" : "",
      "top" : "fastspeech2\/encoder\/ffn_block_2\/multi_head_attention_add_on_2\/concat_3",
      "type" : "general_concat",
      "name" : "fastspeech2\/encoder\/ffn_block_2\/multi_head_attention_add_on_2\/concat_3"
    },
    {
      "nB" : 512,
      "top" : "fastspeech2\/encoder\/ffn_block_2\/multi_head_attention_add_on_2\/add",
      "has_biases" : 1,
      "blob_weights_f16" : 77,
      "nC" : 256,
      "weights" : {

      },
      "type" : "inner_product",
      "has_relu" : 0,
      "bottom" : "fastspeech2\/encoder\/ffn_block_2\/multi_head_attention_add_on_2\/concat_3",
      "blob_biases" : 75,
      "has_tanh" : 0,
      "debug_info" : "",
      "name" : "fastspeech2\/encoder\/ffn_block_2\/multi_head_attention_add_on_2\/add",
      "has_prelu" : 0
    },
    {
      "bottom" : "fastspeech2\/encoder\/ffn_block_1\/layer_normalization_3\/batchnorm\/add_1,fastspeech2\/encoder\/ffn_block_2\/multi_head_attention_add_on_2\/add",
      "alpha" : 1,
      "operation" : 0,
      "weights" : {

      },
      "fused_relu" : 0,
      "debug_info" : "",
      "nd_mode" : true,
      "top" : "fastspeech2\/encoder\/ffn_block_2\/add",
      "type" : "elementwise",
      "name" : "fastspeech2\/encoder\/ffn_block_2\/add",
      "beta" : 0
    },
    {
      "bottom" : "fastspeech2\/encoder\/ffn_block_2\/add",
      "weights" : {
        "wBeta" : 79,
        "wGamma" : 81
      },
      "eps" : 9.9999999747524271e-07,
      "tf_layernorm" : 1,
      "debug_info" : "",
      "top" : "fastspeech2\/encoder\/ffn_block_2\/layer_normalization_4\/batchnorm\/add_1",
      "type" : "instancenorm_1d",
      "name" : "instancenorm_test"
    },
    {
      "size_of_axes" : 1,
      "bottom" : "fastspeech2\/encoder\/ffn_block_2\/layer_normalization_4\/batchnorm\/add_1",
      "axes_0" : -3,
      "weights" : {

      },
      "nd_axis" : 0,
      "debug_info" : "",
      "top" : "fastspeech2\/encoder\/ffn_block_2\/conv1d_5\/conv1d\/ExpandDims",
      "type" : "expand_dims",
      "name" : "fastspeech2\/encoder\/ffn_block_2\/conv1d_5\/conv1d\/ExpandDims"
    },
    {
      "axis_h" : 2,
      "axis_w" : 1,
      "bottom" : "fastspeech2\/encoder\/ffn_block_2\/conv1d_5\/conv1d\/ExpandDims",
      "axis_k" : 0,
      "axis_n" : 3,
      "axis_seq" : 4,
      "weights" : {

      },
      "debug_info" : "",
      "top" : "transpose_11",
      "type" : "transpose",
      "name" : "transpose_11"
    },
    {
      "pad_r" : 0,
      "fused_relu" : 0,
      "fused_tanh" : 0,
      "debug_info" : "",
      "pad_fill_mode" : 0,
      "pad_b" : 0,
      "pad_l" : 0,
      "top" : "transpose_13",
      "K" : 256,
      "blob_biases" : 83,
      "name" : "fastspeech2\/encoder\/ffn_block_2\/conv1d_5\/conv1dx",
      "has_batch_norm" : 0,
      "type" : "convolution",
      "n_groups" : 1,
      "pad_t" : 0,
      "has_biases" : 1,
      "C" : 1024,
      "bottom" : "transpose_11",
      "weights" : {

      },
      "Nx" : 9,
      "pad_mode" : 1,
      "pad_value" : 0,
      "Ny" : 1,
      "n_parallel" : 1,
      "blob_weights_f16" : 85,
      "fused_activation_mode" : 0
    },
    {
      "pad_r" : 0,
      "fused_relu" : 0,
      "fused_tanh" : 0,
      "debug_info" : "",
      "pad_fill_mode" : 0,
      "pad_b" : 0,
      "pad_l" : 0,
      "top" : "fastspeech2\/encoder\/ffn_block_2\/conv1d_6\/conv1dx",
      "K" : 1024,
      "blob_biases" : 87,
      "name" : "fastspeech2\/encoder\/ffn_block_2\/conv1d_6\/conv1dx",
      "has_batch_norm" : 0,
      "type" : "convolution",
      "n_groups" : 1,
      "pad_t" : 0,
      "has_biases" : 1,
      "C" : 256,
      "bottom" : "transpose_13",
      "weights" : {

      },
      "Nx" : 1,
      "pad_mode" : 1,
      "pad_value" : 0,
      "Ny" : 1,
      "n_parallel" : 1,
      "blob_weights_f16" : 89
    },
    {
      "axis_h" : 0,
      "axis_w" : 2,
      "bottom" : "fastspeech2\/encoder\/ffn_block_2\/conv1d_6\/conv1dx",
      "axis_k" : 1,
      "axis_n" : 3,
      "axis_seq" : 4,
      "weights" : {

      },
      "debug_info" : "",
      "top" : "fastspeech2\/encoder\/ffn_block_2\/conv1d_6\/conv1d",
      "type" : "transpose",
      "name" : "fastspeech2\/encoder\/ffn_block_2\/conv1d_6\/conv1d"
    },
    {
      "size_of_axes" : 1,
      "bottom" : "fastspeech2\/encoder\/ffn_block_2\/conv1d_6\/conv1d",
      "axes_0" : -3,
      "weights" : {

      },
      "nd_axis" : 0,
      "debug_info" : "",
      "version" : 1,
      "top" : "fastspeech2\/encoder\/ffn_block_2\/conv1d_6\/BiasAdd",
      "type" : "squeeze",
      "name" : "fastspeech2\/encoder\/ffn_block_2\/conv1d_6\/conv1d\/Squeeze"
    },
    {
      "bottom" : "fastspeech2\/encoder\/ffn_block_2\/layer_normalization_4\/batchnorm\/add_1,fastspeech2\/encoder\/ffn_block_2\/conv1d_6\/BiasAdd",
      "alpha" : 1,
      "operation" : 0,
      "weights" : {

      },
      "fused_relu" : 0,
      "debug_info" : "",
      "nd_mode" : true,
      "top" : "fastspeech2\/encoder\/ffn_block_2\/add_1",
      "type" : "elementwise",
      "name" : "fastspeech2\/encoder\/ffn_block_2\/add_1",
      "beta" : 0
    },
    {
      "bottom" : "fastspeech2\/encoder\/ffn_block_2\/add_1",
      "weights" : {
        "wBeta" : 91,
        "wGamma" : 93
      },
      "eps" : 9.9999999747524271e-07,
      "tf_layernorm" : 1,
      "debug_info" : "",
      "top" : "fastspeech2\/encoder\/ffn_block_2\/layer_normalization_5\/batchnorm\/add_1",
      "type" : "instancenorm_1d",
      "name" : "instancenorm_test"
    },
    {
      "nB" : 256,
      "top" : "fastspeech2\/encoder\/ffn_block_3\/multi_head_attention_add_on_3\/MatMul",
      "has_biases" : 0,
      "blob_weights_f16" : 95,
      "nC" : 512,
      "weights" : {

      },
      "type" : "inner_product",
      "has_relu" : 0,
      "bottom" : "fastspeech2\/encoder\/ffn_block_2\/layer_normalization_5\/batchnorm\/add_1",
      "debug_info" : "",
      "has_tanh" : 0,
      "nd_mode" : true,
      "name" : "fastspeech2\/encoder\/ffn_block_3\/multi_head_attention_add_on_3\/MatMul",
      "has_prelu" : 0
    },
    {
      "nB" : 256,
      "top" : "fastspeech2\/encoder\/ffn_block_3\/multi_head_attention_add_on_3\/MatMul_1",
      "has_biases" : 0,
      "blob_weights_f16" : 97,
      "nC" : 512,
      "weights" : {

      },
      "type" : "inner_product",
      "has_relu" : 0,
      "bottom" : "fastspeech2\/encoder\/ffn_block_2\/layer_normalization_5\/batchnorm\/add_1",
      "debug_info" : "",
      "has_tanh" : 0,
      "nd_mode" : true,
      "name" : "fastspeech2\/encoder\/ffn_block_3\/multi_head_attention_add_on_3\/MatMul_1",
      "has_prelu" : 0
    },
    {
      "nB" : 256,
      "top" : "fastspeech2\/encoder\/ffn_block_3\/multi_head_attention_add_on_3\/MatMul_2",
      "has_biases" : 0,
      "blob_weights_f16" : 99,
      "nC" : 512,
      "weights" : {

      },
      "type" : "inner_product",
      "has_relu" : 0,
      "bottom" : "fastspeech2\/encoder\/ffn_block_2\/layer_normalization_5\/batchnorm\/add_1",
      "debug_info" : "",
      "has_tanh" : 0,
      "nd_mode" : true,
      "name" : "fastspeech2\/encoder\/ffn_block_3\/multi_head_attention_add_on_3\/MatMul_2",
      "has_prelu" : 0
    },
    {
      "begin_104" : 0,
      "begin_63" : 0,
      "begin_59" : 0,
      "begin_64" : 0,
      "begin_105" : 0,
      "begin_65" : 0,
      "begin_0" : 0,
      "begin_70" : 0,
      "begin_66" : 0,
      "begin_106" : 0,
      "begin_110" : 0,
      "begin_2" : 0,
      "begin_71" : 0,
      "begin_67" : 0,
      "begin_68" : 0,
      "begin_107" : 0,
      "begin_111" : 0,
      "begin_4" : 0,
      "begin_72" : 0,
      "begin_73" : 0,
      "begin_69" : 0,
      "begin_6" : 0,
      "begin_74" : 0,
      "begin_108" : 0,
      "type" : "split_nd",
      "begin_8" : 0,
      "begin_112" : 0,
      "begin_75" : 0,
      "begin_10" : 0,
      "begin_80" : 0,
      "begin_76" : 0,
      "begin_109" : 0,
      "begin_113" : 0,
      "begin_11" : 0,
      "nd_axis" : 2,
      "begin_81" : 0,
      "begin_77" : 0,
      "begin_114" : 0,
      "begin_12" : 0,
      "begin_78" : 0,
      "begin_82" : 0,
      "begin_13" : 0,
      "begin_83" : 0,
      "begin_79" : 0,
      "begin_115" : 0,
      "begin_14" : 0,
      "begin_84" : 0,
      "begin_15" : 0,
      "begin_85" : 0,
      "begin_116" : 0,
      "begin_120" : 0,
      "begin_20" : 0,
      "begin_86" : 0,
      "begin_16" : 0,
      "begin_90" : 0,
      "begin_21" : 0,
      "begin_91" : 0,
      "begin_87" : 0,
      "begin_17" : 0,
      "begin_117" : 0,
      "begin_121" : 0,
      "begin_18" : 0,
      "begin_92" : 0,
      "begin_88" : 0,
      "begin_22" : 0,
      "begin_23" : 0,
      "begin_89" : 0,
      "begin_19" : 0,
      "begin_93" : 0,
      "begin_118" : 0,
      "begin_122" : 0,
      "begin_24" : 0,
      "begin_94" : 0,
      "begin_25" : 0,
      "begin_95" : 0,
      "begin_119" : 0,
      "begin_123" : 0,
      "begin_30" : 0,
      "begin_26" : 0,
      "begin_96" : 0,
      "begin_124" : 0,
      "begin_31" : 0,
      "begin_97" : 0,
      "begin_27" : 0,
      "begin_28" : 0,
      "begin_98" : 0,
      "begin_32" : 0,
      "begin_125" : 0,
      "begin_33" : 0,
      "begin_29" : 0,
      "begin_99" : 0,
      "begin_1" : 0,
      "weights" : {

      },
      "begin_34" : 0,
      "bottom" : "fastspeech2\/encoder\/ffn_block_3\/multi_head_attention_add_on_3\/MatMul",
      "begin_3" : 0,
      "begin_126" : 0,
      "begin_35" : 0,
      "begin_5" : 0,
      "begin_36" : 0,
      "begin_40" : 0,
      "begin_127" : 0,
      "name" : "fastspeech2\/encoder\/ffn_block_3\/multi_head_attention_add_on_3\/split",
      "begin_41" : 0,
      "begin_37" : 0,
      "begin_7" : 0,
      "begin_42" : 0,
      "begin_38" : 0,
      "begin_9" : 0,
      "begin_39" : 0,
      "begin_43" : 0,
      "begin_44" : 0,
      "begin_45" : 0,
      "begin_50" : 0,
      "begin_46" : 0,
      "begin_51" : 0,
      "begin_47" : 0,
      "begin_100" : 0,
      "begin_52" : 0,
      "debug_info" : "",
      "begin_48" : 0,
      "top" : "fastspeech2\/encoder\/ffn_block_3\/multi_head_attention_add_on_3\/split:0,fastspeech2\/encoder\/ffn_block_3\/multi_head_attention_add_on_3\/split:1",
      "begin_101" : 0,
      "begin_53" : 0,
      "begin_49" : 0,
      "begin_54" : 0,
      "begin_55" : 0,
      "begin_102" : 0,
      "begin_60" : 0,
      "begin_56" : 0,
      "begin_103" : 0,
      "begin_57" : 0,
      "begin_61" : 0,
      "begin_62" : 0,
      "begin_58" : 0
    },
    {
      "begin_104" : 0,
      "begin_63" : 0,
      "begin_59" : 0,
      "begin_64" : 0,
      "begin_105" : 0,
      "begin_65" : 0,
      "begin_0" : 0,
      "begin_70" : 0,
      "begin_66" : 0,
      "begin_106" : 0,
      "begin_110" : 0,
      "begin_2" : 0,
      "begin_71" : 0,
      "begin_67" : 0,
      "begin_68" : 0,
      "begin_107" : 0,
      "begin_111" : 0,
      "begin_4" : 0,
      "begin_72" : 0,
      "begin_73" : 0,
      "begin_69" : 0,
      "begin_6" : 0,
      "begin_74" : 0,
      "begin_108" : 0,
      "type" : "split_nd",
      "begin_8" : 0,
      "begin_112" : 0,
      "begin_75" : 0,
      "begin_10" : 0,
      "begin_80" : 0,
      "begin_76" : 0,
      "begin_109" : 0,
      "begin_113" : 0,
      "begin_11" : 0,
      "nd_axis" : 2,
      "begin_81" : 0,
      "begin_77" : 0,
      "begin_114" : 0,
      "begin_12" : 0,
      "begin_78" : 0,
      "begin_82" : 0,
      "begin_13" : 0,
      "begin_83" : 0,
      "begin_79" : 0,
      "begin_115" : 0,
      "begin_14" : 0,
      "begin_84" : 0,
      "begin_15" : 0,
      "begin_85" : 0,
      "begin_116" : 0,
      "begin_120" : 0,
      "begin_20" : 0,
      "begin_86" : 0,
      "begin_16" : 0,
      "begin_90" : 0,
      "begin_21" : 0,
      "begin_91" : 0,
      "begin_87" : 0,
      "begin_17" : 0,
      "begin_117" : 0,
      "begin_121" : 0,
      "begin_18" : 0,
      "begin_92" : 0,
      "begin_88" : 0,
      "begin_22" : 0,
      "begin_23" : 0,
      "begin_89" : 0,
      "begin_19" : 0,
      "begin_93" : 0,
      "begin_118" : 0,
      "begin_122" : 0,
      "begin_24" : 0,
      "begin_94" : 0,
      "begin_25" : 0,
      "begin_95" : 0,
      "begin_119" : 0,
      "begin_123" : 0,
      "begin_30" : 0,
      "begin_26" : 0,
      "begin_96" : 0,
      "begin_124" : 0,
      "begin_31" : 0,
      "begin_97" : 0,
      "begin_27" : 0,
      "begin_28" : 0,
      "begin_98" : 0,
      "begin_32" : 0,
      "begin_125" : 0,
      "begin_33" : 0,
      "begin_29" : 0,
      "begin_99" : 0,
      "begin_1" : 0,
      "weights" : {

      },
      "begin_34" : 0,
      "bottom" : "fastspeech2\/encoder\/ffn_block_3\/multi_head_attention_add_on_3\/MatMul_1",
      "begin_3" : 0,
      "begin_126" : 0,
      "begin_35" : 0,
      "begin_5" : 0,
      "begin_36" : 0,
      "begin_40" : 0,
      "begin_127" : 0,
      "name" : "fastspeech2\/encoder\/ffn_block_3\/multi_head_attention_add_on_3\/split_1",
      "begin_41" : 0,
      "begin_37" : 0,
      "begin_7" : 0,
      "begin_42" : 0,
      "begin_38" : 0,
      "begin_9" : 0,
      "begin_39" : 0,
      "begin_43" : 0,
      "begin_44" : 0,
      "begin_45" : 0,
      "begin_50" : 0,
      "begin_46" : 0,
      "begin_51" : 0,
      "begin_47" : 0,
      "begin_100" : 0,
      "begin_52" : 0,
      "debug_info" : "",
      "begin_48" : 0,
      "top" : "fastspeech2\/encoder\/ffn_block_3\/multi_head_attention_add_on_3\/split_1:0,fastspeech2\/encoder\/ffn_block_3\/multi_head_attention_add_on_3\/split_1:1",
      "begin_101" : 0,
      "begin_53" : 0,
      "begin_49" : 0,
      "begin_54" : 0,
      "begin_55" : 0,
      "begin_102" : 0,
      "begin_60" : 0,
      "begin_56" : 0,
      "begin_103" : 0,
      "begin_57" : 0,
      "begin_61" : 0,
      "begin_62" : 0,
      "begin_58" : 0
    },
    {
      "begin_104" : 0,
      "begin_63" : 0,
      "begin_59" : 0,
      "begin_64" : 0,
      "begin_105" : 0,
      "begin_65" : 0,
      "begin_0" : 0,
      "begin_70" : 0,
      "begin_66" : 0,
      "begin_106" : 0,
      "begin_110" : 0,
      "begin_2" : 0,
      "begin_71" : 0,
      "begin_67" : 0,
      "begin_68" : 0,
      "begin_107" : 0,
      "begin_111" : 0,
      "begin_4" : 0,
      "begin_72" : 0,
      "begin_73" : 0,
      "begin_69" : 0,
      "begin_6" : 0,
      "begin_74" : 0,
      "begin_108" : 0,
      "type" : "split_nd",
      "begin_8" : 0,
      "begin_112" : 0,
      "begin_75" : 0,
      "begin_10" : 0,
      "begin_80" : 0,
      "begin_76" : 0,
      "begin_109" : 0,
      "begin_113" : 0,
      "begin_11" : 0,
      "nd_axis" : 2,
      "begin_81" : 0,
      "begin_77" : 0,
      "begin_114" : 0,
      "begin_12" : 0,
      "begin_78" : 0,
      "begin_82" : 0,
      "begin_13" : 0,
      "begin_83" : 0,
      "begin_79" : 0,
      "begin_115" : 0,
      "begin_14" : 0,
      "begin_84" : 0,
      "begin_15" : 0,
      "begin_85" : 0,
      "begin_116" : 0,
      "begin_120" : 0,
      "begin_20" : 0,
      "begin_86" : 0,
      "begin_16" : 0,
      "begin_90" : 0,
      "begin_21" : 0,
      "begin_91" : 0,
      "begin_87" : 0,
      "begin_17" : 0,
      "begin_117" : 0,
      "begin_121" : 0,
      "begin_18" : 0,
      "begin_92" : 0,
      "begin_88" : 0,
      "begin_22" : 0,
      "begin_23" : 0,
      "begin_89" : 0,
      "begin_19" : 0,
      "begin_93" : 0,
      "begin_118" : 0,
      "begin_122" : 0,
      "begin_24" : 0,
      "begin_94" : 0,
      "begin_25" : 0,
      "begin_95" : 0,
      "begin_119" : 0,
      "begin_123" : 0,
      "begin_30" : 0,
      "begin_26" : 0,
      "begin_96" : 0,
      "begin_124" : 0,
      "begin_31" : 0,
      "begin_97" : 0,
      "begin_27" : 0,
      "begin_28" : 0,
      "begin_98" : 0,
      "begin_32" : 0,
      "begin_125" : 0,
      "begin_33" : 0,
      "begin_29" : 0,
      "begin_99" : 0,
      "begin_1" : 0,
      "weights" : {

      },
      "begin_34" : 0,
      "bottom" : "fastspeech2\/encoder\/ffn_block_3\/multi_head_attention_add_on_3\/MatMul_2",
      "begin_3" : 0,
      "begin_126" : 0,
      "begin_35" : 0,
      "begin_5" : 0,
      "begin_36" : 0,
      "begin_40" : 0,
      "begin_127" : 0,
      "name" : "fastspeech2\/encoder\/ffn_block_3\/multi_head_attention_add_on_3\/split_2",
      "begin_41" : 0,
      "begin_37" : 0,
      "begin_7" : 0,
      "begin_42" : 0,
      "begin_38" : 0,
      "begin_9" : 0,
      "begin_39" : 0,
      "begin_43" : 0,
      "begin_44" : 0,
      "begin_45" : 0,
      "begin_50" : 0,
      "begin_46" : 0,
      "begin_51" : 0,
      "begin_47" : 0,
      "begin_100" : 0,
      "begin_52" : 0,
      "debug_info" : "",
      "begin_48" : 0,
      "top" : "fastspeech2\/encoder\/ffn_block_3\/multi_head_attention_add_on_3\/split_2:0,fastspeech2\/encoder\/ffn_block_3\/multi_head_attention_add_on_3\/split_2:1",
      "begin_101" : 0,
      "begin_53" : 0,
      "begin_49" : 0,
      "begin_54" : 0,
      "begin_55" : 0,
      "begin_102" : 0,
      "begin_60" : 0,
      "begin_56" : 0,
      "begin_103" : 0,
      "begin_57" : 0,
      "begin_61" : 0,
      "begin_62" : 0,
      "begin_58" : 0
    },
    {
      "size_of_axes" : 1,
      "bottom" : "fastspeech2\/encoder\/ffn_block_3\/multi_head_attention_add_on_3\/split:0",
      "axes_0" : 1,
      "weights" : {

      },
      "nd_axis" : 0,
      "debug_info" : "",
      "top" : "fastspeech2\/encoder\/ffn_block_3\/multi_head_attention_add_on_3\/ExpandDims",
      "type" : "expand_dims",
      "name" : "fastspeech2\/encoder\/ffn_block_3\/multi_head_attention_add_on_3\/ExpandDims"
    },
    {
      "size_of_axes" : 1,
      "bottom" : "fastspeech2\/encoder\/ffn_block_3\/multi_head_attention_add_on_3\/split:1",
      "axes_0" : 1,
      "weights" : {

      },
      "nd_axis" : 0,
      "debug_info" : "",
      "top" : "fastspeech2\/encoder\/ffn_block_3\/multi_head_attention_add_on_3\/ExpandDims_1",
      "type" : "expand_dims",
      "name" : "fastspeech2\/encoder\/ffn_block_3\/multi_head_attention_add_on_3\/ExpandDims_1"
    },
    {
      "size_of_axes" : 1,
      "bottom" : "fastspeech2\/encoder\/ffn_block_3\/multi_head_attention_add_on_3\/split_1:0",
      "axes_0" : 1,
      "weights" : {

      },
      "nd_axis" : 0,
      "debug_info" : "",
      "top" : "fastspeech2\/encoder\/ffn_block_3\/multi_head_attention_add_on_3\/ExpandDims_2",
      "type" : "expand_dims",
      "name" : "fastspeech2\/encoder\/ffn_block_3\/multi_head_attention_add_on_3\/ExpandDims_2"
    },
    {
      "size_of_axes" : 1,
      "bottom" : "fastspeech2\/encoder\/ffn_block_3\/multi_head_attention_add_on_3\/split_1:1",
      "axes_0" : 1,
      "weights" : {

      },
      "nd_axis" : 0,
      "debug_info" : "",
      "top" : "fastspeech2\/encoder\/ffn_block_3\/multi_head_attention_add_on_3\/ExpandDims_3",
      "type" : "expand_dims",
      "name" : "fastspeech2\/encoder\/ffn_block_3\/multi_head_attention_add_on_3\/ExpandDims_3"
    },
    {
      "size_of_axes" : 1,
      "bottom" : "fastspeech2\/encoder\/ffn_block_3\/multi_head_attention_add_on_3\/split_2:0",
      "axes_0" : 1,
      "weights" : {

      },
      "nd_axis" : 0,
      "debug_info" : "",
      "top" : "fastspeech2\/encoder\/ffn_block_3\/multi_head_attention_add_on_3\/ExpandDims_4",
      "type" : "expand_dims",
      "name" : "fastspeech2\/encoder\/ffn_block_3\/multi_head_attention_add_on_3\/ExpandDims_4"
    },
    {
      "size_of_axes" : 1,
      "bottom" : "fastspeech2\/encoder\/ffn_block_3\/multi_head_attention_add_on_3\/split_2:1",
      "axes_0" : 1,
      "weights" : {

      },
      "nd_axis" : 0,
      "debug_info" : "",
      "top" : "fastspeech2\/encoder\/ffn_block_3\/multi_head_attention_add_on_3\/ExpandDims_5",
      "type" : "expand_dims",
      "name" : "fastspeech2\/encoder\/ffn_block_3\/multi_head_attention_add_on_3\/ExpandDims_5"
    },
    {
      "weights" : {

      },
      "debug_info" : "",
      "top" : "fastspeech2\/encoder\/ffn_block_3\/multi_head_attention_add_on_3\/concat",
      "type" : "concat",
      "name" : "fastspeech2\/encoder\/ffn_block_3\/multi_head_attention_add_on_3\/concat",
      "bottom" : "fastspeech2\/encoder\/ffn_block_3\/multi_head_attention_add_on_3\/ExpandDims,fastspeech2\/encoder\/ffn_block_3\/multi_head_attention_add_on_3\/ExpandDims_1"
    },
    {
      "weights" : {

      },
      "debug_info" : "",
      "top" : "fastspeech2\/encoder\/ffn_block_3\/multi_head_attention_add_on_3\/concat_1",
      "type" : "concat",
      "name" : "fastspeech2\/encoder\/ffn_block_3\/multi_head_attention_add_on_3\/concat_1",
      "bottom" : "fastspeech2\/encoder\/ffn_block_3\/multi_head_attention_add_on_3\/ExpandDims_2,fastspeech2\/encoder\/ffn_block_3\/multi_head_attention_add_on_3\/ExpandDims_3"
    },
    {
      "weights" : {

      },
      "debug_info" : "",
      "top" : "fastspeech2\/encoder\/ffn_block_3\/multi_head_attention_add_on_3\/concat_2",
      "type" : "concat",
      "name" : "fastspeech2\/encoder\/ffn_block_3\/multi_head_attention_add_on_3\/concat_2",
      "bottom" : "fastspeech2\/encoder\/ffn_block_3\/multi_head_attention_add_on_3\/ExpandDims_4,fastspeech2\/encoder\/ffn_block_3\/multi_head_attention_add_on_3\/ExpandDims_5"
    },
    {
      "bottom" : "fastspeech2\/encoder\/ffn_block_3\/multi_head_attention_add_on_3\/concat",
      "alpha" : 0.0625,
      "operation" : 1,
      "weights" : {

      },
      "fused_relu" : 0,
      "debug_info" : "",
      "top" : "fastspeech2\/encoder\/ffn_block_3\/multi_head_attention_add_on_3\/truediv",
      "type" : "elementwise",
      "name" : "fastspeech2\/encoder\/ffn_block_3\/multi_head_attention_add_on_3\/truediv",
      "beta" : 0
    },
    {
      "bottom" : "fastspeech2\/encoder\/ffn_block_3\/multi_head_attention_add_on_3\/truediv,fastspeech2\/encoder\/ffn_block_3\/multi_head_attention_add_on_3\/concat_1",
      "weights" : {

      },
      "transpose_y" : true,
      "debug_info" : "",
      "top" : "fastspeech2\/encoder\/ffn_block_3\/multi_head_attention_add_on_3\/MatMul_3",
      "type" : "batch_matmul",
      "name" : "fastspeech2\/encoder\/ffn_block_3\/multi_head_attention_add_on_3\/MatMul_3",
      "channel_mode" : false
    },
    {
      "bottom" : "fastspeech2\/encoder\/ffn_block_3\/multi_head_attention_add_on_3\/MatMul_3",
      "weights" : {

      },
      "nd_axis" : -1,
      "debug_info" : "",
      "top" : "fastspeech2\/encoder\/ffn_block_3\/multi_head_attention_add_on_3\/Softmax",
      "type" : "softmax_nd",
      "name" : "fastspeech2\/encoder\/ffn_block_3\/multi_head_attention_add_on_3\/Softmax"
    },
    {
      "bottom" : "fastspeech2\/encoder\/ffn_block_3\/multi_head_attention_add_on_3\/Softmax,fastspeech2\/encoder\/ffn_block_3\/multi_head_attention_add_on_3\/concat_2",
      "weights" : {

      },
      "debug_info" : "",
      "top" : "fastspeech2\/encoder\/ffn_block_3\/multi_head_attention_add_on_3\/MatMul_4",
      "type" : "batch_matmul",
      "name" : "fastspeech2\/encoder\/ffn_block_3\/multi_head_attention_add_on_3\/MatMul_4",
      "channel_mode" : false
    },
    {
      "axis_h" : 2,
      "axis_w" : 0,
      "bottom" : "fastspeech2\/encoder\/ffn_block_3\/multi_head_attention_add_on_3\/MatMul_4",
      "axis_k" : 1,
      "axis_n" : 3,
      "axis_seq" : 4,
      "weights" : {

      },
      "debug_info" : "",
      "top" : "fastspeech2\/encoder\/ffn_block_3\/multi_head_attention_add_on_3\/transpose_4",
      "type" : "transpose",
      "name" : "fastspeech2\/encoder\/ffn_block_3\/multi_head_attention_add_on_3\/transpose_4"
    },
    {
      "begin_104" : 0,
      "begin_63" : 0,
      "begin_59" : 0,
      "begin_64" : 0,
      "begin_105" : 0,
      "begin_65" : 0,
      "begin_0" : 0,
      "begin_70" : 0,
      "begin_66" : 0,
      "begin_106" : 0,
      "begin_110" : 0,
      "begin_2" : 0,
      "begin_71" : 0,
      "begin_67" : 0,
      "begin_68" : 0,
      "begin_107" : 0,
      "begin_111" : 0,
      "begin_4" : 0,
      "begin_72" : 0,
      "begin_73" : 0,
      "begin_69" : 0,
      "begin_6" : 0,
      "begin_74" : 0,
      "begin_108" : 0,
      "type" : "split_nd",
      "begin_8" : 0,
      "begin_112" : 0,
      "begin_75" : 0,
      "begin_10" : 0,
      "begin_80" : 0,
      "begin_76" : 0,
      "begin_109" : 0,
      "begin_113" : 0,
      "begin_11" : 0,
      "nd_axis" : 2,
      "begin_81" : 0,
      "begin_77" : 0,
      "begin_114" : 0,
      "begin_12" : 0,
      "begin_78" : 0,
      "begin_82" : 0,
      "begin_13" : 0,
      "begin_83" : 0,
      "begin_79" : 0,
      "begin_115" : 0,
      "begin_14" : 0,
      "begin_84" : 0,
      "begin_15" : 0,
      "begin_85" : 0,
      "begin_116" : 0,
      "begin_120" : 0,
      "begin_20" : 0,
      "begin_86" : 0,
      "begin_16" : 0,
      "begin_90" : 0,
      "begin_21" : 0,
      "begin_91" : 0,
      "begin_87" : 0,
      "begin_17" : 0,
      "begin_117" : 0,
      "begin_121" : 0,
      "begin_18" : 0,
      "begin_92" : 0,
      "begin_88" : 0,
      "begin_22" : 0,
      "begin_23" : 0,
      "begin_89" : 0,
      "begin_19" : 0,
      "begin_93" : 0,
      "begin_118" : 0,
      "begin_122" : 0,
      "begin_24" : 0,
      "begin_94" : 0,
      "begin_25" : 0,
      "begin_95" : 0,
      "begin_119" : 0,
      "begin_123" : 0,
      "begin_30" : 0,
      "begin_26" : 0,
      "begin_96" : 0,
      "begin_124" : 0,
      "begin_31" : 0,
      "begin_97" : 0,
      "begin_27" : 0,
      "begin_28" : 0,
      "begin_98" : 0,
      "begin_32" : 0,
      "begin_125" : 0,
      "begin_33" : 0,
      "begin_29" : 0,
      "begin_99" : 0,
      "begin_1" : 0,
      "weights" : {

      },
      "begin_34" : 0,
      "bottom" : "fastspeech2\/encoder\/ffn_block_3\/multi_head_attention_add_on_3\/transpose_4",
      "begin_3" : 0,
      "begin_126" : 0,
      "begin_35" : 0,
      "begin_5" : 0,
      "begin_36" : 0,
      "begin_40" : 0,
      "begin_127" : 0,
      "name" : "fastspeech2\/encoder\/ffn_block_3\/multi_head_attention_add_on_3\/split_3",
      "begin_41" : 0,
      "begin_37" : 0,
      "begin_7" : 0,
      "begin_42" : 0,
      "begin_38" : 0,
      "begin_9" : 0,
      "begin_39" : 0,
      "begin_43" : 0,
      "begin_44" : 0,
      "begin_45" : 0,
      "begin_50" : 0,
      "begin_46" : 0,
      "begin_51" : 0,
      "begin_47" : 0,
      "begin_100" : 0,
      "begin_52" : 0,
      "debug_info" : "",
      "begin_48" : 0,
      "top" : "fastspeech2\/encoder\/ffn_block_3\/multi_head_attention_add_on_3\/split_3:0,fastspeech2\/encoder\/ffn_block_3\/multi_head_attention_add_on_3\/split_3:1",
      "begin_101" : 0,
      "begin_53" : 0,
      "begin_49" : 0,
      "begin_54" : 0,
      "begin_55" : 0,
      "begin_102" : 0,
      "begin_60" : 0,
      "begin_56" : 0,
      "begin_103" : 0,
      "begin_57" : 0,
      "begin_61" : 0,
      "begin_62" : 0,
      "begin_58" : 0
    },
    {
      "size_of_axes" : 1,
      "bottom" : "fastspeech2\/encoder\/ffn_block_3\/multi_head_attention_add_on_3\/split_3:0",
      "axes_0" : 2,
      "weights" : {

      },
      "nd_axis" : 0,
      "debug_info" : "",
      "version" : 1,
      "top" : "fastspeech2\/encoder\/ffn_block_3\/multi_head_attention_add_on_3\/Squeeze",
      "type" : "squeeze",
      "name" : "fastspeech2\/encoder\/ffn_block_3\/multi_head_attention_add_on_3\/Squeeze"
    },
    {
      "size_of_axes" : 1,
      "bottom" : "fastspeech2\/encoder\/ffn_block_3\/multi_head_attention_add_on_3\/split_3:1",
      "axes_0" : 2,
      "weights" : {

      },
      "nd_axis" : 0,
      "debug_info" : "",
      "version" : 1,
      "top" : "fastspeech2\/encoder\/ffn_block_3\/multi_head_attention_add_on_3\/Squeeze_1",
      "type" : "squeeze",
      "name" : "fastspeech2\/encoder\/ffn_block_3\/multi_head_attention_add_on_3\/Squeeze_1"
    },
    {
      "bottom" : "fastspeech2\/encoder\/ffn_block_3\/multi_head_attention_add_on_3\/Squeeze,fastspeech2\/encoder\/ffn_block_3\/multi_head_attention_add_on_3\/Squeeze_1",
      "weights" : {

      },
      "nd_mode" : true,
      "axis" : 2,
      "debug_info" : "",
      "top" : "fastspeech2\/encoder\/ffn_block_3\/multi_head_attention_add_on_3\/concat_3",
      "type" : "general_concat",
      "name" : "fastspeech2\/encoder\/ffn_block_3\/multi_head_attention_add_on_3\/concat_3"
    },
    {
      "nB" : 512,
      "top" : "fastspeech2\/encoder\/ffn_block_3\/multi_head_attention_add_on_3\/add",
      "has_biases" : 1,
      "blob_weights_f16" : 103,
      "nC" : 256,
      "weights" : {

      },
      "type" : "inner_product",
      "has_relu" : 0,
      "bottom" : "fastspeech2\/encoder\/ffn_block_3\/multi_head_attention_add_on_3\/concat_3",
      "blob_biases" : 101,
      "has_tanh" : 0,
      "debug_info" : "",
      "name" : "fastspeech2\/encoder\/ffn_block_3\/multi_head_attention_add_on_3\/add",
      "has_prelu" : 0
    },
    {
      "bottom" : "fastspeech2\/encoder\/ffn_block_2\/layer_normalization_5\/batchnorm\/add_1,fastspeech2\/encoder\/ffn_block_3\/multi_head_attention_add_on_3\/add",
      "alpha" : 1,
      "operation" : 0,
      "weights" : {

      },
      "fused_relu" : 0,
      "debug_info" : "",
      "nd_mode" : true,
      "top" : "fastspeech2\/encoder\/ffn_block_3\/add",
      "type" : "elementwise",
      "name" : "fastspeech2\/encoder\/ffn_block_3\/add",
      "beta" : 0
    },
    {
      "bottom" : "fastspeech2\/encoder\/ffn_block_3\/add",
      "weights" : {
        "wBeta" : 105,
        "wGamma" : 107
      },
      "eps" : 9.9999999747524271e-07,
      "tf_layernorm" : 1,
      "debug_info" : "",
      "top" : "fastspeech2\/encoder\/ffn_block_3\/layer_normalization_6\/batchnorm\/add_1",
      "type" : "instancenorm_1d",
      "name" : "instancenorm_test"
    },
    {
      "size_of_axes" : 1,
      "bottom" : "fastspeech2\/encoder\/ffn_block_3\/layer_normalization_6\/batchnorm\/add_1",
      "axes_0" : -3,
      "weights" : {

      },
      "nd_axis" : 0,
      "debug_info" : "",
      "top" : "fastspeech2\/encoder\/ffn_block_3\/conv1d_7\/conv1d\/ExpandDims",
      "type" : "expand_dims",
      "name" : "fastspeech2\/encoder\/ffn_block_3\/conv1d_7\/conv1d\/ExpandDims"
    },
    {
      "axis_h" : 2,
      "axis_w" : 1,
      "bottom" : "fastspeech2\/encoder\/ffn_block_3\/conv1d_7\/conv1d\/ExpandDims",
      "axis_k" : 0,
      "axis_n" : 3,
      "axis_seq" : 4,
      "weights" : {

      },
      "debug_info" : "",
      "top" : "transpose_15",
      "type" : "transpose",
      "name" : "transpose_15"
    },
    {
      "pad_r" : 0,
      "fused_relu" : 0,
      "fused_tanh" : 0,
      "debug_info" : "",
      "pad_fill_mode" : 0,
      "pad_b" : 0,
      "pad_l" : 0,
      "top" : "transpose_17",
      "K" : 256,
      "blob_biases" : 109,
      "name" : "fastspeech2\/encoder\/ffn_block_3\/conv1d_7\/conv1dx",
      "has_batch_norm" : 0,
      "type" : "convolution",
      "n_groups" : 1,
      "pad_t" : 0,
      "has_biases" : 1,
      "C" : 1024,
      "bottom" : "transpose_15",
      "weights" : {

      },
      "Nx" : 9,
      "pad_mode" : 1,
      "pad_value" : 0,
      "Ny" : 1,
      "n_parallel" : 1,
      "blob_weights_f16" : 111,
      "fused_activation_mode" : 0
    },
    {
      "pad_r" : 0,
      "fused_relu" : 0,
      "fused_tanh" : 0,
      "debug_info" : "",
      "pad_fill_mode" : 0,
      "pad_b" : 0,
      "pad_l" : 0,
      "top" : "fastspeech2\/encoder\/ffn_block_3\/conv1d_8\/conv1dx",
      "K" : 1024,
      "blob_biases" : 113,
      "name" : "fastspeech2\/encoder\/ffn_block_3\/conv1d_8\/conv1dx",
      "has_batch_norm" : 0,
      "type" : "convolution",
      "n_groups" : 1,
      "pad_t" : 0,
      "has_biases" : 1,
      "C" : 256,
      "bottom" : "transpose_17",
      "weights" : {

      },
      "Nx" : 1,
      "pad_mode" : 1,
      "pad_value" : 0,
      "Ny" : 1,
      "n_parallel" : 1,
      "blob_weights_f16" : 115
    },
    {
      "axis_h" : 0,
      "axis_w" : 2,
      "bottom" : "fastspeech2\/encoder\/ffn_block_3\/conv1d_8\/conv1dx",
      "axis_k" : 1,
      "axis_n" : 3,
      "axis_seq" : 4,
      "weights" : {

      },
      "debug_info" : "",
      "top" : "fastspeech2\/encoder\/ffn_block_3\/conv1d_8\/conv1d",
      "type" : "transpose",
      "name" : "fastspeech2\/encoder\/ffn_block_3\/conv1d_8\/conv1d"
    },
    {
      "size_of_axes" : 1,
      "bottom" : "fastspeech2\/encoder\/ffn_block_3\/conv1d_8\/conv1d",
      "axes_0" : -3,
      "weights" : {

      },
      "nd_axis" : 0,
      "debug_info" : "",
      "version" : 1,
      "top" : "fastspeech2\/encoder\/ffn_block_3\/conv1d_8\/BiasAdd",
      "type" : "squeeze",
      "name" : "fastspeech2\/encoder\/ffn_block_3\/conv1d_8\/conv1d\/Squeeze"
    },
    {
      "bottom" : "fastspeech2\/encoder\/ffn_block_3\/layer_normalization_6\/batchnorm\/add_1,fastspeech2\/encoder\/ffn_block_3\/conv1d_8\/BiasAdd",
      "alpha" : 1,
      "operation" : 0,
      "weights" : {

      },
      "fused_relu" : 0,
      "debug_info" : "",
      "nd_mode" : true,
      "top" : "fastspeech2\/encoder\/ffn_block_3\/add_1",
      "type" : "elementwise",
      "name" : "fastspeech2\/encoder\/ffn_block_3\/add_1",
      "beta" : 0
    },
    {
      "bottom" : "fastspeech2\/encoder\/ffn_block_3\/add_1",
      "weights" : {
        "wBeta" : 117,
        "wGamma" : 119
      },
      "eps" : 9.9999999747524271e-07,
      "tf_layernorm" : 1,
      "debug_info" : "",
      "top" : "fastspeech2\/encoder\/ffn_block_3\/layer_normalization_7\/batchnorm\/add_1",
      "type" : "instancenorm_1d",
      "name" : "instancenorm_test"
    },
    {
      "size_of_axes" : 1,
      "bottom" : "fastspeech2\/encoder\/ffn_block_3\/layer_normalization_7\/batchnorm\/add_1",
      "axes_0" : -3,
      "weights" : {

      },
      "nd_axis" : 0,
      "debug_info" : "",
      "top" : "fastspeech2\/variance_adaptor\/conv1d_9\/conv1d\/ExpandDims",
      "type" : "expand_dims",
      "name" : "fastspeech2\/variance_adaptor\/conv1d_9\/conv1d\/ExpandDims"
    },
    {
      "axis_h" : 2,
      "axis_w" : 1,
      "bottom" : "fastspeech2\/variance_adaptor\/conv1d_9\/conv1d\/ExpandDims",
      "axis_k" : 0,
      "axis_n" : 3,
      "axis_seq" : 4,
      "weights" : {

      },
      "debug_info" : "",
      "top" : "transpose_19",
      "type" : "transpose",
      "name" : "transpose_19"
    },
    {
      "pad_r" : 0,
      "fused_relu" : 0,
      "fused_tanh" : 0,
      "debug_info" : "",
      "pad_fill_mode" : 0,
      "pad_b" : 0,
      "pad_l" : 0,
      "top" : "fastspeech2\/variance_adaptor\/conv1d_9\/conv1dx",
      "K" : 256,
      "blob_biases" : 121,
      "name" : "fastspeech2\/variance_adaptor\/conv1d_9\/conv1dx",
      "has_batch_norm" : 0,
      "type" : "convolution",
      "n_groups" : 1,
      "pad_t" : 0,
      "has_biases" : 1,
      "C" : 256,
      "bottom" : "transpose_19",
      "weights" : {

      },
      "Nx" : 3,
      "pad_mode" : 1,
      "pad_value" : 0,
      "Ny" : 1,
      "n_parallel" : 1,
      "blob_weights_f16" : 123,
      "fused_activation_mode" : 0
    },
    {
      "axis_h" : 0,
      "axis_w" : 2,
      "bottom" : "fastspeech2\/variance_adaptor\/conv1d_9\/conv1dx",
      "axis_k" : 1,
      "axis_n" : 3,
      "axis_seq" : 4,
      "weights" : {

      },
      "debug_info" : "",
      "top" : "fastspeech2\/variance_adaptor\/conv1d_9\/conv1d",
      "type" : "transpose",
      "name" : "fastspeech2\/variance_adaptor\/conv1d_9\/conv1d"
    },
    {
      "size_of_axes" : 1,
      "bottom" : "fastspeech2\/variance_adaptor\/conv1d_9\/conv1d",
      "axes_0" : -3,
      "weights" : {

      },
      "nd_axis" : 0,
      "debug_info" : "",
      "version" : 1,
      "top" : "fastspeech2\/variance_adaptor\/conv1d_9\/Relu",
      "type" : "squeeze",
      "name" : "fastspeech2\/variance_adaptor\/conv1d_9\/conv1d\/Squeeze"
    },
    {
      "bottom" : "fastspeech2\/variance_adaptor\/conv1d_9\/Relu",
      "weights" : {
        "wBeta" : 125,
        "wGamma" : 127
      },
      "eps" : 9.9999999747524271e-07,
      "tf_layernorm" : 1,
      "debug_info" : "",
      "top" : "fastspeech2\/variance_adaptor\/layer_normalization_8\/batchnorm\/add_1",
      "type" : "instancenorm_1d",
      "name" : "instancenorm_test"
    },
    {
      "size_of_axes" : 1,
      "bottom" : "fastspeech2\/variance_adaptor\/layer_normalization_8\/batchnorm\/add_1",
      "axes_0" : -3,
      "weights" : {

      },
      "nd_axis" : 0,
      "debug_info" : "",
      "top" : "fastspeech2\/variance_adaptor\/conv1d_10\/conv1d\/ExpandDims",
      "type" : "expand_dims",
      "name" : "fastspeech2\/variance_adaptor\/conv1d_10\/conv1d\/ExpandDims"
    },
    {
      "axis_h" : 2,
      "axis_w" : 1,
      "bottom" : "fastspeech2\/variance_adaptor\/conv1d_10\/conv1d\/ExpandDims",
      "axis_k" : 0,
      "axis_n" : 3,
      "axis_seq" : 4,
      "weights" : {

      },
      "debug_info" : "",
      "top" : "transpose_21",
      "type" : "transpose",
      "name" : "transpose_21"
    },
    {
      "pad_r" : 0,
      "fused_relu" : 0,
      "fused_tanh" : 0,
      "debug_info" : "",
      "pad_fill_mode" : 0,
      "pad_b" : 0,
      "pad_l" : 0,
      "top" : "fastspeech2\/variance_adaptor\/conv1d_10\/conv1dx",
      "K" : 256,
      "blob_biases" : 129,
      "name" : "fastspeech2\/variance_adaptor\/conv1d_10\/conv1dx",
      "has_batch_norm" : 0,
      "type" : "convolution",
      "n_groups" : 1,
      "pad_t" : 0,
      "has_biases" : 1,
      "C" : 256,
      "bottom" : "transpose_21",
      "weights" : {

      },
      "Nx" : 3,
      "pad_mode" : 1,
      "pad_value" : 0,
      "Ny" : 1,
      "n_parallel" : 1,
      "blob_weights_f16" : 131,
      "fused_activation_mode" : 0
    },
    {
      "axis_h" : 0,
      "axis_w" : 2,
      "bottom" : "fastspeech2\/variance_adaptor\/conv1d_10\/conv1dx",
      "axis_k" : 1,
      "axis_n" : 3,
      "axis_seq" : 4,
      "weights" : {

      },
      "debug_info" : "",
      "top" : "fastspeech2\/variance_adaptor\/conv1d_10\/conv1d",
      "type" : "transpose",
      "name" : "fastspeech2\/variance_adaptor\/conv1d_10\/conv1d"
    },
    {
      "size_of_axes" : 1,
      "bottom" : "fastspeech2\/variance_adaptor\/conv1d_10\/conv1d",
      "axes_0" : -3,
      "weights" : {

      },
      "nd_axis" : 0,
      "debug_info" : "",
      "version" : 1,
      "top" : "fastspeech2\/variance_adaptor\/conv1d_10\/Relu",
      "type" : "squeeze",
      "name" : "fastspeech2\/variance_adaptor\/conv1d_10\/conv1d\/Squeeze"
    },
    {
      "bottom" : "fastspeech2\/variance_adaptor\/conv1d_10\/Relu",
      "weights" : {
        "wBeta" : 133,
        "wGamma" : 135
      },
      "eps" : 9.9999999747524271e-07,
      "tf_layernorm" : 1,
      "debug_info" : "",
      "top" : "fastspeech2\/variance_adaptor\/layer_normalization_9\/batchnorm\/add_1",
      "type" : "instancenorm_1d",
      "name" : "instancenorm_test"
    },
    {
      "bottom" : "fastspeech2\/variance_adaptor\/layer_normalization_9\/batchnorm\/add_1",
      "weights" : {

      },
      "nd_mode" : 1,
      "axis" : -1,
      "debug_info" : "",
      "top" : "fastspeech2\/variance_adaptor\/dense\/Tensordot\/Shape",
      "type" : "get_shape",
      "name" : "fastspeech2\/variance_adaptor\/dense\/Tensordot\/Shape"
    },
    {
      "top" : "fastspeech2\/variance_adaptor\/dense\/Tensordot\/free",
      "w" : 2,
      "h" : 1,
      "name" : "fastspeech2\/variance_adaptor\/dense\/Tensordot\/free",
      "nd_rank" : 1,
      "type" : "load_constant",
      "k" : 1,
      "bottom" : "",
      "debug_info" : "",
      "n" : 1,
      "weights" : {

      },
      "constant_blob" : 137
    },
    {
      "bottom" : "fastspeech2\/variance_adaptor\/dense\/Tensordot\/Shape,fastspeech2\/variance_adaptor\/dense\/Tensordot\/free",
      "weights" : {

      },
      "mode" : 0,
      "debug_info" : "",
      "axis" : 0,
      "top" : "fastspeech2\/variance_adaptor\/dense\/Tensordot\/GatherV2",
      "type" : "gather_nd",
      "name" : "fastspeech2\/variance_adaptor\/dense\/Tensordot\/GatherV2",
      "batch_dims" : 0
    },
    {
      "top" : "fastspeech2\/variance_adaptor\/dense\/Tensordot\/Const_2",
      "w" : 1,
      "h" : 1,
      "name" : "fastspeech2\/variance_adaptor\/dense\/Tensordot\/Const_2",
      "nd_rank" : 1,
      "type" : "load_constant",
      "k" : 1,
      "bottom" : "",
      "debug_info" : "",
      "n" : 1,
      "weights" : {

      },
      "constant_blob" : 139
    },
    {
      "bottom" : "fastspeech2\/variance_adaptor\/dense\/Tensordot\/GatherV2,fastspeech2\/variance_adaptor\/dense\/Tensordot\/Const_2",
      "weights" : {

      },
      "nd_mode" : true,
      "axis" : 0,
      "debug_info" : "",
      "top" : "fastspeech2\/variance_adaptor\/dense\/Tensordot\/concat_1",
      "type" : "general_concat",
      "name" : "fastspeech2\/variance_adaptor\/dense\/Tensordot\/concat_1"
    },
    {
      "name" : "fastspeech2\/variance_adaptor\/dense\/Tensordot\/Reshape",
      "weights" : {

      },
      "dst_w" : 256,
      "version" : 1,
      "dst_n" : 1,
      "dst_nd_rank" : 2,
      "type" : "reshape",
      "dst_h" : -1,
      "mode" : 0,
      "dynamic_shape" : false,
      "bottom" : "fastspeech2\/variance_adaptor\/layer_normalization_9\/batchnorm\/add_1",
      "debug_info" : "",
      "dst_seq" : 1,
      "dst_k" : 1,
      "top" : "fastspeech2\/variance_adaptor\/dense\/Tensordot\/Reshape"
    },
    {
      "nB" : 256,
      "top" : "fastspeech2\/variance_adaptor\/dense\/Tensordot\/MatMul",
      "has_biases" : 0,
      "blob_weights_f16" : 141,
      "nC" : 5,
      "weights" : {

      },
      "type" : "inner_product",
      "has_relu" : 0,
      "bottom" : "fastspeech2\/variance_adaptor\/dense\/Tensordot\/Reshape",
      "debug_info" : "",
      "has_tanh" : 0,
      "nd_mode" : true,
      "name" : "fastspeech2\/variance_adaptor\/dense\/Tensordot\/MatMul",
      "has_prelu" : 0
    },
    {
      "name" : "fastspeech2\/variance_adaptor\/dense\/Tensordot",
      "weights" : {

      },
      "dst_w" : 0,
      "version" : 1,
      "dst_n" : 0,
      "type" : "reshape",
      "dst_h" : 0,
      "mode" : 0,
      "bottom" : "fastspeech2\/variance_adaptor\/dense\/Tensordot\/MatMul,fastspeech2\/variance_adaptor\/dense\/Tensordot\/concat_1",
      "debug_info" : "",
      "nd_mode" : 1,
      "dst_seq" : 1,
      "dst_k" : 0,
      "top" : "fastspeech2\/variance_adaptor\/dense\/Tensordot"
    },
    {
      "top" : "fastspeech2\/variance_adaptor\/dense\/BiasAdd\/ReadVariableOp",
      "w" : 5,
      "h" : 1,
      "weights" : {

      },
      "nd_rank" : 1,
      "type" : "load_constant",
      "k" : 1,
      "attributes" : {
        "basic_block_head" : 1
      },
      "bottom" : "",
      "debug_info" : "",
      "n" : 1,
      "name" : "fastspeech2\/variance_adaptor\/dense\/BiasAdd\/ReadVariableOp",
      "constant_blob" : 143
    },
    {
…
        "h" : 1
      },
      "fastspeech2\/embedding\/embedding_lookup" : {
        "k" : 1,
        "w" : 256,
        "n" : 1,
        "_rank" : 3,
        "h" : 256
      },
      "fastspeech2\/tf_op_layer_Minimum_1\/Minimum_1\/y" : {
        "k" : 1,
        "w" : 1,
        "n" : 1,
        "_rank" : 1,
        "h" : 1
      },
      "fastspeech2\/tf_op_layer_AddV2_1\/AddV2_1" : {
        "k" : 1,
        "w" : 256,
        "n" : 1,
        "_rank" : 3,
        "h" : 1
      },
      "fastspeech2\/encoder\/ffn_block\/multi_head_attention_add_on\/split:0" : {
        "k" : 1,
        "w" : 256,
        "n" : 1,
        "_rank" : 3,
        "h" : 256
      },
      "fastspeech2\/encoder\/ffn_block\/multi_head_attention_add_on\/split:1" : {
        "k" : 1,
        "w" : 256,
        "n" : 1,
        "_rank" : 3,
        "h" : 256
      },
      "fastspeech2\/encoder\/ffn_block_3\/multi_head_attention_add_on_3\/ExpandDims_5" : {
        "k" : 1,
        "w" : 256,
        "n" : 1,
        "_rank" : 4,
        "h" : 256
      },
      "fastspeech2\/encoder\/ffn_block_1\/conv1d_4\/BiasAdd" : {
        "k" : 1,
        "w" : 256,
        "n" : 1,
        "_rank" : 3,
        "h" : 256
      },
      "fastspeech2\/variance_adaptor_3\/dense_3\/Tensordot\/GatherV2" : {
        "k" : 1,
        "w" : 2,
        "n" : 1,
        "_rank" : 1,
        "h" : 1
      },
      "fastspeech2\/variance_adaptor_1\/conv1d_12\/conv1d\/ExpandDims" : {
        "k" : 1,
        "w" : 256,
        "n" : 1,
        "_rank" : 4,
        "h" : 256
      },
      "fastspeech2\/encoder\/ffn_block_2\/add" : {
        "k" : 1,
        "w" : 256,
        "n" : 1,
        "_rank" : 3,
        "h" : 256
      },
      "fastspeech2\/encoder\/ffn_block\/multi_head_attention_add_on\/concat_1" : {
        "k" : 2,
        "w" : 256,
        "n" : 1,
        "_rank" : 4,
        "h" : 256
      },
      "fastspeech2\/encoder\/ffn_block_1\/multi_head_attention_add_on_1\/ExpandDims_3" : {
        "k" : 1,
        "w" : 256,
        "n" : 1,
        "_rank" : 4,
        "h" : 256
      },
      "fastspeech2\/encoder\/ffn_block\/multi_head_attention_add_on\/concat_2" : {
        "k" : 2,
        "w" : 256,
        "n" : 1,
        "_rank" : 4,
        "h" : 256
      },
      "fastspeech2\/encoder\/ffn_block\/multi_head_attention_add_on\/split_2:0" : {
        "k" : 1,
        "w" : 256,
        "n" : 1,
        "_rank" : 3,
        "h" : 256
      },
      "fastspeech2\/variance_adaptor_1\/dense_1\/Tensordot\/concat_1" : {
        "k" : 1,
        "w" : 3,
        "n" : 1,
        "_rank" : 1,
        "h" : 1
      },
      "fastspeech2\/encoder\/ffn_block\/multi_head_attention_add_on\/concat_3" : {
        "k" : 1,
        "w" : 512,
        "n" : 1,
        "_rank" : 3,
        "h" : 256
      },
      "fastspeech2\/encoder\/ffn_block_3\/multi_head_attention_add_on_3\/concat_1" : {
        "k" : 2,
        "w" : 256,
        "n" : 1,
        "_rank" : 4,
        "h" : 256
      },
      "Identity__reduction_axis__1_@ssa_version_1" : {
        "k" : 1,
        "w" : 256,
        "n" : 1,
        "_rank" : 3,
        "h" : 1
      },
      "fastspeech2\/encoder\/ffn_block\/multi_head_attention_add_on\/split_2:1" : {
        "k" : 1,
        "w" : 256,
        "n" : 1,
        "_rank" : 3,
        "h" : 256
      },
      "fastspeech2\/encoder\/ffn_block_1\/multi_head_attention_add_on_1\/split_3:0" : {
        "k" : 256,
        "w" : 256,
        "n" : 1,
        "_rank" : 4,
        "h" : 1
      },
      "fastspeech2\/tf_op_layer_strided_slice_16\/strided_slice_16" : {
        "k" : 1,
        "w" : 256,
        "n" : 1,
        "_rank" : 2,
        "h" : 1
      },
      "fastspeech2\/tf_op_layer_strided_slice_5\/strided_slice_5" : {
        "k" : 1,
        "w" : 256,
        "n" : 1,
        "_rank" : 2,
        "h" : 1
      },
      "fastspeech2\/tf_op_layer_Slice\/Slice_end_ids" : {
        "k" : 1,
        "w" : 3,
        "n" : 1,
        "_rank" : 1,
        "h" : 1
      },
      "fastspeech2\/tf_op_layer_Log\/Log" : {
        "k" : 1,
        "w" : 256,
        "n" : 1,
        "_rank" : 3,
        "h" : 1
      },
      "fastspeech2\/tf_op_layer_Slice\/Slice_end_index_with_mask" : {
        "k" : 1,
        "w" : 1,
        "n" : 1,
        "h" : 1
      },
      "fastspeech2\/encoder\/ffn_block_2\/multi_head_attention_add_on_2\/MatMul_3" : {
        "k" : 2,
        "w" : 256,
        "n" : 1,
        "_rank" : 4,
        "h" : 256
      },
      "transpose_13" : {
        "k" : 1024,
        "w" : 256,
        "n" : 1,
        "_rank" : 4,
        "h" : 1
      },
      "fastspeech2\/variance_adaptor\/conv1d_10\/conv1dx" : {
        "k" : 256,
        "w" : 256,
        "n" : 1,
        "_rank" : 4,
        "h" : 1
      },
      "fastspeech2\/encoder\/ffn_block\/multi_head_attention_add_on\/transpose_4" : {
        "k" : 256,
        "w" : 256,
        "n" : 1,
        "_rank" : 4,
        "h" : 2
      },
      "fastspeech2\/encoder\/ffn_block\/multi_head_attention_add_on\/Squeeze" : {
        "k" : 1,
        "w" : 256,
        "n" : 1,
        "_rank" : 3,
        "h" : 256
      },
      "fastspeech2\/tf_op_layer_Slice\/Slice" : {
        "k" : 1,
        "w" : 1,
        "n" : 1,
        "_rank" : 4,
        "h" : 1
      },
      "fastspeech2\/encoder\/ffn_block_1\/multi_head_attention_add_on_1\/truediv" : {
        "k" : 2,
        "w" : 256,
        "n" : 1,
        "_rank" : 4,
        "h" : 256
      },
      "fastspeech2\/variance_adaptor_2\/dense_2\/Tensordot\/GatherV2" : {
        "k" : 1,
        "w" : 2,
        "n" : 1,
        "_rank" : 1,
        "h" : 1
      },
      "fastspeech2\/tf_op_layer_Cumsum\/Cumsum" : {
        "k" : 1,
        "w" : 256,
        "n" : 1,
        "_rank" : 3,
        "h" : 1
      },
      "fastspeech2\/encoder\/ffn_block_3\/multi_head_attention_add_on_3\/ExpandDims_4" : {
        "k" : 1,
        "w" : 256,
        "n" : 1,
        "_rank" : 4,
        "h" : 256
      },
      "input_feature_variance_scale_switch" : {
        "k" : 1,
        "w" : 3,
        "n" : 1,
        "_rank" : 3,
        "h" : 256
      },
      "fastspeech2\/encoder\/strided_slice_1" : {
        "k" : 1,
        "w" : 1,
        "n" : 1,
        "_rank" : 2,
        "h" : 1
      },
      "fastspeech2\/tf_op_layer_strided_slice_15\/strided_slice_15" : {
        "k" : 1,
        "w" : 256,
        "n" : 1,
        "_rank" : 2,
        "h" : 1
      },
      "fastspeech2\/encoder\/ffn_block_1\/multi_head_attention_add_on_1\/ExpandDims_2" : {
        "k" : 1,
        "w" : 256,
        "n" : 1,
        "_rank" : 4,
        "h" : 256
      },
      "fastspeech2\/encoder\/ffn_block\/multi_head_attention_add_on\/MatMul" : {
        "k" : 1,
        "w" : 512,
        "n" : 1,
        "_rank" : 3,
        "h" : 256
      },
      "fastspeech2\/encoder\/Shape" : {
        "k" : 1,
        "w" : 3,
        "n" : 1,
        "_rank" : 1,
        "h" : 1
      },
      "fastspeech2\/encoder\/ffn_block_3\/conv1d_7\/conv1d\/ExpandDims" : {
        "k" : 1,
        "w" : 256,
        "n" : 1,
        "_rank" : 4,
        "h" : 256
      },
      "fastspeech2\/encoder\/ffn_block_2\/multi_head_attention_add_on_2\/split_3:1" : {
        "k" : 256,
        "w" : 256,
        "n" : 1,
        "_rank" : 4,
        "h" : 1
      },
      "fastspeech2\/encoder\/ffn_block_3\/multi_head_attention_add_on_3\/concat_2" : {
        "k" : 2,
        "w" : 256,
        "n" : 1,
        "_rank" : 4,
        "h" : 256
      },
      "fastspeech2\/variance_adaptor_1\/dense_1\/Tensordot\/MatMul" : {
        "k" : 1,
        "w" : 1,
        "n" : 1,
        "_rank" : 2,
        "h" : 256
      },
      "fastspeech2\/encoder\/batch_normalization\/batchnorm\/mul_1" : {
        "k" : 1,
        "w" : 256,
        "n" : 1,
        "_rank" : 3,
        "h" : 256
      },
      "fastspeech2\/variance_adaptor_2\/dense_2\/Tensordot\/Reshape" : {
        "k" : 1,
        "w" : 256,
        "n" : 1,
        "_rank" : 2,
        "h" : 256
      },
      "fastspeech2\/encoder\/ffn_block_3\/multi_head_attention_add_on_3\/split_1:1" : {
        "k" : 1,
        "w" : 256,
        "n" : 1,
        "_rank" : 3,
        "h" : 256
      },
      "fastspeech2\/encoder\/ffn_block_2\/multi_head_attention_add_on_2\/MatMul_4" : {
        "k" : 2,
        "w" : 256,
        "n" : 1,
        "_rank" : 4,
        "h" : 256
      },
      "fastspeech2\/tf_op_layer_Shape\/Shape" : {
        "k" : 1,
        "w" : 2,
        "n" : 1,
        "_rank" : 1,
        "h" : 1
      },
      "fastspeech2\/tf_op_layer_strided_slice_14\/strided_slice_14" : {
        "k" : 1,
        "w" : 256,
        "n" : 1,
        "_rank" : 2,
        "h" : 1
      },
      "fastspeech2\/tf_op_layer_Slice\/Slice_final_index" : {
        "k" : 1,
        "w" : 3,
        "n" : 1,
        "h" : 1
      },
      "fastspeech2\/encoder\/ffn_block_3\/multi_head_attention_add_on_3\/truediv" : {
        "k" : 2,
        "w" : 256,
        "n" : 1,
        "_rank" : 4,
        "h" : 256
      },
      "transpose_17" : {
        "k" : 1024,
        "w" : 256,
        "n" : 1,
        "_rank" : 4,
        "h" : 1
      },
      "fastspeech2\/embedding_2\/embedding_lookup_expand_dims" : {
        "k" : 1,
        "w" : 1,
        "n" : 1,
        "_rank" : 4,
        "h" : 256
      },
      "fastspeech2\/encoder\/ffn_block_2\/add_1" : {
        "k" : 1,
        "w" : 256,
        "n" : 1,
        "_rank" : 3,
        "h" : 256
      },
      "fastspeech2\/encoder\/ffn_block_3\/multi_head_attention_add_on_3\/ExpandDims_3" : {
        "k" : 1,
        "w" : 256,
        "n" : 1,
        "_rank" : 4,
        "h" : 256
      },
      "Identity_3" : {
        "k" : 1,
        "w" : 257,
        "n" : 1,
        "_rank" : 4,
        "h" : 1
      },
      "fastspeech2\/tf_op_layer_Cast_3\/Cast_3_cond_load_constant_602" : {
        "k" : 1,
        "w" : 1,
        "n" : 1,
        "h" : 1
      },
      "590_fastspeech2\/tf_op_layer_Cumsum\/Cumsum_axis" : {
        "k" : 1,
        "w" : 1,
        "n" : 1,
        "h" : 1
      },
      "fastspeech2\/encoder\/ffn_block_1\/multi_head_attention_add_on_1\/ExpandDims_1" : {
        "k" : 1,
        "w" : 256,
        "n" : 1,
        "_rank" : 4,
        "h" : 256
      },
      "fastspeech2\/tf_op_layer_concat\/concat" : {
        "k" : 1,
        "w" : 257,
        "n" : 1,
        "_rank" : 3,
        "h" : 256
      },
      "fastspeech2\/tf_op_layer_concat_2\/concat_2" : {
        "k" : 1,
        "w" : 257,
        "n" : 1,
        "_rank" : 3,
        "h" : 256
      },
      "fastspeech2\/variance_adaptor_3\/conv1d_15\/Relu" : {
        "k" : 1,
        "w" : 256,
        "n" : 1,
        "_rank" : 3,
        "h" : 256
      },
      "fastspeech2\/tf_op_layer_AddV2_2\/AddV2_2" : {
        "k" : 1,
        "w" : 256,
        "n" : 1,
        "_rank" : 3,
        "h" : 1
      },
      "fastspeech2\/encoder\/ffn_block_3\/add" : {
        "k" : 1,
        "w" : 256,
        "n" : 1,
        "_rank" : 3,
        "h" : 256
      },
      "fastspeech2\/variance_adaptor\/dense\/Tensordot\/Reshape" : {
        "k" : 1,
        "w" : 256,
        "n" : 1,
        "_rank" : 2,
        "h" : 256
      },
      "fastspeech2\/tf_op_layer_Range\/Range" : {
        "k" : 1,
        "w" : 1,
        "n" : 1,
        "_rank" : 1,
        "h" : 1
      },
      "fastspeech2\/tf_op_layer_strided_slice_13\/strided_slice_13" : {
        "k" : 1,
        "w" : 256,
        "n" : 1,
        "_rank" : 2,
        "h" : 1
      },
      "fastspeech2\/encoder\/ffn_block_3\/multi_head_attention_add_on_3\/concat_3" : {
        "k" : 1,
        "w" : 512,
        "n" : 1,
        "_rank" : 3,
        "h" : 256
      },
      "fastspeech2\/encoder\/ffn_block_1\/multi_head_attention_add_on_1\/split_3:1" : {
        "k" : 256,
        "w" : 256,
        "n" : 1,
        "_rank" : 4,
        "h" : 1
      },
      "fastspeech2\/variance_adaptor_2\/conv1d_14\/conv1d" : {
        "k" : 1,
        "w" : 256,
        "n" : 1,
        "_rank" : 4,
        "h" : 256
      },
      "fastspeech2\/encoder\/ffn_block\/multi_head_attention_add_on\/split_1:0" : {
        "k" : 1,
        "w" : 256,
        "n" : 1,
        "_rank" : 3,
        "h" : 256
      },
      "transpose_21" : {
        "k" : 256,
        "w" : 256,
        "n" : 1,
        "_rank" : 4,
        "h" : 1
      },
      "fastspeech2\/variance_adaptor_3\/dense_3\/Tensordot\/MatMul" : {
        "k" : 1,
        "w" : 1,
        "n" : 1,
        "_rank" : 2,
        "h" : 256
      },
      "fastspeech2\/encoder\/ffn_block_2\/multi_head_attention_add_on_2\/truediv" : {
        "k" : 2,
        "w" : 256,
        "n" : 1,
        "_rank" : 4,
        "h" : 256
      },
      "fastspeech2\/tf_op_layer_Cast_2\/Cast_2_cond" : {
        "k" : 1,
        "w" : 256,
        "n" : 1,
        "_rank" : 3,
        "h" : 1
      },
      "fastspeech2\/tf_op_layer_Cast_4\/Cast_4_floor" : {
        "k" : 1,
        "w" : 256,
        "n" : 1,
        "_rank" : 3,
        "h" : 1
      },
      "fastspeech2\/encoder\/ffn_block\/multi_head_attention_add_on\/split_1:1" : {
        "k" : 1,
        "w" : 256,
        "n" : 1,
        "_rank" : 3,
        "h" : 256
      },
      "fastspeech2\/variance_adaptor_2\/dense_2\/Tensordot\/Const_2" : {
        "k" : 1,
        "w" : 1,
        "n" : 1,
        "_rank" : 1,
        "h" : 1
      },
      "fastspeech2\/variance_adaptor\/conv1d_9\/Relu" : {
        "k" : 1,
        "w" : 256,
        "n" : 1,
        "_rank" : 3,
        "h" : 256
      },
      "fastspeech2\/encoder\/ffn_block_1\/multi_head_attention_add_on_1\/MatMul" : {
        "k" : 1,
        "w" : 512,
        "n" : 1,
        "_rank" : 3,
        "h" : 256
      },
      "fastspeech2\/encoder\/ffn_block\/layer_normalization\/batchnorm\/add_1" : {
        "k" : 1,
        "w" : 256,
        "n" : 1,
        "_rank" : 3,
        "h" : 256
      },
      "fastspeech2\/encoder\/ffn_block_3\/multi_head_attention_add_on_3\/ExpandDims_2" : {
        "k" : 1,
        "w" : 256,
        "n" : 1,
        "_rank" : 4,
        "h" : 256
      },
      "Identity_2" : {
        "k" : 1,
        "w" : 256,
        "n" : 1,
        "_rank" : 1,
        "h" : 1
      },
      "transpose_3" : {
        "k" : 256,
        "w" : 256,
        "n" : 1,
        "_rank" : 4,
        "h" : 1
      },
      "fastspeech2\/tf_op_layer_Minimum_1\/Minimum_1" : {
        "k" : 1,
        "w" : 256,
        "n" : 1,
        "_rank" : 3,
        "h" : 1
      },
      "fastspeech2\/tf_op_layer_Maximum_2\/Maximum_2\/y" : {
        "k" : 1,
        "w" : 1,
        "n" : 1,
        "_rank" : 1,
        "h" : 1
      },
      "fastspeech2\/encoder\/ffn_block_2\/multi_head_attention_add_on_2\/split_1:0" : {
        "k" : 1,
        "w" : 256,
        "n" : 1,
        "_rank" : 3,
        "h" : 256
      },
      "fastspeech2\/encoder\/ffn_block_1\/multi_head_attention_add_on_1\/Softmax" : {
        "k" : 2,
        "w" : 256,
        "n" : 1,
        "_rank" : 4,
        "h" : 256
      },
      "fastspeech2\/variance_adaptor_2\/dense_2\/Tensordot\/MatMul" : {
        "k" : 1,
        "w" : 1,
        "n" : 1,
        "_rank" : 2,
        "h" : 256
      },
      "fastspeech2\/variance_adaptor_2\/conv1d_13\/Relu" : {
        "k" : 1,
        "w" : 256,
        "n" : 1,
        "_rank" : 3,
        "h" : 256
      },
      "fastspeech2\/variance_adaptor\/dense\/Tensordot" : {
        "k" : 1,
        "w" : 5,
        "n" : 1,
        "h" : 256
      },
      "fastspeech2\/encoder\/ffn_block_1\/multi_head_attention_add_on_1\/split:0" : {
        "k" : 1,
        "w" : 256,
        "n" : 1,
        "_rank" : 3,
        "h" : 256
      },
      "fastspeech2\/tf_op_layer_Cast_3\/Cast_3_floor" : {
        "k" : 1,
        "w" : 256,
        "n" : 1,
        "_rank" : 3,
        "h" : 1
      },
      "fastspeech2\/variance_adaptor_2\/conv1d_13\/conv1d" : {
        "k" : 1,
        "w" : 256,
        "n" : 1,
        "_rank" : 4,
        "h" : 256
      },
      "fastspeech2\/tf_op_layer_Slice\/Slice_is_end_mask" : {
        "k" : 1,
        "w" : 3,
        "n" : 1,
        "_rank" : 1,
        "h" : 1
      },
      "fastspeech2\/variance_adaptor\/conv1d_9\/conv1dx" : {
        "k" : 256,
        "w" : 256,
        "n" : 1,
        "_rank" : 4,
        "h" : 1
      },
      "fastspeech2\/encoder\/ffn_block_3\/layer_normalization_6\/batchnorm\/add_1" : {
        "k" : 1,
        "w" : 256,
        "n" : 1,
        "_rank" : 3,
        "h" : 256
      },
      "Identity_2_presqueeze" : {
        "k" : 1,
        "w" : 256,
        "n" : 1,
        "_rank" : 3,
        "h" : 1
      },
      "fastspeech2\/tf_op_layer_Cast_4\/Cast_4_ceil" : {
        "k" : 1,
        "w" : 256,
        "n" : 1,
        "_rank" : 3,
        "h" : 1
      },
      "fastspeech2\/tf_op_layer_strided_slice_8\/strided_slice_8" : {
        "k" : 1,
        "w" : 1,
        "n" : 1,
        "_rank" : 4,
        "h" : 1
      },
      "fastspeech2\/embedding_1\/embedding_lookup_expand_dims" : {
        "k" : 1,
        "w" : 1,
        "n" : 1,
        "_rank" : 4,
        "h" : 256
      },
      "fastspeech2\/encoder\/ffn_block_2\/multi_head_attention_add_on_2\/concat_1" : {
        "k" : 2,
        "w" : 256,
        "n" : 1,
        "_rank" : 4,
        "h" : 256
      },
      "fastspeech2\/encoder\/ffn_block_3\/multi_head_attention_add_on_3\/ExpandDims_1" : {
        "k" : 1,
        "w" : 256,
        "n" : 1,
        "_rank" : 4,
        "h" : 256
      },
      "transpose_25" : {
        "k" : 258,
        "w" : 256,
        "n" : 1,
        "_rank" : 4,
        "h" : 1
      },
      "fastspeech2\/encoder\/ffn_block_1\/multi_head_attention_add_on_1\/split:1" : {
        "k" : 1,
        "w" : 256,
        "n" : 1,
        "_rank" : 3,
        "h" : 256
      },
      "fastspeech2\/tf_op_layer_Sub\/Sub" : {
        "k" : 1,
        "w" : 256,
        "n" : 1,
        "_rank" : 2,
        "h" : 1
      },
      "fastspeech2\/tf_op_layer_Cast_2\/Cast_2_cond_load_constant_598" : {
        "k" : 1,
        "w" : 1,
        "n" : 1,
        "h" : 1
      },
      "fastspeech2\/encoder\/ffn_block\/multi_head_attention_add_on\/ExpandDims_1" : {
        "k" : 1,
        "w" : 256,
        "n" : 1,
        "_rank" : 4,
        "h" : 256
      },
      "fastspeech2\/encoder\/ffn_block_3\/multi_head_attention_add_on_3\/Softmax" : {
        "k" : 2,
        "w" : 256,
        "n" : 1,
        "_rank" : 4,
        "h" : 256
      },
      "fastspeech2\/variance_adaptor_2\/dense_2\/Tensordot" : {
        "k" : 1,
        "w" : 1,
        "n" : 1,
        "h" : 256
      },
      "fastspeech2\/encoder\/ffn_block_2\/multi_head_attention_add_on_2\/concat" : {
        "k" : 2,
        "w" : 256,
        "n" : 1,
        "_rank" : 4,
        "h" : 256
      },
      "fastspeech2\/variance_adaptor_1\/dense_1\/Tensordot\/Shape" : {
        "k" : 1,
        "w" : 3,
        "n" : 1,
        "_rank" : 1,
        "h" : 1
      },
      "fastspeech2\/variance_adaptor_1\/dense_1\/Tensordot\/GatherV2" : {
        "k" : 1,
        "w" : 2,
        "n" : 1,
        "_rank" : 1,
        "h" : 1
      },
      "fastspeech2\/tf_op_layer_AddV2_3\/AddV2_3" : {
        "k" : 1,
        "w" : 256,
        "n" : 1,
        "_rank" : 3,
        "h" : 1
      },
      "fastspeech2\/tf_op_layer_Cast_4\/Cast_4_cond_load_constant_594" : {
        "k" : 1,
        "w" : 1,
        "n" : 1,
        "h" : 1
      },
      "fastspeech2\/encoder\/ffn_block_3\/multi_head_attention_add_on_3\/split:0" : {
        "k" : 1,
        "w" : 256,
        "n" : 1,
        "_rank" : 3,
        "h" : 256
      },
      "fastspeech2\/encoder\/ffn_block_1\/multi_head_attention_add_on_1\/split_1:0" : {
        "k" : 1,
        "w" : 256,
        "n" : 1,
        "_rank" : 3,
        "h" : 256
      },
      "fastspeech2\/variance_adaptor\/conv1d_9\/conv1d" : {
        "k" : 1,
        "w" : 256,
        "n" : 1,
        "_rank" : 4,
        "h" : 256
      },
      "fastspeech2\/encoder\/ffn_block_1\/multi_head_attention_add_on_1\/add" : {
        "k" : 1,
        "w" : 256,
        "n" : 1,
        "_rank" : 3,
        "h" : 256
      },
      "fastspeech2\/tf_op_layer_concat_3\/concat_3" : {
        "k" : 1,
        "w" : 257,
        "n" : 1,
        "_rank" : 4,
        "h" : 256
      },
      "fastspeech2\/variance_adaptor\/dense\/BiasAdd" : {
        "k" : 1,
        "w" : 5,
        "n" : 1,
        "h" : 256
      },
      "fastspeech2\/encoder\/ffn_block_1\/multi_head_attention_add_on_1\/MatMul_1" : {
        "k" : 1,
        "w" : 512,
        "n" : 1,
        "_rank" : 3,
        "h" : 256
      },
      "fastspeech2\/variance_adaptor_2\/dense_2\/BiasAdd" : {
        "k" : 1,
        "w" : 1,
        "n" : 1,
        "h" : 256
      },
      "fastspeech2\/variance_adaptor_2\/dense_2\/Tensordot\/Shape" : {
        "k" : 1,
        "w" : 3,
        "n" : 1,
        "_rank" : 1,
        "h" : 1
      },
      "fastspeech2\/variance_adaptor_1\/conv1d_11\/Relu" : {
        "k" : 1,
        "w" : 256,
        "n" : 1,
        "_rank" : 3,
        "h" : 256
      },
      "fastspeech2\/encoder\/ffn_block_2\/multi_head_attention_add_on_2\/concat_2" : {
        "k" : 2,
        "w" : 256,
        "n" : 1,
        "_rank" : 4,
        "h" : 256
      },
      "fastspeech2\/encoder\/ffn_block_3\/multi_head_attention_add_on_3\/split:1" : {
        "k" : 1,
        "w" : 256,
        "n" : 1,
        "_rank" : 3,
        "h" : 256
      },
      "fastspeech2\/encoder\/ffn_block\/conv1d_2\/conv1d" : {
        "k" : 1,
        "w" : 256,
        "n" : 1,
        "_rank" : 4,
        "h" : 256
      },
      "fastspeech2\/tf_op_layer_ExpandDims\/ExpandDims" : {
        "k" : 1,
        "w" : 1,
        "n" : 1,
        "_rank" : 2,
        "h" : 1
      },
      "fastspeech2\/variance_adaptor_3\/conv1d_15\/conv1d\/ExpandDims" : {
        "k" : 1,
        "w" : 257,
        "n" : 1,
        "_rank" : 4,
        "h" : 256
      },
      "fastspeech2\/embedding_1\/embedding_lookup" : {
        "k" : 1,
        "w" : 256,
        "n" : 1,
        "_rank" : 4,
        "h" : 256
      },
      "fastspeech2\/encoder\/ffn_block_2\/multi_head_attention_add_on_2\/Softmax" : {
        "k" : 2,
        "w" : 256,
        "n" : 1,
        "_rank" : 4,
        "h" : 256
      },
      "fastspeech2\/variance_adaptor\/dense\/Tensordot\/free" : {
        "k" : 1,
        "w" : 2,
        "n" : 1,
        "_rank" : 1,
        "h" : 1
      },
      "fastspeech2\/variance_adaptor_3\/dense_3\/Tensordot\/Shape" : {
        "k" : 1,
        "w" : 3,
        "n" : 1,
        "_rank" : 1,
        "h" : 1
      },
      "fastspeech2\/encoder\/ffn_block\/multi_head_attention_add_on\/ExpandDims_2" : {
        "k" : 1,
        "w" : 256,
        "n" : 1,
        "_rank" : 4,
        "h" : 256
      },
      "fastspeech2\/encoder\/ffn_block_1\/add_1" : {
        "k" : 1,
        "w" : 256,
        "n" : 1,
        "_rank" : 3,
        "h" : 256
      },
      "transpose_29" : {
        "k" : 256,
        "w" : 256,
        "n" : 1,
        "_rank" : 4,
        "h" : 1
      },
      "fastspeech2\/encoder\/ffn_block_2\/multi_head_attention_add_on_2\/split:0" : {
        "k" : 1,
        "w" : 256,
        "n" : 1,
        "_rank" : 3,
        "h" : 256
      },
      "fastspeech2\/tf_op_layer_Squeeze\/Squeeze" : {
        "k" : 1,
        "w" : 256,
        "n" : 1,
        "_rank" : 3,
        "h" : 1
      },
      "fastspeech2\/encoder\/ffn_block_2\/multi_head_attention_add_on_2\/split_1:1" : {
        "k" : 1,
        "w" : 256,
        "n" : 1,
        "_rank" : 3,
        "h" : 256
      },
      "fastspeech2\/variance_adaptor\/dense\/Tensordot\/Shape" : {
        "k" : 1,
        "w" : 3,
        "n" : 1,
        "_rank" : 1,
        "h" : 1
      },
      "fastspeech2\/tf_op_layer_Slice\/Slice\/begin" : {
        "k" : 1,
        "w" : 3,
        "n" : 1,
        "_rank" : 1,
        "h" : 1
      },
      "fastspeech2\/encoder\/ffn_block_1\/multi_head_attention_add_on_1\/transpose_4" : {
        "k" : 256,
        "w" : 256,
        "n" : 1,
        "_rank" : 4,
        "h" : 2
      },
      "fastspeech2\/tf_op_layer_Max\/Max" : {
        "k" : 1,
        "w" : 256,
        "n" : 1,
        "_rank" : 1,
        "h" : 1
      },
      "fastspeech2\/tf_op_layer_strided_slice_12\/strided_slice_12" : {
        "k" : 1,
        "w" : 256,
        "n" : 1,
        "_rank" : 2,
        "h" : 1
      },
      "fastspeech2\/encoder\/ffn_block_1\/multi_head_attention_add_on_1\/MatMul_2" : {
        "k" : 1,
        "w" : 512,
        "n" : 1,
        "_rank" : 3,
        "h" : 256
      },
      "fastspeech2\/encoder\/ffn_block_2\/multi_head_attention_add_on_2\/add" : {
        "k" : 1,
        "w" : 256,
        "n" : 1,
        "_rank" : 3,
        "h" : 256
      },
      "fastspeech2\/tf_op_layer_ExpandDims_1\/ExpandDims_1" : {
        "k" : 1,
        "w" : 1,
        "n" : 1,
        "_rank" : 4,
        "h" : 256
      },
      "fastspeech2\/tf_op_layer_strided_slice_3\/strided_slice_3" : {
        "k" : 1,
        "w" : 256,
        "n" : 1,
        "_rank" : 2,
        "h" : 1
      },
      "fastspeech2\/encoder\/ffn_block_2\/multi_head_attention_add_on_2\/split:1" : {
        "k" : 1,
        "w" : 256,
        "n" : 1,
        "_rank" : 3,
        "h" : 256
      },
      "fastspeech2\/tf_op_layer_Maximum\/Maximum\/y" : {
        "k" : 1,
        "w" : 1,
        "n" : 1,
        "_rank" : 1,
        "h" : 1
      },
      "fastspeech2\/encoder\/ffn_block_2\/multi_head_attention_add_on_2\/concat_3" : {
        "k" : 1,
        "w" : 512,
        "n" : 1,
        "_rank" : 3,
        "h" : 256
      },
      "transpose_33" : {
        "k" : 256,
        "w" : 256,
        "n" : 1,
        "_rank" : 4,
        "h" : 1
      },
      "fastspeech2\/tf_op_layer_Mul_1\/Mul_1" : {
        "k" : 1,
        "w" : 256,
        "n" : 1,
        "_rank" : 3,
        "h" : 1
      },
      "fastspeech2\/encoder\/ffn_block_3\/multi_head_attention_add_on_3\/split_2:0" : {
        "k" : 1,
        "w" : 256,
        "n" : 1,
        "_rank" : 3,
        "h" : 256
      },
      "fastspeech2\/variance_adaptor_2\/conv1d_14\/conv1d\/ExpandDims" : {
        "k" : 1,
        "w" : 256,
        "n" : 1,
        "_rank" : 4,
        "h" : 256
      },
      "fastspeech2\/tf_op_layer_strided_slice_11\/strided_slice_11" : {
        "k" : 1,
        "w" : 256,
        "n" : 1,
        "_rank" : 2,
        "h" : 1
      },
      "fastspeech2\/encoder\/ffn_block\/multi_head_attention_add_on\/ExpandDims_3" : {
        "k" : 1,
        "w" : 256,
        "n" : 1,
        "_rank" : 4,
        "h" : 256
      },
      "fastspeech2\/tf_op_layer_Mul_2\/Mul_2" : {
        "k" : 1,
        "w" : 256,
        "n" : 1,
        "_rank" : 3,
        "h" : 1
      },
      "fastspeech2\/variance_adaptor\/dense\/Tensordot\/MatMul" : {
        "k" : 1,
        "w" : 5,
        "n" : 1,
        "_rank" : 2,
        "h" : 256
      },
      "fastspeech2\/encoder\/ffn_block\/multi_head_attention_add_on\/MatMul_1" : {
        "k" : 1,
        "w" : 512,
        "n" : 1,
        "_rank" : 3,
        "h" : 256
      },
      "fastspeech2\/encoder\/ffn_block\/multi_head_attention_add_on\/MatMul_2" : {
        "k" : 1,
        "w" : 512,
        "n" : 1,
        "_rank" : 3,
        "h" : 256
      },
      "fastspeech2\/encoder\/ffn_block\/multi_head_attention_add_on\/MatMul_3" : {
        "k" : 2,
        "w" : 256,
        "n" : 1,
        "_rank" : 4,
        "h" : 256
      },
      "fastspeech2\/tf_op_layer_strided_slice_6\/strided_slice_6" : {
        "k" : 1,
        "w" : 256,
        "n" : 1,
        "_rank" : 2,
        "h" : 1
      },
      "fastspeech2\/encoder\/ffn_block_1\/multi_head_attention_add_on_1\/split_1:1" : {
        "k" : 1,
        "w" : 256,
        "n" : 1,
        "_rank" : 3,
        "h" : 256
      },
      "fastspeech2\/tf_op_layer_strided_slice\/strided_slice" : {
        "k" : 1,
        "w" : 1,
        "n" : 1,
        "_rank" : 0,
        "h" : 1
      },
      "fastspeech2\/encoder\/ffn_block\/multi_head_attention_add_on\/MatMul_4" : {
        "k" : 2,
        "w" : 256,
        "n" : 1,
        "_rank" : 4,
        "h" : 256
      },
      "fastspeech2\/tf_op_layer_Mul_3\/Mul_3" : {
        "k" : 1,
        "w" : 256,
        "n" : 1,
        "_rank" : 3,
        "h" : 1
      },
      "fastspeech2\/encoder\/ffn_block_1\/multi_head_attention_add_on_1\/MatMul_3" : {
        "k" : 2,
        "w" : 256,
        "n" : 1,
        "_rank" : 4,
        "h" : 256
      },
      "fastspeech2\/tf_op_layer_AddV2_4\/AddV2_4" : {
        "k" : 1,
        "w" : 256,
        "n" : 1,
        "_rank" : 3,
        "h" : 1
      },
      "fastspeech2\/tf_op_layer_strided_slice_10\/strided_slice_10" : {
        "k" : 1,
        "w" : 256,
        "n" : 1,
        "_rank" : 2,
        "h" : 1
      },
      "fastspeech2\/tf_op_layer_Mul_4\/Mul_4" : {
        "k" : 1,
        "w" : 256,
        "n" : 1,
        "_rank" : 3,
        "h" : 1
      },
      "fastspeech2\/encoder\/ffn_block_2\/multi_head_attention_add_on_2\/transpose_4" : {
        "k" : 256,
        "w" : 256,
        "n" : 1,
        "_rank" : 4,
        "h" : 2
      },
      "fastspeech2\/tf_op_layer_Cast_2\/Cast_2_floor" : {
        "k" : 1,
        "w" : 256,
        "n" : 1,
        "_rank" : 3,
        "h" : 1
      },
      "fastspeech2\/variance_adaptor_1\/dense_1\/Tensordot\/Const_2" : {
        "k" : 1,
        "w" : 1,
        "n" : 1,
        "_rank" : 1,
        "h" : 1
      },
      "transpose_1" : {
        "k" : 256,
        "w" : 256,
        "n" : 1,
        "_rank" : 4,
        "h" : 1
      },
      "fastspeech2\/encoder\/ffn_block_2\/layer_normalization_4\/batchnorm\/add_1" : {
        "k" : 1,
        "w" : 256,
        "n" : 1,
        "_rank" : 3,
        "h" : 256
      },
      "fastspeech2\/variance_adaptor_1\/dense_1\/Tensordot\/free" : {
        "k" : 1,
        "w" : 2,
        "n" : 1,
        "_rank" : 1,
        "h" : 1
      },
      "fastspeech2\/tf_op_layer_Mul_5\/Mul_5" : {
        "k" : 1,
        "w" : 256,
        "n" : 1,
        "_rank" : 3,
        "h" : 1
      },
      "fastspeech2\/variance_adaptor_3\/layer_normalization_14\/batchnorm\/add_1" : {
        "k" : 1,
        "w" : 256,
        "n" : 1,
        "_rank" : 3,
        "h" : 256
      },
      "fastspeech2\/encoder\/ffn_block\/multi_head_attention_add_on\/ExpandDims_4" : {
        "k" : 1,
        "w" : 256,
        "n" : 1,
        "_rank" : 4,
        "h" : 256
      },
      "fastspeech2\/encoder\/ffn_block_1\/multi_head_attention_add_on_1\/concat_1" : {
        "k" : 2,
        "w" : 256,
        "n" : 1,
        "_rank" : 4,
        "h" : 256
      },
      "fastspeech2\/tf_op_layer_Mul_6\/Mul_6" : {
        "k" : 1,
        "w" : 256,
        "n" : 1,
        "_rank" : 3,
        "h" : 1
      },
      "fastspeech2\/tf_op_layer_Squeeze_1\/Squeeze_1" : {
        "k" : 1,
        "w" : 256,
        "n" : 1,
        "_rank" : 3,
        "h" : 1
      },
      "fastspeech2\/encoder\/ffn_block\/conv1d_2\/BiasAdd" : {
        "k" : 1,
        "w" : 256,
        "n" : 1,
        "_rank" : 3,
        "h" : 256
      },
      "fastspeech2\/variance_adaptor\/dense\/Tensordot\/Const_2" : {
        "k" : 1,
        "w" : 1,
        "n" : 1,
        "_rank" : 1,
        "h" : 1
      },
      "fastspeech2\/variance_adaptor\/conv1d_10\/Relu" : {
        "k" : 1,
        "w" : 256,
        "n" : 1,
        "_rank" : 3,
        "h" : 256
      },
      "fastspeech2\/encoder\/ffn_block\/multi_head_attention_add_on\/truediv" : {
        "k" : 2,
        "w" : 256,
        "n" : 1,
        "_rank" : 4,
        "h" : 256
      },
      "fastspeech2\/variance_adaptor_1\/conv1d_11\/conv1d\/ExpandDims" : {
        "k" : 1,
        "w" : 257,
        "n" : 1,
        "_rank" : 4,
        "h" : 256
      },
      "fastspeech2\/encoder\/ffn_block_2\/multi_head_attention_add_on_2\/ExpandDims_5" : {
        "k" : 1,
        "w" : 256,
        "n" : 1,
        "_rank" : 4,
        "h" : 256
      },
      "fastspeech2\/tf_op_layer_Mul_7\/Mul_7" : {
        "k" : 1,
        "w" : 256,
        "n" : 1,
        "_rank" : 3,
        "h" : 1
      },
      "fastspeech2\/encoder\/ffn_block_1\/multi_head_attention_add_on_1\/MatMul_4" : {
        "k" : 2,
        "w" : 256,
        "n" : 1,
        "_rank" : 4,
        "h" : 256
      },
      "fastspeech2\/encoder\/ffn_block_1\/layer_normalization_2\/batchnorm\/add_1" : {
        "k" : 1,
        "w" : 256,
        "n" : 1,
        "_rank" : 3,
        "h" : 256
      },
      "transpose_41" : {
        "k" : 1,
        "w" : 1,
        "n" : 1,
        "_rank" : 4,
        "h" : 256
      },
      "fastspeech2\/tf_op_layer_Mul_8\/Mul_8" : {
        "k" : 1,
        "w" : 256,
        "n" : 1,
        "_rank" : 3,
        "h" : 1
      },
      "fastspeech2\/encoder\/ffn_block_3\/multi_head_attention_add_on_3\/split_2:1" : {
        "k" : 1,
        "w" : 256,
        "n" : 1,
        "_rank" : 3,
        "h" : 256
      },
      "fastspeech2\/tf_op_layer_Mul_9\/Mul_9" : {
        "k" : 1,
        "w" : 256,
        "n" : 1,
        "_rank" : 3,
        "h" : 1
      },
      "fastspeech2\/encoder\/ffn_block\/multi_head_attention_add_on\/ExpandDims_5" : {
        "k" : 1,
        "w" : 256,
        "n" : 1,
        "_rank" : 4,
        "h" : 256
      },
      "fastspeech2\/variance_adaptor_1\/dense_1\/Tensordot\/Reshape" : {
        "k" : 1,
        "w" : 256,
        "n" : 1,
        "_rank" : 2,
        "h" : 256
      },
      "transpose_9" : {
        "k" : 1024,
        "w" : 256,
        "n" : 1,
        "_rank" : 4,
        "h" : 1
      },
      "fastspeech2\/encoder\/ffn_block_1\/multi_head_attention_add_on_1\/concat_2" : {
        "k" : 2,
        "w" : 256,
        "n" : 1,
        "_rank" : 4,
        "h" : 256
      },
      "transpose_11" : {
        "k" : 256,
        "w" : 256,
        "n" : 1,
        "_rank" : 4,
        "h" : 1
      },
      "fastspeech2\/variance_adaptor_2\/layer_normalization_12\/batchnorm\/add_1" : {
        "k" : 1,
        "w" : 256,
        "n" : 1,
        "_rank" : 3,
        "h" : 256
      },
      "fastspeech2\/variance_adaptor_1\/conv1d_12\/conv1d" : {
        "k" : 1,
        "w" : 256,
        "n" : 1,
        "_rank" : 4,
        "h" : 256
      },
      "fastspeech2\/encoder\/ffn_block_2\/multi_head_attention_add_on_2\/ExpandDims_4" : {
        "k" : 1,
        "w" : 256,
        "n" : 1,
        "_rank" : 4,
        "h" : 256
      },
      "fastspeech2\/encoder\/ffn_block\/conv1d_1\/conv1d\/ExpandDims" : {
        "k" : 1,
        "w" : 256,
        "n" : 1,
        "_rank" : 4,
        "h" : 256
      },
      "fastspeech2\/encoder\/ffn_block_1\/conv1d_3\/conv1d\/ExpandDims" : {
        "k" : 1,
        "w" : 256,
        "n" : 1,
        "_rank" : 4,
        "h" : 256
      },
      "fastspeech2\/tf_op_layer_Cast_6\/Cast_6" : {
        "k" : 1,
        "w" : 1,
        "n" : 1,
        "_rank" : 4,
        "h" : 256
      },
      "fastspeech2\/tf_op_layer_Mean_1\/Mean_1" : {
        "k" : 1,
        "w" : 1,
        "n" : 1,
        "_rank" : 3,
        "h" : 1
      },
      "fastspeech2\/encoder\/ffn_block\/add_1" : {
        "k" : 1,
        "w" : 256,
        "n" : 1,
        "_rank" : 3,
        "h" : 256
      },
      "fastspeech2\/tf_op_layer_AddV2_5\/AddV2_5" : {
        "k" : 1,
        "w" : 256,
        "n" : 1,
        "_rank" : 3,
        "h" : 1
      },
      "fastspeech2\/variance_adaptor_1\/dense_1\/Tensordot" : {
        "k" : 1,
        "w" : 1,
        "n" : 1,
        "h" : 256
      },
      "fastspeech2\/tf_op_layer_Less_1\/Less_1" : {
        "k" : 1,
        "w" : 1,
        "n" : 1,
        "_rank" : 4,
        "h" : 256
      },
      "fastspeech2\/tf_op_layer_Cast_3\/Cast_3" : {
        "k" : 1,
        "w" : 256,
        "n" : 1,
        "_rank" : 3,
        "h" : 1
      },
      "fastspeech2\/variance_adaptor_1\/dense_1\/Relu" : {
        "k" : 1,
        "w" : 1,
        "n" : 1,
        "h" : 256
      },
      "fastspeech2\/variance_adaptor\/layer_normalization_8\/batchnorm\/add_1" : {
        "k" : 1,
        "w" : 256,
        "n" : 1,
        "_rank" : 3,
        "h" : 256
      },
      "_neg_y_fastspeech2\/tf_op_layer_Sub_2\/Sub_2" : {
        "k" : 1,
        "w" : 256,
        "n" : 1,
        "_rank" : 2,
        "h" : 1
      },
      "fastspeech2\/embedding_2\/embedding_lookup" : {
        "k" : 1,
        "w" : 256,
        "n" : 1,
        "_rank" : 4,
        "h" : 256
      },
      "fastspeech2\/encoder\/ffn_block\/multi_head_attention_add_on\/Softmax" : {
        "k" : 2,
        "w" : 256,
        "n" : 1,
        "_rank" : 4,
        "h" : 256
      },
      "fastspeech2\/tf_op_layer_Cast_4\/Cast_4_cond" : {
        "k" : 1,
        "w" : 256,
        "n" : 1,
        "_rank" : 3,
        "h" : 1
      },
      "fastspeech2\/tf_op_layer_Minimum\/Minimum" : {
        "k" : 1,
        "w" : 256,
        "n" : 1,
        "_rank" : 3,
        "h" : 1
      },
      "fastspeech2\/tf_op_layer_Sub_1\/Sub_1" : {
        "k" : 1,
        "w" : 256,
        "n" : 1,
        "_rank" : 2,
        "h" : 1
      },
      "fastspeech2\/variance_adaptor_2\/conv1d_14\/conv1dx" : {
        "k" : 256,
        "w" : 256,
        "n" : 1,
        "_rank" : 4,
        "h" : 1
      },
      "fastspeech2\/encoder\/ffn_block_3\/conv1d_8\/conv1dx" : {
        "k" : 256,
        "w" : 256,
        "n" : 1,
        "_rank" : 4,
        "h" : 1
      },
      "fastspeech2\/encoder\/ffn_block_1\/multi_head_attention_add_on_1\/concat_3" : {
        "k" : 1,
        "w" : 512,
        "n" : 1,
        "_rank" : 3,
        "h" : 256
      },
      "fastspeech2\/encoder\/ffn_block_3\/multi_head_attention_add_on_3\/add" : {
        "k" : 1,
        "w" : 256,
        "n" : 1,
        "_rank" : 3,
        "h" : 256
      },
      "fastspeech2\/variance_adaptor_2\/dense_2\/Tensordot\/free" : {
        "k" : 1,
        "w" : 2,
        "n" : 1,
        "_rank" : 1,
        "h" : 1
      },
      "fastspeech2\/tf_op_layer_Sub_2\/Sub_2" : {
        "k" : 1,
        "w" : 256,
        "n" : 1,
        "_rank" : 2,
        "h" : 1
      },
      "fastspeech2\/encoder\/strided_slice_1_begin_0" : {
        "k" : 1,
        "w" : 2,
        "n" : 1,
        "_rank" : 1,
        "h" : 1
      },
      "fastspeech2\/variance_adaptor_1\/conv1d_11\/conv1d" : {
        "k" : 1,
        "w" : 256,
        "n" : 1,
        "_rank" : 4,
        "h" : 256
      },
      "fastspeech2\/encoder\/ffn_block_2\/multi_head_attention_add_on_2\/ExpandDims_3" : {
        "k" : 1,
        "w" : 256,
        "n" : 1,
        "_rank" : 4,
        "h" : 256
      },
      "fastspeech2\/encoder\/ffn_block_2\/multi_head_attention_add_on_2\/MatMul" : {
        "k" : 1,
        "w" : 512,
        "n" : 1,
        "_rank" : 3,
        "h" : 256
      },
      "fastspeech2\/variance_adaptor\/dense\/Tensordot\/GatherV2" : {
        "k" : 1,
        "w" : 2,
        "n" : 1,
        "_rank" : 1,
        "h" : 1
      },
      "fastspeech2\/tf_op_layer_strided_slice_9\/strided_slice_9" : {
        "k" : 1,
        "w" : 1,
        "n" : 1,
        "_rank" : 4,
        "h" : 1
      },
      "transpose_15" : {
        "k" : 256,
        "w" : 256,
        "n" : 1,
        "_rank" : 4,
        "h" : 1
      },
      "fastspeech2\/encoder\/ffn_block_2\/multi_head_attention_add_on_2\/split_2:0" : {
        "k" : 1,
        "w" : 256,
        "n" : 1,
        "_rank" : 3,
        "h" : 256
      },
      "fastspeech2\/variance_adaptor_1\/conv1d_12\/conv1dx" : {
        "k" : 256,
        "w" : 256,
        "n" : 1,
        "_rank" : 4,
        "h" : 1
      },
      "fastspeech2\/tf_op_layer_Sub_3\/Sub_3" : {
        "k" : 1,
        "w" : 256,
        "n" : 1,
        "_rank" : 3,
        "h" : 1
      },
      "fastspeech2\/variance_adaptor_1\/layer_normalization_10\/batchnorm\/add_1" : {
        "k" : 1,
        "w" : 256,
        "n" : 1,
        "_rank" : 3,
        "h" : 256
      },
      "fastspeech2\/variance_adaptor_3\/dense_3\/BiasAdd" : {
        "k" : 1,
        "w" : 1,
        "n" : 1,
        "h" : 256
      },
      "fastspeech2\/tf_op_layer_Slice\/Slice_const_name" : {
        "k" : 1,
        "w" : 3,
        "n" : 1,
        "_rank" : 1,
        "h" : 1
      },
      "fastspeech2\/encoder\/ffn_block\/multi_head_attention_add_on\/Squeeze_1" : {
        "k" : 1,
        "w" : 256,
        "n" : 1,
        "_rank" : 3,
        "h" : 256
      },
      "fastspeech2\/tf_op_layer_Sub_4\/Sub_4" : {
        "k" : 1,
        "w" : 256,
        "n" : 1,
        "_rank" : 3,
        "h" : 1
      },
      "fastspeech2\/tf_op_layer_Cast_3\/Cast_3_ceil" : {
        "k" : 1,
        "w" : 256,
        "n" : 1,
        "_rank" : 3,
        "h" : 1
      },
      "fastspeech2\/tf_op_layer_Maximum_1\/Maximum_1" : {
        "k" : 1,
        "w" : 256,
        "n" : 1,
        "_rank" : 3,
        "h" : 1
      },
      "fastspeech2\/tf_op_layer_Sub_5\/Sub_5" : {
        "k" : 1,
        "w" : 256,
        "n" : 1,
        "_rank" : 4,
        "h" : 1
      },
      "fastspeech2\/tf_op_layer_Range_1\/Range_1" : {
        "k" : 1,
        "w" : 1,
        "n" : 1,
        "_rank" : 1,
        "h" : 1
      },
      "fastspeech2\/encoder\/ffn_block_2\/multi_head_attention_add_on_2\/ExpandDims_2" : {
        "k" : 1,
        "w" : 256,
        "n" : 1,
        "_rank" : 4,
        "h" : 256
      },
      "fastspeech2\/encoder\/ffn_block_3\/multi_head_attention_add_on_3\/ExpandDims" : {
        "k" : 1,
        "w" : 256,
        "n" : 1,
        "_rank" : 4,
        "h" : 256
      },
      "fastspeech2\/encoder\/ffn_block_2\/conv1d_6\/conv1dx" : {
        "k" : 256,
        "w" : 256,
        "n" : 1,
        "_rank" : 4,
        "h" : 1
      },
      "input_feature_scale" : {
        "k" : 1,
        "w" : 3,
        "n" : 1,
        "_rank" : 3,
        "h" : 256
      },
      "fastspeech2\/tf_op_layer_Squeeze_2\/Squeeze_2" : {
        "k" : 1,
        "w" : 256,
        "n" : 1,
        "_rank" : 3,
        "h" : 1
      },
      "fastspeech2\/encoder\/ffn_block_3\/multi_head_attention_add_on_3\/transpose_4" : {
        "k" : 256,
        "w" : 256,
        "n" : 1,
        "_rank" : 4,
        "h" : 2
      },
      "fastspeech2\/encoder\/ffn_block_1\/multi_head_attention_add_on_1\/split_2:0" : {
        "k" : 1,
        "w" : 256,
        "n" : 1,
        "_rank" : 3,
        "h" : 256
      },
      "transpose_19" : {
        "k" : 256,
        "w" : 256,
        "n" : 1,
        "_rank" : 4,
        "h" : 1
      },
      "fastspeech2\/tf_op_layer_AddV2_6\/AddV2_6" : {
        "k" : 1,
        "w" : 256,
        "n" : 1,
        "_rank" : 3,
        "h" : 1
      },
      "fastspeech2\/encoder\/ffn_block_3\/multi_head_attention_add_on_3\/concat" : {
        "k" : 2,
        "w" : 256,
        "n" : 1,
        "_rank" : 4,
        "h" : 256
      },
      "fastspeech2\/variance_adaptor_1\/conv1d_11\/conv1dx" : {
        "k" : 256,
        "w" : 256,
        "n" : 1,
        "_rank" : 4,
        "h" : 1
      },
      "fastspeech2\/tf_op_layer_Slice\/Slice_end_index_without_mask" : {
        "k" : 1,
        "w" : 3,
        "n" : 1,
        "_rank" : 1,
        "h" : 1
      },
      "fastspeech2\/encoder\/ffn_block_3\/multi_head_attention_add_on_3\/Squeeze_1" : {
        "k" : 1,
        "w" : 256,
        "n" : 1,
        "_rank" : 3,
        "h" : 256
      },
      "input_sentence_prosody" : {
        "k" : 1,
        "w" : 5,
        "n" : 1,
        "_rank" : 3,
        "h" : 256
      },
      "fastspeech2\/tf_op_layer_Minimum\/Minimum\/y" : {
        "k" : 1,
        "w" : 1,
        "n" : 1,
        "_rank" : 1,
        "h" : 1
      },
      "fastspeech2\/encoder\/ffn_block_3\/layer_normalization_7\/batchnorm\/add_1" : {
        "k" : 1,
        "w" : 256,
        "n" : 1,
        "_rank" : 3,
        "h" : 256
      },
      "fastspeech2\/variance_adaptor_3\/conv1d_16\/conv1dx" : {
        "k" : 256,
        "w" : 256,
        "n" : 1,
        "_rank" : 4,
        "h" : 1
      },
      "fastspeech2\/encoder\/batch_normalization\/batchnorm\/add_1" : {
        "k" : 1,
        "w" : 256,
        "n" : 1,
        "_rank" : 3,
        "h" : 256
      },
      "fastspeech2\/encoder\/conv1d\/conv1d" : {
        "k" : 1,
        "w" : 256,
        "n" : 1,
        "_rank" : 4,
        "h" : 256
      },
      "fastspeech2\/encoder\/conv1d\/Relu" : {
        "k" : 1,
        "w" : 256,
        "n" : 1,
        "_rank" : 3,
        "h" : 256
      },
      "fastspeech2\/encoder\/ffn_block_2\/multi_head_attention_add_on_2\/ExpandDims_1" : {
        "k" : 1,
        "w" : 256,
        "n" : 1,
        "_rank" : 4,
        "h" : 256
      },
      "fastspeech2\/variance_adaptor_3\/conv1d_16\/Relu" : {
        "k" : 1,
        "w" : 256,
        "n" : 1,
        "_rank" : 3,
        "h" : 256
      },
      "Identity__reduction_axis__1" : {
        "k" : 1,
        "w" : 256,
        "n" : 1,
        "_rank" : 3,
        "h" : 1
      },
      "fastspeech2\/tf_op_layer_strided_slice_4\/strided_slice_4" : {
        "k" : 1,
        "w" : 256,
        "n" : 1,
        "_rank" : 2,
        "h" : 1
      },
      "fastspeech2\/encoder\/conv1d\/conv1d\/ExpandDims" : {
        "k" : 1,
        "w" : 256,
        "n" : 1,
        "_rank" : 4,
        "h" : 256
      },
      "fastspeech2\/tf_op_layer_RealDiv\/RealDiv" : {
        "k" : 1,
        "w" : 256,
        "n" : 1,
        "_rank" : 3,
        "h" : 1
      },
      "transpose_23" : {
        "k" : 257,
        "w" : 256,
        "n" : 1,
        "_rank" : 4,
        "h" : 1
      },
      "fastspeech2\/encoder\/ffn_block_2\/multi_head_attention_add_on_2\/split_2:1" : {
        "k" : 1,
        "w" : 256,
        "n" : 1,
        "_rank" : 3,
        "h" : 256
      },
      "fastspeech2\/variance_adaptor\/dense\/Tensordot\/concat_1" : {
        "k" : 1,
        "w" : 3,
        "n" : 1,
        "_rank" : 1,
        "h" : 1
      },
      "fastspeech2\/tf_op_layer_Pad\/Pad" : {
        "k" : 1,
        "w" : 257,
        "n" : 1,
        "_rank" : 4,
        "h" : 1
      },
      "transpose_40" : {
        "k" : 1,
        "w" : 256,
        "n" : 1,
        "_rank" : 4,
        "h" : 257
      },
      "fastspeech2\/tf_op_layer_Max\/Max_presqueeze" : {
        "k" : 1,
        "w" : 256,
        "n" : 1,
        "_rank" : 3,
        "h" : 1
      },
      "fastspeech2\/encoder\/ffn_block_1\/multi_head_attention_add_on_1\/Squeeze" : {
        "k" : 1,
        "w" : 256,
        "n" : 1,
        "_rank" : 3,
        "h" : 256
      },
      "fastspeech2\/variance_adaptor_3\/conv1d_16\/conv1d\/ExpandDims" : {
        "k" : 1,
        "w" : 256,
        "n" : 1,
        "_rank" : 4,
        "h" : 256
      },
      "fastspeech2\/variance_adaptor\/layer_normalization_9\/batchnorm\/add_1" : {
        "k" : 1,
        "w" : 256,
        "n" : 1,
        "_rank" : 3,
        "h" : 256
      },
      "fastspeech2\/embedding\/embedding_lookup_expand_dims" : {
        "k" : 1,
        "w" : 1,
        "n" : 1,
        "_rank" : 3,
        "h" : 256
      },
      "fastspeech2\/tf_op_layer_Slice\/Slice_end_index" : {
        "k" : 1,
        "w" : 4,
        "n" : 1,
        "_rank" : 1,
        "h" : 1
      },
      "fastspeech2\/tf_op_layer_Mul\/Mul" : {
        "k" : 1,
        "w" : 256,
        "n" : 1,
        "_rank" : 3,
        "h" : 1
      },
      "fastspeech2\/variance_adaptor_3\/dense_3\/Tensordot\/free" : {
        "k" : 1,
        "w" : 2,
        "n" : 1,
        "_rank" : 1,
        "h" : 1
      },
      "fastspeech2\/encoder\/ffn_block_2\/layer_normalization_5\/batchnorm\/add_1" : {
        "k" : 1,
        "w" : 256,
        "n" : 1,
        "_rank" : 3,
        "h" : 256
      },
      "fastspeech2\/encoder\/ffn_block_1\/conv1d_4\/conv1dx" : {
        "k" : 256,
        "w" : 256,
        "n" : 1,
        "_rank" : 4,
        "h" : 1
      },
      "fastspeech2\/encoder\/ffn_block_3\/multi_head_attention_add_on_3\/MatMul_1" : {
        "k" : 1,
        "w" : 512,
        "n" : 1,
        "_rank" : 3,
        "h" : 256
      },
      "input_feature_bias" : {
        "k" : 1,
        "w" : 3,
        "n" : 1,
        "_rank" : 3,
        "h" : 256
      },
      "fastspeech2\/encoder\/ffn_block_2\/conv1d_5\/conv1d\/ExpandDims" : {
        "k" : 1,
        "w" : 256,
        "n" : 1,
        "_rank" : 4,
        "h" : 256
      },
      "fastspeech2\/variance_adaptor_3\/layer_normalization_15\/batchnorm\/add_1" : {
        "k" : 1,
        "w" : 256,
        "n" : 1,
        "_rank" : 3,
        "h" : 256
      },
      "_neg_y_fastspeech2\/tf_op_layer_Sub_1\/Sub_1" : {
        "k" : 1,
        "w" : 256,
        "n" : 1,
        "_rank" : 2,
        "h" : 1
      },
      "transpose_7" : {
        "k" : 256,
        "w" : 256,
        "n" : 1,
        "_rank" : 4,
        "h" : 1
      },
      "fastspeech2\/variance_adaptor\/conv1d_9\/conv1d\/ExpandDims" : {
        "k" : 1,
        "w" : 256,
        "n" : 1,
        "_rank" : 4,
        "h" : 256
      },
      "fastspeech2\/tf_op_layer_BatchMatMulV2\/BatchMatMulV2" : {
        "k" : 1,
        "w" : 1,
        "n" : 1,
        "_rank" : 4,
        "h" : 257
      },
      "fastspeech2\/encoder\/ffn_block\/conv1d_2\/conv1dx" : {
        "k" : 256,
        "w" : 256,
        "n" : 1,
        "_rank" : 4,
        "h" : 1
      },
      "fastspeech2\/encoder\/ffn_block_3\/multi_head_attention_add_on_3\/split_3:0" : {
        "k" : 256,
        "w" : 256,
        "n" : 1,
        "_rank" : 4,
        "h" : 1
      }
    },
    "global_shapes" : {

    }
  },
  "subnetworks" : {

  }
}