program(1.0)
[buildInfo = dict<tensor<string, []>, tensor<string, []>>({{"coremlc-component-MIL", "5.16.0"}, {"coremlc-version", "1649.0.0"}})]
{
    func main<ios17>(tensor<fp32, [1, 29, 80]> feat, tensor<fp32, [2, 128, 8, 64]> ph_att_key_cache_in, tensor<fp32, [2, 64, 8, 128]> ph_att_value_cache_in, tensor<fp32, [2, 512, 1, 7]> ph_cnn_cache_in, tensor<fp32, [1, 1, 128]> ph_masks_in, tensor<fp32, [128]> ph_offset_in, tensor<fp32, [2, 128, 8, 64]> wp_att_key_cache_in, tensor<fp32, [12, 64, 8, 128]> wp_att_value_cache_in, tensor<fp32, [2, 128]> wp_c_cache_in, tensor<fp32, [12, 512, 1, 7]> wp_cnn_cache_in, tensor<fp32, [1, 1000, 64]> wp_ctx_emb, tensor<fp32, [1, 1, 1000]> wp_ctx_emb_mask, tensor<fp32, [2, 128]> wp_h_cache_in, tensor<fp32, [1, 1, 128]> wp_masks_in, tensor<fp32, [128]> wp_offset_in) [E5_FlagsEir = dict<tensor<string, []>, tensor<string, []>>({{"allowSoftmaxApproximation", "1"}, {"early_arch_conv_w_int8_no_bloat", "1"}, {"early_arch_extended_reshape", "1"}, {"experimental.ane.early_arch_transposes", "1"}, {"experimental.ane.enable_rsqrt", "1"}})] {
            tensor<int32, [1]> var_180_axes_0 = const()[name = tensor<string, []>("op_180_axes_0"), val = tensor<int32, [1]>([1])];
            tensor<string, []> ph_offset_in_to_fp16_dtype_0 = const()[name = tensor<string, []>("ph_offset_in_to_fp16_dtype_0"), val = tensor<string, []>("fp16")];
            tensor<fp16, [128]> cast_63 = cast(dtype = ph_offset_in_to_fp16_dtype_0, x = ph_offset_in);
            tensor<fp16, [128, 1]> var_180_cast = expand_dims(axes = var_180_axes_0, x = cast_63);
            tensor<fp16, []> var_181_promoted_to_fp16 = const()[name = tensor<string, []>("op_181_promoted_to_fp16"), val = tensor<fp16, []>(-120)];
            tensor<fp16, [128, 1]> offset_1_cast = add(x = var_180_cast, y = var_181_promoted_to_fp16);
            tensor<fp16, [512, 1]> x_1_weight_0_to_fp16 = const()[name = tensor<string, []>("x_1_weight_0_to_fp16"), val = tensor<fp16, [512, 1]>(BLOBFILE(path = tensor<string, []>("@model_path/weights/weight.bin"), offset = tensor<uint64, []>(64)))];
            tensor<fp16, [512]> x_1_bias_0_to_fp16 = const()[name = tensor<string, []>("x_1_bias_0_to_fp16"), val = tensor<fp16, [512]>(BLOBFILE(path = tensor<string, []>("@model_path/weights/weight.bin"), offset = tensor<uint64, []>(1152)))];
            tensor<fp16, [128, 512]> x_1_cast = linear(bias = x_1_bias_0_to_fp16, weight = x_1_weight_0_to_fp16, x = offset_1_cast);
            tensor<fp16, [128, 512]> var_185_cast = sin(x = x_1_cast);
            tensor<int32, [1]> pos_emb_1_axes_0 = const()[name = tensor<string, []>("pos_emb_1_axes_0"), val = tensor<int32, [1]>([0])];
            tensor<fp16, [1, 128, 512]> pos_emb_1_cast = expand_dims(axes = pos_emb_1_axes_0, x = var_185_cast);
            tensor<string, []> feat_to_fp16_dtype_0 = const()[name = tensor<string, []>("feat_to_fp16_dtype_0"), val = tensor<string, []>("fp16")];
            tensor<fp16, [80]> secondary_encoder_global_cmvn_mean_to_fp16 = const()[name = tensor<string, []>("secondary_encoder_global_cmvn_mean_to_fp16"), val = tensor<fp16, [80]>(BLOBFILE(path = tensor<string, []>("@model_path/weights/weight.bin"), offset = tensor<uint64, []>(2240)))];
            tensor<fp16, [1, 29, 80]> cast_62 = cast(dtype = feat_to_fp16_dtype_0, x = feat);
            tensor<fp16, [1, 29, 80]> x_3_cast = sub(x = cast_62, y = secondary_encoder_global_cmvn_mean_to_fp16);
            tensor<fp16, [80]> secondary_encoder_global_cmvn_istd_to_fp16 = const()[name = tensor<string, []>("secondary_encoder_global_cmvn_istd_to_fp16"), val = tensor<fp16, [80]>(BLOBFILE(path = tensor<string, []>("@model_path/weights/weight.bin"), offset = tensor<uint64, []>(2496)))];
            tensor<fp16, [1, 29, 80]> xs_3_cast = mul(x = x_3_cast, y = secondary_encoder_global_cmvn_istd_to_fp16);
            tensor<int32, [1]> var_194_axes_0 = const()[name = tensor<string, []>("op_194_axes_0"), val = tensor<int32, [1]>([2])];
            tensor<fp16, [1, 128, 1, 512]> var_194_cast = expand_dims(axes = var_194_axes_0, x = pos_emb_1_cast);
            tensor<int32, [4]> var_199 = const()[name = tensor<string, []>("op_199"), val = tensor<int32, [4]>([1, -1, 1, 1])];
            tensor<string, []> ph_masks_in_to_fp16_dtype_0 = const()[name = tensor<string, []>("ph_masks_in_to_fp16_dtype_0"), val = tensor<string, []>("fp16")];
            tensor<fp16, [1, 1, 128]> cast_61 = cast(dtype = ph_masks_in_to_fp16_dtype_0, x = ph_masks_in);
            tensor<fp16, [1, 128, 1, 1]> mask_1_cast = reshape(shape = var_199, x = cast_61);
            tensor<int32, []> var_226 = const()[name = tensor<string, []>("op_226"), val = tensor<int32, []>(-1)];
            tensor<bool, []> var_227_interleave_0 = const()[name = tensor<string, []>("op_227_interleave_0"), val = tensor<bool, []>(false)];
            tensor<fp16, [2, 512, 1, 25]> op_224_to_fp16_affine_quantized = constexpr_affine_dequantize()[axis = tensor<int32, []>(0), name = tensor<string, []>("op_224_to_fp16_affine_quantized"), quantized_data = tensor<int8, [2, 512, 1, 25]>(BLOBFILE(path = tensor<string, []>("@model_path/weights/weight.bin"), offset = tensor<uint64, []>(2752))), scale = tensor<fp16, [2]>([0.00787353516, 0.00787353516]), zero_point = tensor<int8, [2]>([0, 0])];
            tensor<string, []> ph_cnn_cache_in_to_fp16_dtype_0 = const()[name = tensor<string, []>("ph_cnn_cache_in_to_fp16_dtype_0"), val = tensor<string, []>("fp16")];
            tensor<fp16, [2, 512, 1, 7]> cast_60 = cast(dtype = ph_cnn_cache_in_to_fp16_dtype_0, x = ph_cnn_cache_in);
            tensor<fp16, [2, 512, 1, 32]> var_227_cast = concat(axis = var_226, interleave = var_227_interleave_0, values = (op_224_to_fp16_affine_quantized, cast_60));
            tensor<int32, [2]> tile_0 = const()[name = tensor<string, []>("tile_0"), val = tensor<int32, [2]>([1, 1])];
            tensor<int32, []> var_230_axis_0 = const()[name = tensor<string, []>("op_230_axis_0"), val = tensor<int32, []>(0)];
            tensor<fp16, [1, 512, 1, 32]> var_230_cast_0, tensor<fp16, [1, 512, 1, 32]> var_230_cast_1 = split(axis = var_230_axis_0, split_sizes = tile_0, x = var_227_cast);
            tensor<int32, [2]> tile_1 = const()[name = tensor<string, []>("tile_1"), val = tensor<int32, [2]>([1, 1])];
            tensor<int32, []> var_235_axis_0 = const()[name = tensor<string, []>("op_235_axis_0"), val = tensor<int32, []>(0)];
            tensor<string, []> ph_att_key_cache_in_to_fp16_dtype_0 = const()[name = tensor<string, []>("ph_att_key_cache_in_to_fp16_dtype_0"), val = tensor<string, []>("fp16")];
            tensor<fp16, [2, 128, 8, 64]> cast_59 = cast(dtype = ph_att_key_cache_in_to_fp16_dtype_0, x = ph_att_key_cache_in);
            tensor<fp16, [1, 128, 8, 64]> var_235_cast_0, tensor<fp16, [1, 128, 8, 64]> var_235_cast_1 = split(axis = var_235_axis_0, split_sizes = tile_1, x = cast_59);
            tensor<int32, [2]> tile_2 = const()[name = tensor<string, []>("tile_2"), val = tensor<int32, [2]>([1, 1])];
            tensor<int32, []> var_240_axis_0 = const()[name = tensor<string, []>("op_240_axis_0"), val = tensor<int32, []>(0)];
            tensor<string, []> ph_att_value_cache_in_to_fp16_dtype_0 = const()[name = tensor<string, []>("ph_att_value_cache_in_to_fp16_dtype_0"), val = tensor<string, []>("fp16")];
            tensor<fp16, [2, 64, 8, 128]> cast_58 = cast(dtype = ph_att_value_cache_in_to_fp16_dtype_0, x = ph_att_value_cache_in);
            tensor<fp16, [1, 64, 8, 128]> var_240_cast_0, tensor<fp16, [1, 64, 8, 128]> var_240_cast_1 = split(axis = var_240_axis_0, split_sizes = tile_2, x = cast_58);
            tensor<int32, [3]> var_245_perm_0 = const()[name = tensor<string, []>("op_245_perm_0"), val = tensor<int32, [3]>([0, 2, 1])];
            tensor<int32, [1]> x_9_axes_0 = const()[name = tensor<string, []>("x_9_axes_0"), val = tensor<int32, [1]>([1])];
            tensor<fp16, [1, 80, 29]> transpose_25 = transpose(perm = var_245_perm_0, x = xs_3_cast);
            tensor<fp16, [1, 1, 80, 29]> x_9_cast = expand_dims(axes = x_9_axes_0, x = transpose_25);
            tensor<int32, [1]> var_251_axes_0 = const()[name = tensor<string, []>("op_251_axes_0"), val = tensor<int32, [1]>([1])];
            tensor<string, []> wp_offset_in_to_fp16_dtype_0 = const()[name = tensor<string, []>("wp_offset_in_to_fp16_dtype_0"), val = tensor<string, []>("fp16")];
            tensor<fp16, [128]> cast_57 = cast(dtype = wp_offset_in_to_fp16_dtype_0, x = wp_offset_in);
            tensor<fp16, [128, 1]> var_251_cast = expand_dims(axes = var_251_axes_0, x = cast_57);
            tensor<fp16, []> var_252_promoted_to_fp16 = const()[name = tensor<string, []>("op_252_promoted_to_fp16"), val = tensor<fp16, []>(-124)];
            tensor<fp16, [128, 1]> offset_cast = add(x = var_251_cast, y = var_252_promoted_to_fp16);
            tensor<fp16, [512, 1]> x_5_weight_0_to_fp16 = const()[name = tensor<string, []>("x_5_weight_0_to_fp16"), val = tensor<fp16, [512, 1]>(BLOBFILE(path = tensor<string, []>("@model_path/weights/weight.bin"), offset = tensor<uint64, []>(28416)))];
            tensor<fp16, [512]> x_5_bias_0_to_fp16 = const()[name = tensor<string, []>("x_5_bias_0_to_fp16"), val = tensor<fp16, [512]>(BLOBFILE(path = tensor<string, []>("@model_path/weights/weight.bin"), offset = tensor<uint64, []>(29504)))];
            tensor<fp16, [128, 512]> x_5_cast = linear(bias = x_5_bias_0_to_fp16, weight = x_5_weight_0_to_fp16, x = offset_cast);
            tensor<fp16, [128, 512]> var_256_cast = sin(x = x_5_cast);
            tensor<int32, [1]> pos_emb_axes_0 = const()[name = tensor<string, []>("pos_emb_axes_0"), val = tensor<int32, [1]>([0])];
            tensor<fp16, [1, 128, 512]> pos_emb_cast = expand_dims(axes = pos_emb_axes_0, x = var_256_cast);
            tensor<fp16, [80]> primary_encoder_global_cmvn_mean_to_fp16 = const()[name = tensor<string, []>("primary_encoder_global_cmvn_mean_to_fp16"), val = tensor<fp16, [80]>(BLOBFILE(path = tensor<string, []>("@model_path/weights/weight.bin"), offset = tensor<uint64, []>(30592)))];
            tensor<fp16, [1, 29, 80]> x_7_cast = sub(x = cast_62, y = primary_encoder_global_cmvn_mean_to_fp16);
            tensor<fp16, [80]> primary_encoder_global_cmvn_istd_to_fp16 = const()[name = tensor<string, []>("primary_encoder_global_cmvn_istd_to_fp16"), val = tensor<fp16, [80]>(BLOBFILE(path = tensor<string, []>("@model_path/weights/weight.bin"), offset = tensor<uint64, []>(30848)))];
            tensor<fp16, [1, 29, 80]> xs_5_cast = mul(x = x_7_cast, y = primary_encoder_global_cmvn_istd_to_fp16);
            tensor<int32, [1]> var_265_axes_0 = const()[name = tensor<string, []>("op_265_axes_0"), val = tensor<int32, [1]>([2])];
            tensor<fp16, [1, 128, 1, 512]> var_265_cast = expand_dims(axes = var_265_axes_0, x = pos_emb_cast);
            tensor<int32, [4]> var_270 = const()[name = tensor<string, []>("op_270"), val = tensor<int32, [4]>([1, -1, 1, 1])];
            tensor<string, []> wp_masks_in_to_fp16_dtype_0 = const()[name = tensor<string, []>("wp_masks_in_to_fp16_dtype_0"), val = tensor<string, []>("fp16")];
            tensor<fp16, [1, 1, 128]> cast_56 = cast(dtype = wp_masks_in_to_fp16_dtype_0, x = wp_masks_in);
            tensor<fp16, [1, 128, 1, 1]> mask_3_cast = reshape(shape = var_270, x = cast_56);
            tensor<int32, []> var_297 = const()[name = tensor<string, []>("op_297"), val = tensor<int32, []>(-1)];
            tensor<bool, []> var_298_interleave_0 = const()[name = tensor<string, []>("op_298_interleave_0"), val = tensor<bool, []>(false)];
            tensor<fp16, [12, 512, 1, 25]> op_295_to_fp16_affine_quantized = constexpr_affine_dequantize()[axis = tensor<int32, []>(0), name = tensor<string, []>("op_295_to_fp16_affine_quantized"), quantized_data = tensor<int8, [12, 512, 1, 25]>(BLOBFILE(path = tensor<string, []>("@model_path/weights/weight.bin"), offset = tensor<uint64, []>(31104))), scale = tensor<fp16, [12]>(BLOBFILE(path = tensor<string, []>("@model_path/weights/weight.bin"), offset = tensor<uint64, []>(184896))), zero_point = tensor<int8, [12]>(BLOBFILE(path = tensor<string, []>("@model_path/weights/weight.bin"), offset = tensor<uint64, []>(184768)))];
            tensor<string, []> wp_cnn_cache_in_to_fp16_dtype_0 = const()[name = tensor<string, []>("wp_cnn_cache_in_to_fp16_dtype_0"), val = tensor<string, []>("fp16")];
            tensor<fp16, [12, 512, 1, 7]> cast_55 = cast(dtype = wp_cnn_cache_in_to_fp16_dtype_0, x = wp_cnn_cache_in);
            tensor<fp16, [12, 512, 1, 32]> var_298_cast = concat(axis = var_297, interleave = var_298_interleave_0, values = (op_295_to_fp16_affine_quantized, cast_55));
            tensor<int32, [12]> tile_3 = const()[name = tensor<string, []>("tile_3"), val = tensor<int32, [12]>([1, 1, 1, 1, 1, 1, 1, 1, 1, 1, 1, 1])];
            tensor<int32, []> var_301_axis_0 = const()[name = tensor<string, []>("op_301_axis_0"), val = tensor<int32, []>(0)];
            tensor<fp16, [1, 512, 1, 32]> var_301_cast_0, tensor<fp16, [1, 512, 1, 32]> var_301_cast_1, tensor<fp16, [1, 512, 1, 32]> var_301_cast_2, tensor<fp16, [1, 512, 1, 32]> var_301_cast_3, tensor<fp16, [1, 512, 1, 32]> var_301_cast_4, tensor<fp16, [1, 512, 1, 32]> var_301_cast_5, tensor<fp16, [1, 512, 1, 32]> var_301_cast_6, tensor<fp16, [1, 512, 1, 32]> var_301_cast_7, tensor<fp16, [1, 512, 1, 32]> var_301_cast_8, tensor<fp16, [1, 512, 1, 32]> var_301_cast_9, tensor<fp16, [1, 512, 1, 32]> var_301_cast_10, tensor<fp16, [1, 512, 1, 32]> var_301_cast_11 = split(axis = var_301_axis_0, split_sizes = tile_3, x = var_298_cast);
            tensor<int32, [2]> tile_4 = const()[name = tensor<string, []>("tile_4"), val = tensor<int32, [2]>([1, 1])];
            tensor<int32, []> var_316_axis_0 = const()[name = tensor<string, []>("op_316_axis_0"), val = tensor<int32, []>(0)];
            tensor<string, []> wp_att_key_cache_in_to_fp16_dtype_0 = const()[name = tensor<string, []>("wp_att_key_cache_in_to_fp16_dtype_0"), val = tensor<string, []>("fp16")];
            tensor<fp16, [2, 128, 8, 64]> cast_54 = cast(dtype = wp_att_key_cache_in_to_fp16_dtype_0, x = wp_att_key_cache_in);
            tensor<fp16, [1, 128, 8, 64]> var_316_cast_0, tensor<fp16, [1, 128, 8, 64]> var_316_cast_1 = split(axis = var_316_axis_0, split_sizes = tile_4, x = cast_54);
            tensor<int32, [12]> tile_5 = const()[name = tensor<string, []>("tile_5"), val = tensor<int32, [12]>([1, 1, 1, 1, 1, 1, 1, 1, 1, 1, 1, 1])];
            tensor<int32, []> var_321_axis_0 = const()[name = tensor<string, []>("op_321_axis_0"), val = tensor<int32, []>(0)];
            tensor<string, []> wp_att_value_cache_in_to_fp16_dtype_0 = const()[name = tensor<string, []>("wp_att_value_cache_in_to_fp16_dtype_0"), val = tensor<string, []>("fp16")];
            tensor<fp16, [12, 64, 8, 128]> cast_53 = cast(dtype = wp_att_value_cache_in_to_fp16_dtype_0, x = wp_att_value_cache_in);
            tensor<fp16, [1, 64, 8, 128]> var_321_cast_0, tensor<fp16, [1, 64, 8, 128]> var_321_cast_1, tensor<fp16, [1, 64, 8, 128]> var_321_cast_2, tensor<fp16, [1, 64, 8, 128]> var_321_cast_3, tensor<fp16, [1, 64, 8, 128]> var_321_cast_4, tensor<fp16, [1, 64, 8, 128]> var_321_cast_5, tensor<fp16, [1, 64, 8, 128]> var_321_cast_6, tensor<fp16, [1, 64, 8, 128]> var_321_cast_7, tensor<fp16, [1, 64, 8, 128]> var_321_cast_8, tensor<fp16, [1, 64, 8, 128]> var_321_cast_9, tensor<fp16, [1, 64, 8, 128]> var_321_cast_10, tensor<fp16, [1, 64, 8, 128]> var_321_cast_11 = split(axis = var_321_axis_0, split_sizes = tile_5, x = cast_53);
            tensor<int32, [3]> var_336_perm_0 = const()[name = tensor<string, []>("op_336_perm_0"), val = tensor<int32, [3]>([0, 2, 1])];
            tensor<int32, [1]> x_129_axes_0 = const()[name = tensor<string, []>("x_129_axes_0"), val = tensor<int32, [1]>([1])];
            tensor<fp16, [1, 80, 29]> transpose_24 = transpose(perm = var_336_perm_0, x = xs_5_cast);
            tensor<fp16, [1, 1, 80, 29]> x_129_cast = expand_dims(axes = x_129_axes_0, x = transpose_24);
            tensor<int32, [3]> var_341_perm_0 = const()[name = tensor<string, []>("op_341_perm_0"), val = tensor<int32, [3]>([0, 2, 1])];
            tensor<string, []> wp_ctx_emb_to_fp16_dtype_0 = const()[name = tensor<string, []>("wp_ctx_emb_to_fp16_dtype_0"), val = tensor<string, []>("fp16")];
            tensor<int32, [1]> x_797_axes_0 = const()[name = tensor<string, []>("x_797_axes_0"), val = tensor<int32, [1]>([2])];
            tensor<fp16, [1, 1000, 64]> cast_52 = cast(dtype = wp_ctx_emb_to_fp16_dtype_0, x = wp_ctx_emb);
            tensor<fp16, [1, 64, 1000]> transpose_23 = transpose(perm = var_341_perm_0, x = cast_52);
            tensor<fp16, [1, 64, 1, 1000]> x_797_cast = expand_dims(axes = x_797_axes_0, x = transpose_23);
            tensor<int32, [4]> var_348 = const()[name = tensor<string, []>("op_348"), val = tensor<int32, [4]>([1, -1, 1, 1])];
            tensor<string, []> wp_ctx_emb_mask_to_fp16_dtype_0 = const()[name = tensor<string, []>("wp_ctx_emb_mask_to_fp16_dtype_0"), val = tensor<string, []>("fp16")];
            tensor<fp16, [1, 1, 1000]> cast_51 = cast(dtype = wp_ctx_emb_mask_to_fp16_dtype_0, x = wp_ctx_emb_mask);
            tensor<fp16, [1, 1000, 1, 1]> mask_cast = reshape(shape = var_348, x = cast_51);
            tensor<int32, [1]> var_361_axes_0 = const()[name = tensor<string, []>("op_361_axes_0"), val = tensor<int32, [1]>([2])];
            tensor<string, []> wp_h_cache_in_to_fp16_dtype_0 = const()[name = tensor<string, []>("wp_h_cache_in_to_fp16_dtype_0"), val = tensor<string, []>("fp16")];
            tensor<fp16, [2, 128]> cast_50 = cast(dtype = wp_h_cache_in_to_fp16_dtype_0, x = wp_h_cache_in);
            tensor<fp16, [2, 128, 1]> var_361_cast = expand_dims(axes = var_361_axes_0, x = cast_50);
            tensor<int32, [1]> var_363_axes_0 = const()[name = tensor<string, []>("op_363_axes_0"), val = tensor<int32, [1]>([3])];
            tensor<fp16, [2, 128, 1, 1]> var_363_cast = expand_dims(axes = var_363_axes_0, x = var_361_cast);
            tensor<int32, [2]> tile_6 = const()[name = tensor<string, []>("tile_6"), val = tensor<int32, [2]>([1, 1])];
            tensor<int32, []> var_366_axis_0 = const()[name = tensor<string, []>("op_366_axis_0"), val = tensor<int32, []>(0)];
            tensor<fp16, [1, 128, 1, 1]> var_366_cast_0, tensor<fp16, [1, 128, 1, 1]> var_366_cast_1 = split(axis = var_366_axis_0, split_sizes = tile_6, x = var_363_cast);
            tensor<int32, [1]> var_380_axes_0 = const()[name = tensor<string, []>("op_380_axes_0"), val = tensor<int32, [1]>([2])];
            tensor<string, []> wp_c_cache_in_to_fp16_dtype_0 = const()[name = tensor<string, []>("wp_c_cache_in_to_fp16_dtype_0"), val = tensor<string, []>("fp16")];
            tensor<fp16, [2, 128]> cast_49 = cast(dtype = wp_c_cache_in_to_fp16_dtype_0, x = wp_c_cache_in);
            tensor<fp16, [2, 128, 1]> var_380_cast = expand_dims(axes = var_380_axes_0, x = cast_49);
            tensor<int32, [1]> var_382_axes_0 = const()[name = tensor<string, []>("op_382_axes_0"), val = tensor<int32, [1]>([3])];
            tensor<fp16, [2, 128, 1, 1]> var_382_cast = expand_dims(axes = var_382_axes_0, x = var_380_cast);
            tensor<int32, [2]> tile_7 = const()[name = tensor<string, []>("tile_7"), val = tensor<int32, [2]>([1, 1])];
            tensor<int32, []> var_385_axis_0 = const()[name = tensor<string, []>("op_385_axis_0"), val = tensor<int32, []>(0)];
            tensor<fp16, [1, 128, 1, 1]> var_385_cast_0, tensor<fp16, [1, 128, 1, 1]> var_385_cast_1 = split(axis = var_385_axis_0, split_sizes = tile_7, x = var_382_cast);
            tensor<int32, []> var_393 = const()[name = tensor<string, []>("op_393"), val = tensor<int32, []>(1)];
            tensor<int32, [4]> input_1_perm_0 = const()[name = tensor<string, []>("input_1_perm_0"), val = tensor<int32, [4]>([0, 2, 1, 3])];
            tensor<int32, [2]> var_398 = const()[name = tensor<string, []>("op_398"), val = tensor<int32, [2]>([1, 3])];
            tensor<int32, [2]> var_400 = const()[name = tensor<string, []>("op_400"), val = tensor<int32, [2]>([1, 1])];
            tensor<string, []> x_11_pad_type_0 = const()[name = tensor<string, []>("x_11_pad_type_0"), val = tensor<string, []>("custom")];
            tensor<int32, [4]> x_11_pad_0 = const()[name = tensor<string, []>("x_11_pad_0"), val = tensor<int32, [4]>([0, 0, 0, 0])];
            tensor<fp16, [512, 80, 1, 7]> secondary_encoder_embed_out_weight_to_fp16_affine_quantized = constexpr_affine_dequantize()[axis = tensor<int32, []>(0), name = tensor<string, []>("secondary_encoder_embed_out_weight_to_fp16_affine_quantized"), quantized_data = tensor<int8, [512, 80, 1, 7]>(BLOBFILE(path = tensor<string, []>("@model_path/weights/weight.bin"), offset = tensor<uint64, []>(185024))), scale = tensor<fp16, [512]>(BLOBFILE(path = tensor<string, []>("@model_path/weights/weight.bin"), offset = tensor<uint64, []>(472384))), zero_point = tensor<int8, [512]>(BLOBFILE(path = tensor<string, []>("@model_path/weights/weight.bin"), offset = tensor<uint64, []>(471808)))];
            tensor<fp16, [512]> secondary_encoder_embed_out_bias_to_fp16 = const()[name = tensor<string, []>("secondary_encoder_embed_out_bias_to_fp16"), val = tensor<fp16, [512]>(BLOBFILE(path = tensor<string, []>("@model_path/weights/weight.bin"), offset = tensor<uint64, []>(473472)))];
            tensor<fp16, [1, 80, 1, 29]> transpose_22 = transpose(perm = input_1_perm_0, x = x_9_cast);
            tensor<fp16, [1, 512, 1, 8]> x_11_cast = conv(bias = secondary_encoder_embed_out_bias_to_fp16, dilations = var_400, groups = var_393, pad = x_11_pad_0, pad_type = x_11_pad_type_0, strides = var_398, weight = secondary_encoder_embed_out_weight_to_fp16_affine_quantized, x = transpose_22);
            tensor<int32, []> var_408 = const()[name = tensor<string, []>("op_408"), val = tensor<int32, []>(512)];
            tensor<int32, []> var_415 = const()[name = tensor<string, []>("op_415"), val = tensor<int32, []>(2)];
            tensor<int32, []> var_418 = const()[name = tensor<string, []>("op_418"), val = tensor<int32, []>(-1)];
            tensor<bool, []> var_420 = const()[name = tensor<string, []>("op_420"), val = tensor<bool, []>(true)];
            tensor<int32, []> var_421 = const()[name = tensor<string, []>("op_421"), val = tensor<int32, []>(1)];
            tensor<fp16, [1, 512, 1, 8]> var_468_cast = abs(x = x_11_cast);
            tensor<fp16, []> var_469_to_fp16 = const()[name = tensor<string, []>("op_469_to_fp16"), val = tensor<fp16, []>(0.001953125)];
            tensor<fp16, [1, 512, 1, 8]> var_470_cast = mul(x = var_468_cast, y = var_469_to_fp16);
            tensor<int32, [1]> var_471 = const()[name = tensor<string, []>("op_471"), val = tensor<int32, [1]>([1])];
            tensor<fp16, [1, 1, 1, 8]> scale_1_cast = reduce_sum(axes = var_471, keep_dims = var_420, x = var_470_cast);
            tensor<fp16, []> scale_3_epsilon_0_to_fp16 = const()[name = tensor<string, []>("scale_3_epsilon_0_to_fp16"), val = tensor<fp16, []>(5.96046448e-08)];
            tensor<fp16, [1, 1, 1, 8]> scale_3_cast = rsqrt(epsilon = scale_3_epsilon_0_to_fp16, x = scale_1_cast);
            tensor<fp16, [1, 1, 1, 8]> scale_5_cast = mul(x = scale_3_cast, y = scale_3_cast);
            tensor<fp16, [1, 512, 1, 8]> x_13_cast = mul(x = x_11_cast, y = scale_5_cast);
            tensor<fp16, []> var_476_to_fp16 = const()[name = tensor<string, []>("op_476_to_fp16"), val = tensor<fp16, []>(-0.001953125)];
            tensor<fp16, [1, 512, 1, 8]> var_477_cast = mul(x = x_13_cast, y = var_476_to_fp16);
            tensor<int32, [1]> var_478 = const()[name = tensor<string, []>("op_478"), val = tensor<int32, [1]>([1])];
            tensor<fp16, [1, 1, 1, 8]> x_mean_1_cast = reduce_sum(axes = var_478, keep_dims = var_420, x = var_477_cast);
            tensor<fp16, [1, 512, 1, 8]> x_zero_mean_1_cast = add(x = x_13_cast, y = x_mean_1_cast);
            tensor<fp16, []> var_481_to_fp16 = const()[name = tensor<string, []>("op_481_to_fp16"), val = tensor<fp16, []>(0.001953125)];
            tensor<fp16, [1, 512, 1, 8]> var_482_cast = mul(x = x_zero_mean_1_cast, y = var_481_to_fp16);
            tensor<fp16, [1, 512, 1, 8]> var_483_cast = mul(x = var_482_cast, y = x_zero_mean_1_cast);
            tensor<int32, [1]> var_484 = const()[name = tensor<string, []>("op_484"), val = tensor<int32, [1]>([1])];
            tensor<fp16, [1, 1, 1, 8]> x_var_1_cast = reduce_sum(axes = var_484, keep_dims = var_420, x = var_483_cast);
            tensor<fp16, []> var_486_to_fp16 = const()[name = tensor<string, []>("op_486_to_fp16"), val = tensor<fp16, []>(1.00135803e-05)];
            tensor<fp16, [1, 1, 1, 8]> var_487_cast = add(x = x_var_1_cast, y = var_486_to_fp16);
            tensor<fp16, []> var_488_epsilon_0_to_fp16 = const()[name = tensor<string, []>("op_488_epsilon_0_to_fp16"), val = tensor<fp16, []>(5.96046448e-08)];
            tensor<fp16, [1, 1, 1, 8]> var_488_cast = rsqrt(epsilon = var_488_epsilon_0_to_fp16, x = var_487_cast);
            tensor<fp16, [1, 512, 1, 8]> var_489_cast = mul(x = x_zero_mean_1_cast, y = var_488_cast);
            tensor<fp16, [512]> x_15_mean_0_to_fp16 = const()[name = tensor<string, []>("x_15_mean_0_to_fp16"), val = tensor<fp16, [512]>(BLOBFILE(path = tensor<string, []>("@model_path/weights/weight.bin"), offset = tensor<uint64, []>(474560)))];
            tensor<fp16, [512]> x_15_variance_0_to_fp16 = const()[name = tensor<string, []>("x_15_variance_0_to_fp16"), val = tensor<fp16, [512]>(BLOBFILE(path = tensor<string, []>("@model_path/weights/weight.bin"), offset = tensor<uint64, []>(475648)))];
            tensor<fp16, [512]> x_15_gamma_0_to_fp16 = const()[name = tensor<string, []>("x_15_gamma_0_to_fp16"), val = tensor<fp16, [512]>(BLOBFILE(path = tensor<string, []>("@model_path/weights/weight.bin"), offset = tensor<uint64, []>(476736)))];
            tensor<fp16, [512]> x_15_beta_0_to_fp16 = const()[name = tensor<string, []>("x_15_beta_0_to_fp16"), val = tensor<fp16, [512]>(BLOBFILE(path = tensor<string, []>("@model_path/weights/weight.bin"), offset = tensor<uint64, []>(477824)))];
            tensor<fp16, []> x_15_epsilon_0_to_fp16 = const()[name = tensor<string, []>("x_15_epsilon_0_to_fp16"), val = tensor<fp16, []>(1.00135803e-05)];
            tensor<fp16, [1, 512, 1, 8]> x_15_cast = batch_norm(beta = x_15_beta_0_to_fp16, epsilon = x_15_epsilon_0_to_fp16, gamma = x_15_gamma_0_to_fp16, mean = x_15_mean_0_to_fp16, variance = x_15_variance_0_to_fp16, x = var_489_cast);
            tensor<int32, [2]> var_500 = const()[name = tensor<string, []>("op_500"), val = tensor<int32, [2]>([1, 1])];
            tensor<int32, [2]> var_502 = const()[name = tensor<string, []>("op_502"), val = tensor<int32, [2]>([1, 1])];
            tensor<string, []> input_3_pad_type_0 = const()[name = tensor<string, []>("input_3_pad_type_0"), val = tensor<string, []>("custom")];
            tensor<int32, [4]> input_3_pad_0 = const()[name = tensor<string, []>("input_3_pad_0"), val = tensor<int32, [4]>([0, 0, 0, 0])];
            tensor<fp16, [2048, 512, 1, 1]> op_499_to_fp16_affine_quantized = constexpr_affine_dequantize()[axis = tensor<int32, []>(0), name = tensor<string, []>("op_499_to_fp16_affine_quantized"), quantized_data = tensor<int8, [2048, 512, 1, 1]>(BLOBFILE(path = tensor<string, []>("@model_path/weights/weight.bin"), offset = tensor<uint64, []>(478912))), scale = tensor<fp16, [2048]>(BLOBFILE(path = tensor<string, []>("@model_path/weights/weight.bin"), offset = tensor<uint64, []>(1529664))), zero_point = tensor<int8, [2048]>(BLOBFILE(path = tensor<string, []>("@model_path/weights/weight.bin"), offset = tensor<uint64, []>(1527552)))];
            tensor<fp16, [2048]> secondary_encoder_encoders_0_feed_forward_macaron_w_1_bias_to_fp16 = const()[name = tensor<string, []>("secondary_encoder_encoders_0_feed_forward_macaron_w_1_bias_to_fp16"), val = tensor<fp16, [2048]>(BLOBFILE(path = tensor<string, []>("@model_path/weights/weight.bin"), offset = tensor<uint64, []>(1533824)))];
            tensor<fp16, [1, 2048, 1, 8]> input_3_cast = conv(bias = secondary_encoder_encoders_0_feed_forward_macaron_w_1_bias_to_fp16, dilations = var_502, groups = var_421, pad = input_3_pad_0, pad_type = input_3_pad_type_0, strides = var_500, weight = op_499_to_fp16_affine_quantized, x = x_15_cast);
            tensor<fp16, [1, 2048, 1, 8]> input_5_cast = silu(x = input_3_cast);
            tensor<int32, [2]> var_511 = const()[name = tensor<string, []>("op_511"), val = tensor<int32, [2]>([1, 1])];
            tensor<int32, [2]> var_513 = const()[name = tensor<string, []>("op_513"), val = tensor<int32, [2]>([1, 1])];
            tensor<string, []> input_7_pad_type_0 = const()[name = tensor<string, []>("input_7_pad_type_0"), val = tensor<string, []>("custom")];
            tensor<int32, [4]> input_7_pad_0 = const()[name = tensor<string, []>("input_7_pad_0"), val = tensor<int32, [4]>([0, 0, 0, 0])];
            tensor<fp16, [512, 2048, 1, 1]> op_518_weight_0_to_fp16_affine_quantized = constexpr_affine_dequantize()[axis = tensor<int32, []>(0), name = tensor<string, []>("op_518_weight_0_to_fp16_affine_quantized"), quantized_data = tensor<int8, [512, 2048, 1, 1]>(BLOBFILE(path = tensor<string, []>("@model_path/weights/weight.bin"), offset = tensor<uint64, []>(1537984))), scale = tensor<fp16, [512]>(BLOBFILE(path = tensor<string, []>("@model_path/weights/weight.bin"), offset = tensor<uint64, []>(2587200))), zero_point = tensor<int8, [512]>(BLOBFILE(path = tensor<string, []>("@model_path/weights/weight.bin"), offset = tensor<uint64, []>(2586624)))];
            tensor<fp16, [512]> var_518_bias_0_to_fp16 = const()[name = tensor<string, []>("op_518_bias_0_to_fp16"), val = tensor<fp16, [512]>(BLOBFILE(path = tensor<string, []>("@model_path/weights/weight.bin"), offset = tensor<uint64, []>(2588288)))];
            tensor<fp16, [1, 512, 1, 8]> var_518_cast = conv(bias = var_518_bias_0_to_fp16, dilations = var_513, groups = var_421, pad = input_7_pad_0, pad_type = input_7_pad_type_0, strides = var_511, weight = op_518_weight_0_to_fp16_affine_quantized, x = input_5_cast);
            tensor<fp16, [1, 512, 1, 8]> x_21_cast = add(x = x_11_cast, y = var_518_cast);
            tensor<fp16, [1, 512, 1, 8]> var_520_cast = abs(x = x_21_cast);
            tensor<fp16, []> var_521_to_fp16 = const()[name = tensor<string, []>("op_521_to_fp16"), val = tensor<fp16, []>(0.001953125)];
            tensor<fp16, [1, 512, 1, 8]> var_522_cast = mul(x = var_520_cast, y = var_521_to_fp16);
            tensor<int32, [1]> var_523 = const()[name = tensor<string, []>("op_523"), val = tensor<int32, [1]>([1])];
            tensor<fp16, [1, 1, 1, 8]> scale_7_cast = reduce_sum(axes = var_523, keep_dims = var_420, x = var_522_cast);
            tensor<fp16, []> scale_9_epsilon_0_to_fp16 = const()[name = tensor<string, []>("scale_9_epsilon_0_to_fp16"), val = tensor<fp16, []>(5.96046448e-08)];
            tensor<fp16, [1, 1, 1, 8]> scale_9_cast = rsqrt(epsilon = scale_9_epsilon_0_to_fp16, x = scale_7_cast);
            tensor<fp16, [1, 1, 1, 8]> scale_11_cast = mul(x = scale_9_cast, y = scale_9_cast);
            tensor<fp16, [1, 512, 1, 8]> x_23_cast = mul(x = x_21_cast, y = scale_11_cast);
            tensor<fp16, []> var_528_to_fp16 = const()[name = tensor<string, []>("op_528_to_fp16"), val = tensor<fp16, []>(-0.001953125)];
            tensor<fp16, [1, 512, 1, 8]> var_529_cast = mul(x = x_23_cast, y = var_528_to_fp16);
            tensor<int32, [1]> var_530 = const()[name = tensor<string, []>("op_530"), val = tensor<int32, [1]>([1])];
            tensor<fp16, [1, 1, 1, 8]> x_mean_3_cast = reduce_sum(axes = var_530, keep_dims = var_420, x = var_529_cast);
            tensor<fp16, [1, 512, 1, 8]> x_zero_mean_3_cast = add(x = x_23_cast, y = x_mean_3_cast);
            tensor<fp16, []> var_533_to_fp16 = const()[name = tensor<string, []>("op_533_to_fp16"), val = tensor<fp16, []>(0.001953125)];
            tensor<fp16, [1, 512, 1, 8]> var_534_cast = mul(x = x_zero_mean_3_cast, y = var_533_to_fp16);
            tensor<fp16, [1, 512, 1, 8]> var_535_cast = mul(x = var_534_cast, y = x_zero_mean_3_cast);
            tensor<int32, [1]> var_536 = const()[name = tensor<string, []>("op_536"), val = tensor<int32, [1]>([1])];
            tensor<fp16, [1, 1, 1, 8]> x_var_3_cast = reduce_sum(axes = var_536, keep_dims = var_420, x = var_535_cast);
            tensor<fp16, []> var_538_to_fp16 = const()[name = tensor<string, []>("op_538_to_fp16"), val = tensor<fp16, []>(1.00135803e-05)];
            tensor<fp16, [1, 1, 1, 8]> var_539_cast = add(x = x_var_3_cast, y = var_538_to_fp16);
            tensor<fp16, []> var_540_epsilon_0_to_fp16 = const()[name = tensor<string, []>("op_540_epsilon_0_to_fp16"), val = tensor<fp16, []>(5.96046448e-08)];
            tensor<fp16, [1, 1, 1, 8]> var_540_cast = rsqrt(epsilon = var_540_epsilon_0_to_fp16, x = var_539_cast);
            tensor<fp16, [1, 512, 1, 8]> var_541_cast = mul(x = x_zero_mean_3_cast, y = var_540_cast);
            tensor<fp16, [512]> x_25_mean_0_to_fp16 = const()[name = tensor<string, []>("x_25_mean_0_to_fp16"), val = tensor<fp16, [512]>(BLOBFILE(path = tensor<string, []>("@model_path/weights/weight.bin"), offset = tensor<uint64, []>(2589376)))];
            tensor<fp16, [512]> x_25_variance_0_to_fp16 = const()[name = tensor<string, []>("x_25_variance_0_to_fp16"), val = tensor<fp16, [512]>(BLOBFILE(path = tensor<string, []>("@model_path/weights/weight.bin"), offset = tensor<uint64, []>(2590464)))];
            tensor<fp16, [512]> x_25_gamma_0_to_fp16 = const()[name = tensor<string, []>("x_25_gamma_0_to_fp16"), val = tensor<fp16, [512]>(BLOBFILE(path = tensor<string, []>("@model_path/weights/weight.bin"), offset = tensor<uint64, []>(2591552)))];
            tensor<fp16, [512]> x_25_beta_0_to_fp16 = const()[name = tensor<string, []>("x_25_beta_0_to_fp16"), val = tensor<fp16, [512]>(BLOBFILE(path = tensor<string, []>("@model_path/weights/weight.bin"), offset = tensor<uint64, []>(2592640)))];
            tensor<fp16, []> x_25_epsilon_0_to_fp16 = const()[name = tensor<string, []>("x_25_epsilon_0_to_fp16"), val = tensor<fp16, []>(1.00135803e-05)];
            tensor<fp16, [1, 512, 1, 8]> x_25_cast = batch_norm(beta = x_25_beta_0_to_fp16, epsilon = x_25_epsilon_0_to_fp16, gamma = x_25_gamma_0_to_fp16, mean = x_25_mean_0_to_fp16, variance = x_25_variance_0_to_fp16, x = var_541_cast);
            tensor<int32, [2]> var_572 = const()[name = tensor<string, []>("op_572"), val = tensor<int32, [2]>([1, 1])];
            tensor<int32, [2]> var_574 = const()[name = tensor<string, []>("op_574"), val = tensor<int32, [2]>([1, 1])];
            tensor<string, []> y_1_pad_type_0 = const()[name = tensor<string, []>("y_1_pad_type_0"), val = tensor<string, []>("custom")];
            tensor<int32, [4]> y_1_pad_0 = const()[name = tensor<string, []>("y_1_pad_0"), val = tensor<int32, [4]>([0, 0, 0, 0])];
            tensor<fp16, [512, 512, 1, 1]> op_578_weight_0_to_fp16_affine_quantized = constexpr_affine_dequantize()[axis = tensor<int32, []>(0), name = tensor<string, []>("op_578_weight_0_to_fp16_affine_quantized"), quantized_data = tensor<int8, [512, 512, 1, 1]>(BLOBFILE(path = tensor<string, []>("@model_path/weights/weight.bin"), offset = tensor<uint64, []>(2593728))), scale = tensor<fp16, [512]>(BLOBFILE(path = tensor<string, []>("@model_path/weights/weight.bin"), offset = tensor<uint64, []>(2856512))), zero_point = tensor<int8, [512]>(BLOBFILE(path = tensor<string, []>("@model_path/weights/weight.bin"), offset = tensor<uint64, []>(2855936)))];
            tensor<fp16, [512]> var_578_bias_0_to_fp16 = const()[name = tensor<string, []>("op_578_bias_0_to_fp16"), val = tensor<fp16, [512]>(BLOBFILE(path = tensor<string, []>("@model_path/weights/weight.bin"), offset = tensor<uint64, []>(2857600)))];
            tensor<fp16, [1, 512, 1, 8]> var_578_cast = conv(bias = var_578_bias_0_to_fp16, dilations = var_574, groups = var_421, pad = y_1_pad_0, pad_type = y_1_pad_type_0, strides = var_572, weight = op_578_weight_0_to_fp16_affine_quantized, x = x_25_cast);
            tensor<int32, [8]> tile_8 = const()[name = tensor<string, []>("tile_8"), val = tensor<int32, [8]>([64, 64, 64, 64, 64, 64, 64, 64])];
            tensor<int32, []> var_579_axis_0 = const()[name = tensor<string, []>("op_579_axis_0"), val = tensor<int32, []>(1)];
            tensor<fp16, [1, 64, 1, 8]> var_579_cast_0, tensor<fp16, [1, 64, 1, 8]> var_579_cast_1, tensor<fp16, [1, 64, 1, 8]> var_579_cast_2, tensor<fp16, [1, 64, 1, 8]> var_579_cast_3, tensor<fp16, [1, 64, 1, 8]> var_579_cast_4, tensor<fp16, [1, 64, 1, 8]> var_579_cast_5, tensor<fp16, [1, 64, 1, 8]> var_579_cast_6, tensor<fp16, [1, 64, 1, 8]> var_579_cast_7 = split(axis = var_579_axis_0, split_sizes = tile_8, x = var_578_cast);
            tensor<int32, [2]> var_592 = const()[name = tensor<string, []>("op_592"), val = tensor<int32, [2]>([1, 1])];
            tensor<int32, [2]> var_594 = const()[name = tensor<string, []>("op_594"), val = tensor<int32, [2]>([1, 1])];
            tensor<string, []> var_596_pad_type_0 = const()[name = tensor<string, []>("op_596_pad_type_0"), val = tensor<string, []>("custom")];
            tensor<int32, [4]> var_596_pad_0 = const()[name = tensor<string, []>("op_596_pad_0"), val = tensor<int32, [4]>([0, 0, 0, 0])];
            tensor<fp16, [512, 512, 1, 1]> op_591_to_fp16_affine_quantized = constexpr_affine_dequantize()[axis = tensor<int32, []>(0), name = tensor<string, []>("op_591_to_fp16_affine_quantized"), quantized_data = tensor<int8, [512, 512, 1, 1]>(BLOBFILE(path = tensor<string, []>("@model_path/weights/weight.bin"), offset = tensor<uint64, []>(2858688))), scale = tensor<fp16, [512]>(BLOBFILE(path = tensor<string, []>("@model_path/weights/weight.bin"), offset = tensor<uint64, []>(3121472))), zero_point = tensor<int8, [512]>(BLOBFILE(path = tensor<string, []>("@model_path/weights/weight.bin"), offset = tensor<uint64, []>(3120896)))];
            tensor<fp16, [512]> secondary_encoder_encoders_0_self_attn_linear_v_bias_to_fp16 = const()[name = tensor<string, []>("secondary_encoder_encoders_0_self_attn_linear_v_bias_to_fp16"), val = tensor<fp16, [512]>(BLOBFILE(path = tensor<string, []>("@model_path/weights/weight.bin"), offset = tensor<uint64, []>(3122560)))];
            tensor<fp16, [1, 512, 1, 8]> var_596_cast = conv(bias = secondary_encoder_encoders_0_self_attn_linear_v_bias_to_fp16, dilations = var_594, groups = var_421, pad = var_596_pad_0, pad_type = var_596_pad_type_0, strides = var_592, weight = op_591_to_fp16_affine_quantized, x = x_25_cast);
            tensor<int32, [8]> tile_9 = const()[name = tensor<string, []>("tile_9"), val = tensor<int32, [8]>([64, 64, 64, 64, 64, 64, 64, 64])];
            tensor<int32, []> var_597_axis_0 = const()[name = tensor<string, []>("op_597_axis_0"), val = tensor<int32, []>(1)];
            tensor<fp16, [1, 64, 1, 8]> var_597_cast_0, tensor<fp16, [1, 64, 1, 8]> var_597_cast_1, tensor<fp16, [1, 64, 1, 8]> var_597_cast_2, tensor<fp16, [1, 64, 1, 8]> var_597_cast_3, tensor<fp16, [1, 64, 1, 8]> var_597_cast_4, tensor<fp16, [1, 64, 1, 8]> var_597_cast_5, tensor<fp16, [1, 64, 1, 8]> var_597_cast_6, tensor<fp16, [1, 64, 1, 8]> var_597_cast_7 = split(axis = var_597_axis_0, split_sizes = tile_9, x = var_596_cast);
            tensor<int32, [4]> var_606_perm_0 = const()[name = tensor<string, []>("op_606_perm_0"), val = tensor<int32, [4]>([0, 3, 2, 1])];
            tensor<string, []> var_613_equation_0 = const()[name = tensor<string, []>("op_613_equation_0"), val = tensor<string, []>("bnhd,bdhm->bnhm")];
            tensor<fp16, [1, 512, 1, 512]> op_610_to_fp16_affine_quantized = constexpr_affine_dequantize()[axis = tensor<int32, []>(0), name = tensor<string, []>("op_610_to_fp16_affine_quantized"), quantized_data = tensor<int8, [1, 512, 1, 512]>(BLOBFILE(path = tensor<string, []>("@model_path/weights/weight.bin"), offset = tensor<uint64, []>(3123648))), scale = tensor<fp16, []>(0.0186920166), zero_point = tensor<int8, []>(0)];
            tensor<fp16, [1, 8, 1, 512]> transpose_21 = transpose(perm = var_606_perm_0, x = x_25_cast);
            tensor<fp16, [1, 8, 1, 512]> var_613_cast = einsum(equation = var_613_equation_0, values = (transpose_21, op_610_to_fp16_affine_quantized));
            tensor<fp16, [512]> secondary_encoder_encoders_0_self_attn_linear_k_bias_to_fp16 = const()[name = tensor<string, []>("secondary_encoder_encoders_0_self_attn_linear_k_bias_to_fp16"), val = tensor<fp16, [512]>(BLOBFILE(path = tensor<string, []>("@model_path/weights/weight.bin"), offset = tensor<uint64, []>(3385856)))];
            tensor<fp16, [1, 8, 1, 512]> var_614_cast = add(x = var_613_cast, y = secondary_encoder_encoders_0_self_attn_linear_k_bias_to_fp16);
            tensor<int32, [8]> tile_10 = const()[name = tensor<string, []>("tile_10"), val = tensor<int32, [8]>([64, 64, 64, 64, 64, 64, 64, 64])];
            tensor<int32, []> var_615_axis_0 = const()[name = tensor<string, []>("op_615_axis_0"), val = tensor<int32, []>(-1)];
            tensor<fp16, [1, 8, 1, 64]> var_615_cast_0, tensor<fp16, [1, 8, 1, 64]> var_615_cast_1, tensor<fp16, [1, 8, 1, 64]> var_615_cast_2, tensor<fp16, [1, 8, 1, 64]> var_615_cast_3, tensor<fp16, [1, 8, 1, 64]> var_615_cast_4, tensor<fp16, [1, 8, 1, 64]> var_615_cast_5, tensor<fp16, [1, 8, 1, 64]> var_615_cast_6, tensor<fp16, [1, 8, 1, 64]> var_615_cast_7 = split(axis = var_615_axis_0, split_sizes = tile_10, x = var_614_cast);
            tensor<int32, [8]> tile_11 = const()[name = tensor<string, []>("tile_11"), val = tensor<int32, [8]>([1, 1, 1, 1, 1, 1, 1, 1])];
            tensor<int32, []> var_625_axis_0 = const()[name = tensor<string, []>("op_625_axis_0"), val = tensor<int32, []>(2)];
            tensor<fp16, [1, 128, 1, 64]> var_625_cast_0, tensor<fp16, [1, 128, 1, 64]> var_625_cast_1, tensor<fp16, [1, 128, 1, 64]> var_625_cast_2, tensor<fp16, [1, 128, 1, 64]> var_625_cast_3, tensor<fp16, [1, 128, 1, 64]> var_625_cast_4, tensor<fp16, [1, 128, 1, 64]> var_625_cast_5, tensor<fp16, [1, 128, 1, 64]> var_625_cast_6, tensor<fp16, [1, 128, 1, 64]> var_625_cast_7 = split(axis = var_625_axis_0, split_sizes = tile_11, x = var_235_cast_0);
            tensor<int32, [8]> tile_12 = const()[name = tensor<string, []>("tile_12"), val = tensor<int32, [8]>([1, 1, 1, 1, 1, 1, 1, 1])];
            tensor<int32, []> var_634_axis_0 = const()[name = tensor<string, []>("op_634_axis_0"), val = tensor<int32, []>(2)];
            tensor<fp16, [1, 64, 1, 128]> var_634_cast_0, tensor<fp16, [1, 64, 1, 128]> var_634_cast_1, tensor<fp16, [1, 64, 1, 128]> var_634_cast_2, tensor<fp16, [1, 64, 1, 128]> var_634_cast_3, tensor<fp16, [1, 64, 1, 128]> var_634_cast_4, tensor<fp16, [1, 64, 1, 128]> var_634_cast_5, tensor<fp16, [1, 64, 1, 128]> var_634_cast_6, tensor<fp16, [1, 64, 1, 128]> var_634_cast_7 = split(axis = var_634_axis_0, split_sizes = tile_12, x = var_240_cast_0);
            tensor<bool, []> var_644_interleave_0 = const()[name = tensor<string, []>("op_644_interleave_0"), val = tensor<bool, []>(false)];
            tensor<fp16, [1, 136, 1, 64]> var_644_cast = concat(axis = var_421, interleave = var_644_interleave_0, values = (var_625_cast_0, var_615_cast_0));
            tensor<int32, [4]> var_646_begin_0 = const()[name = tensor<string, []>("op_646_begin_0"), val = tensor<int32, [4]>([0, 8, 0, 0])];
            tensor<int32, [4]> var_646_end_0 = const()[name = tensor<string, []>("op_646_end_0"), val = tensor<int32, [4]>([1, 136, 1, 64])];
            tensor<bool, [4]> var_646_end_mask_0 = const()[name = tensor<string, []>("op_646_end_mask_0"), val = tensor<bool, [4]>([true, true, true, true])];
            tensor<fp16, [1, 128, 1, 64]> var_646_cast = slice_by_index(begin = var_646_begin_0, end = var_646_end_0, end_mask = var_646_end_mask_0, x = var_644_cast);
            tensor<bool, []> var_650_interleave_0 = const()[name = tensor<string, []>("op_650_interleave_0"), val = tensor<bool, []>(false)];
            tensor<fp16, [1, 136, 1, 64]> var_650_cast = concat(axis = var_421, interleave = var_650_interleave_0, values = (var_625_cast_1, var_615_cast_1));
            tensor<int32, [4]> var_652_begin_0 = const()[name = tensor<string, []>("op_652_begin_0"), val = tensor<int32, [4]>([0, 8, 0, 0])];
            tensor<int32, [4]> var_652_end_0 = const()[name = tensor<string, []>("op_652_end_0"), val = tensor<int32, [4]>([1, 136, 1, 64])];
            tensor<bool, [4]> var_652_end_mask_0 = const()[name = tensor<string, []>("op_652_end_mask_0"), val = tensor<bool, [4]>([true, true, true, true])];
            tensor<fp16, [1, 128, 1, 64]> var_652_cast = slice_by_index(begin = var_652_begin_0, end = var_652_end_0, end_mask = var_652_end_mask_0, x = var_650_cast);
            tensor<bool, []> var_656_interleave_0 = const()[name = tensor<string, []>("op_656_interleave_0"), val = tensor<bool, []>(false)];
            tensor<fp16, [1, 136, 1, 64]> var_656_cast = concat(axis = var_421, interleave = var_656_interleave_0, values = (var_625_cast_2, var_615_cast_2));
            tensor<int32, [4]> var_658_begin_0 = const()[name = tensor<string, []>("op_658_begin_0"), val = tensor<int32, [4]>([0, 8, 0, 0])];
            tensor<int32, [4]> var_658_end_0 = const()[name = tensor<string, []>("op_658_end_0"), val = tensor<int32, [4]>([1, 136, 1, 64])];
            tensor<bool, [4]> var_658_end_mask_0 = const()[name = tensor<string, []>("op_658_end_mask_0"), val = tensor<bool, [4]>([true, true, true, true])];
            tensor<fp16, [1, 128, 1, 64]> var_658_cast = slice_by_index(begin = var_658_begin_0, end = var_658_end_0, end_mask = var_658_end_mask_0, x = var_656_cast);
            tensor<bool, []> var_662_interleave_0 = const()[name = tensor<string, []>("op_662_interleave_0"), val = tensor<bool, []>(false)];
            tensor<fp16, [1, 136, 1, 64]> var_662_cast = concat(axis = var_421, interleave = var_662_interleave_0, values = (var_625_cast_3, var_615_cast_3));
            tensor<int32, [4]> var_664_begin_0 = const()[name = tensor<string, []>("op_664_begin_0"), val = tensor<int32, [4]>([0, 8, 0, 0])];
            tensor<int32, [4]> var_664_end_0 = const()[name = tensor<string, []>("op_664_end_0"), val = tensor<int32, [4]>([1, 136, 1, 64])];
            tensor<bool, [4]> var_664_end_mask_0 = const()[name = tensor<string, []>("op_664_end_mask_0"), val = tensor<bool, [4]>([true, true, true, true])];
            tensor<fp16, [1, 128, 1, 64]> var_664_cast = slice_by_index(begin = var_664_begin_0, end = var_664_end_0, end_mask = var_664_end_mask_0, x = var_662_cast);
            tensor<bool, []> var_668_interleave_0 = const()[name = tensor<string, []>("op_668_interleave_0"), val = tensor<bool, []>(false)];
            tensor<fp16, [1, 136, 1, 64]> var_668_cast = concat(axis = var_421, interleave = var_668_interleave_0, values = (var_625_cast_4, var_615_cast_4));
            tensor<int32, [4]> var_670_begin_0 = const()[name = tensor<string, []>("op_670_begin_0"), val = tensor<int32, [4]>([0, 8, 0, 0])];
            tensor<int32, [4]> var_670_end_0 = const()[name = tensor<string, []>("op_670_end_0"), val = tensor<int32, [4]>([1, 136, 1, 64])];
            tensor<bool, [4]> var_670_end_mask_0 = const()[name = tensor<string, []>("op_670_end_mask_0"), val = tensor<bool, [4]>([true, true, true, true])];
            tensor<fp16, [1, 128, 1, 64]> var_670_cast = slice_by_index(begin = var_670_begin_0, end = var_670_end_0, end_mask = var_670_end_mask_0, x = var_668_cast);
            tensor<bool, []> var_674_interleave_0 = const()[name = tensor<string, []>("op_674_interleave_0"), val = tensor<bool, []>(false)];
            tensor<fp16, [1, 136, 1, 64]> var_674_cast = concat(axis = var_421, interleave = var_674_interleave_0, values = (var_625_cast_5, var_615_cast_5));
            tensor<int32, [4]> var_676_begin_0 = const()[name = tensor<string, []>("op_676_begin_0"), val = tensor<int32, [4]>([0, 8, 0, 0])];
            tensor<int32, [4]> var_676_end_0 = const()[name = tensor<string, []>("op_676_end_0"), val = tensor<int32, [4]>([1, 136, 1, 64])];
            tensor<bool, [4]> var_676_end_mask_0 = const()[name = tensor<string, []>("op_676_end_mask_0"), val = tensor<bool, [4]>([true, true, true, true])];
            tensor<fp16, [1, 128, 1, 64]> var_676_cast = slice_by_index(begin = var_676_begin_0, end = var_676_end_0, end_mask = var_676_end_mask_0, x = var_674_cast);
            tensor<bool, []> var_680_interleave_0 = const()[name = tensor<string, []>("op_680_interleave_0"), val = tensor<bool, []>(false)];
            tensor<fp16, [1, 136, 1, 64]> var_680_cast = concat(axis = var_421, interleave = var_680_interleave_0, values = (var_625_cast_6, var_615_cast_6));
            tensor<int32, [4]> var_682_begin_0 = const()[name = tensor<string, []>("op_682_begin_0"), val = tensor<int32, [4]>([0, 8, 0, 0])];
            tensor<int32, [4]> var_682_end_0 = const()[name = tensor<string, []>("op_682_end_0"), val = tensor<int32, [4]>([1, 136, 1, 64])];
            tensor<bool, [4]> var_682_end_mask_0 = const()[name = tensor<string, []>("op_682_end_mask_0"), val = tensor<bool, [4]>([true, true, true, true])];
            tensor<fp16, [1, 128, 1, 64]> var_682_cast = slice_by_index(begin = var_682_begin_0, end = var_682_end_0, end_mask = var_682_end_mask_0, x = var_680_cast);
            tensor<bool, []> var_686_interleave_0 = const()[name = tensor<string, []>("op_686_interleave_0"), val = tensor<bool, []>(false)];
            tensor<fp16, [1, 136, 1, 64]> var_686_cast = concat(axis = var_421, interleave = var_686_interleave_0, values = (var_625_cast_7, var_615_cast_7));
            tensor<int32, [4]> var_688_begin_0 = const()[name = tensor<string, []>("op_688_begin_0"), val = tensor<int32, [4]>([0, 8, 0, 0])];
            tensor<int32, [4]> var_688_end_0 = const()[name = tensor<string, []>("op_688_end_0"), val = tensor<int32, [4]>([1, 136, 1, 64])];
            tensor<bool, [4]> var_688_end_mask_0 = const()[name = tensor<string, []>("op_688_end_mask_0"), val = tensor<bool, [4]>([true, true, true, true])];
            tensor<fp16, [1, 128, 1, 64]> var_688_cast = slice_by_index(begin = var_688_begin_0, end = var_688_end_0, end_mask = var_688_end_mask_0, x = var_686_cast);
            tensor<bool, []> var_692_interleave_0 = const()[name = tensor<string, []>("op_692_interleave_0"), val = tensor<bool, []>(false)];
            tensor<fp16, [1, 64, 1, 136]> var_692_cast = concat(axis = var_418, interleave = var_692_interleave_0, values = (var_634_cast_0, var_597_cast_0));
            tensor<int32, [4]> var_696_begin_0 = const()[name = tensor<string, []>("op_696_begin_0"), val = tensor<int32, [4]>([0, 0, 0, 8])];
            tensor<int32, [4]> var_696_end_0 = const()[name = tensor<string, []>("op_696_end_0"), val = tensor<int32, [4]>([1, 64, 1, 136])];
            tensor<bool, [4]> var_696_end_mask_0 = const()[name = tensor<string, []>("op_696_end_mask_0"), val = tensor<bool, [4]>([true, true, true, true])];
            tensor<fp16, [1, 64, 1, 128]> var_696_cast = slice_by_index(begin = var_696_begin_0, end = var_696_end_0, end_mask = var_696_end_mask_0, x = var_692_cast);
            tensor<bool, []> var_698_interleave_0 = const()[name = tensor<string, []>("op_698_interleave_0"), val = tensor<bool, []>(false)];
            tensor<fp16, [1, 64, 1, 136]> var_698_cast = concat(axis = var_418, interleave = var_698_interleave_0, values = (var_634_cast_1, var_597_cast_1));
            tensor<int32, [4]> var_702_begin_0 = const()[name = tensor<string, []>("op_702_begin_0"), val = tensor<int32, [4]>([0, 0, 0, 8])];
            tensor<int32, [4]> var_702_end_0 = const()[name = tensor<string, []>("op_702_end_0"), val = tensor<int32, [4]>([1, 64, 1, 136])];
            tensor<bool, [4]> var_702_end_mask_0 = const()[name = tensor<string, []>("op_702_end_mask_0"), val = tensor<bool, [4]>([true, true, true, true])];
            tensor<fp16, [1, 64, 1, 128]> var_702_cast = slice_by_index(begin = var_702_begin_0, end = var_702_end_0, end_mask = var_702_end_mask_0, x = var_698_cast);
            tensor<bool, []> var_704_interleave_0 = const()[name = tensor<string, []>("op_704_interleave_0"), val = tensor<bool, []>(false)];
            tensor<fp16, [1, 64, 1, 136]> var_704_cast = concat(axis = var_418, interleave = var_704_interleave_0, values = (var_634_cast_2, var_597_cast_2));
            tensor<int32, [4]> var_708_begin_0 = const()[name = tensor<string, []>("op_708_begin_0"), val = tensor<int32, [4]>([0, 0, 0, 8])];
            tensor<int32, [4]> var_708_end_0 = const()[name = tensor<string, []>("op_708_end_0"), val = tensor<int32, [4]>([1, 64, 1, 136])];
            tensor<bool, [4]> var_708_end_mask_0 = const()[name = tensor<string, []>("op_708_end_mask_0"), val = tensor<bool, [4]>([true, true, true, true])];
            tensor<fp16, [1, 64, 1, 128]> var_708_cast = slice_by_index(begin = var_708_begin_0, end = var_708_end_0, end_mask = var_708_end_mask_0, x = var_704_cast);
            tensor<bool, []> var_710_interleave_0 = const()[name = tensor<string, []>("op_710_interleave_0"), val = tensor<bool, []>(false)];
            tensor<fp16, [1, 64, 1, 136]> var_710_cast = concat(axis = var_418, interleave = var_710_interleave_0, values = (var_634_cast_3, var_597_cast_3));
            tensor<int32, [4]> var_714_begin_0 = const()[name = tensor<string, []>("op_714_begin_0"), val = tensor<int32, [4]>([0, 0, 0, 8])];
            tensor<int32, [4]> var_714_end_0 = const()[name = tensor<string, []>("op_714_end_0"), val = tensor<int32, [4]>([1, 64, 1, 136])];
            tensor<bool, [4]> var_714_end_mask_0 = const()[name = tensor<string, []>("op_714_end_mask_0"), val = tensor<bool, [4]>([true, true, true, true])];
            tensor<fp16, [1, 64, 1, 128]> var_714_cast = slice_by_index(begin = var_714_begin_0, end = var_714_end_0, end_mask = var_714_end_mask_0, x = var_710_cast);
            tensor<bool, []> var_716_interleave_0 = const()[name = tensor<string, []>("op_716_interleave_0"), val = tensor<bool, []>(false)];
            tensor<fp16, [1, 64, 1, 136]> var_716_cast = concat(axis = var_418, interleave = var_716_interleave_0, values = (var_634_cast_4, var_597_cast_4));
            tensor<int32, [4]> var_720_begin_0 = const()[name = tensor<string, []>("op_720_begin_0"), val = tensor<int32, [4]>([0, 0, 0, 8])];
            tensor<int32, [4]> var_720_end_0 = const()[name = tensor<string, []>("op_720_end_0"), val = tensor<int32, [4]>([1, 64, 1, 136])];
            tensor<bool, [4]> var_720_end_mask_0 = const()[name = tensor<string, []>("op_720_end_mask_0"), val = tensor<bool, [4]>([true, true, true, true])];
            tensor<fp16, [1, 64, 1, 128]> var_720_cast = slice_by_index(begin = var_720_begin_0, end = var_720_end_0, end_mask = var_720_end_mask_0, x = var_716_cast);
            tensor<bool, []> var_722_interleave_0 = const()[name = tensor<string, []>("op_722_interleave_0"), val = tensor<bool, []>(false)];
            tensor<fp16, [1, 64, 1, 136]> var_722_cast = concat(axis = var_418, interleave = var_722_interleave_0, values = (var_634_cast_5, var_597_cast_5));
            tensor<int32, [4]> var_726_begin_0 = const()[name = tensor<string, []>("op_726_begin_0"), val = tensor<int32, [4]>([0, 0, 0, 8])];
            tensor<int32, [4]> var_726_end_0 = const()[name = tensor<string, []>("op_726_end_0"), val = tensor<int32, [4]>([1, 64, 1, 136])];
            tensor<bool, [4]> var_726_end_mask_0 = const()[name = tensor<string, []>("op_726_end_mask_0"), val = tensor<bool, [4]>([true, true, true, true])];
            tensor<fp16, [1, 64, 1, 128]> var_726_cast = slice_by_index(begin = var_726_begin_0, end = var_726_end_0, end_mask = var_726_end_mask_0, x = var_722_cast);
            tensor<bool, []> var_728_interleave_0 = const()[name = tensor<string, []>("op_728_interleave_0"), val = tensor<bool, []>(false)];
            tensor<fp16, [1, 64, 1, 136]> var_728_cast = concat(axis = var_418, interleave = var_728_interleave_0, values = (var_634_cast_6, var_597_cast_6));
            tensor<int32, [4]> var_732_begin_0 = const()[name = tensor<string, []>("op_732_begin_0"), val = tensor<int32, [4]>([0, 0, 0, 8])];
            tensor<int32, [4]> var_732_end_0 = const()[name = tensor<string, []>("op_732_end_0"), val = tensor<int32, [4]>([1, 64, 1, 136])];
            tensor<bool, [4]> var_732_end_mask_0 = const()[name = tensor<string, []>("op_732_end_mask_0"), val = tensor<bool, [4]>([true, true, true, true])];
            tensor<fp16, [1, 64, 1, 128]> var_732_cast = slice_by_index(begin = var_732_begin_0, end = var_732_end_0, end_mask = var_732_end_mask_0, x = var_728_cast);
            tensor<bool, []> var_734_interleave_0 = const()[name = tensor<string, []>("op_734_interleave_0"), val = tensor<bool, []>(false)];
            tensor<fp16, [1, 64, 1, 136]> var_734_cast = concat(axis = var_418, interleave = var_734_interleave_0, values = (var_634_cast_7, var_597_cast_7));
            tensor<int32, [4]> var_738_begin_0 = const()[name = tensor<string, []>("op_738_begin_0"), val = tensor<int32, [4]>([0, 0, 0, 8])];
            tensor<int32, [4]> var_738_end_0 = const()[name = tensor<string, []>("op_738_end_0"), val = tensor<int32, [4]>([1, 64, 1, 136])];
            tensor<bool, [4]> var_738_end_mask_0 = const()[name = tensor<string, []>("op_738_end_mask_0"), val = tensor<bool, [4]>([true, true, true, true])];
            tensor<fp16, [1, 64, 1, 128]> var_738_cast = slice_by_index(begin = var_738_begin_0, end = var_738_end_0, end_mask = var_738_end_mask_0, x = var_734_cast);
            tensor<bool, []> var_740_interleave_0 = const()[name = tensor<string, []>("op_740_interleave_0"), val = tensor<bool, []>(false)];
            tensor<fp16, [1, 128, 8, 64]> var_740_cast = concat(axis = var_415, interleave = var_740_interleave_0, values = (var_646_cast, var_652_cast, var_658_cast, var_664_cast, var_670_cast, var_676_cast, var_682_cast, var_688_cast));
            tensor<bool, []> var_742_interleave_0 = const()[name = tensor<string, []>("op_742_interleave_0"), val = tensor<bool, []>(false)];
            tensor<fp16, [1, 64, 8, 128]> var_742_cast = concat(axis = var_415, interleave = var_742_interleave_0, values = (var_696_cast, var_702_cast, var_708_cast, var_714_cast, var_720_cast, var_726_cast, var_732_cast, var_738_cast));
            tensor<string, []> var_749_equation_0 = const()[name = tensor<string, []>("op_749_equation_0"), val = tensor<string, []>("bnhd,bdhm->bnhm")];
            tensor<fp16, [1, 512, 1, 512]> op_746_to_fp16_affine_quantized = constexpr_affine_dequantize()[axis = tensor<int32, []>(0), name = tensor<string, []>("op_746_to_fp16_affine_quantized"), quantized_data = tensor<int8, [1, 512, 1, 512]>(BLOBFILE(path = tensor<string, []>("@model_path/weights/weight.bin"), offset = tensor<uint64, []>(3386944))), scale = tensor<fp16, []>(0.0596313477), zero_point = tensor<int8, []>(0)];
            tensor<fp16, [1, 128, 1, 512]> var_749_cast = einsum(equation = var_749_equation_0, values = (var_194_cast, op_746_to_fp16_affine_quantized));
            tensor<int32, [8]> tile_13 = const()[name = tensor<string, []>("tile_13"), val = tensor<int32, [8]>([64, 64, 64, 64, 64, 64, 64, 64])];
            tensor<int32, []> var_750_axis_0 = const()[name = tensor<string, []>("op_750_axis_0"), val = tensor<int32, []>(-1)];
            tensor<fp16, [1, 128, 1, 64]> var_750_cast_0, tensor<fp16, [1, 128, 1, 64]> var_750_cast_1, tensor<fp16, [1, 128, 1, 64]> var_750_cast_2, tensor<fp16, [1, 128, 1, 64]> var_750_cast_3, tensor<fp16, [1, 128, 1, 64]> var_750_cast_4, tensor<fp16, [1, 128, 1, 64]> var_750_cast_5, tensor<fp16, [1, 128, 1, 64]> var_750_cast_6, tensor<fp16, [1, 128, 1, 64]> var_750_cast_7 = split(axis = var_750_axis_0, split_sizes = tile_13, x = var_749_cast);
            tensor<fp16, [1, 64, 1, 1]> var_771_to_fp16 = const()[name = tensor<string, []>("op_771_to_fp16"), val = tensor<fp16, [1, 64, 1, 1]>(BLOBFILE(path = tensor<string, []>("@model_path/weights/weight.bin"), offset = tensor<uint64, []>(3649152)))];
            tensor<fp16, [1, 64, 1, 8]> var_772_cast = add(x = var_579_cast_0, y = var_771_to_fp16);
            tensor<fp16, [1, 64, 1, 1]> var_774_to_fp16 = const()[name = tensor<string, []>("op_774_to_fp16"), val = tensor<fp16, [1, 64, 1, 1]>(BLOBFILE(path = tensor<string, []>("@model_path/weights/weight.bin"), offset = tensor<uint64, []>(3649344)))];
            tensor<fp16, [1, 64, 1, 8]> var_775_cast = add(x = var_579_cast_1, y = var_774_to_fp16);
            tensor<fp16, [1, 64, 1, 1]> var_777_to_fp16 = const()[name = tensor<string, []>("op_777_to_fp16"), val = tensor<fp16, [1, 64, 1, 1]>(BLOBFILE(path = tensor<string, []>("@model_path/weights/weight.bin"), offset = tensor<uint64, []>(3649536)))];
            tensor<fp16, [1, 64, 1, 8]> var_778_cast = add(x = var_579_cast_2, y = var_777_to_fp16);
            tensor<fp16, [1, 64, 1, 1]> var_780_to_fp16 = const()[name = tensor<string, []>("op_780_to_fp16"), val = tensor<fp16, [1, 64, 1, 1]>(BLOBFILE(path = tensor<string, []>("@model_path/weights/weight.bin"), offset = tensor<uint64, []>(3649728)))];
            tensor<fp16, [1, 64, 1, 8]> var_781_cast = add(x = var_579_cast_3, y = var_780_to_fp16);
            tensor<fp16, [1, 64, 1, 1]> var_783_to_fp16 = const()[name = tensor<string, []>("op_783_to_fp16"), val = tensor<fp16, [1, 64, 1, 1]>(BLOBFILE(path = tensor<string, []>("@model_path/weights/weight.bin"), offset = tensor<uint64, []>(3649920)))];
            tensor<fp16, [1, 64, 1, 8]> var_784_cast = add(x = var_579_cast_4, y = var_783_to_fp16);
            tensor<fp16, [1, 64, 1, 1]> var_786_to_fp16 = const()[name = tensor<string, []>("op_786_to_fp16"), val = tensor<fp16, [1, 64, 1, 1]>(BLOBFILE(path = tensor<string, []>("@model_path/weights/weight.bin"), offset = tensor<uint64, []>(3650112)))];
            tensor<fp16, [1, 64, 1, 8]> var_787_cast = add(x = var_579_cast_5, y = var_786_to_fp16);
            tensor<fp16, [1, 64, 1, 1]> var_789_to_fp16 = const()[name = tensor<string, []>("op_789_to_fp16"), val = tensor<fp16, [1, 64, 1, 1]>(BLOBFILE(path = tensor<string, []>("@model_path/weights/weight.bin"), offset = tensor<uint64, []>(3650304)))];
            tensor<fp16, [1, 64, 1, 8]> var_790_cast = add(x = var_579_cast_6, y = var_789_to_fp16);
            tensor<fp16, [1, 64, 1, 1]> var_792_to_fp16 = const()[name = tensor<string, []>("op_792_to_fp16"), val = tensor<fp16, [1, 64, 1, 1]>(BLOBFILE(path = tensor<string, []>("@model_path/weights/weight.bin"), offset = tensor<uint64, []>(3650496)))];
            tensor<fp16, [1, 64, 1, 8]> var_793_cast = add(x = var_579_cast_7, y = var_792_to_fp16);
            tensor<fp16, [1, 64, 1, 1]> var_806_to_fp16 = const()[name = tensor<string, []>("op_806_to_fp16"), val = tensor<fp16, [1, 64, 1, 1]>(BLOBFILE(path = tensor<string, []>("@model_path/weights/weight.bin"), offset = tensor<uint64, []>(3650688)))];
            tensor<fp16, [1, 64, 1, 8]> var_807_cast = add(x = var_579_cast_0, y = var_806_to_fp16);
            tensor<fp16, [1, 64, 1, 1]> var_809_to_fp16 = const()[name = tensor<string, []>("op_809_to_fp16"), val = tensor<fp16, [1, 64, 1, 1]>(BLOBFILE(path = tensor<string, []>("@model_path/weights/weight.bin"), offset = tensor<uint64, []>(3650880)))];
            tensor<fp16, [1, 64, 1, 8]> var_810_cast = add(x = var_579_cast_1, y = var_809_to_fp16);
            tensor<fp16, [1, 64, 1, 1]> var_812_to_fp16 = const()[name = tensor<string, []>("op_812_to_fp16"), val = tensor<fp16, [1, 64, 1, 1]>(BLOBFILE(path = tensor<string, []>("@model_path/weights/weight.bin"), offset = tensor<uint64, []>(3651072)))];
            tensor<fp16, [1, 64, 1, 8]> var_813_cast = add(x = var_579_cast_2, y = var_812_to_fp16);
            tensor<fp16, [1, 64, 1, 1]> var_815_to_fp16 = const()[name = tensor<string, []>("op_815_to_fp16"), val = tensor<fp16, [1, 64, 1, 1]>(BLOBFILE(path = tensor<string, []>("@model_path/weights/weight.bin"), offset = tensor<uint64, []>(3651264)))];
            tensor<fp16, [1, 64, 1, 8]> var_816_cast = add(x = var_579_cast_3, y = var_815_to_fp16);
            tensor<fp16, [1, 64, 1, 1]> var_818_to_fp16 = const()[name = tensor<string, []>("op_818_to_fp16"), val = tensor<fp16, [1, 64, 1, 1]>(BLOBFILE(path = tensor<string, []>("@model_path/weights/weight.bin"), offset = tensor<uint64, []>(3651456)))];
            tensor<fp16, [1, 64, 1, 8]> var_819_cast = add(x = var_579_cast_4, y = var_818_to_fp16);
            tensor<fp16, [1, 64, 1, 1]> var_821_to_fp16 = const()[name = tensor<string, []>("op_821_to_fp16"), val = tensor<fp16, [1, 64, 1, 1]>(BLOBFILE(path = tensor<string, []>("@model_path/weights/weight.bin"), offset = tensor<uint64, []>(3651648)))];
            tensor<fp16, [1, 64, 1, 8]> var_822_cast = add(x = var_579_cast_5, y = var_821_to_fp16);
            tensor<fp16, [1, 64, 1, 1]> var_824_to_fp16 = const()[name = tensor<string, []>("op_824_to_fp16"), val = tensor<fp16, [1, 64, 1, 1]>(BLOBFILE(path = tensor<string, []>("@model_path/weights/weight.bin"), offset = tensor<uint64, []>(3651840)))];
            tensor<fp16, [1, 64, 1, 8]> var_825_cast = add(x = var_579_cast_6, y = var_824_to_fp16);
            tensor<fp16, [1, 64, 1, 1]> var_827_to_fp16 = const()[name = tensor<string, []>("op_827_to_fp16"), val = tensor<fp16, [1, 64, 1, 1]>(BLOBFILE(path = tensor<string, []>("@model_path/weights/weight.bin"), offset = tensor<uint64, []>(3652032)))];
            tensor<fp16, [1, 64, 1, 8]> var_828_cast = add(x = var_579_cast_7, y = var_827_to_fp16);
            tensor<string, []> ac_1_equation_0 = const()[name = tensor<string, []>("ac_1_equation_0"), val = tensor<string, []>("bnhd,bdhm->bnhm")];
            tensor<fp16, [1, 128, 1, 8]> ac_1_cast = einsum(equation = ac_1_equation_0, values = (var_646_cast, var_772_cast));
            tensor<string, []> ac_3_equation_0 = const()[name = tensor<string, []>("ac_3_equation_0"), val = tensor<string, []>("bnhd,bdhm->bnhm")];
            tensor<fp16, [1, 128, 1, 8]> ac_3_cast = einsum(equation = ac_3_equation_0, values = (var_652_cast, var_775_cast));
            tensor<string, []> ac_5_equation_0 = const()[name = tensor<string, []>("ac_5_equation_0"), val = tensor<string, []>("bnhd,bdhm->bnhm")];
            tensor<fp16, [1, 128, 1, 8]> ac_5_cast = einsum(equation = ac_5_equation_0, values = (var_658_cast, var_778_cast));
            tensor<string, []> ac_7_equation_0 = const()[name = tensor<string, []>("ac_7_equation_0"), val = tensor<string, []>("bnhd,bdhm->bnhm")];
            tensor<fp16, [1, 128, 1, 8]> ac_7_cast = einsum(equation = ac_7_equation_0, values = (var_664_cast, var_781_cast));
            tensor<string, []> ac_9_equation_0 = const()[name = tensor<string, []>("ac_9_equation_0"), val = tensor<string, []>("bnhd,bdhm->bnhm")];
            tensor<fp16, [1, 128, 1, 8]> ac_9_cast = einsum(equation = ac_9_equation_0, values = (var_670_cast, var_784_cast));
            tensor<string, []> ac_11_equation_0 = const()[name = tensor<string, []>("ac_11_equation_0"), val = tensor<string, []>("bnhd,bdhm->bnhm")];
            tensor<fp16, [1, 128, 1, 8]> ac_11_cast = einsum(equation = ac_11_equation_0, values = (var_676_cast, var_787_cast));
            tensor<string, []> ac_13_equation_0 = const()[name = tensor<string, []>("ac_13_equation_0"), val = tensor<string, []>("bnhd,bdhm->bnhm")];
            tensor<fp16, [1, 128, 1, 8]> ac_13_cast = einsum(equation = ac_13_equation_0, values = (var_682_cast, var_790_cast));
            tensor<string, []> ac_15_equation_0 = const()[name = tensor<string, []>("ac_15_equation_0"), val = tensor<string, []>("bnhd,bdhm->bnhm")];
            tensor<fp16, [1, 128, 1, 8]> ac_15_cast = einsum(equation = ac_15_equation_0, values = (var_688_cast, var_793_cast));
            tensor<string, []> bd_1_equation_0 = const()[name = tensor<string, []>("bd_1_equation_0"), val = tensor<string, []>("bnhd,bdhm->bnhm")];
            tensor<fp16, [1, 128, 1, 8]> bd_1_cast = einsum(equation = bd_1_equation_0, values = (var_750_cast_0, var_807_cast));
            tensor<string, []> bd_3_equation_0 = const()[name = tensor<string, []>("bd_3_equation_0"), val = tensor<string, []>("bnhd,bdhm->bnhm")];
            tensor<fp16, [1, 128, 1, 8]> bd_3_cast = einsum(equation = bd_3_equation_0, values = (var_750_cast_1, var_810_cast));
            tensor<string, []> bd_5_equation_0 = const()[name = tensor<string, []>("bd_5_equation_0"), val = tensor<string, []>("bnhd,bdhm->bnhm")];
            tensor<fp16, [1, 128, 1, 8]> bd_5_cast = einsum(equation = bd_5_equation_0, values = (var_750_cast_2, var_813_cast));
            tensor<string, []> bd_7_equation_0 = const()[name = tensor<string, []>("bd_7_equation_0"), val = tensor<string, []>("bnhd,bdhm->bnhm")];
            tensor<fp16, [1, 128, 1, 8]> bd_7_cast = einsum(equation = bd_7_equation_0, values = (var_750_cast_3, var_816_cast));
            tensor<string, []> bd_9_equation_0 = const()[name = tensor<string, []>("bd_9_equation_0"), val = tensor<string, []>("bnhd,bdhm->bnhm")];
            tensor<fp16, [1, 128, 1, 8]> bd_9_cast = einsum(equation = bd_9_equation_0, values = (var_750_cast_4, var_819_cast));
            tensor<string, []> bd_11_equation_0 = const()[name = tensor<string, []>("bd_11_equation_0"), val = tensor<string, []>("bnhd,bdhm->bnhm")];
            tensor<fp16, [1, 128, 1, 8]> bd_11_cast = einsum(equation = bd_11_equation_0, values = (var_750_cast_5, var_822_cast));
            tensor<string, []> bd_13_equation_0 = const()[name = tensor<string, []>("bd_13_equation_0"), val = tensor<string, []>("bnhd,bdhm->bnhm")];
            tensor<fp16, [1, 128, 1, 8]> bd_13_cast = einsum(equation = bd_13_equation_0, values = (var_750_cast_6, var_825_cast));
            tensor<string, []> bd_15_equation_0 = const()[name = tensor<string, []>("bd_15_equation_0"), val = tensor<string, []>("bnhd,bdhm->bnhm")];
            tensor<fp16, [1, 128, 1, 8]> bd_15_cast = einsum(equation = bd_15_equation_0, values = (var_750_cast_7, var_828_cast));
            tensor<fp16, []> var_861_promoted_to_fp16 = const()[name = tensor<string, []>("op_861_promoted_to_fp16"), val = tensor<fp16, []>(1)];
            tensor<fp16, [1, 128, 1, 1]> var_862_cast = sub(x = mask_1_cast, y = var_861_promoted_to_fp16);
            tensor<fp16, []> var_863_to_fp16 = const()[name = tensor<string, []>("op_863_to_fp16"), val = tensor<fp16, []>(32096)];
            tensor<fp16, [1, 128, 1, 1]> inf_mask_1_cast = mul(x = var_862_cast, y = var_863_to_fp16);
            tensor<fp16, [1, 128, 1, 8]> s_1_cast = add(x = ac_1_cast, y = bd_1_cast);
            tensor<fp16, [1, 128, 1, 8]> s_3_cast = add(x = ac_3_cast, y = bd_3_cast);
            tensor<fp16, [1, 128, 1, 8]> s_5_cast = add(x = ac_5_cast, y = bd_5_cast);
            tensor<fp16, [1, 128, 1, 8]> s_7_cast = add(x = ac_7_cast, y = bd_7_cast);
            tensor<fp16, [1, 128, 1, 8]> s_9_cast = add(x = ac_9_cast, y = bd_9_cast);
            tensor<fp16, [1, 128, 1, 8]> s_11_cast = add(x = ac_11_cast, y = bd_11_cast);
            tensor<fp16, [1, 128, 1, 8]> s_13_cast = add(x = ac_13_cast, y = bd_13_cast);
            tensor<fp16, [1, 128, 1, 8]> s_15_cast = add(x = ac_15_cast, y = bd_15_cast);
            tensor<fp16, [1, 128, 1, 8]> s_17_cast = add(x = inf_mask_1_cast, y = s_1_cast);
            tensor<fp16, [1, 128, 1, 8]> s_19_cast = add(x = inf_mask_1_cast, y = s_3_cast);
            tensor<fp16, [1, 128, 1, 8]> s_21_cast = add(x = inf_mask_1_cast, y = s_5_cast);
            tensor<fp16, [1, 128, 1, 8]> s_23_cast = add(x = inf_mask_1_cast, y = s_7_cast);
            tensor<fp16, [1, 128, 1, 8]> s_25_cast = add(x = inf_mask_1_cast, y = s_9_cast);
            tensor<fp16, [1, 128, 1, 8]> s_27_cast = add(x = inf_mask_1_cast, y = s_11_cast);
            tensor<fp16, [1, 128, 1, 8]> s_29_cast = add(x = inf_mask_1_cast, y = s_13_cast);
            tensor<fp16, [1, 128, 1, 8]> s_31_cast = add(x = inf_mask_1_cast, y = s_15_cast);
            tensor<fp16, [1, 128, 1, 8]> input_9_cast = softmax(axis = var_421, x = s_17_cast);
            tensor<fp16, [1, 128, 1, 8]> input_11_cast = softmax(axis = var_421, x = s_19_cast);
            tensor<fp16, [1, 128, 1, 8]> input_13_cast = softmax(axis = var_421, x = s_21_cast);
            tensor<fp16, [1, 128, 1, 8]> input_15_cast = softmax(axis = var_421, x = s_23_cast);
            tensor<fp16, [1, 128, 1, 8]> input_17_cast = softmax(axis = var_421, x = s_25_cast);
            tensor<fp16, [1, 128, 1, 8]> input_19_cast = softmax(axis = var_421, x = s_27_cast);
            tensor<fp16, [1, 128, 1, 8]> input_21_cast = softmax(axis = var_421, x = s_29_cast);
            tensor<fp16, [1, 128, 1, 8]> input_23_cast = softmax(axis = var_421, x = s_31_cast);
            tensor<string, []> var_898_equation_0 = const()[name = tensor<string, []>("op_898_equation_0"), val = tensor<string, []>("bnhd,bdhm->bnhm")];
            tensor<fp16, [1, 64, 1, 8]> var_898_cast = einsum(equation = var_898_equation_0, values = (var_696_cast, input_9_cast));
            tensor<string, []> var_900_equation_0 = const()[name = tensor<string, []>("op_900_equation_0"), val = tensor<string, []>("bnhd,bdhm->bnhm")];
            tensor<fp16, [1, 64, 1, 8]> var_900_cast = einsum(equation = var_900_equation_0, values = (var_702_cast, input_11_cast));
            tensor<string, []> var_902_equation_0 = const()[name = tensor<string, []>("op_902_equation_0"), val = tensor<string, []>("bnhd,bdhm->bnhm")];
            tensor<fp16, [1, 64, 1, 8]> var_902_cast = einsum(equation = var_902_equation_0, values = (var_708_cast, input_13_cast));
            tensor<string, []> var_904_equation_0 = const()[name = tensor<string, []>("op_904_equation_0"), val = tensor<string, []>("bnhd,bdhm->bnhm")];
            tensor<fp16, [1, 64, 1, 8]> var_904_cast = einsum(equation = var_904_equation_0, values = (var_714_cast, input_15_cast));
            tensor<string, []> var_906_equation_0 = const()[name = tensor<string, []>("op_906_equation_0"), val = tensor<string, []>("bnhd,bdhm->bnhm")];
            tensor<fp16, [1, 64, 1, 8]> var_906_cast = einsum(equation = var_906_equation_0, values = (var_720_cast, input_17_cast));
            tensor<string, []> var_908_equation_0 = const()[name = tensor<string, []>("op_908_equation_0"), val = tensor<string, []>("bnhd,bdhm->bnhm")];
            tensor<fp16, [1, 64, 1, 8]> var_908_cast = einsum(equation = var_908_equation_0, values = (var_726_cast, input_19_cast));
            tensor<string, []> var_910_equation_0 = const()[name = tensor<string, []>("op_910_equation_0"), val = tensor<string, []>("bnhd,bdhm->bnhm")];
            tensor<fp16, [1, 64, 1, 8]> var_910_cast = einsum(equation = var_910_equation_0, values = (var_732_cast, input_21_cast));
            tensor<string, []> var_912_equation_0 = const()[name = tensor<string, []>("op_912_equation_0"), val = tensor<string, []>("bnhd,bdhm->bnhm")];
            tensor<fp16, [1, 64, 1, 8]> var_912_cast = einsum(equation = var_912_equation_0, values = (var_738_cast, input_23_cast));
            tensor<bool, []> y_3_interleave_0 = const()[name = tensor<string, []>("y_3_interleave_0"), val = tensor<bool, []>(false)];
            tensor<fp16, [1, 512, 1, 8]> y_3_cast = concat(axis = var_421, interleave = y_3_interleave_0, values = (var_898_cast, var_900_cast, var_902_cast, var_904_cast, var_906_cast, var_908_cast, var_910_cast, var_912_cast));
            tensor<int32, [2]> var_919 = const()[name = tensor<string, []>("op_919"), val = tensor<int32, [2]>([1, 1])];
            tensor<int32, [2]> var_921 = const()[name = tensor<string, []>("op_921"), val = tensor<int32, [2]>([1, 1])];
            tensor<string, []> input_25_pad_type_0 = const()[name = tensor<string, []>("input_25_pad_type_0"), val = tensor<string, []>("custom")];
            tensor<int32, [4]> input_25_pad_0 = const()[name = tensor<string, []>("input_25_pad_0"), val = tensor<int32, [4]>([0, 0, 0, 0])];
            tensor<fp16, [512, 512, 1, 1]> op_918_to_fp16_affine_quantized = constexpr_affine_dequantize()[axis = tensor<int32, []>(0), name = tensor<string, []>("op_918_to_fp16_affine_quantized"), quantized_data = tensor<int8, [512, 512, 1, 1]>(BLOBFILE(path = tensor<string, []>("@model_path/weights/weight.bin"), offset = tensor<uint64, []>(3652224))), scale = tensor<fp16, [512]>(BLOBFILE(path = tensor<string, []>("@model_path/weights/weight.bin"), offset = tensor<uint64, []>(3915008))), zero_point = tensor<int8, [512]>(BLOBFILE(path = tensor<string, []>("@model_path/weights/weight.bin"), offset = tensor<uint64, []>(3914432)))];
            tensor<fp16, [512]> secondary_encoder_encoders_0_self_attn_linear_out_bias_to_fp16 = const()[name = tensor<string, []>("secondary_encoder_encoders_0_self_attn_linear_out_bias_to_fp16"), val = tensor<fp16, [512]>(BLOBFILE(path = tensor<string, []>("@model_path/weights/weight.bin"), offset = tensor<uint64, []>(3916096)))];
            tensor<fp16, [1, 512, 1, 8]> input_25_cast = conv(bias = secondary_encoder_encoders_0_self_attn_linear_out_bias_to_fp16, dilations = var_921, groups = var_421, pad = input_25_pad_0, pad_type = input_25_pad_type_0, strides = var_919, weight = op_918_to_fp16_affine_quantized, x = y_3_cast);
            tensor<fp16, [1, 512, 1, 8]> x_27_cast = add(x = x_21_cast, y = input_25_cast);
            tensor<fp16, [1, 512, 1, 8]> var_930_cast = abs(x = x_27_cast);
            tensor<fp16, []> var_931_to_fp16 = const()[name = tensor<string, []>("op_931_to_fp16"), val = tensor<fp16, []>(0.001953125)];
            tensor<fp16, [1, 512, 1, 8]> var_932_cast = mul(x = var_930_cast, y = var_931_to_fp16);
            tensor<int32, [1]> var_933 = const()[name = tensor<string, []>("op_933"), val = tensor<int32, [1]>([1])];
            tensor<fp16, [1, 1, 1, 8]> scale_13_cast = reduce_sum(axes = var_933, keep_dims = var_420, x = var_932_cast);
            tensor<fp16, []> scale_15_epsilon_0_to_fp16 = const()[name = tensor<string, []>("scale_15_epsilon_0_to_fp16"), val = tensor<fp16, []>(5.96046448e-08)];
            tensor<fp16, [1, 1, 1, 8]> scale_15_cast = rsqrt(epsilon = scale_15_epsilon_0_to_fp16, x = scale_13_cast);
            tensor<fp16, [1, 1, 1, 8]> scale_17_cast = mul(x = scale_15_cast, y = scale_15_cast);
            tensor<fp16, [1, 512, 1, 8]> x_29_cast = mul(x = x_27_cast, y = scale_17_cast);
            tensor<fp16, []> var_938_to_fp16 = const()[name = tensor<string, []>("op_938_to_fp16"), val = tensor<fp16, []>(-0.001953125)];
            tensor<fp16, [1, 512, 1, 8]> var_939_cast = mul(x = x_29_cast, y = var_938_to_fp16);
            tensor<int32, [1]> var_940 = const()[name = tensor<string, []>("op_940"), val = tensor<int32, [1]>([1])];
            tensor<fp16, [1, 1, 1, 8]> x_mean_5_cast = reduce_sum(axes = var_940, keep_dims = var_420, x = var_939_cast);
            tensor<fp16, [1, 512, 1, 8]> x_zero_mean_5_cast = add(x = x_29_cast, y = x_mean_5_cast);
            tensor<fp16, []> var_943_to_fp16 = const()[name = tensor<string, []>("op_943_to_fp16"), val = tensor<fp16, []>(0.001953125)];
            tensor<fp16, [1, 512, 1, 8]> var_944_cast = mul(x = x_zero_mean_5_cast, y = var_943_to_fp16);
            tensor<fp16, [1, 512, 1, 8]> var_945_cast = mul(x = var_944_cast, y = x_zero_mean_5_cast);
            tensor<int32, [1]> var_946 = const()[name = tensor<string, []>("op_946"), val = tensor<int32, [1]>([1])];
            tensor<fp16, [1, 1, 1, 8]> x_var_5_cast = reduce_sum(axes = var_946, keep_dims = var_420, x = var_945_cast);
            tensor<fp16, []> var_948_to_fp16 = const()[name = tensor<string, []>("op_948_to_fp16"), val = tensor<fp16, []>(1.00135803e-05)];
            tensor<fp16, [1, 1, 1, 8]> var_949_cast = add(x = x_var_5_cast, y = var_948_to_fp16);
            tensor<fp16, []> var_950_epsilon_0_to_fp16 = const()[name = tensor<string, []>("op_950_epsilon_0_to_fp16"), val = tensor<fp16, []>(5.96046448e-08)];
            tensor<fp16, [1, 1, 1, 8]> var_950_cast = rsqrt(epsilon = var_950_epsilon_0_to_fp16, x = var_949_cast);
            tensor<fp16, [1, 512, 1, 8]> var_951_cast = mul(x = x_zero_mean_5_cast, y = var_950_cast);
            tensor<fp16, [512]> x_31_mean_0_to_fp16 = const()[name = tensor<string, []>("x_31_mean_0_to_fp16"), val = tensor<fp16, [512]>(BLOBFILE(path = tensor<string, []>("@model_path/weights/weight.bin"), offset = tensor<uint64, []>(3917184)))];
            tensor<fp16, [512]> x_31_variance_0_to_fp16 = const()[name = tensor<string, []>("x_31_variance_0_to_fp16"), val = tensor<fp16, [512]>(BLOBFILE(path = tensor<string, []>("@model_path/weights/weight.bin"), offset = tensor<uint64, []>(3918272)))];
            tensor<fp16, [512]> x_31_gamma_0_to_fp16 = const()[name = tensor<string, []>("x_31_gamma_0_to_fp16"), val = tensor<fp16, [512]>(BLOBFILE(path = tensor<string, []>("@model_path/weights/weight.bin"), offset = tensor<uint64, []>(3919360)))];
            tensor<fp16, [512]> x_31_beta_0_to_fp16 = const()[name = tensor<string, []>("x_31_beta_0_to_fp16"), val = tensor<fp16, [512]>(BLOBFILE(path = tensor<string, []>("@model_path/weights/weight.bin"), offset = tensor<uint64, []>(3920448)))];
            tensor<fp16, []> x_31_epsilon_0_to_fp16 = const()[name = tensor<string, []>("x_31_epsilon_0_to_fp16"), val = tensor<fp16, []>(1.00135803e-05)];
            tensor<fp16, [1, 512, 1, 8]> x_31_cast = batch_norm(beta = x_31_beta_0_to_fp16, epsilon = x_31_epsilon_0_to_fp16, gamma = x_31_gamma_0_to_fp16, mean = x_31_mean_0_to_fp16, variance = x_31_variance_0_to_fp16, x = var_951_cast);
            tensor<bool, []> x_33_interleave_0 = const()[name = tensor<string, []>("x_33_interleave_0"), val = tensor<bool, []>(false)];
            tensor<fp16, [1, 512, 1, 40]> x_33_cast = concat(axis = var_418, interleave = x_33_interleave_0, values = (var_230_cast_0, x_31_cast));
            tensor<int32, [4]> x_35_begin_0 = const()[name = tensor<string, []>("x_35_begin_0"), val = tensor<int32, [4]>([0, 0, 0, 12])];
            tensor<int32, [4]> x_35_end_0 = const()[name = tensor<string, []>("x_35_end_0"), val = tensor<int32, [4]>([1, 512, 1, 40])];
            tensor<bool, [4]> x_35_end_mask_0 = const()[name = tensor<string, []>("x_35_end_mask_0"), val = tensor<bool, [4]>([true, true, true, true])];
            tensor<fp16, [1, 512, 1, 28]> x_35_cast = slice_by_index(begin = x_35_begin_0, end = x_35_end_0, end_mask = x_35_end_mask_0, x = x_33_cast);
            tensor<int32, [4]> x_37_begin_0 = const()[name = tensor<string, []>("x_37_begin_0"), val = tensor<int32, [4]>([0, 0, 0, 12])];
            tensor<int32, [4]> x_37_end_0 = const()[name = tensor<string, []>("x_37_end_0"), val = tensor<int32, [4]>([1, 512, 1, 28])];
            tensor<bool, [4]> x_37_end_mask_0 = const()[name = tensor<string, []>("x_37_end_mask_0"), val = tensor<bool, [4]>([true, true, true, true])];
            tensor<fp16, [1, 512, 1, 16]> x_37_cast = slice_by_index(begin = x_37_begin_0, end = x_37_end_0, end_mask = x_37_end_mask_0, x = x_35_cast);
            tensor<int32, [4]> x_39_begin_0 = const()[name = tensor<string, []>("x_39_begin_0"), val = tensor<int32, [4]>([0, 0, 0, 1])];
            tensor<int32, [4]> x_39_end_0 = const()[name = tensor<string, []>("x_39_end_0"), val = tensor<int32, [4]>([1, 512, 1, 16])];
            tensor<bool, [4]> x_39_end_mask_0 = const()[name = tensor<string, []>("x_39_end_mask_0"), val = tensor<bool, [4]>([true, true, true, true])];
            tensor<fp16, [1, 512, 1, 15]> x_39_cast = slice_by_index(begin = x_39_begin_0, end = x_39_end_0, end_mask = x_39_end_mask_0, x = x_37_cast);
            tensor<int32, [4]> var_991_begin_0 = const()[name = tensor<string, []>("op_991_begin_0"), val = tensor<int32, [4]>([0, 0, 0, -7])];
            tensor<int32, [4]> var_991_end_0 = const()[name = tensor<string, []>("op_991_end_0"), val = tensor<int32, [4]>([1, 512, 1, 15])];
            tensor<bool, [4]> var_991_end_mask_0 = const()[name = tensor<string, []>("op_991_end_mask_0"), val = tensor<bool, [4]>([true, true, true, true])];
            tensor<fp16, [1, 512, 1, 7]> var_991_cast = slice_by_index(begin = var_991_begin_0, end = var_991_end_0, end_mask = var_991_end_mask_0, x = x_39_cast);
            tensor<int32, [2]> var_993 = const()[name = tensor<string, []>("op_993"), val = tensor<int32, [2]>([1, 1])];
            tensor<int32, [2]> var_995 = const()[name = tensor<string, []>("op_995"), val = tensor<int32, [2]>([1, 1])];
            tensor<string, []> x_41_pad_type_0 = const()[name = tensor<string, []>("x_41_pad_type_0"), val = tensor<string, []>("custom")];
            tensor<int32, [4]> x_41_pad_0 = const()[name = tensor<string, []>("x_41_pad_0"), val = tensor<int32, [4]>([0, 0, 0, 0])];
            tensor<fp16, [1024, 512, 1, 1]> op_992_to_fp16_affine_quantized = constexpr_affine_dequantize()[axis = tensor<int32, []>(0), name = tensor<string, []>("op_992_to_fp16_affine_quantized"), quantized_data = tensor<int8, [1024, 512, 1, 1]>(BLOBFILE(path = tensor<string, []>("@model_path/weights/weight.bin"), offset = tensor<uint64, []>(3921536))), scale = tensor<fp16, [1024]>(BLOBFILE(path = tensor<string, []>("@model_path/weights/weight.bin"), offset = tensor<uint64, []>(4446976))), zero_point = tensor<int8, [1024]>(BLOBFILE(path = tensor<string, []>("@model_path/weights/weight.bin"), offset = tensor<uint64, []>(4445888)))];
            tensor<fp16, [1024]> secondary_encoder_encoders_0_conv_module_pointwise_conv1_bias_to_fp16 = const()[name = tensor<string, []>("secondary_encoder_encoders_0_conv_module_pointwise_conv1_bias_to_fp16"), val = tensor<fp16, [1024]>(BLOBFILE(path = tensor<string, []>("@model_path/weights/weight.bin"), offset = tensor<uint64, []>(4449088)))];
            tensor<fp16, [1, 1024, 1, 15]> x_41_cast = conv(bias = secondary_encoder_encoders_0_conv_module_pointwise_conv1_bias_to_fp16, dilations = var_995, groups = var_421, pad = x_41_pad_0, pad_type = x_41_pad_type_0, strides = var_993, weight = op_992_to_fp16_affine_quantized, x = x_39_cast);
            tensor<int32, [4]> var_1004_begin_0 = const()[name = tensor<string, []>("op_1004_begin_0"), val = tensor<int32, [4]>([0, 0, 0, 0])];
            tensor<int32, [4]> var_1004_end_0 = const()[name = tensor<string, []>("op_1004_end_0"), val = tensor<int32, [4]>([1, 512, 1, 15])];
            tensor<bool, [4]> var_1004_end_mask_0 = const()[name = tensor<string, []>("op_1004_end_mask_0"), val = tensor<bool, [4]>([true, false, true, true])];
            tensor<fp16, [1, 512, 1, 15]> var_1004_cast = slice_by_index(begin = var_1004_begin_0, end = var_1004_end_0, end_mask = var_1004_end_mask_0, x = x_41_cast);
            tensor<int32, [4]> var_1008_begin_0 = const()[name = tensor<string, []>("op_1008_begin_0"), val = tensor<int32, [4]>([0, 512, 0, 0])];
            tensor<int32, [4]> var_1008_end_0 = const()[name = tensor<string, []>("op_1008_end_0"), val = tensor<int32, [4]>([1, 1024, 1, 15])];
            tensor<bool, [4]> var_1008_end_mask_0 = const()[name = tensor<string, []>("op_1008_end_mask_0"), val = tensor<bool, [4]>([true, true, true, true])];
            tensor<fp16, [1, 512, 1, 15]> var_1008_cast = slice_by_index(begin = var_1008_begin_0, end = var_1008_end_0, end_mask = var_1008_end_mask_0, x = x_41_cast);
            tensor<fp16, [1, 512, 1, 15]> var_1011_cast = sigmoid(x = var_1008_cast);
            tensor<fp16, [1, 512, 1, 15]> x_43_cast = mul(x = var_1004_cast, y = var_1011_cast);
            tensor<int32, [2]> var_1014 = const()[name = tensor<string, []>("op_1014"), val = tensor<int32, [2]>([1, 1])];
            tensor<int32, [2]> var_1016 = const()[name = tensor<string, []>("op_1016"), val = tensor<int32, [2]>([1, 1])];
            tensor<string, []> x_45_pad_type_0 = const()[name = tensor<string, []>("x_45_pad_type_0"), val = tensor<string, []>("custom")];
            tensor<int32, [4]> x_45_pad_0 = const()[name = tensor<string, []>("x_45_pad_0"), val = tensor<int32, [4]>([0, 0, 0, 0])];
            tensor<fp16, [512, 1, 1, 8]> op_1013_to_fp16_affine_quantized = constexpr_affine_dequantize()[axis = tensor<int32, []>(0), name = tensor<string, []>("op_1013_to_fp16_affine_quantized"), quantized_data = tensor<int8, [512, 1, 1, 8]>(BLOBFILE(path = tensor<string, []>("@model_path/weights/weight.bin"), offset = tensor<uint64, []>(4451200))), scale = tensor<fp16, [512]>(BLOBFILE(path = tensor<string, []>("@model_path/weights/weight.bin"), offset = tensor<uint64, []>(4455936))), zero_point = tensor<int8, [512]>(BLOBFILE(path = tensor<string, []>("@model_path/weights/weight.bin"), offset = tensor<uint64, []>(4455360)))];
            tensor<fp16, [512]> secondary_encoder_encoders_0_conv_module_depthwise_conv_bias_to_fp16 = const()[name = tensor<string, []>("secondary_encoder_encoders_0_conv_module_depthwise_conv_bias_to_fp16"), val = tensor<fp16, [512]>(BLOBFILE(path = tensor<string, []>("@model_path/weights/weight.bin"), offset = tensor<uint64, []>(4457024)))];
            tensor<fp16, [1, 512, 1, 8]> x_45_cast = conv(bias = secondary_encoder_encoders_0_conv_module_depthwise_conv_bias_to_fp16, dilations = var_1016, groups = var_408, pad = x_45_pad_0, pad_type = x_45_pad_type_0, strides = var_1014, weight = op_1013_to_fp16_affine_quantized, x = x_43_cast);
            tensor<fp16, [1, 512, 1, 8]> var_1019_cast = abs(x = x_45_cast);
            tensor<fp16, []> var_1020_to_fp16 = const()[name = tensor<string, []>("op_1020_to_fp16"), val = tensor<fp16, []>(0.001953125)];
            tensor<fp16, [1, 512, 1, 8]> var_1021_cast = mul(x = var_1019_cast, y = var_1020_to_fp16);
            tensor<int32, [1]> var_1022 = const()[name = tensor<string, []>("op_1022"), val = tensor<int32, [1]>([1])];
            tensor<fp16, [1, 1, 1, 8]> scale_19_cast = reduce_sum(axes = var_1022, keep_dims = var_420, x = var_1021_cast);
            tensor<fp16, []> scale_21_epsilon_0_to_fp16 = const()[name = tensor<string, []>("scale_21_epsilon_0_to_fp16"), val = tensor<fp16, []>(5.96046448e-08)];
            tensor<fp16, [1, 1, 1, 8]> scale_21_cast = rsqrt(epsilon = scale_21_epsilon_0_to_fp16, x = scale_19_cast);
            tensor<fp16, [1, 1, 1, 8]> scale_23_cast = mul(x = scale_21_cast, y = scale_21_cast);
            tensor<fp16, [1, 512, 1, 8]> x_47_cast = mul(x = x_45_cast, y = scale_23_cast);
            tensor<fp16, []> var_1027_to_fp16 = const()[name = tensor<string, []>("op_1027_to_fp16"), val = tensor<fp16, []>(-0.001953125)];
            tensor<fp16, [1, 512, 1, 8]> var_1028_cast = mul(x = x_47_cast, y = var_1027_to_fp16);
            tensor<int32, [1]> var_1029 = const()[name = tensor<string, []>("op_1029"), val = tensor<int32, [1]>([1])];
            tensor<fp16, [1, 1, 1, 8]> x_mean_7_cast = reduce_sum(axes = var_1029, keep_dims = var_420, x = var_1028_cast);
            tensor<fp16, [1, 512, 1, 8]> x_zero_mean_7_cast = add(x = x_47_cast, y = x_mean_7_cast);
            tensor<fp16, []> var_1032_to_fp16 = const()[name = tensor<string, []>("op_1032_to_fp16"), val = tensor<fp16, []>(0.001953125)];
            tensor<fp16, [1, 512, 1, 8]> var_1033_cast = mul(x = x_zero_mean_7_cast, y = var_1032_to_fp16);
            tensor<fp16, [1, 512, 1, 8]> var_1034_cast = mul(x = var_1033_cast, y = x_zero_mean_7_cast);
            tensor<int32, [1]> var_1035 = const()[name = tensor<string, []>("op_1035"), val = tensor<int32, [1]>([1])];
            tensor<fp16, [1, 1, 1, 8]> x_var_7_cast = reduce_sum(axes = var_1035, keep_dims = var_420, x = var_1034_cast);
            tensor<fp16, []> var_1037_to_fp16 = const()[name = tensor<string, []>("op_1037_to_fp16"), val = tensor<fp16, []>(1.00135803e-05)];
            tensor<fp16, [1, 1, 1, 8]> var_1038_cast = add(x = x_var_7_cast, y = var_1037_to_fp16);
            tensor<fp16, []> var_1039_epsilon_0_to_fp16 = const()[name = tensor<string, []>("op_1039_epsilon_0_to_fp16"), val = tensor<fp16, []>(5.96046448e-08)];
            tensor<fp16, [1, 1, 1, 8]> var_1039_cast = rsqrt(epsilon = var_1039_epsilon_0_to_fp16, x = var_1038_cast);
            tensor<fp16, [1, 512, 1, 8]> var_1040_cast = mul(x = x_zero_mean_7_cast, y = var_1039_cast);
            tensor<fp16, [512]> input_27_mean_0_to_fp16 = const()[name = tensor<string, []>("input_27_mean_0_to_fp16"), val = tensor<fp16, [512]>(BLOBFILE(path = tensor<string, []>("@model_path/weights/weight.bin"), offset = tensor<uint64, []>(4458112)))];
            tensor<fp16, [512]> input_27_variance_0_to_fp16 = const()[name = tensor<string, []>("input_27_variance_0_to_fp16"), val = tensor<fp16, [512]>(BLOBFILE(path = tensor<string, []>("@model_path/weights/weight.bin"), offset = tensor<uint64, []>(4459200)))];
            tensor<fp16, [512]> input_27_gamma_0_to_fp16 = const()[name = tensor<string, []>("input_27_gamma_0_to_fp16"), val = tensor<fp16, [512]>(BLOBFILE(path = tensor<string, []>("@model_path/weights/weight.bin"), offset = tensor<uint64, []>(4460288)))];
            tensor<fp16, [512]> input_27_beta_0_to_fp16 = const()[name = tensor<string, []>("input_27_beta_0_to_fp16"), val = tensor<fp16, [512]>(BLOBFILE(path = tensor<string, []>("@model_path/weights/weight.bin"), offset = tensor<uint64, []>(4461376)))];
            tensor<fp16, []> input_27_epsilon_0_to_fp16 = const()[name = tensor<string, []>("input_27_epsilon_0_to_fp16"), val = tensor<fp16, []>(1.00135803e-05)];
            tensor<fp16, [1, 512, 1, 8]> input_27_cast = batch_norm(beta = input_27_beta_0_to_fp16, epsilon = input_27_epsilon_0_to_fp16, gamma = input_27_gamma_0_to_fp16, mean = input_27_mean_0_to_fp16, variance = input_27_variance_0_to_fp16, x = var_1040_cast);
            tensor<fp16, [1, 512, 1, 8]> x_49_cast = silu(x = input_27_cast);
            tensor<int32, [2]> var_1049 = const()[name = tensor<string, []>("op_1049"), val = tensor<int32, [2]>([1, 1])];
            tensor<int32, [2]> var_1051 = const()[name = tensor<string, []>("op_1051"), val = tensor<int32, [2]>([1, 1])];
            tensor<string, []> input_29_pad_type_0 = const()[name = tensor<string, []>("input_29_pad_type_0"), val = tensor<string, []>("custom")];
            tensor<int32, [4]> input_29_pad_0 = const()[name = tensor<string, []>("input_29_pad_0"), val = tensor<int32, [4]>([0, 0, 0, 0])];
            tensor<fp16, [512, 512, 1, 1]> op_1048_to_fp16_affine_quantized = constexpr_affine_dequantize()[axis = tensor<int32, []>(0), name = tensor<string, []>("op_1048_to_fp16_affine_quantized"), quantized_data = tensor<int8, [512, 512, 1, 1]>(BLOBFILE(path = tensor<string, []>("@model_path/weights/weight.bin"), offset = tensor<uint64, []>(4462464))), scale = tensor<fp16, [512]>(BLOBFILE(path = tensor<string, []>("@model_path/weights/weight.bin"), offset = tensor<uint64, []>(4725248))), zero_point = tensor<int8, [512]>(BLOBFILE(path = tensor<string, []>("@model_path/weights/weight.bin"), offset = tensor<uint64, []>(4724672)))];
            tensor<fp16, [512]> secondary_encoder_encoders_0_conv_module_pointwise_conv2_bias_to_fp16 = const()[name = tensor<string, []>("secondary_encoder_encoders_0_conv_module_pointwise_conv2_bias_to_fp16"), val = tensor<fp16, [512]>(BLOBFILE(path = tensor<string, []>("@model_path/weights/weight.bin"), offset = tensor<uint64, []>(4726336)))];
            tensor<fp16, [1, 512, 1, 8]> input_29_cast = conv(bias = secondary_encoder_encoders_0_conv_module_pointwise_conv2_bias_to_fp16, dilations = var_1051, groups = var_421, pad = input_29_pad_0, pad_type = input_29_pad_type_0, strides = var_1049, weight = op_1048_to_fp16_affine_quantized, x = x_49_cast);
            tensor<fp16, [1, 512, 1, 8]> x_53_cast = add(x = x_27_cast, y = input_29_cast);
            tensor<fp16, [1, 512, 1, 8]> var_1060_cast = abs(x = x_53_cast);
            tensor<fp16, []> var_1061_to_fp16 = const()[name = tensor<string, []>("op_1061_to_fp16"), val = tensor<fp16, []>(0.001953125)];
            tensor<fp16, [1, 512, 1, 8]> var_1062_cast = mul(x = var_1060_cast, y = var_1061_to_fp16);
            tensor<int32, [1]> var_1063 = const()[name = tensor<string, []>("op_1063"), val = tensor<int32, [1]>([1])];
            tensor<fp16, [1, 1, 1, 8]> scale_25_cast = reduce_sum(axes = var_1063, keep_dims = var_420, x = var_1062_cast);
            tensor<fp16, []> scale_27_epsilon_0_to_fp16 = const()[name = tensor<string, []>("scale_27_epsilon_0_to_fp16"), val = tensor<fp16, []>(5.96046448e-08)];
            tensor<fp16, [1, 1, 1, 8]> scale_27_cast = rsqrt(epsilon = scale_27_epsilon_0_to_fp16, x = scale_25_cast);
            tensor<fp16, [1, 1, 1, 8]> scale_29_cast = mul(x = scale_27_cast, y = scale_27_cast);
            tensor<fp16, [1, 512, 1, 8]> x_55_cast = mul(x = x_53_cast, y = scale_29_cast);
            tensor<fp16, []> var_1068_to_fp16 = const()[name = tensor<string, []>("op_1068_to_fp16"), val = tensor<fp16, []>(-0.001953125)];
            tensor<fp16, [1, 512, 1, 8]> var_1069_cast = mul(x = x_55_cast, y = var_1068_to_fp16);
            tensor<int32, [1]> var_1070 = const()[name = tensor<string, []>("op_1070"), val = tensor<int32, [1]>([1])];
            tensor<fp16, [1, 1, 1, 8]> x_mean_9_cast = reduce_sum(axes = var_1070, keep_dims = var_420, x = var_1069_cast);
            tensor<fp16, [1, 512, 1, 8]> x_zero_mean_9_cast = add(x = x_55_cast, y = x_mean_9_cast);
            tensor<fp16, []> var_1073_to_fp16 = const()[name = tensor<string, []>("op_1073_to_fp16"), val = tensor<fp16, []>(0.001953125)];
            tensor<fp16, [1, 512, 1, 8]> var_1074_cast = mul(x = x_zero_mean_9_cast, y = var_1073_to_fp16);
            tensor<fp16, [1, 512, 1, 8]> var_1075_cast = mul(x = var_1074_cast, y = x_zero_mean_9_cast);
            tensor<int32, [1]> var_1076 = const()[name = tensor<string, []>("op_1076"), val = tensor<int32, [1]>([1])];
            tensor<fp16, [1, 1, 1, 8]> x_var_9_cast = reduce_sum(axes = var_1076, keep_dims = var_420, x = var_1075_cast);
            tensor<fp16, []> var_1078_to_fp16 = const()[name = tensor<string, []>("op_1078_to_fp16"), val = tensor<fp16, []>(1.00135803e-05)];
            tensor<fp16, [1, 1, 1, 8]> var_1079_cast = add(x = x_var_9_cast, y = var_1078_to_fp16);
            tensor<fp16, []> var_1080_epsilon_0_to_fp16 = const()[name = tensor<string, []>("op_1080_epsilon_0_to_fp16"), val = tensor<fp16, []>(5.96046448e-08)];
            tensor<fp16, [1, 1, 1, 8]> var_1080_cast = rsqrt(epsilon = var_1080_epsilon_0_to_fp16, x = var_1079_cast);
            tensor<fp16, [1, 512, 1, 8]> var_1081_cast = mul(x = x_zero_mean_9_cast, y = var_1080_cast);
            tensor<fp16, [512]> x_57_mean_0_to_fp16 = const()[name = tensor<string, []>("x_57_mean_0_to_fp16"), val = tensor<fp16, [512]>(BLOBFILE(path = tensor<string, []>("@model_path/weights/weight.bin"), offset = tensor<uint64, []>(4727424)))];
            tensor<fp16, [512]> x_57_variance_0_to_fp16 = const()[name = tensor<string, []>("x_57_variance_0_to_fp16"), val = tensor<fp16, [512]>(BLOBFILE(path = tensor<string, []>("@model_path/weights/weight.bin"), offset = tensor<uint64, []>(4728512)))];
            tensor<fp16, [512]> x_57_gamma_0_to_fp16 = const()[name = tensor<string, []>("x_57_gamma_0_to_fp16"), val = tensor<fp16, [512]>(BLOBFILE(path = tensor<string, []>("@model_path/weights/weight.bin"), offset = tensor<uint64, []>(4729600)))];
            tensor<fp16, [512]> x_57_beta_0_to_fp16 = const()[name = tensor<string, []>("x_57_beta_0_to_fp16"), val = tensor<fp16, [512]>(BLOBFILE(path = tensor<string, []>("@model_path/weights/weight.bin"), offset = tensor<uint64, []>(4730688)))];
            tensor<fp16, []> x_57_epsilon_0_to_fp16 = const()[name = tensor<string, []>("x_57_epsilon_0_to_fp16"), val = tensor<fp16, []>(1.00135803e-05)];
            tensor<fp16, [1, 512, 1, 8]> x_57_cast = batch_norm(beta = x_57_beta_0_to_fp16, epsilon = x_57_epsilon_0_to_fp16, gamma = x_57_gamma_0_to_fp16, mean = x_57_mean_0_to_fp16, variance = x_57_variance_0_to_fp16, x = var_1081_cast);
            tensor<int32, [2]> var_1092 = const()[name = tensor<string, []>("op_1092"), val = tensor<int32, [2]>([1, 1])];
            tensor<int32, [2]> var_1094 = const()[name = tensor<string, []>("op_1094"), val = tensor<int32, [2]>([1, 1])];
            tensor<string, []> input_31_pad_type_0 = const()[name = tensor<string, []>("input_31_pad_type_0"), val = tensor<string, []>("custom")];
            tensor<int32, [4]> input_31_pad_0 = const()[name = tensor<string, []>("input_31_pad_0"), val = tensor<int32, [4]>([0, 0, 0, 0])];
            tensor<fp16, [2048, 512, 1, 1]> op_1091_to_fp16_affine_quantized = constexpr_affine_dequantize()[axis = tensor<int32, []>(0), name = tensor<string, []>("op_1091_to_fp16_affine_quantized"), quantized_data = tensor<int8, [2048, 512, 1, 1]>(BLOBFILE(path = tensor<string, []>("@model_path/weights/weight.bin"), offset = tensor<uint64, []>(4731776))), scale = tensor<fp16, [2048]>(BLOBFILE(path = tensor<string, []>("@model_path/weights/weight.bin"), offset = tensor<uint64, []>(5782528))), zero_point = tensor<int8, [2048]>(BLOBFILE(path = tensor<string, []>("@model_path/weights/weight.bin"), offset = tensor<uint64, []>(5780416)))];
            tensor<fp16, [2048]> secondary_encoder_encoders_0_feed_forward_w_1_bias_to_fp16 = const()[name = tensor<string, []>("secondary_encoder_encoders_0_feed_forward_w_1_bias_to_fp16"), val = tensor<fp16, [2048]>(BLOBFILE(path = tensor<string, []>("@model_path/weights/weight.bin"), offset = tensor<uint64, []>(5786688)))];
            tensor<fp16, [1, 2048, 1, 8]> input_31_cast = conv(bias = secondary_encoder_encoders_0_feed_forward_w_1_bias_to_fp16, dilations = var_1094, groups = var_421, pad = input_31_pad_0, pad_type = input_31_pad_type_0, strides = var_1092, weight = op_1091_to_fp16_affine_quantized, x = x_57_cast);
            tensor<fp16, [1, 2048, 1, 8]> input_33_cast = silu(x = input_31_cast);
            tensor<int32, [2]> var_1103 = const()[name = tensor<string, []>("op_1103"), val = tensor<int32, [2]>([1, 1])];
            tensor<int32, [2]> var_1105 = const()[name = tensor<string, []>("op_1105"), val = tensor<int32, [2]>([1, 1])];
            tensor<string, []> input_35_pad_type_0 = const()[name = tensor<string, []>("input_35_pad_type_0"), val = tensor<string, []>("custom")];
            tensor<int32, [4]> input_35_pad_0 = const()[name = tensor<string, []>("input_35_pad_0"), val = tensor<int32, [4]>([0, 0, 0, 0])];
            tensor<fp16, [512, 2048, 1, 1]> op_1110_weight_0_to_fp16_affine_quantized = constexpr_affine_dequantize()[axis = tensor<int32, []>(0), name = tensor<string, []>("op_1110_weight_0_to_fp16_affine_quantized"), quantized_data = tensor<int8, [512, 2048, 1, 1]>(BLOBFILE(path = tensor<string, []>("@model_path/weights/weight.bin"), offset = tensor<uint64, []>(5790848))), scale = tensor<fp16, [512]>(BLOBFILE(path = tensor<string, []>("@model_path/weights/weight.bin"), offset = tensor<uint64, []>(6840064))), zero_point = tensor<int8, [512]>(BLOBFILE(path = tensor<string, []>("@model_path/weights/weight.bin"), offset = tensor<uint64, []>(6839488)))];
            tensor<fp16, [512]> var_1110_bias_0_to_fp16 = const()[name = tensor<string, []>("op_1110_bias_0_to_fp16"), val = tensor<fp16, [512]>(BLOBFILE(path = tensor<string, []>("@model_path/weights/weight.bin"), offset = tensor<uint64, []>(6841152)))];
            tensor<fp16, [1, 512, 1, 8]> var_1110_cast = conv(bias = var_1110_bias_0_to_fp16, dilations = var_1105, groups = var_421, pad = input_35_pad_0, pad_type = input_35_pad_type_0, strides = var_1103, weight = op_1110_weight_0_to_fp16_affine_quantized, x = input_33_cast);
            tensor<fp16, [1, 512, 1, 8]> x_63_cast = add(x = x_53_cast, y = var_1110_cast);
            tensor<fp16, [1, 512, 1, 8]> var_1112_cast = abs(x = x_63_cast);
            tensor<fp16, []> var_1113_to_fp16 = const()[name = tensor<string, []>("op_1113_to_fp16"), val = tensor<fp16, []>(0.001953125)];
            tensor<fp16, [1, 512, 1, 8]> var_1114_cast = mul(x = var_1112_cast, y = var_1113_to_fp16);
            tensor<int32, [1]> var_1115 = const()[name = tensor<string, []>("op_1115"), val = tensor<int32, [1]>([1])];
            tensor<fp16, [1, 1, 1, 8]> scale_31_cast = reduce_sum(axes = var_1115, keep_dims = var_420, x = var_1114_cast);
            tensor<fp16, []> scale_33_epsilon_0_to_fp16 = const()[name = tensor<string, []>("scale_33_epsilon_0_to_fp16"), val = tensor<fp16, []>(5.96046448e-08)];
            tensor<fp16, [1, 1, 1, 8]> scale_33_cast = rsqrt(epsilon = scale_33_epsilon_0_to_fp16, x = scale_31_cast);
            tensor<fp16, [1, 1, 1, 8]> scale_35_cast = mul(x = scale_33_cast, y = scale_33_cast);
            tensor<fp16, [1, 512, 1, 8]> x_65_cast = mul(x = x_63_cast, y = scale_35_cast);
            tensor<fp16, []> var_1120_to_fp16 = const()[name = tensor<string, []>("op_1120_to_fp16"), val = tensor<fp16, []>(-0.001953125)];
            tensor<fp16, [1, 512, 1, 8]> var_1121_cast = mul(x = x_65_cast, y = var_1120_to_fp16);
            tensor<int32, [1]> var_1122 = const()[name = tensor<string, []>("op_1122"), val = tensor<int32, [1]>([1])];
            tensor<fp16, [1, 1, 1, 8]> x_mean_11_cast = reduce_sum(axes = var_1122, keep_dims = var_420, x = var_1121_cast);
            tensor<fp16, [1, 512, 1, 8]> x_zero_mean_11_cast = add(x = x_65_cast, y = x_mean_11_cast);
            tensor<fp16, []> var_1125_to_fp16 = const()[name = tensor<string, []>("op_1125_to_fp16"), val = tensor<fp16, []>(0.001953125)];
            tensor<fp16, [1, 512, 1, 8]> var_1126_cast = mul(x = x_zero_mean_11_cast, y = var_1125_to_fp16);
            tensor<fp16, [1, 512, 1, 8]> var_1127_cast = mul(x = var_1126_cast, y = x_zero_mean_11_cast);
            tensor<int32, [1]> var_1128 = const()[name = tensor<string, []>("op_1128"), val = tensor<int32, [1]>([1])];
            tensor<fp16, [1, 1, 1, 8]> x_var_11_cast = reduce_sum(axes = var_1128, keep_dims = var_420, x = var_1127_cast);
            tensor<fp16, []> var_1130_to_fp16 = const()[name = tensor<string, []>("op_1130_to_fp16"), val = tensor<fp16, []>(1.00135803e-05)];
            tensor<fp16, [1, 1, 1, 8]> var_1131_cast = add(x = x_var_11_cast, y = var_1130_to_fp16);
            tensor<fp16, []> var_1132_epsilon_0_to_fp16 = const()[name = tensor<string, []>("op_1132_epsilon_0_to_fp16"), val = tensor<fp16, []>(5.96046448e-08)];
            tensor<fp16, [1, 1, 1, 8]> var_1132_cast = rsqrt(epsilon = var_1132_epsilon_0_to_fp16, x = var_1131_cast);
            tensor<fp16, [1, 512, 1, 8]> var_1133_cast = mul(x = x_zero_mean_11_cast, y = var_1132_cast);
            tensor<fp16, [512]> x_67_mean_0_to_fp16 = const()[name = tensor<string, []>("x_67_mean_0_to_fp16"), val = tensor<fp16, [512]>(BLOBFILE(path = tensor<string, []>("@model_path/weights/weight.bin"), offset = tensor<uint64, []>(6842240)))];
            tensor<fp16, [512]> x_67_variance_0_to_fp16 = const()[name = tensor<string, []>("x_67_variance_0_to_fp16"), val = tensor<fp16, [512]>(BLOBFILE(path = tensor<string, []>("@model_path/weights/weight.bin"), offset = tensor<uint64, []>(6843328)))];
            tensor<fp16, [512]> x_67_gamma_0_to_fp16 = const()[name = tensor<string, []>("x_67_gamma_0_to_fp16"), val = tensor<fp16, [512]>(BLOBFILE(path = tensor<string, []>("@model_path/weights/weight.bin"), offset = tensor<uint64, []>(6844416)))];
            tensor<fp16, [512]> x_67_beta_0_to_fp16 = const()[name = tensor<string, []>("x_67_beta_0_to_fp16"), val = tensor<fp16, [512]>(BLOBFILE(path = tensor<string, []>("@model_path/weights/weight.bin"), offset = tensor<uint64, []>(6845504)))];
            tensor<fp16, []> x_67_epsilon_0_to_fp16 = const()[name = tensor<string, []>("x_67_epsilon_0_to_fp16"), val = tensor<fp16, []>(1.00135803e-05)];
            tensor<fp16, [1, 512, 1, 8]> x_67_cast = batch_norm(beta = x_67_beta_0_to_fp16, epsilon = x_67_epsilon_0_to_fp16, gamma = x_67_gamma_0_to_fp16, mean = x_67_mean_0_to_fp16, variance = x_67_variance_0_to_fp16, x = var_1133_cast);
            tensor<int32, []> var_1150 = const()[name = tensor<string, []>("op_1150"), val = tensor<int32, []>(512)];
            tensor<int32, []> var_1157 = const()[name = tensor<string, []>("op_1157"), val = tensor<int32, []>(2)];
            tensor<int32, []> var_1160 = const()[name = tensor<string, []>("op_1160"), val = tensor<int32, []>(-1)];
            tensor<bool, []> var_1162 = const()[name = tensor<string, []>("op_1162"), val = tensor<bool, []>(true)];
            tensor<int32, []> var_1163 = const()[name = tensor<string, []>("op_1163"), val = tensor<int32, []>(1)];
            tensor<fp16, [1, 512, 1, 8]> var_1210_cast = abs(x = x_67_cast);
            tensor<fp16, []> var_1211_to_fp16 = const()[name = tensor<string, []>("op_1211_to_fp16"), val = tensor<fp16, []>(0.001953125)];
            tensor<fp16, [1, 512, 1, 8]> var_1212_cast = mul(x = var_1210_cast, y = var_1211_to_fp16);
            tensor<int32, [1]> var_1213 = const()[name = tensor<string, []>("op_1213"), val = tensor<int32, [1]>([1])];
            tensor<fp16, [1, 1, 1, 8]> scale_37_cast = reduce_sum(axes = var_1213, keep_dims = var_1162, x = var_1212_cast);
            tensor<fp16, []> scale_39_epsilon_0_to_fp16 = const()[name = tensor<string, []>("scale_39_epsilon_0_to_fp16"), val = tensor<fp16, []>(5.96046448e-08)];
            tensor<fp16, [1, 1, 1, 8]> scale_39_cast = rsqrt(epsilon = scale_39_epsilon_0_to_fp16, x = scale_37_cast);
            tensor<fp16, [1, 1, 1, 8]> scale_41_cast = mul(x = scale_39_cast, y = scale_39_cast);
            tensor<fp16, [1, 512, 1, 8]> x_69_cast = mul(x = x_67_cast, y = scale_41_cast);
            tensor<fp16, []> var_1218_to_fp16 = const()[name = tensor<string, []>("op_1218_to_fp16"), val = tensor<fp16, []>(-0.001953125)];
            tensor<fp16, [1, 512, 1, 8]> var_1219_cast = mul(x = x_69_cast, y = var_1218_to_fp16);
            tensor<int32, [1]> var_1220 = const()[name = tensor<string, []>("op_1220"), val = tensor<int32, [1]>([1])];
            tensor<fp16, [1, 1, 1, 8]> x_mean_13_cast = reduce_sum(axes = var_1220, keep_dims = var_1162, x = var_1219_cast);
            tensor<fp16, [1, 512, 1, 8]> x_zero_mean_13_cast = add(x = x_69_cast, y = x_mean_13_cast);
            tensor<fp16, []> var_1223_to_fp16 = const()[name = tensor<string, []>("op_1223_to_fp16"), val = tensor<fp16, []>(0.001953125)];
            tensor<fp16, [1, 512, 1, 8]> var_1224_cast = mul(x = x_zero_mean_13_cast, y = var_1223_to_fp16);
            tensor<fp16, [1, 512, 1, 8]> var_1225_cast = mul(x = var_1224_cast, y = x_zero_mean_13_cast);
            tensor<int32, [1]> var_1226 = const()[name = tensor<string, []>("op_1226"), val = tensor<int32, [1]>([1])];
            tensor<fp16, [1, 1, 1, 8]> x_var_13_cast = reduce_sum(axes = var_1226, keep_dims = var_1162, x = var_1225_cast);
            tensor<fp16, []> var_1228_to_fp16 = const()[name = tensor<string, []>("op_1228_to_fp16"), val = tensor<fp16, []>(1.00135803e-05)];
            tensor<fp16, [1, 1, 1, 8]> var_1229_cast = add(x = x_var_13_cast, y = var_1228_to_fp16);
            tensor<fp16, []> var_1230_epsilon_0_to_fp16 = const()[name = tensor<string, []>("op_1230_epsilon_0_to_fp16"), val = tensor<fp16, []>(5.96046448e-08)];
            tensor<fp16, [1, 1, 1, 8]> var_1230_cast = rsqrt(epsilon = var_1230_epsilon_0_to_fp16, x = var_1229_cast);
            tensor<fp16, [1, 512, 1, 8]> var_1231_cast = mul(x = x_zero_mean_13_cast, y = var_1230_cast);
            tensor<fp16, [512]> x_71_mean_0_to_fp16 = const()[name = tensor<string, []>("x_71_mean_0_to_fp16"), val = tensor<fp16, [512]>(BLOBFILE(path = tensor<string, []>("@model_path/weights/weight.bin"), offset = tensor<uint64, []>(6846592)))];
            tensor<fp16, [512]> x_71_variance_0_to_fp16 = const()[name = tensor<string, []>("x_71_variance_0_to_fp16"), val = tensor<fp16, [512]>(BLOBFILE(path = tensor<string, []>("@model_path/weights/weight.bin"), offset = tensor<uint64, []>(6847680)))];
            tensor<fp16, [512]> x_71_gamma_0_to_fp16 = const()[name = tensor<string, []>("x_71_gamma_0_to_fp16"), val = tensor<fp16, [512]>(BLOBFILE(path = tensor<string, []>("@model_path/weights/weight.bin"), offset = tensor<uint64, []>(6848768)))];
            tensor<fp16, [512]> x_71_beta_0_to_fp16 = const()[name = tensor<string, []>("x_71_beta_0_to_fp16"), val = tensor<fp16, [512]>(BLOBFILE(path = tensor<string, []>("@model_path/weights/weight.bin"), offset = tensor<uint64, []>(6849856)))];
            tensor<fp16, []> x_71_epsilon_0_to_fp16 = const()[name = tensor<string, []>("x_71_epsilon_0_to_fp16"), val = tensor<fp16, []>(1.00135803e-05)];
            tensor<fp16, [1, 512, 1, 8]> x_71_cast = batch_norm(beta = x_71_beta_0_to_fp16, epsilon = x_71_epsilon_0_to_fp16, gamma = x_71_gamma_0_to_fp16, mean = x_71_mean_0_to_fp16, variance = x_71_variance_0_to_fp16, x = var_1231_cast);
            tensor<int32, [2]> var_1242 = const()[name = tensor<string, []>("op_1242"), val = tensor<int32, [2]>([1, 1])];
            tensor<int32, [2]> var_1244 = const()[name = tensor<string, []>("op_1244"), val = tensor<int32, [2]>([1, 1])];
            tensor<string, []> input_37_pad_type_0 = const()[name = tensor<string, []>("input_37_pad_type_0"), val = tensor<string, []>("custom")];
            tensor<int32, [4]> input_37_pad_0 = const()[name = tensor<string, []>("input_37_pad_0"), val = tensor<int32, [4]>([0, 0, 0, 0])];
            tensor<fp16, [2048, 512, 1, 1]> op_1241_to_fp16_affine_quantized = constexpr_affine_dequantize()[axis = tensor<int32, []>(0), name = tensor<string, []>("op_1241_to_fp16_affine_quantized"), quantized_data = tensor<int8, [2048, 512, 1, 1]>(BLOBFILE(path = tensor<string, []>("@model_path/weights/weight.bin"), offset = tensor<uint64, []>(6850944))), scale = tensor<fp16, [2048]>(BLOBFILE(path = tensor<string, []>("@model_path/weights/weight.bin"), offset = tensor<uint64, []>(7901696))), zero_point = tensor<int8, [2048]>(BLOBFILE(path = tensor<string, []>("@model_path/weights/weight.bin"), offset = tensor<uint64, []>(7899584)))];
            tensor<fp16, [2048]> secondary_encoder_encoders_1_feed_forward_macaron_w_1_bias_to_fp16 = const()[name = tensor<string, []>("secondary_encoder_encoders_1_feed_forward_macaron_w_1_bias_to_fp16"), val = tensor<fp16, [2048]>(BLOBFILE(path = tensor<string, []>("@model_path/weights/weight.bin"), offset = tensor<uint64, []>(7905856)))];
            tensor<fp16, [1, 2048, 1, 8]> input_37_cast = conv(bias = secondary_encoder_encoders_1_feed_forward_macaron_w_1_bias_to_fp16, dilations = var_1244, groups = var_1163, pad = input_37_pad_0, pad_type = input_37_pad_type_0, strides = var_1242, weight = op_1241_to_fp16_affine_quantized, x = x_71_cast);
            tensor<fp16, [1, 2048, 1, 8]> input_39_cast = silu(x = input_37_cast);
            tensor<int32, [2]> var_1253 = const()[name = tensor<string, []>("op_1253"), val = tensor<int32, [2]>([1, 1])];
            tensor<int32, [2]> var_1255 = const()[name = tensor<string, []>("op_1255"), val = tensor<int32, [2]>([1, 1])];
            tensor<string, []> input_41_pad_type_0 = const()[name = tensor<string, []>("input_41_pad_type_0"), val = tensor<string, []>("custom")];
            tensor<int32, [4]> input_41_pad_0 = const()[name = tensor<string, []>("input_41_pad_0"), val = tensor<int32, [4]>([0, 0, 0, 0])];
            tensor<fp16, [512, 2048, 1, 1]> op_1260_weight_0_to_fp16_affine_quantized = constexpr_affine_dequantize()[axis = tensor<int32, []>(0), name = tensor<string, []>("op_1260_weight_0_to_fp16_affine_quantized"), quantized_data = tensor<int8, [512, 2048, 1, 1]>(BLOBFILE(path = tensor<string, []>("@model_path/weights/weight.bin"), offset = tensor<uint64, []>(7910016))), scale = tensor<fp16, [512]>(BLOBFILE(path = tensor<string, []>("@model_path/weights/weight.bin"), offset = tensor<uint64, []>(8959232))), zero_point = tensor<int8, [512]>(BLOBFILE(path = tensor<string, []>("@model_path/weights/weight.bin"), offset = tensor<uint64, []>(8958656)))];
            tensor<fp16, [512]> var_1260_bias_0_to_fp16 = const()[name = tensor<string, []>("op_1260_bias_0_to_fp16"), val = tensor<fp16, [512]>(BLOBFILE(path = tensor<string, []>("@model_path/weights/weight.bin"), offset = tensor<uint64, []>(8960320)))];
            tensor<fp16, [1, 512, 1, 8]> var_1260_cast = conv(bias = var_1260_bias_0_to_fp16, dilations = var_1255, groups = var_1163, pad = input_41_pad_0, pad_type = input_41_pad_type_0, strides = var_1253, weight = op_1260_weight_0_to_fp16_affine_quantized, x = input_39_cast);
            tensor<fp16, [1, 512, 1, 8]> x_77_cast = add(x = x_67_cast, y = var_1260_cast);
            tensor<fp16, [1, 512, 1, 8]> var_1262_cast = abs(x = x_77_cast);
            tensor<fp16, []> var_1263_to_fp16 = const()[name = tensor<string, []>("op_1263_to_fp16"), val = tensor<fp16, []>(0.001953125)];
            tensor<fp16, [1, 512, 1, 8]> var_1264_cast = mul(x = var_1262_cast, y = var_1263_to_fp16);
            tensor<int32, [1]> var_1265 = const()[name = tensor<string, []>("op_1265"), val = tensor<int32, [1]>([1])];
            tensor<fp16, [1, 1, 1, 8]> scale_43_cast = reduce_sum(axes = var_1265, keep_dims = var_1162, x = var_1264_cast);
            tensor<fp16, []> scale_45_epsilon_0_to_fp16 = const()[name = tensor<string, []>("scale_45_epsilon_0_to_fp16"), val = tensor<fp16, []>(5.96046448e-08)];
            tensor<fp16, [1, 1, 1, 8]> scale_45_cast = rsqrt(epsilon = scale_45_epsilon_0_to_fp16, x = scale_43_cast);
            tensor<fp16, [1, 1, 1, 8]> scale_47_cast = mul(x = scale_45_cast, y = scale_45_cast);
            tensor<fp16, [1, 512, 1, 8]> x_79_cast = mul(x = x_77_cast, y = scale_47_cast);
            tensor<fp16, []> var_1270_to_fp16 = const()[name = tensor<string, []>("op_1270_to_fp16"), val = tensor<fp16, []>(-0.001953125)];
            tensor<fp16, [1, 512, 1, 8]> var_1271_cast = mul(x = x_79_cast, y = var_1270_to_fp16);
            tensor<int32, [1]> var_1272 = const()[name = tensor<string, []>("op_1272"), val = tensor<int32, [1]>([1])];
            tensor<fp16, [1, 1, 1, 8]> x_mean_15_cast = reduce_sum(axes = var_1272, keep_dims = var_1162, x = var_1271_cast);
            tensor<fp16, [1, 512, 1, 8]> x_zero_mean_15_cast = add(x = x_79_cast, y = x_mean_15_cast);
            tensor<fp16, []> var_1275_to_fp16 = const()[name = tensor<string, []>("op_1275_to_fp16"), val = tensor<fp16, []>(0.001953125)];
            tensor<fp16, [1, 512, 1, 8]> var_1276_cast = mul(x = x_zero_mean_15_cast, y = var_1275_to_fp16);
            tensor<fp16, [1, 512, 1, 8]> var_1277_cast = mul(x = var_1276_cast, y = x_zero_mean_15_cast);
            tensor<int32, [1]> var_1278 = const()[name = tensor<string, []>("op_1278"), val = tensor<int32, [1]>([1])];
            tensor<fp16, [1, 1, 1, 8]> x_var_15_cast = reduce_sum(axes = var_1278, keep_dims = var_1162, x = var_1277_cast);
            tensor<fp16, []> var_1280_to_fp16 = const()[name = tensor<string, []>("op_1280_to_fp16"), val = tensor<fp16, []>(1.00135803e-05)];
            tensor<fp16, [1, 1, 1, 8]> var_1281_cast = add(x = x_var_15_cast, y = var_1280_to_fp16);
            tensor<fp16, []> var_1282_epsilon_0_to_fp16 = const()[name = tensor<string, []>("op_1282_epsilon_0_to_fp16"), val = tensor<fp16, []>(5.96046448e-08)];
            tensor<fp16, [1, 1, 1, 8]> var_1282_cast = rsqrt(epsilon = var_1282_epsilon_0_to_fp16, x = var_1281_cast);
            tensor<fp16, [1, 512, 1, 8]> var_1283_cast = mul(x = x_zero_mean_15_cast, y = var_1282_cast);
            tensor<fp16, [512]> x_81_mean_0_to_fp16 = const()[name = tensor<string, []>("x_81_mean_0_to_fp16"), val = tensor<fp16, [512]>(BLOBFILE(path = tensor<string, []>("@model_path/weights/weight.bin"), offset = tensor<uint64, []>(8961408)))];
            tensor<fp16, [512]> x_81_variance_0_to_fp16 = const()[name = tensor<string, []>("x_81_variance_0_to_fp16"), val = tensor<fp16, [512]>(BLOBFILE(path = tensor<string, []>("@model_path/weights/weight.bin"), offset = tensor<uint64, []>(8962496)))];
            tensor<fp16, [512]> x_81_gamma_0_to_fp16 = const()[name = tensor<string, []>("x_81_gamma_0_to_fp16"), val = tensor<fp16, [512]>(BLOBFILE(path = tensor<string, []>("@model_path/weights/weight.bin"), offset = tensor<uint64, []>(8963584)))];
            tensor<fp16, [512]> x_81_beta_0_to_fp16 = const()[name = tensor<string, []>("x_81_beta_0_to_fp16"), val = tensor<fp16, [512]>(BLOBFILE(path = tensor<string, []>("@model_path/weights/weight.bin"), offset = tensor<uint64, []>(8964672)))];
            tensor<fp16, []> x_81_epsilon_0_to_fp16 = const()[name = tensor<string, []>("x_81_epsilon_0_to_fp16"), val = tensor<fp16, []>(1.00135803e-05)];
            tensor<fp16, [1, 512, 1, 8]> x_81_cast = batch_norm(beta = x_81_beta_0_to_fp16, epsilon = x_81_epsilon_0_to_fp16, gamma = x_81_gamma_0_to_fp16, mean = x_81_mean_0_to_fp16, variance = x_81_variance_0_to_fp16, x = var_1283_cast);
            tensor<int32, [2]> var_1314 = const()[name = tensor<string, []>("op_1314"), val = tensor<int32, [2]>([1, 1])];
            tensor<int32, [2]> var_1316 = const()[name = tensor<string, []>("op_1316"), val = tensor<int32, [2]>([1, 1])];
            tensor<string, []> y_5_pad_type_0 = const()[name = tensor<string, []>("y_5_pad_type_0"), val = tensor<string, []>("custom")];
            tensor<int32, [4]> y_5_pad_0 = const()[name = tensor<string, []>("y_5_pad_0"), val = tensor<int32, [4]>([0, 0, 0, 0])];
            tensor<fp16, [512, 512, 1, 1]> op_1320_weight_0_to_fp16_affine_quantized = constexpr_affine_dequantize()[axis = tensor<int32, []>(0), name = tensor<string, []>("op_1320_weight_0_to_fp16_affine_quantized"), quantized_data = tensor<int8, [512, 512, 1, 1]>(BLOBFILE(path = tensor<string, []>("@model_path/weights/weight.bin"), offset = tensor<uint64, []>(8965760))), scale = tensor<fp16, [512]>(BLOBFILE(path = tensor<string, []>("@model_path/weights/weight.bin"), offset = tensor<uint64, []>(9228544))), zero_point = tensor<int8, [512]>(BLOBFILE(path = tensor<string, []>("@model_path/weights/weight.bin"), offset = tensor<uint64, []>(9227968)))];
            tensor<fp16, [512]> var_1320_bias_0_to_fp16 = const()[name = tensor<string, []>("op_1320_bias_0_to_fp16"), val = tensor<fp16, [512]>(BLOBFILE(path = tensor<string, []>("@model_path/weights/weight.bin"), offset = tensor<uint64, []>(9229632)))];
            tensor<fp16, [1, 512, 1, 8]> var_1320_cast = conv(bias = var_1320_bias_0_to_fp16, dilations = var_1316, groups = var_1163, pad = y_5_pad_0, pad_type = y_5_pad_type_0, strides = var_1314, weight = op_1320_weight_0_to_fp16_affine_quantized, x = x_81_cast);
            tensor<int32, [8]> tile_14 = const()[name = tensor<string, []>("tile_14"), val = tensor<int32, [8]>([64, 64, 64, 64, 64, 64, 64, 64])];
            tensor<int32, []> var_1321_axis_0 = const()[name = tensor<string, []>("op_1321_axis_0"), val = tensor<int32, []>(1)];
            tensor<fp16, [1, 64, 1, 8]> var_1321_cast_0, tensor<fp16, [1, 64, 1, 8]> var_1321_cast_1, tensor<fp16, [1, 64, 1, 8]> var_1321_cast_2, tensor<fp16, [1, 64, 1, 8]> var_1321_cast_3, tensor<fp16, [1, 64, 1, 8]> var_1321_cast_4, tensor<fp16, [1, 64, 1, 8]> var_1321_cast_5, tensor<fp16, [1, 64, 1, 8]> var_1321_cast_6, tensor<fp16, [1, 64, 1, 8]> var_1321_cast_7 = split(axis = var_1321_axis_0, split_sizes = tile_14, x = var_1320_cast);
            tensor<int32, [2]> var_1334 = const()[name = tensor<string, []>("op_1334"), val = tensor<int32, [2]>([1, 1])];
            tensor<int32, [2]> var_1336 = const()[name = tensor<string, []>("op_1336"), val = tensor<int32, [2]>([1, 1])];
            tensor<string, []> var_1338_pad_type_0 = const()[name = tensor<string, []>("op_1338_pad_type_0"), val = tensor<string, []>("custom")];
            tensor<int32, [4]> var_1338_pad_0 = const()[name = tensor<string, []>("op_1338_pad_0"), val = tensor<int32, [4]>([0, 0, 0, 0])];
            tensor<fp16, [512, 512, 1, 1]> op_1333_to_fp16_affine_quantized = constexpr_affine_dequantize()[axis = tensor<int32, []>(0), name = tensor<string, []>("op_1333_to_fp16_affine_quantized"), quantized_data = tensor<int8, [512, 512, 1, 1]>(BLOBFILE(path = tensor<string, []>("@model_path/weights/weight.bin"), offset = tensor<uint64, []>(9230720))), scale = tensor<fp16, [512]>(BLOBFILE(path = tensor<string, []>("@model_path/weights/weight.bin"), offset = tensor<uint64, []>(9493504))), zero_point = tensor<int8, [512]>(BLOBFILE(path = tensor<string, []>("@model_path/weights/weight.bin"), offset = tensor<uint64, []>(9492928)))];
            tensor<fp16, [512]> secondary_encoder_encoders_1_self_attn_linear_v_bias_to_fp16 = const()[name = tensor<string, []>("secondary_encoder_encoders_1_self_attn_linear_v_bias_to_fp16"), val = tensor<fp16, [512]>(BLOBFILE(path = tensor<string, []>("@model_path/weights/weight.bin"), offset = tensor<uint64, []>(9494592)))];
            tensor<fp16, [1, 512, 1, 8]> var_1338_cast = conv(bias = secondary_encoder_encoders_1_self_attn_linear_v_bias_to_fp16, dilations = var_1336, groups = var_1163, pad = var_1338_pad_0, pad_type = var_1338_pad_type_0, strides = var_1334, weight = op_1333_to_fp16_affine_quantized, x = x_81_cast);
            tensor<int32, [8]> tile_15 = const()[name = tensor<string, []>("tile_15"), val = tensor<int32, [8]>([64, 64, 64, 64, 64, 64, 64, 64])];
            tensor<int32, []> var_1339_axis_0 = const()[name = tensor<string, []>("op_1339_axis_0"), val = tensor<int32, []>(1)];
            tensor<fp16, [1, 64, 1, 8]> var_1339_cast_0, tensor<fp16, [1, 64, 1, 8]> var_1339_cast_1, tensor<fp16, [1, 64, 1, 8]> var_1339_cast_2, tensor<fp16, [1, 64, 1, 8]> var_1339_cast_3, tensor<fp16, [1, 64, 1, 8]> var_1339_cast_4, tensor<fp16, [1, 64, 1, 8]> var_1339_cast_5, tensor<fp16, [1, 64, 1, 8]> var_1339_cast_6, tensor<fp16, [1, 64, 1, 8]> var_1339_cast_7 = split(axis = var_1339_axis_0, split_sizes = tile_15, x = var_1338_cast);
            tensor<int32, [4]> var_1348_perm_0 = const()[name = tensor<string, []>("op_1348_perm_0"), val = tensor<int32, [4]>([0, 3, 2, 1])];
            tensor<string, []> var_1355_equation_0 = const()[name = tensor<string, []>("op_1355_equation_0"), val = tensor<string, []>("bnhd,bdhm->bnhm")];
            tensor<fp16, [1, 512, 1, 512]> op_1352_to_fp16_affine_quantized = constexpr_affine_dequantize()[axis = tensor<int32, []>(0), name = tensor<string, []>("op_1352_to_fp16_affine_quantized"), quantized_data = tensor<int8, [1, 512, 1, 512]>(BLOBFILE(path = tensor<string, []>("@model_path/weights/weight.bin"), offset = tensor<uint64, []>(9495680))), scale = tensor<fp16, []>(0.016418457), zero_point = tensor<int8, []>(0)];
            tensor<fp16, [1, 8, 1, 512]> transpose_20 = transpose(perm = var_1348_perm_0, x = x_81_cast);
            tensor<fp16, [1, 8, 1, 512]> var_1355_cast = einsum(equation = var_1355_equation_0, values = (transpose_20, op_1352_to_fp16_affine_quantized));
            tensor<fp16, [512]> secondary_encoder_encoders_1_self_attn_linear_k_bias_to_fp16 = const()[name = tensor<string, []>("secondary_encoder_encoders_1_self_attn_linear_k_bias_to_fp16"), val = tensor<fp16, [512]>(BLOBFILE(path = tensor<string, []>("@model_path/weights/weight.bin"), offset = tensor<uint64, []>(9757888)))];
            tensor<fp16, [1, 8, 1, 512]> var_1356_cast = add(x = var_1355_cast, y = secondary_encoder_encoders_1_self_attn_linear_k_bias_to_fp16);
            tensor<int32, [8]> tile_16 = const()[name = tensor<string, []>("tile_16"), val = tensor<int32, [8]>([64, 64, 64, 64, 64, 64, 64, 64])];
            tensor<int32, []> var_1357_axis_0 = const()[name = tensor<string, []>("op_1357_axis_0"), val = tensor<int32, []>(-1)];
            tensor<fp16, [1, 8, 1, 64]> var_1357_cast_0, tensor<fp16, [1, 8, 1, 64]> var_1357_cast_1, tensor<fp16, [1, 8, 1, 64]> var_1357_cast_2, tensor<fp16, [1, 8, 1, 64]> var_1357_cast_3, tensor<fp16, [1, 8, 1, 64]> var_1357_cast_4, tensor<fp16, [1, 8, 1, 64]> var_1357_cast_5, tensor<fp16, [1, 8, 1, 64]> var_1357_cast_6, tensor<fp16, [1, 8, 1, 64]> var_1357_cast_7 = split(axis = var_1357_axis_0, split_sizes = tile_16, x = var_1356_cast);
            tensor<int32, [8]> tile_17 = const()[name = tensor<string, []>("tile_17"), val = tensor<int32, [8]>([1, 1, 1, 1, 1, 1, 1, 1])];
            tensor<int32, []> var_1367_axis_0 = const()[name = tensor<string, []>("op_1367_axis_0"), val = tensor<int32, []>(2)];
            tensor<fp16, [1, 128, 1, 64]> var_1367_cast_0, tensor<fp16, [1, 128, 1, 64]> var_1367_cast_1, tensor<fp16, [1, 128, 1, 64]> var_1367_cast_2, tensor<fp16, [1, 128, 1, 64]> var_1367_cast_3, tensor<fp16, [1, 128, 1, 64]> var_1367_cast_4, tensor<fp16, [1, 128, 1, 64]> var_1367_cast_5, tensor<fp16, [1, 128, 1, 64]> var_1367_cast_6, tensor<fp16, [1, 128, 1, 64]> var_1367_cast_7 = split(axis = var_1367_axis_0, split_sizes = tile_17, x = var_235_cast_1);
            tensor<int32, [8]> tile_18 = const()[name = tensor<string, []>("tile_18"), val = tensor<int32, [8]>([1, 1, 1, 1, 1, 1, 1, 1])];
            tensor<int32, []> var_1376_axis_0 = const()[name = tensor<string, []>("op_1376_axis_0"), val = tensor<int32, []>(2)];
            tensor<fp16, [1, 64, 1, 128]> var_1376_cast_0, tensor<fp16, [1, 64, 1, 128]> var_1376_cast_1, tensor<fp16, [1, 64, 1, 128]> var_1376_cast_2, tensor<fp16, [1, 64, 1, 128]> var_1376_cast_3, tensor<fp16, [1, 64, 1, 128]> var_1376_cast_4, tensor<fp16, [1, 64, 1, 128]> var_1376_cast_5, tensor<fp16, [1, 64, 1, 128]> var_1376_cast_6, tensor<fp16, [1, 64, 1, 128]> var_1376_cast_7 = split(axis = var_1376_axis_0, split_sizes = tile_18, x = var_240_cast_1);
            tensor<bool, []> var_1386_interleave_0 = const()[name = tensor<string, []>("op_1386_interleave_0"), val = tensor<bool, []>(false)];
            tensor<fp16, [1, 136, 1, 64]> var_1386_cast = concat(axis = var_1163, interleave = var_1386_interleave_0, values = (var_1367_cast_0, var_1357_cast_0));
            tensor<int32, [4]> var_1388_begin_0 = const()[name = tensor<string, []>("op_1388_begin_0"), val = tensor<int32, [4]>([0, 8, 0, 0])];
            tensor<int32, [4]> var_1388_end_0 = const()[name = tensor<string, []>("op_1388_end_0"), val = tensor<int32, [4]>([1, 136, 1, 64])];
            tensor<bool, [4]> var_1388_end_mask_0 = const()[name = tensor<string, []>("op_1388_end_mask_0"), val = tensor<bool, [4]>([true, true, true, true])];
            tensor<fp16, [1, 128, 1, 64]> var_1388_cast = slice_by_index(begin = var_1388_begin_0, end = var_1388_end_0, end_mask = var_1388_end_mask_0, x = var_1386_cast);
            tensor<bool, []> var_1392_interleave_0 = const()[name = tensor<string, []>("op_1392_interleave_0"), val = tensor<bool, []>(false)];
            tensor<fp16, [1, 136, 1, 64]> var_1392_cast = concat(axis = var_1163, interleave = var_1392_interleave_0, values = (var_1367_cast_1, var_1357_cast_1));
            tensor<int32, [4]> var_1394_begin_0 = const()[name = tensor<string, []>("op_1394_begin_0"), val = tensor<int32, [4]>([0, 8, 0, 0])];
            tensor<int32, [4]> var_1394_end_0 = const()[name = tensor<string, []>("op_1394_end_0"), val = tensor<int32, [4]>([1, 136, 1, 64])];
            tensor<bool, [4]> var_1394_end_mask_0 = const()[name = tensor<string, []>("op_1394_end_mask_0"), val = tensor<bool, [4]>([true, true, true, true])];
            tensor<fp16, [1, 128, 1, 64]> var_1394_cast = slice_by_index(begin = var_1394_begin_0, end = var_1394_end_0, end_mask = var_1394_end_mask_0, x = var_1392_cast);
            tensor<bool, []> var_1398_interleave_0 = const()[name = tensor<string, []>("op_1398_interleave_0"), val = tensor<bool, []>(false)];
            tensor<fp16, [1, 136, 1, 64]> var_1398_cast = concat(axis = var_1163, interleave = var_1398_interleave_0, values = (var_1367_cast_2, var_1357_cast_2));
            tensor<int32, [4]> var_1400_begin_0 = const()[name = tensor<string, []>("op_1400_begin_0"), val = tensor<int32, [4]>([0, 8, 0, 0])];
            tensor<int32, [4]> var_1400_end_0 = const()[name = tensor<string, []>("op_1400_end_0"), val = tensor<int32, [4]>([1, 136, 1, 64])];
            tensor<bool, [4]> var_1400_end_mask_0 = const()[name = tensor<string, []>("op_1400_end_mask_0"), val = tensor<bool, [4]>([true, true, true, true])];
            tensor<fp16, [1, 128, 1, 64]> var_1400_cast = slice_by_index(begin = var_1400_begin_0, end = var_1400_end_0, end_mask = var_1400_end_mask_0, x = var_1398_cast);
            tensor<bool, []> var_1404_interleave_0 = const()[name = tensor<string, []>("op_1404_interleave_0"), val = tensor<bool, []>(false)];
            tensor<fp16, [1, 136, 1, 64]> var_1404_cast = concat(axis = var_1163, interleave = var_1404_interleave_0, values = (var_1367_cast_3, var_1357_cast_3));
            tensor<int32, [4]> var_1406_begin_0 = const()[name = tensor<string, []>("op_1406_begin_0"), val = tensor<int32, [4]>([0, 8, 0, 0])];
            tensor<int32, [4]> var_1406_end_0 = const()[name = tensor<string, []>("op_1406_end_0"), val = tensor<int32, [4]>([1, 136, 1, 64])];
            tensor<bool, [4]> var_1406_end_mask_0 = const()[name = tensor<string, []>("op_1406_end_mask_0"), val = tensor<bool, [4]>([true, true, true, true])];
            tensor<fp16, [1, 128, 1, 64]> var_1406_cast = slice_by_index(begin = var_1406_begin_0, end = var_1406_end_0, end_mask = var_1406_end_mask_0, x = var_1404_cast);
            tensor<bool, []> var_1410_interleave_0 = const()[name = tensor<string, []>("op_1410_interleave_0"), val = tensor<bool, []>(false)];
            tensor<fp16, [1, 136, 1, 64]> var_1410_cast = concat(axis = var_1163, interleave = var_1410_interleave_0, values = (var_1367_cast_4, var_1357_cast_4));
            tensor<int32, [4]> var_1412_begin_0 = const()[name = tensor<string, []>("op_1412_begin_0"), val = tensor<int32, [4]>([0, 8, 0, 0])];
            tensor<int32, [4]> var_1412_end_0 = const()[name = tensor<string, []>("op_1412_end_0"), val = tensor<int32, [4]>([1, 136, 1, 64])];
            tensor<bool, [4]> var_1412_end_mask_0 = const()[name = tensor<string, []>("op_1412_end_mask_0"), val = tensor<bool, [4]>([true, true, true, true])];
            tensor<fp16, [1, 128, 1, 64]> var_1412_cast = slice_by_index(begin = var_1412_begin_0, end = var_1412_end_0, end_mask = var_1412_end_mask_0, x = var_1410_cast);
            tensor<bool, []> var_1416_interleave_0 = const()[name = tensor<string, []>("op_1416_interleave_0"), val = tensor<bool, []>(false)];
            tensor<fp16, [1, 136, 1, 64]> var_1416_cast = concat(axis = var_1163, interleave = var_1416_interleave_0, values = (var_1367_cast_5, var_1357_cast_5));
            tensor<int32, [4]> var_1418_begin_0 = const()[name = tensor<string, []>("op_1418_begin_0"), val = tensor<int32, [4]>([0, 8, 0, 0])];
            tensor<int32, [4]> var_1418_end_0 = const()[name = tensor<string, []>("op_1418_end_0"), val = tensor<int32, [4]>([1, 136, 1, 64])];
            tensor<bool, [4]> var_1418_end_mask_0 = const()[name = tensor<string, []>("op_1418_end_mask_0"), val = tensor<bool, [4]>([true, true, true, true])];
            tensor<fp16, [1, 128, 1, 64]> var_1418_cast = slice_by_index(begin = var_1418_begin_0, end = var_1418_end_0, end_mask = var_1418_end_mask_0, x = var_1416_cast);
            tensor<bool, []> var_1422_interleave_0 = const()[name = tensor<string, []>("op_1422_interleave_0"), val = tensor<bool, []>(false)];
            tensor<fp16, [1, 136, 1, 64]> var_1422_cast = concat(axis = var_1163, interleave = var_1422_interleave_0, values = (var_1367_cast_6, var_1357_cast_6));
            tensor<int32, [4]> var_1424_begin_0 = const()[name = tensor<string, []>("op_1424_begin_0"), val = tensor<int32, [4]>([0, 8, 0, 0])];
            tensor<int32, [4]> var_1424_end_0 = const()[name = tensor<string, []>("op_1424_end_0"), val = tensor<int32, [4]>([1, 136, 1, 64])];
            tensor<bool, [4]> var_1424_end_mask_0 = const()[name = tensor<string, []>("op_1424_end_mask_0"), val = tensor<bool, [4]>([true, true, true, true])];
            tensor<fp16, [1, 128, 1, 64]> var_1424_cast = slice_by_index(begin = var_1424_begin_0, end = var_1424_end_0, end_mask = var_1424_end_mask_0, x = var_1422_cast);
            tensor<bool, []> var_1428_interleave_0 = const()[name = tensor<string, []>("op_1428_interleave_0"), val = tensor<bool, []>(false)];
            tensor<fp16, [1, 136, 1, 64]> var_1428_cast = concat(axis = var_1163, interleave = var_1428_interleave_0, values = (var_1367_cast_7, var_1357_cast_7));
            tensor<int32, [4]> var_1430_begin_0 = const()[name = tensor<string, []>("op_1430_begin_0"), val = tensor<int32, [4]>([0, 8, 0, 0])];
            tensor<int32, [4]> var_1430_end_0 = const()[name = tensor<string, []>("op_1430_end_0"), val = tensor<int32, [4]>([1, 136, 1, 64])];
            tensor<bool, [4]> var_1430_end_mask_0 = const()[name = tensor<string, []>("op_1430_end_mask_0"), val = tensor<bool, [4]>([true, true, true, true])];
            tensor<fp16, [1, 128, 1, 64]> var_1430_cast = slice_by_index(begin = var_1430_begin_0, end = var_1430_end_0, end_mask = var_1430_end_mask_0, x = var_1428_cast);
            tensor<bool, []> var_1434_interleave_0 = const()[name = tensor<string, []>("op_1434_interleave_0"), val = tensor<bool, []>(false)];
            tensor<fp16, [1, 64, 1, 136]> var_1434_cast = concat(axis = var_1160, interleave = var_1434_interleave_0, values = (var_1376_cast_0, var_1339_cast_0));
            tensor<int32, [4]> var_1438_begin_0 = const()[name = tensor<string, []>("op_1438_begin_0"), val = tensor<int32, [4]>([0, 0, 0, 8])];
            tensor<int32, [4]> var_1438_end_0 = const()[name = tensor<string, []>("op_1438_end_0"), val = tensor<int32, [4]>([1, 64, 1, 136])];
            tensor<bool, [4]> var_1438_end_mask_0 = const()[name = tensor<string, []>("op_1438_end_mask_0"), val = tensor<bool, [4]>([true, true, true, true])];
            tensor<fp16, [1, 64, 1, 128]> var_1438_cast = slice_by_index(begin = var_1438_begin_0, end = var_1438_end_0, end_mask = var_1438_end_mask_0, x = var_1434_cast);
            tensor<bool, []> var_1440_interleave_0 = const()[name = tensor<string, []>("op_1440_interleave_0"), val = tensor<bool, []>(false)];
            tensor<fp16, [1, 64, 1, 136]> var_1440_cast = concat(axis = var_1160, interleave = var_1440_interleave_0, values = (var_1376_cast_1, var_1339_cast_1));
            tensor<int32, [4]> var_1444_begin_0 = const()[name = tensor<string, []>("op_1444_begin_0"), val = tensor<int32, [4]>([0, 0, 0, 8])];
            tensor<int32, [4]> var_1444_end_0 = const()[name = tensor<string, []>("op_1444_end_0"), val = tensor<int32, [4]>([1, 64, 1, 136])];
            tensor<bool, [4]> var_1444_end_mask_0 = const()[name = tensor<string, []>("op_1444_end_mask_0"), val = tensor<bool, [4]>([true, true, true, true])];
            tensor<fp16, [1, 64, 1, 128]> var_1444_cast = slice_by_index(begin = var_1444_begin_0, end = var_1444_end_0, end_mask = var_1444_end_mask_0, x = var_1440_cast);
            tensor<bool, []> var_1446_interleave_0 = const()[name = tensor<string, []>("op_1446_interleave_0"), val = tensor<bool, []>(false)];
            tensor<fp16, [1, 64, 1, 136]> var_1446_cast = concat(axis = var_1160, interleave = var_1446_interleave_0, values = (var_1376_cast_2, var_1339_cast_2));
            tensor<int32, [4]> var_1450_begin_0 = const()[name = tensor<string, []>("op_1450_begin_0"), val = tensor<int32, [4]>([0, 0, 0, 8])];
            tensor<int32, [4]> var_1450_end_0 = const()[name = tensor<string, []>("op_1450_end_0"), val = tensor<int32, [4]>([1, 64, 1, 136])];
            tensor<bool, [4]> var_1450_end_mask_0 = const()[name = tensor<string, []>("op_1450_end_mask_0"), val = tensor<bool, [4]>([true, true, true, true])];
            tensor<fp16, [1, 64, 1, 128]> var_1450_cast = slice_by_index(begin = var_1450_begin_0, end = var_1450_end_0, end_mask = var_1450_end_mask_0, x = var_1446_cast);
            tensor<bool, []> var_1452_interleave_0 = const()[name = tensor<string, []>("op_1452_interleave_0"), val = tensor<bool, []>(false)];
            tensor<fp16, [1, 64, 1, 136]> var_1452_cast = concat(axis = var_1160, interleave = var_1452_interleave_0, values = (var_1376_cast_3, var_1339_cast_3));
            tensor<int32, [4]> var_1456_begin_0 = const()[name = tensor<string, []>("op_1456_begin_0"), val = tensor<int32, [4]>([0, 0, 0, 8])];
            tensor<int32, [4]> var_1456_end_0 = const()[name = tensor<string, []>("op_1456_end_0"), val = tensor<int32, [4]>([1, 64, 1, 136])];
            tensor<bool, [4]> var_1456_end_mask_0 = const()[name = tensor<string, []>("op_1456_end_mask_0"), val = tensor<bool, [4]>([true, true, true, true])];
            tensor<fp16, [1, 64, 1, 128]> var_1456_cast = slice_by_index(begin = var_1456_begin_0, end = var_1456_end_0, end_mask = var_1456_end_mask_0, x = var_1452_cast);
            tensor<bool, []> var_1458_interleave_0 = const()[name = tensor<string, []>("op_1458_interleave_0"), val = tensor<bool, []>(false)];
            tensor<fp16, [1, 64, 1, 136]> var_1458_cast = concat(axis = var_1160, interleave = var_1458_interleave_0, values = (var_1376_cast_4, var_1339_cast_4));
            tensor<int32, [4]> var_1462_begin_0 = const()[name = tensor<string, []>("op_1462_begin_0"), val = tensor<int32, [4]>([0, 0, 0, 8])];
            tensor<int32, [4]> var_1462_end_0 = const()[name = tensor<string, []>("op_1462_end_0"), val = tensor<int32, [4]>([1, 64, 1, 136])];
            tensor<bool, [4]> var_1462_end_mask_0 = const()[name = tensor<string, []>("op_1462_end_mask_0"), val = tensor<bool, [4]>([true, true, true, true])];
            tensor<fp16, [1, 64, 1, 128]> var_1462_cast = slice_by_index(begin = var_1462_begin_0, end = var_1462_end_0, end_mask = var_1462_end_mask_0, x = var_1458_cast);
            tensor<bool, []> var_1464_interleave_0 = const()[name = tensor<string, []>("op_1464_interleave_0"), val = tensor<bool, []>(false)];
            tensor<fp16, [1, 64, 1, 136]> var_1464_cast = concat(axis = var_1160, interleave = var_1464_interleave_0, values = (var_1376_cast_5, var_1339_cast_5));
            tensor<int32, [4]> var_1468_begin_0 = const()[name = tensor<string, []>("op_1468_begin_0"), val = tensor<int32, [4]>([0, 0, 0, 8])];
            tensor<int32, [4]> var_1468_end_0 = const()[name = tensor<string, []>("op_1468_end_0"), val = tensor<int32, [4]>([1, 64, 1, 136])];
            tensor<bool, [4]> var_1468_end_mask_0 = const()[name = tensor<string, []>("op_1468_end_mask_0"), val = tensor<bool, [4]>([true, true, true, true])];
            tensor<fp16, [1, 64, 1, 128]> var_1468_cast = slice_by_index(begin = var_1468_begin_0, end = var_1468_end_0, end_mask = var_1468_end_mask_0, x = var_1464_cast);
            tensor<bool, []> var_1470_interleave_0 = const()[name = tensor<string, []>("op_1470_interleave_0"), val = tensor<bool, []>(false)];
            tensor<fp16, [1, 64, 1, 136]> var_1470_cast = concat(axis = var_1160, interleave = var_1470_interleave_0, values = (var_1376_cast_6, var_1339_cast_6));
            tensor<int32, [4]> var_1474_begin_0 = const()[name = tensor<string, []>("op_1474_begin_0"), val = tensor<int32, [4]>([0, 0, 0, 8])];
            tensor<int32, [4]> var_1474_end_0 = const()[name = tensor<string, []>("op_1474_end_0"), val = tensor<int32, [4]>([1, 64, 1, 136])];
            tensor<bool, [4]> var_1474_end_mask_0 = const()[name = tensor<string, []>("op_1474_end_mask_0"), val = tensor<bool, [4]>([true, true, true, true])];
            tensor<fp16, [1, 64, 1, 128]> var_1474_cast = slice_by_index(begin = var_1474_begin_0, end = var_1474_end_0, end_mask = var_1474_end_mask_0, x = var_1470_cast);
            tensor<bool, []> var_1476_interleave_0 = const()[name = tensor<string, []>("op_1476_interleave_0"), val = tensor<bool, []>(false)];
            tensor<fp16, [1, 64, 1, 136]> var_1476_cast = concat(axis = var_1160, interleave = var_1476_interleave_0, values = (var_1376_cast_7, var_1339_cast_7));
            tensor<int32, [4]> var_1480_begin_0 = const()[name = tensor<string, []>("op_1480_begin_0"), val = tensor<int32, [4]>([0, 0, 0, 8])];
            tensor<int32, [4]> var_1480_end_0 = const()[name = tensor<string, []>("op_1480_end_0"), val = tensor<int32, [4]>([1, 64, 1, 136])];
            tensor<bool, [4]> var_1480_end_mask_0 = const()[name = tensor<string, []>("op_1480_end_mask_0"), val = tensor<bool, [4]>([true, true, true, true])];
            tensor<fp16, [1, 64, 1, 128]> var_1480_cast = slice_by_index(begin = var_1480_begin_0, end = var_1480_end_0, end_mask = var_1480_end_mask_0, x = var_1476_cast);
            tensor<bool, []> var_1482_interleave_0 = const()[name = tensor<string, []>("op_1482_interleave_0"), val = tensor<bool, []>(false)];
            tensor<fp16, [1, 128, 8, 64]> var_1482_cast = concat(axis = var_1157, interleave = var_1482_interleave_0, values = (var_1388_cast, var_1394_cast, var_1400_cast, var_1406_cast, var_1412_cast, var_1418_cast, var_1424_cast, var_1430_cast));
            tensor<bool, []> var_1484_interleave_0 = const()[name = tensor<string, []>("op_1484_interleave_0"), val = tensor<bool, []>(false)];
            tensor<fp16, [1, 64, 8, 128]> var_1484_cast = concat(axis = var_1157, interleave = var_1484_interleave_0, values = (var_1438_cast, var_1444_cast, var_1450_cast, var_1456_cast, var_1462_cast, var_1468_cast, var_1474_cast, var_1480_cast));
            tensor<string, []> var_1491_equation_0 = const()[name = tensor<string, []>("op_1491_equation_0"), val = tensor<string, []>("bnhd,bdhm->bnhm")];
            tensor<fp16, [1, 512, 1, 512]> op_1488_to_fp16_affine_quantized = constexpr_affine_dequantize()[axis = tensor<int32, []>(0), name = tensor<string, []>("op_1488_to_fp16_affine_quantized"), quantized_data = tensor<int8, [1, 512, 1, 512]>(BLOBFILE(path = tensor<string, []>("@model_path/weights/weight.bin"), offset = tensor<uint64, []>(9758976))), scale = tensor<fp16, []>(0.0516357422), zero_point = tensor<int8, []>(0)];
            tensor<fp16, [1, 128, 1, 512]> var_1491_cast = einsum(equation = var_1491_equation_0, values = (var_194_cast, op_1488_to_fp16_affine_quantized));
            tensor<int32, [8]> tile_19 = const()[name = tensor<string, []>("tile_19"), val = tensor<int32, [8]>([64, 64, 64, 64, 64, 64, 64, 64])];
            tensor<int32, []> var_1492_axis_0 = const()[name = tensor<string, []>("op_1492_axis_0"), val = tensor<int32, []>(-1)];
            tensor<fp16, [1, 128, 1, 64]> var_1492_cast_0, tensor<fp16, [1, 128, 1, 64]> var_1492_cast_1, tensor<fp16, [1, 128, 1, 64]> var_1492_cast_2, tensor<fp16, [1, 128, 1, 64]> var_1492_cast_3, tensor<fp16, [1, 128, 1, 64]> var_1492_cast_4, tensor<fp16, [1, 128, 1, 64]> var_1492_cast_5, tensor<fp16, [1, 128, 1, 64]> var_1492_cast_6, tensor<fp16, [1, 128, 1, 64]> var_1492_cast_7 = split(axis = var_1492_axis_0, split_sizes = tile_19, x = var_1491_cast);
            tensor<fp16, [1, 64, 1, 1]> var_1513_to_fp16 = const()[name = tensor<string, []>("op_1513_to_fp16"), val = tensor<fp16, [1, 64, 1, 1]>(BLOBFILE(path = tensor<string, []>("@model_path/weights/weight.bin"), offset = tensor<uint64, []>(10021184)))];
            tensor<fp16, [1, 64, 1, 8]> var_1514_cast = add(x = var_1321_cast_0, y = var_1513_to_fp16);
            tensor<fp16, [1, 64, 1, 1]> var_1516_to_fp16 = const()[name = tensor<string, []>("op_1516_to_fp16"), val = tensor<fp16, [1, 64, 1, 1]>(BLOBFILE(path = tensor<string, []>("@model_path/weights/weight.bin"), offset = tensor<uint64, []>(10021376)))];
            tensor<fp16, [1, 64, 1, 8]> var_1517_cast = add(x = var_1321_cast_1, y = var_1516_to_fp16);
            tensor<fp16, [1, 64, 1, 1]> var_1519_to_fp16 = const()[name = tensor<string, []>("op_1519_to_fp16"), val = tensor<fp16, [1, 64, 1, 1]>(BLOBFILE(path = tensor<string, []>("@model_path/weights/weight.bin"), offset = tensor<uint64, []>(10021568)))];
            tensor<fp16, [1, 64, 1, 8]> var_1520_cast = add(x = var_1321_cast_2, y = var_1519_to_fp16);
            tensor<fp16, [1, 64, 1, 1]> var_1522_to_fp16 = const()[name = tensor<string, []>("op_1522_to_fp16"), val = tensor<fp16, [1, 64, 1, 1]>(BLOBFILE(path = tensor<string, []>("@model_path/weights/weight.bin"), offset = tensor<uint64, []>(10021760)))];
            tensor<fp16, [1, 64, 1, 8]> var_1523_cast = add(x = var_1321_cast_3, y = var_1522_to_fp16);
            tensor<fp16, [1, 64, 1, 1]> var_1525_to_fp16 = const()[name = tensor<string, []>("op_1525_to_fp16"), val = tensor<fp16, [1, 64, 1, 1]>(BLOBFILE(path = tensor<string, []>("@model_path/weights/weight.bin"), offset = tensor<uint64, []>(10021952)))];
            tensor<fp16, [1, 64, 1, 8]> var_1526_cast = add(x = var_1321_cast_4, y = var_1525_to_fp16);
            tensor<fp16, [1, 64, 1, 1]> var_1528_to_fp16 = const()[name = tensor<string, []>("op_1528_to_fp16"), val = tensor<fp16, [1, 64, 1, 1]>(BLOBFILE(path = tensor<string, []>("@model_path/weights/weight.bin"), offset = tensor<uint64, []>(10022144)))];
            tensor<fp16, [1, 64, 1, 8]> var_1529_cast = add(x = var_1321_cast_5, y = var_1528_to_fp16);
            tensor<fp16, [1, 64, 1, 1]> var_1531_to_fp16 = const()[name = tensor<string, []>("op_1531_to_fp16"), val = tensor<fp16, [1, 64, 1, 1]>(BLOBFILE(path = tensor<string, []>("@model_path/weights/weight.bin"), offset = tensor<uint64, []>(10022336)))];
            tensor<fp16, [1, 64, 1, 8]> var_1532_cast = add(x = var_1321_cast_6, y = var_1531_to_fp16);
            tensor<fp16, [1, 64, 1, 1]> var_1534_to_fp16 = const()[name = tensor<string, []>("op_1534_to_fp16"), val = tensor<fp16, [1, 64, 1, 1]>(BLOBFILE(path = tensor<string, []>("@model_path/weights/weight.bin"), offset = tensor<uint64, []>(10022528)))];
            tensor<fp16, [1, 64, 1, 8]> var_1535_cast = add(x = var_1321_cast_7, y = var_1534_to_fp16);
            tensor<fp16, [1, 64, 1, 1]> var_1548_to_fp16 = const()[name = tensor<string, []>("op_1548_to_fp16"), val = tensor<fp16, [1, 64, 1, 1]>(BLOBFILE(path = tensor<string, []>("@model_path/weights/weight.bin"), offset = tensor<uint64, []>(10022720)))];
            tensor<fp16, [1, 64, 1, 8]> var_1549_cast = add(x = var_1321_cast_0, y = var_1548_to_fp16);
            tensor<fp16, [1, 64, 1, 1]> var_1551_to_fp16 = const()[name = tensor<string, []>("op_1551_to_fp16"), val = tensor<fp16, [1, 64, 1, 1]>(BLOBFILE(path = tensor<string, []>("@model_path/weights/weight.bin"), offset = tensor<uint64, []>(10022912)))];
            tensor<fp16, [1, 64, 1, 8]> var_1552_cast = add(x = var_1321_cast_1, y = var_1551_to_fp16);
…
            tensor<int32, [4]> H_5_pad_0 = const()[name = tensor<string, []>("H_5_pad_0"), val = tensor<int32, [4]>([0, 0, 0, 0])];
            tensor<fp16, [512, 128, 1, 1]> op_8863_to_fp16_affine_quantized = constexpr_affine_dequantize()[axis = tensor<int32, []>(0), name = tensor<string, []>("op_8863_to_fp16_affine_quantized"), quantized_data = tensor<int8, [512, 128, 1, 1]>(BLOBFILE(path = tensor<string, []>("@model_path/weights/weight.bin"), offset = tensor<uint64, []>(86245248))), scale = tensor<fp16, [512]>(BLOBFILE(path = tensor<string, []>("@model_path/weights/weight.bin"), offset = tensor<uint64, []>(86311424))), zero_point = tensor<int8, [512]>(BLOBFILE(path = tensor<string, []>("@model_path/weights/weight.bin"), offset = tensor<uint64, []>(86310848)))];
            tensor<fp16, [1, 512, 1, 1]> H_5_cast = conv(bias = primary_ep_encoder_lstm_bias_hh_l0_to_fp16, dilations = var_8872, groups = var_8877, pad = H_5_pad_0, pad_type = H_5_pad_type_0, strides = var_8866, weight = op_8863_to_fp16_affine_quantized, x = x_t_3_cast);
            tensor<fp16, [1, 512, 1, 1]> var_8884_cast = add(x = X_5_cast, y = H_5_cast);
            tensor<int32, [4]> tile_57 = const()[name = tensor<string, []>("tile_57"), val = tensor<int32, [4]>([128, 128, 128, 128])];
            tensor<int32, []> var_8887_axis_0 = const()[name = tensor<string, []>("op_8887_axis_0"), val = tensor<int32, []>(1)];
            tensor<fp16, [1, 128, 1, 1]> var_8887_cast_0, tensor<fp16, [1, 128, 1, 1]> var_8887_cast_1, tensor<fp16, [1, 128, 1, 1]> var_8887_cast_2, tensor<fp16, [1, 128, 1, 1]> var_8887_cast_3 = split(axis = var_8887_axis_0, split_sizes = tile_57, x = var_8884_cast);
            tensor<fp16, [1, 128, 1, 1]> i_t_11_cast = sigmoid(x = var_8887_cast_0);
            tensor<fp16, [1, 128, 1, 1]> f_t_11_cast = sigmoid(x = var_8887_cast_1);
            tensor<fp16, [1, 128, 1, 1]> g_t_11_cast = tanh(x = var_8887_cast_2);
            tensor<fp16, [1, 128, 1, 1]> o_t_11_cast = sigmoid(x = var_8887_cast_3);
            tensor<fp16, [1, 128, 1, 1]> var_8896_cast = mul(x = f_t_11_cast, y = var_8709_cast);
            tensor<fp16, [1, 128, 1, 1]> var_8897_cast = mul(x = i_t_11_cast, y = g_t_11_cast);
            tensor<fp16, [1, 128, 1, 1]> var_8899_cast = add(x = var_8896_cast, y = var_8897_cast);
            tensor<fp16, [1, 128, 1, 1]> var_8900_cast = tanh(x = var_8899_cast);
            tensor<fp16, [1, 128, 1, 1]> x_t_7_cast = mul(x = o_t_11_cast, y = var_8900_cast);
            tensor<int32, [2]> var_8918 = const()[name = tensor<string, []>("op_8918"), val = tensor<int32, [2]>([1, 1])];
            tensor<int32, [2]> var_8924 = const()[name = tensor<string, []>("op_8924"), val = tensor<int32, [2]>([1, 1])];
            tensor<int32, []> var_8929 = const()[name = tensor<string, []>("op_8929"), val = tensor<int32, []>(1)];
            tensor<string, []> X_7_pad_type_0 = const()[name = tensor<string, []>("X_7_pad_type_0"), val = tensor<string, []>("custom")];
            tensor<int32, [4]> X_7_pad_0 = const()[name = tensor<string, []>("X_7_pad_0"), val = tensor<int32, [4]>([0, 0, 0, 0])];
            tensor<fp16, [512, 128, 1, 1]> op_8915_to_fp16_affine_quantized = constexpr_affine_dequantize()[axis = tensor<int32, []>(0), name = tensor<string, []>("op_8915_to_fp16_affine_quantized"), quantized_data = tensor<int8, [512, 128, 1, 1]>(BLOBFILE(path = tensor<string, []>("@model_path/weights/weight.bin"), offset = tensor<uint64, []>(86312512))), scale = tensor<fp16, [512]>(BLOBFILE(path = tensor<string, []>("@model_path/weights/weight.bin"), offset = tensor<uint64, []>(86378688))), zero_point = tensor<int8, [512]>(BLOBFILE(path = tensor<string, []>("@model_path/weights/weight.bin"), offset = tensor<uint64, []>(86378112)))];
            tensor<fp16, [1, 512, 1, 1]> X_7_cast = conv(bias = primary_ep_encoder_lstm_bias_ih_l1_to_fp16, dilations = var_8924, groups = var_8929, pad = X_7_pad_0, pad_type = X_7_pad_type_0, strides = var_8918, weight = op_8915_to_fp16_affine_quantized, x = x_t_7_cast);
            tensor<int32, [2]> var_8951 = const()[name = tensor<string, []>("op_8951"), val = tensor<int32, [2]>([1, 1])];
            tensor<int32, [2]> var_8957 = const()[name = tensor<string, []>("op_8957"), val = tensor<int32, [2]>([1, 1])];
            tensor<int32, []> var_8962 = const()[name = tensor<string, []>("op_8962"), val = tensor<int32, []>(1)];
            tensor<string, []> H_7_pad_type_0 = const()[name = tensor<string, []>("H_7_pad_type_0"), val = tensor<string, []>("custom")];
            tensor<int32, [4]> H_7_pad_0 = const()[name = tensor<string, []>("H_7_pad_0"), val = tensor<int32, [4]>([0, 0, 0, 0])];
            tensor<fp16, [512, 128, 1, 1]> op_8948_to_fp16_affine_quantized = constexpr_affine_dequantize()[axis = tensor<int32, []>(0), name = tensor<string, []>("op_8948_to_fp16_affine_quantized"), quantized_data = tensor<int8, [512, 128, 1, 1]>(BLOBFILE(path = tensor<string, []>("@model_path/weights/weight.bin"), offset = tensor<uint64, []>(86379776))), scale = tensor<fp16, [512]>(BLOBFILE(path = tensor<string, []>("@model_path/weights/weight.bin"), offset = tensor<uint64, []>(86445952))), zero_point = tensor<int8, [512]>(BLOBFILE(path = tensor<string, []>("@model_path/weights/weight.bin"), offset = tensor<uint64, []>(86445376)))];
            tensor<fp16, [1, 512, 1, 1]> H_7_cast = conv(bias = primary_ep_encoder_lstm_bias_hh_l1_to_fp16, dilations = var_8957, groups = var_8962, pad = H_7_pad_0, pad_type = H_7_pad_type_0, strides = var_8951, weight = op_8948_to_fp16_affine_quantized, x = x_805_cast);
            tensor<fp16, [1, 512, 1, 1]> var_8969_cast = add(x = X_7_cast, y = H_7_cast);
            tensor<int32, [4]> tile_58 = const()[name = tensor<string, []>("tile_58"), val = tensor<int32, [4]>([128, 128, 128, 128])];
            tensor<int32, []> var_8972_axis_0 = const()[name = tensor<string, []>("op_8972_axis_0"), val = tensor<int32, []>(1)];
            tensor<fp16, [1, 128, 1, 1]> var_8972_cast_0, tensor<fp16, [1, 128, 1, 1]> var_8972_cast_1, tensor<fp16, [1, 128, 1, 1]> var_8972_cast_2, tensor<fp16, [1, 128, 1, 1]> var_8972_cast_3 = split(axis = var_8972_axis_0, split_sizes = tile_58, x = var_8969_cast);
            tensor<fp16, [1, 128, 1, 1]> i_t_15_cast = sigmoid(x = var_8972_cast_0);
            tensor<fp16, [1, 128, 1, 1]> f_t_15_cast = sigmoid(x = var_8972_cast_1);
            tensor<fp16, [1, 128, 1, 1]> g_t_15_cast = tanh(x = var_8972_cast_2);
            tensor<fp16, [1, 128, 1, 1]> o_t_15_cast = sigmoid(x = var_8972_cast_3);
            tensor<fp16, [1, 128, 1, 1]> var_8981_cast = mul(x = f_t_15_cast, y = var_8794_cast);
            tensor<fp16, [1, 128, 1, 1]> var_8982_cast = mul(x = i_t_15_cast, y = g_t_15_cast);
            tensor<fp16, [1, 128, 1, 1]> var_8984_cast = add(x = var_8981_cast, y = var_8982_cast);
            tensor<fp16, [1, 128, 1, 1]> var_8985_cast = tanh(x = var_8984_cast);
            tensor<fp16, [1, 128, 1, 1]> x_807_cast = mul(x = o_t_15_cast, y = var_8985_cast);
            tensor<int32, [4]> x_t_9_begin_0 = const()[name = tensor<string, []>("x_t_9_begin_0"), val = tensor<int32, [4]>([0, 0, 0, 2])];
            tensor<int32, [4]> x_t_9_end_0 = const()[name = tensor<string, []>("x_t_9_end_0"), val = tensor<int32, [4]>([1, 128, 1, 3])];
            tensor<bool, [4]> x_t_9_end_mask_0 = const()[name = tensor<string, []>("x_t_9_end_mask_0"), val = tensor<bool, [4]>([true, true, true, false])];
            tensor<fp16, [1, 128, 1, 1]> x_t_9_cast = slice_by_index(begin = x_t_9_begin_0, end = x_t_9_end_0, end_mask = x_t_9_end_mask_0, x = xs_cast);
            tensor<int32, [2]> var_9023 = const()[name = tensor<string, []>("op_9023"), val = tensor<int32, [2]>([1, 1])];
            tensor<int32, [2]> var_9029 = const()[name = tensor<string, []>("op_9029"), val = tensor<int32, [2]>([1, 1])];
            tensor<int32, []> var_9034 = const()[name = tensor<string, []>("op_9034"), val = tensor<int32, []>(1)];
            tensor<string, []> X_9_pad_type_0 = const()[name = tensor<string, []>("X_9_pad_type_0"), val = tensor<string, []>("custom")];
            tensor<int32, [4]> X_9_pad_0 = const()[name = tensor<string, []>("X_9_pad_0"), val = tensor<int32, [4]>([0, 0, 0, 0])];
            tensor<fp16, [512, 128, 1, 1]> op_9020_to_fp16_affine_quantized = constexpr_affine_dequantize()[axis = tensor<int32, []>(0), name = tensor<string, []>("op_9020_to_fp16_affine_quantized"), quantized_data = tensor<int8, [512, 128, 1, 1]>(BLOBFILE(path = tensor<string, []>("@model_path/weights/weight.bin"), offset = tensor<uint64, []>(86447040))), scale = tensor<fp16, [512]>(BLOBFILE(path = tensor<string, []>("@model_path/weights/weight.bin"), offset = tensor<uint64, []>(86513216))), zero_point = tensor<int8, [512]>(BLOBFILE(path = tensor<string, []>("@model_path/weights/weight.bin"), offset = tensor<uint64, []>(86512640)))];
            tensor<fp16, [1, 512, 1, 1]> X_9_cast = conv(bias = primary_ep_encoder_lstm_bias_ih_l0_to_fp16, dilations = var_9029, groups = var_9034, pad = X_9_pad_0, pad_type = X_9_pad_type_0, strides = var_9023, weight = op_9020_to_fp16_affine_quantized, x = x_t_9_cast);
            tensor<int32, [2]> var_9056 = const()[name = tensor<string, []>("op_9056"), val = tensor<int32, [2]>([1, 1])];
            tensor<int32, [2]> var_9062 = const()[name = tensor<string, []>("op_9062"), val = tensor<int32, [2]>([1, 1])];
            tensor<int32, []> var_9067 = const()[name = tensor<string, []>("op_9067"), val = tensor<int32, []>(1)];
            tensor<string, []> H_9_pad_type_0 = const()[name = tensor<string, []>("H_9_pad_type_0"), val = tensor<string, []>("custom")];
            tensor<int32, [4]> H_9_pad_0 = const()[name = tensor<string, []>("H_9_pad_0"), val = tensor<int32, [4]>([0, 0, 0, 0])];
            tensor<fp16, [512, 128, 1, 1]> op_9053_to_fp16_affine_quantized = constexpr_affine_dequantize()[axis = tensor<int32, []>(0), name = tensor<string, []>("op_9053_to_fp16_affine_quantized"), quantized_data = tensor<int8, [512, 128, 1, 1]>(BLOBFILE(path = tensor<string, []>("@model_path/weights/weight.bin"), offset = tensor<uint64, []>(86514304))), scale = tensor<fp16, [512]>(BLOBFILE(path = tensor<string, []>("@model_path/weights/weight.bin"), offset = tensor<uint64, []>(86580480))), zero_point = tensor<int8, [512]>(BLOBFILE(path = tensor<string, []>("@model_path/weights/weight.bin"), offset = tensor<uint64, []>(86579904)))];
            tensor<fp16, [1, 512, 1, 1]> H_9_cast = conv(bias = primary_ep_encoder_lstm_bias_hh_l0_to_fp16, dilations = var_9062, groups = var_9067, pad = H_9_pad_0, pad_type = H_9_pad_type_0, strides = var_9056, weight = op_9053_to_fp16_affine_quantized, x = x_t_7_cast);
            tensor<fp16, [1, 512, 1, 1]> var_9074_cast = add(x = X_9_cast, y = H_9_cast);
            tensor<int32, [4]> tile_59 = const()[name = tensor<string, []>("tile_59"), val = tensor<int32, [4]>([128, 128, 128, 128])];
            tensor<int32, []> var_9077_axis_0 = const()[name = tensor<string, []>("op_9077_axis_0"), val = tensor<int32, []>(1)];
            tensor<fp16, [1, 128, 1, 1]> var_9077_cast_0, tensor<fp16, [1, 128, 1, 1]> var_9077_cast_1, tensor<fp16, [1, 128, 1, 1]> var_9077_cast_2, tensor<fp16, [1, 128, 1, 1]> var_9077_cast_3 = split(axis = var_9077_axis_0, split_sizes = tile_59, x = var_9074_cast);
            tensor<fp16, [1, 128, 1, 1]> i_t_19_cast = sigmoid(x = var_9077_cast_0);
            tensor<fp16, [1, 128, 1, 1]> f_t_19_cast = sigmoid(x = var_9077_cast_1);
            tensor<fp16, [1, 128, 1, 1]> g_t_19_cast = tanh(x = var_9077_cast_2);
            tensor<fp16, [1, 128, 1, 1]> o_t_19_cast = sigmoid(x = var_9077_cast_3);
            tensor<fp16, [1, 128, 1, 1]> var_9086_cast = mul(x = f_t_19_cast, y = var_8899_cast);
            tensor<fp16, [1, 128, 1, 1]> var_9087_cast = mul(x = i_t_19_cast, y = g_t_19_cast);
            tensor<fp16, [1, 128, 1, 1]> var_9089_cast = add(x = var_9086_cast, y = var_9087_cast);
            tensor<fp16, [1, 128, 1, 1]> var_9090_cast = tanh(x = var_9089_cast);
            tensor<fp16, [1, 128, 1, 1]> x_t_11_cast = mul(x = o_t_19_cast, y = var_9090_cast);
            tensor<int32, [2]> var_9108 = const()[name = tensor<string, []>("op_9108"), val = tensor<int32, [2]>([1, 1])];
            tensor<int32, [2]> var_9114 = const()[name = tensor<string, []>("op_9114"), val = tensor<int32, [2]>([1, 1])];
            tensor<int32, []> var_9119 = const()[name = tensor<string, []>("op_9119"), val = tensor<int32, []>(1)];
            tensor<string, []> X_11_pad_type_0 = const()[name = tensor<string, []>("X_11_pad_type_0"), val = tensor<string, []>("custom")];
            tensor<int32, [4]> X_11_pad_0 = const()[name = tensor<string, []>("X_11_pad_0"), val = tensor<int32, [4]>([0, 0, 0, 0])];
            tensor<fp16, [512, 128, 1, 1]> op_9105_to_fp16_affine_quantized = constexpr_affine_dequantize()[axis = tensor<int32, []>(0), name = tensor<string, []>("op_9105_to_fp16_affine_quantized"), quantized_data = tensor<int8, [512, 128, 1, 1]>(BLOBFILE(path = tensor<string, []>("@model_path/weights/weight.bin"), offset = tensor<uint64, []>(86581568))), scale = tensor<fp16, [512]>(BLOBFILE(path = tensor<string, []>("@model_path/weights/weight.bin"), offset = tensor<uint64, []>(86647744))), zero_point = tensor<int8, [512]>(BLOBFILE(path = tensor<string, []>("@model_path/weights/weight.bin"), offset = tensor<uint64, []>(86647168)))];
            tensor<fp16, [1, 512, 1, 1]> X_11_cast = conv(bias = primary_ep_encoder_lstm_bias_ih_l1_to_fp16, dilations = var_9114, groups = var_9119, pad = X_11_pad_0, pad_type = X_11_pad_type_0, strides = var_9108, weight = op_9105_to_fp16_affine_quantized, x = x_t_11_cast);
            tensor<int32, [2]> var_9141 = const()[name = tensor<string, []>("op_9141"), val = tensor<int32, [2]>([1, 1])];
            tensor<int32, [2]> var_9147 = const()[name = tensor<string, []>("op_9147"), val = tensor<int32, [2]>([1, 1])];
            tensor<int32, []> var_9152 = const()[name = tensor<string, []>("op_9152"), val = tensor<int32, []>(1)];
            tensor<string, []> H_11_pad_type_0 = const()[name = tensor<string, []>("H_11_pad_type_0"), val = tensor<string, []>("custom")];
            tensor<int32, [4]> H_11_pad_0 = const()[name = tensor<string, []>("H_11_pad_0"), val = tensor<int32, [4]>([0, 0, 0, 0])];
            tensor<fp16, [512, 128, 1, 1]> op_9138_to_fp16_affine_quantized = constexpr_affine_dequantize()[axis = tensor<int32, []>(0), name = tensor<string, []>("op_9138_to_fp16_affine_quantized"), quantized_data = tensor<int8, [512, 128, 1, 1]>(BLOBFILE(path = tensor<string, []>("@model_path/weights/weight.bin"), offset = tensor<uint64, []>(86648832))), scale = tensor<fp16, [512]>(BLOBFILE(path = tensor<string, []>("@model_path/weights/weight.bin"), offset = tensor<uint64, []>(86715008))), zero_point = tensor<int8, [512]>(BLOBFILE(path = tensor<string, []>("@model_path/weights/weight.bin"), offset = tensor<uint64, []>(86714432)))];
            tensor<fp16, [1, 512, 1, 1]> H_11_cast = conv(bias = primary_ep_encoder_lstm_bias_hh_l1_to_fp16, dilations = var_9147, groups = var_9152, pad = H_11_pad_0, pad_type = H_11_pad_type_0, strides = var_9141, weight = op_9138_to_fp16_affine_quantized, x = x_807_cast);
            tensor<fp16, [1, 512, 1, 1]> var_9159_cast = add(x = X_11_cast, y = H_11_cast);
            tensor<int32, [4]> tile_60 = const()[name = tensor<string, []>("tile_60"), val = tensor<int32, [4]>([128, 128, 128, 128])];
            tensor<int32, []> var_9162_axis_0 = const()[name = tensor<string, []>("op_9162_axis_0"), val = tensor<int32, []>(1)];
            tensor<fp16, [1, 128, 1, 1]> var_9162_cast_0, tensor<fp16, [1, 128, 1, 1]> var_9162_cast_1, tensor<fp16, [1, 128, 1, 1]> var_9162_cast_2, tensor<fp16, [1, 128, 1, 1]> var_9162_cast_3 = split(axis = var_9162_axis_0, split_sizes = tile_60, x = var_9159_cast);
            tensor<fp16, [1, 128, 1, 1]> i_t_23_cast = sigmoid(x = var_9162_cast_0);
            tensor<fp16, [1, 128, 1, 1]> f_t_23_cast = sigmoid(x = var_9162_cast_1);
            tensor<fp16, [1, 128, 1, 1]> g_t_23_cast = tanh(x = var_9162_cast_2);
            tensor<fp16, [1, 128, 1, 1]> o_t_23_cast = sigmoid(x = var_9162_cast_3);
            tensor<fp16, [1, 128, 1, 1]> var_9171_cast = mul(x = f_t_23_cast, y = var_8984_cast);
            tensor<fp16, [1, 128, 1, 1]> var_9172_cast = mul(x = i_t_23_cast, y = g_t_23_cast);
            tensor<fp16, [1, 128, 1, 1]> var_9174_cast = add(x = var_9171_cast, y = var_9172_cast);
            tensor<fp16, [1, 128, 1, 1]> var_9175_cast = tanh(x = var_9174_cast);
            tensor<fp16, [1, 128, 1, 1]> x_809_cast = mul(x = o_t_23_cast, y = var_9175_cast);
            tensor<int32, [4]> x_t_13_begin_0 = const()[name = tensor<string, []>("x_t_13_begin_0"), val = tensor<int32, [4]>([0, 0, 0, 3])];
            tensor<int32, [4]> x_t_13_end_0 = const()[name = tensor<string, []>("x_t_13_end_0"), val = tensor<int32, [4]>([1, 128, 1, 4])];
            tensor<bool, [4]> x_t_13_end_mask_0 = const()[name = tensor<string, []>("x_t_13_end_mask_0"), val = tensor<bool, [4]>([true, true, true, false])];
            tensor<fp16, [1, 128, 1, 1]> x_t_13_cast = slice_by_index(begin = x_t_13_begin_0, end = x_t_13_end_0, end_mask = x_t_13_end_mask_0, x = xs_cast);
            tensor<int32, [2]> var_9213 = const()[name = tensor<string, []>("op_9213"), val = tensor<int32, [2]>([1, 1])];
            tensor<int32, [2]> var_9219 = const()[name = tensor<string, []>("op_9219"), val = tensor<int32, [2]>([1, 1])];
            tensor<int32, []> var_9224 = const()[name = tensor<string, []>("op_9224"), val = tensor<int32, []>(1)];
            tensor<string, []> X_13_pad_type_0 = const()[name = tensor<string, []>("X_13_pad_type_0"), val = tensor<string, []>("custom")];
            tensor<int32, [4]> X_13_pad_0 = const()[name = tensor<string, []>("X_13_pad_0"), val = tensor<int32, [4]>([0, 0, 0, 0])];
            tensor<fp16, [512, 128, 1, 1]> op_9210_to_fp16_affine_quantized = constexpr_affine_dequantize()[axis = tensor<int32, []>(0), name = tensor<string, []>("op_9210_to_fp16_affine_quantized"), quantized_data = tensor<int8, [512, 128, 1, 1]>(BLOBFILE(path = tensor<string, []>("@model_path/weights/weight.bin"), offset = tensor<uint64, []>(86716096))), scale = tensor<fp16, [512]>(BLOBFILE(path = tensor<string, []>("@model_path/weights/weight.bin"), offset = tensor<uint64, []>(86782272))), zero_point = tensor<int8, [512]>(BLOBFILE(path = tensor<string, []>("@model_path/weights/weight.bin"), offset = tensor<uint64, []>(86781696)))];
            tensor<fp16, [1, 512, 1, 1]> X_13_cast = conv(bias = primary_ep_encoder_lstm_bias_ih_l0_to_fp16, dilations = var_9219, groups = var_9224, pad = X_13_pad_0, pad_type = X_13_pad_type_0, strides = var_9213, weight = op_9210_to_fp16_affine_quantized, x = x_t_13_cast);
            tensor<int32, [2]> var_9246 = const()[name = tensor<string, []>("op_9246"), val = tensor<int32, [2]>([1, 1])];
            tensor<int32, [2]> var_9252 = const()[name = tensor<string, []>("op_9252"), val = tensor<int32, [2]>([1, 1])];
            tensor<int32, []> var_9257 = const()[name = tensor<string, []>("op_9257"), val = tensor<int32, []>(1)];
            tensor<string, []> H_13_pad_type_0 = const()[name = tensor<string, []>("H_13_pad_type_0"), val = tensor<string, []>("custom")];
            tensor<int32, [4]> H_13_pad_0 = const()[name = tensor<string, []>("H_13_pad_0"), val = tensor<int32, [4]>([0, 0, 0, 0])];
            tensor<fp16, [512, 128, 1, 1]> op_9243_to_fp16_affine_quantized = constexpr_affine_dequantize()[axis = tensor<int32, []>(0), name = tensor<string, []>("op_9243_to_fp16_affine_quantized"), quantized_data = tensor<int8, [512, 128, 1, 1]>(BLOBFILE(path = tensor<string, []>("@model_path/weights/weight.bin"), offset = tensor<uint64, []>(86783360))), scale = tensor<fp16, [512]>(BLOBFILE(path = tensor<string, []>("@model_path/weights/weight.bin"), offset = tensor<uint64, []>(86849536))), zero_point = tensor<int8, [512]>(BLOBFILE(path = tensor<string, []>("@model_path/weights/weight.bin"), offset = tensor<uint64, []>(86848960)))];
            tensor<fp16, [1, 512, 1, 1]> H_13_cast = conv(bias = primary_ep_encoder_lstm_bias_hh_l0_to_fp16, dilations = var_9252, groups = var_9257, pad = H_13_pad_0, pad_type = H_13_pad_type_0, strides = var_9246, weight = op_9243_to_fp16_affine_quantized, x = x_t_11_cast);
            tensor<fp16, [1, 512, 1, 1]> var_9264_cast = add(x = X_13_cast, y = H_13_cast);
            tensor<int32, [4]> tile_61 = const()[name = tensor<string, []>("tile_61"), val = tensor<int32, [4]>([128, 128, 128, 128])];
            tensor<int32, []> var_9267_axis_0 = const()[name = tensor<string, []>("op_9267_axis_0"), val = tensor<int32, []>(1)];
            tensor<fp16, [1, 128, 1, 1]> var_9267_cast_0, tensor<fp16, [1, 128, 1, 1]> var_9267_cast_1, tensor<fp16, [1, 128, 1, 1]> var_9267_cast_2, tensor<fp16, [1, 128, 1, 1]> var_9267_cast_3 = split(axis = var_9267_axis_0, split_sizes = tile_61, x = var_9264_cast);
            tensor<fp16, [1, 128, 1, 1]> i_t_27_cast = sigmoid(x = var_9267_cast_0);
            tensor<fp16, [1, 128, 1, 1]> f_t_27_cast = sigmoid(x = var_9267_cast_1);
            tensor<fp16, [1, 128, 1, 1]> g_t_27_cast = tanh(x = var_9267_cast_2);
            tensor<fp16, [1, 128, 1, 1]> o_t_27_cast = sigmoid(x = var_9267_cast_3);
            tensor<fp16, [1, 128, 1, 1]> var_9276_cast = mul(x = f_t_27_cast, y = var_9089_cast);
            tensor<fp16, [1, 128, 1, 1]> var_9277_cast = mul(x = i_t_27_cast, y = g_t_27_cast);
            tensor<fp16, [1, 128, 1, 1]> var_9279_cast = add(x = var_9276_cast, y = var_9277_cast);
            tensor<fp16, [1, 128, 1, 1]> var_9280_cast = tanh(x = var_9279_cast);
            tensor<fp16, [1, 128, 1, 1]> x_t_cast = mul(x = o_t_27_cast, y = var_9280_cast);
            tensor<int32, [2]> var_9298 = const()[name = tensor<string, []>("op_9298"), val = tensor<int32, [2]>([1, 1])];
            tensor<int32, [2]> var_9304 = const()[name = tensor<string, []>("op_9304"), val = tensor<int32, [2]>([1, 1])];
            tensor<int32, []> var_9309 = const()[name = tensor<string, []>("op_9309"), val = tensor<int32, []>(1)];
            tensor<string, []> X_pad_type_0 = const()[name = tensor<string, []>("X_pad_type_0"), val = tensor<string, []>("custom")];
            tensor<int32, [4]> X_pad_0 = const()[name = tensor<string, []>("X_pad_0"), val = tensor<int32, [4]>([0, 0, 0, 0])];
            tensor<fp16, [512, 128, 1, 1]> op_9295_to_fp16_affine_quantized = constexpr_affine_dequantize()[axis = tensor<int32, []>(0), name = tensor<string, []>("op_9295_to_fp16_affine_quantized"), quantized_data = tensor<int8, [512, 128, 1, 1]>(BLOBFILE(path = tensor<string, []>("@model_path/weights/weight.bin"), offset = tensor<uint64, []>(86850624))), scale = tensor<fp16, [512]>(BLOBFILE(path = tensor<string, []>("@model_path/weights/weight.bin"), offset = tensor<uint64, []>(86916800))), zero_point = tensor<int8, [512]>(BLOBFILE(path = tensor<string, []>("@model_path/weights/weight.bin"), offset = tensor<uint64, []>(86916224)))];
            tensor<fp16, [1, 512, 1, 1]> X_cast = conv(bias = primary_ep_encoder_lstm_bias_ih_l1_to_fp16, dilations = var_9304, groups = var_9309, pad = X_pad_0, pad_type = X_pad_type_0, strides = var_9298, weight = op_9295_to_fp16_affine_quantized, x = x_t_cast);
            tensor<int32, [2]> var_9331 = const()[name = tensor<string, []>("op_9331"), val = tensor<int32, [2]>([1, 1])];
            tensor<int32, [2]> var_9337 = const()[name = tensor<string, []>("op_9337"), val = tensor<int32, [2]>([1, 1])];
            tensor<int32, []> var_9342 = const()[name = tensor<string, []>("op_9342"), val = tensor<int32, []>(1)];
            tensor<string, []> H_pad_type_0 = const()[name = tensor<string, []>("H_pad_type_0"), val = tensor<string, []>("custom")];
            tensor<int32, [4]> H_pad_0 = const()[name = tensor<string, []>("H_pad_0"), val = tensor<int32, [4]>([0, 0, 0, 0])];
            tensor<fp16, [512, 128, 1, 1]> op_9328_to_fp16_affine_quantized = constexpr_affine_dequantize()[axis = tensor<int32, []>(0), name = tensor<string, []>("op_9328_to_fp16_affine_quantized"), quantized_data = tensor<int8, [512, 128, 1, 1]>(BLOBFILE(path = tensor<string, []>("@model_path/weights/weight.bin"), offset = tensor<uint64, []>(86917888))), scale = tensor<fp16, [512]>(BLOBFILE(path = tensor<string, []>("@model_path/weights/weight.bin"), offset = tensor<uint64, []>(86984064))), zero_point = tensor<int8, [512]>(BLOBFILE(path = tensor<string, []>("@model_path/weights/weight.bin"), offset = tensor<uint64, []>(86983488)))];
            tensor<fp16, [1, 512, 1, 1]> H_cast = conv(bias = primary_ep_encoder_lstm_bias_hh_l1_to_fp16, dilations = var_9337, groups = var_9342, pad = H_pad_0, pad_type = H_pad_type_0, strides = var_9331, weight = op_9328_to_fp16_affine_quantized, x = x_809_cast);
            tensor<fp16, [1, 512, 1, 1]> var_9349_cast = add(x = X_cast, y = H_cast);
            tensor<int32, [4]> tile_62 = const()[name = tensor<string, []>("tile_62"), val = tensor<int32, [4]>([128, 128, 128, 128])];
            tensor<int32, []> var_9352_axis_0 = const()[name = tensor<string, []>("op_9352_axis_0"), val = tensor<int32, []>(1)];
            tensor<fp16, [1, 128, 1, 1]> var_9352_cast_0, tensor<fp16, [1, 128, 1, 1]> var_9352_cast_1, tensor<fp16, [1, 128, 1, 1]> var_9352_cast_2, tensor<fp16, [1, 128, 1, 1]> var_9352_cast_3 = split(axis = var_9352_axis_0, split_sizes = tile_62, x = var_9349_cast);
            tensor<fp16, [1, 128, 1, 1]> i_t_cast = sigmoid(x = var_9352_cast_0);
            tensor<fp16, [1, 128, 1, 1]> f_t_cast = sigmoid(x = var_9352_cast_1);
            tensor<fp16, [1, 128, 1, 1]> g_t_cast = tanh(x = var_9352_cast_2);
            tensor<fp16, [1, 128, 1, 1]> o_t_cast = sigmoid(x = var_9352_cast_3);
            tensor<fp16, [1, 128, 1, 1]> var_9361_cast = mul(x = f_t_cast, y = var_9174_cast);
            tensor<fp16, [1, 128, 1, 1]> var_9362_cast = mul(x = i_t_cast, y = g_t_cast);
            tensor<fp16, [1, 128, 1, 1]> var_9364_cast = add(x = var_9361_cast, y = var_9362_cast);
            tensor<fp16, [1, 128, 1, 1]> var_9365_cast = tanh(x = var_9364_cast);
            tensor<fp16, [1, 128, 1, 1]> x_cast = mul(x = o_t_cast, y = var_9365_cast);
            tensor<int32, [2]> var_9383 = const()[name = tensor<string, []>("op_9383"), val = tensor<int32, [2]>([1, 1])];
            tensor<int32, [2]> var_9389 = const()[name = tensor<string, []>("op_9389"), val = tensor<int32, [2]>([1, 1])];
            tensor<int32, []> var_9394 = const()[name = tensor<string, []>("op_9394"), val = tensor<int32, []>(1)];
            tensor<string, []> var_9399_pad_type_0 = const()[name = tensor<string, []>("op_9399_pad_type_0"), val = tensor<string, []>("custom")];
            tensor<int32, [4]> var_9399_pad_0 = const()[name = tensor<string, []>("op_9399_pad_0"), val = tensor<int32, [4]>([0, 0, 0, 0])];
            tensor<fp16, [4, 128, 1, 1]> var_9380_to_fp16 = const()[name = tensor<string, []>("op_9380_to_fp16"), val = tensor<fp16, [4, 128, 1, 1]>(BLOBFILE(path = tensor<string, []>("@model_path/weights/weight.bin"), offset = tensor<uint64, []>(86985152)))];
            tensor<fp16, [4]> primary_ep_output_layer_bias_to_fp16 = const()[name = tensor<string, []>("primary_ep_output_layer_bias_to_fp16"), val = tensor<fp16, [4]>([0.161865234, -0.175415039, -0.220825195, 0.0963745117])];
            tensor<fp16, [1, 4, 1, 1]> var_9399_cast = conv(bias = primary_ep_output_layer_bias_to_fp16, dilations = var_9389, groups = var_9394, pad = var_9399_pad_0, pad_type = var_9399_pad_type_0, strides = var_9383, weight = var_9380_to_fp16, x = x_805_cast);
            tensor<int32, [2]> var_9416 = const()[name = tensor<string, []>("op_9416"), val = tensor<int32, [2]>([1, 1])];
            tensor<int32, [2]> var_9422 = const()[name = tensor<string, []>("op_9422"), val = tensor<int32, [2]>([1, 1])];
            tensor<int32, []> var_9427 = const()[name = tensor<string, []>("op_9427"), val = tensor<int32, []>(1)];
            tensor<string, []> var_9432_pad_type_0 = const()[name = tensor<string, []>("op_9432_pad_type_0"), val = tensor<string, []>("custom")];
            tensor<int32, [4]> var_9432_pad_0 = const()[name = tensor<string, []>("op_9432_pad_0"), val = tensor<int32, [4]>([0, 0, 0, 0])];
            tensor<fp16, [4, 128, 1, 1]> var_9413_to_fp16 = const()[name = tensor<string, []>("op_9413_to_fp16"), val = tensor<fp16, [4, 128, 1, 1]>(BLOBFILE(path = tensor<string, []>("@model_path/weights/weight.bin"), offset = tensor<uint64, []>(86986240)))];
            tensor<fp16, [1, 4, 1, 1]> var_9432_cast = conv(bias = primary_ep_output_layer_bias_to_fp16, dilations = var_9422, groups = var_9427, pad = var_9432_pad_0, pad_type = var_9432_pad_type_0, strides = var_9416, weight = var_9413_to_fp16, x = x_807_cast);
            tensor<int32, [2]> var_9449 = const()[name = tensor<string, []>("op_9449"), val = tensor<int32, [2]>([1, 1])];
            tensor<int32, [2]> var_9455 = const()[name = tensor<string, []>("op_9455"), val = tensor<int32, [2]>([1, 1])];
            tensor<int32, []> var_9460 = const()[name = tensor<string, []>("op_9460"), val = tensor<int32, []>(1)];
            tensor<string, []> var_9465_pad_type_0 = const()[name = tensor<string, []>("op_9465_pad_type_0"), val = tensor<string, []>("custom")];
            tensor<int32, [4]> var_9465_pad_0 = const()[name = tensor<string, []>("op_9465_pad_0"), val = tensor<int32, [4]>([0, 0, 0, 0])];
            tensor<fp16, [4, 128, 1, 1]> var_9446_to_fp16 = const()[name = tensor<string, []>("op_9446_to_fp16"), val = tensor<fp16, [4, 128, 1, 1]>(BLOBFILE(path = tensor<string, []>("@model_path/weights/weight.bin"), offset = tensor<uint64, []>(86987328)))];
            tensor<fp16, [1, 4, 1, 1]> var_9465_cast = conv(bias = primary_ep_output_layer_bias_to_fp16, dilations = var_9455, groups = var_9460, pad = var_9465_pad_0, pad_type = var_9465_pad_type_0, strides = var_9449, weight = var_9446_to_fp16, x = x_809_cast);
            tensor<int32, [2]> var_9482 = const()[name = tensor<string, []>("op_9482"), val = tensor<int32, [2]>([1, 1])];
            tensor<int32, [2]> var_9488 = const()[name = tensor<string, []>("op_9488"), val = tensor<int32, [2]>([1, 1])];
            tensor<int32, []> var_9493 = const()[name = tensor<string, []>("op_9493"), val = tensor<int32, []>(1)];
            tensor<string, []> var_9498_pad_type_0 = const()[name = tensor<string, []>("op_9498_pad_type_0"), val = tensor<string, []>("custom")];
            tensor<int32, [4]> var_9498_pad_0 = const()[name = tensor<string, []>("op_9498_pad_0"), val = tensor<int32, [4]>([0, 0, 0, 0])];
            tensor<fp16, [4, 128, 1, 1]> var_9479_to_fp16 = const()[name = tensor<string, []>("op_9479_to_fp16"), val = tensor<fp16, [4, 128, 1, 1]>(BLOBFILE(path = tensor<string, []>("@model_path/weights/weight.bin"), offset = tensor<uint64, []>(86988416)))];
            tensor<fp16, [1, 4, 1, 1]> var_9498_cast = conv(bias = primary_ep_output_layer_bias_to_fp16, dilations = var_9488, groups = var_9493, pad = var_9498_pad_0, pad_type = var_9498_pad_type_0, strides = var_9482, weight = var_9479_to_fp16, x = x_cast);
            tensor<int32, [2]> var_9515 = const()[name = tensor<string, []>("op_9515"), val = tensor<int32, [2]>([1, 1])];
            tensor<int32, [2]> var_9521 = const()[name = tensor<string, []>("op_9521"), val = tensor<int32, [2]>([1, 1])];
            tensor<int32, []> var_9526 = const()[name = tensor<string, []>("op_9526"), val = tensor<int32, []>(1)];
            tensor<string, []> ret_pad_type_0 = const()[name = tensor<string, []>("ret_pad_type_0"), val = tensor<string, []>("custom")];
            tensor<int32, [4]> ret_pad_0 = const()[name = tensor<string, []>("ret_pad_0"), val = tensor<int32, [4]>([0, 0, 0, 0])];
            tensor<fp16, [6000, 512, 1, 1]> op_9512_to_fp16_affine_quantized = constexpr_affine_dequantize()[axis = tensor<int32, []>(0), name = tensor<string, []>("op_9512_to_fp16_affine_quantized"), quantized_data = tensor<int8, [6000, 512, 1, 1]>(BLOBFILE(path = tensor<string, []>("@model_path/weights/weight.bin"), offset = tensor<uint64, []>(86989504))), scale = tensor<fp16, [6000]>(BLOBFILE(path = tensor<string, []>("@model_path/weights/weight.bin"), offset = tensor<uint64, []>(90067648))), zero_point = tensor<int8, [6000]>(BLOBFILE(path = tensor<string, []>("@model_path/weights/weight.bin"), offset = tensor<uint64, []>(90061568)))];
            tensor<fp16, [6000]> primary_ctc_ctc_lo_bias_to_fp16_affine_quantized = constexpr_affine_dequantize()[axis = tensor<int32, []>(0), name = tensor<string, []>("primary_ctc_ctc_lo_bias_to_fp16_affine_quantized"), quantized_data = tensor<int8, [6000]>(BLOBFILE(path = tensor<string, []>("@model_path/weights/weight.bin"), offset = tensor<uint64, []>(90079744))), scale = tensor<fp16, [6000]>(BLOBFILE(path = tensor<string, []>("@model_path/weights/weight.bin"), offset = tensor<uint64, []>(90091904))), zero_point = tensor<int8, [6000]>(BLOBFILE(path = tensor<string, []>("@model_path/weights/weight.bin"), offset = tensor<uint64, []>(90085824)))];
            tensor<fp16, [1, 6000, 1, 4]> ret_cast = conv(bias = primary_ctc_ctc_lo_bias_to_fp16_affine_quantized, dilations = var_9521, groups = var_9526, pad = ret_pad_0, pad_type = ret_pad_type_0, strides = var_9515, weight = op_9512_to_fp16_affine_quantized, x = xs_7_cast);
            tensor<int32, []> var_9532 = const()[name = tensor<string, []>("op_9532"), val = tensor<int32, []>(1)];
            tensor<fp16, [1, 6000, 1, 4]> ctc_act_1_cast = softmax(axis = var_9532, x = ret_cast);
            tensor<int32, []> var_9536 = const()[name = tensor<string, []>("op_9536"), val = tensor<int32, []>(-1)];
            tensor<bool, []> ep_output_1_interleave_0 = const()[name = tensor<string, []>("ep_output_1_interleave_0"), val = tensor<bool, []>(false)];
            tensor<fp16, [1, 4, 1, 4]> ep_output_1_cast = concat(axis = var_9536, interleave = ep_output_1_interleave_0, values = (var_9399_cast, var_9432_cast, var_9465_cast, var_9498_cast));
            tensor<int32, []> var_9538 = const()[name = tensor<string, []>("op_9538"), val = tensor<int32, []>(1)];
            tensor<fp16, [1, 4, 1, 4]> ep_output_cast = softmax(axis = var_9538, x = ep_output_1_cast);
            tensor<int32, [4]> var_9543_perm_0 = const()[name = tensor<string, []>("op_9543_perm_0"), val = tensor<int32, [4]>([0, 3, 2, 1])];
            tensor<int32, [1]> var_9545_axes_0 = const()[name = tensor<string, []>("op_9545_axes_0"), val = tensor<int32, [1]>([2])];
            tensor<fp16, [1, 4, 1, 4]> transpose_16 = transpose(perm = var_9543_perm_0, x = ep_output_cast);
            tensor<fp16, [1, 4, 4]> var_9545_cast = squeeze(axes = var_9545_axes_0, x = transpose_16);
            tensor<string, []> var_9545_cast_to_fp32_dtype_0 = const()[name = tensor<string, []>("op_9545_cast_to_fp32_dtype_0"), val = tensor<string, []>("fp32")];
            tensor<int32, []> var_9547 = const()[name = tensor<string, []>("op_9547"), val = tensor<int32, []>(0)];
            tensor<bool, []> var_9548_interleave_0 = const()[name = tensor<string, []>("op_9548_interleave_0"), val = tensor<bool, []>(false)];
            tensor<fp16, [2, 128, 1, 1]> var_9548_cast = concat(axis = var_9547, interleave = var_9548_interleave_0, values = (x_t_cast, x_cast));
            tensor<int32, [1]> var_9550_axes_0 = const()[name = tensor<string, []>("op_9550_axes_0"), val = tensor<int32, [1]>([2])];
            tensor<fp16, [2, 128, 1]> var_9550_cast = squeeze(axes = var_9550_axes_0, x = var_9548_cast);
            tensor<int32, [1]> var_9552_axes_0 = const()[name = tensor<string, []>("op_9552_axes_0"), val = tensor<int32, [1]>([2])];
            tensor<fp16, [2, 128]> var_9552_cast = squeeze(axes = var_9552_axes_0, x = var_9550_cast);
            tensor<string, []> var_9552_cast_to_fp32_dtype_0 = const()[name = tensor<string, []>("op_9552_cast_to_fp32_dtype_0"), val = tensor<string, []>("fp32")];
            tensor<int32, []> var_9554 = const()[name = tensor<string, []>("op_9554"), val = tensor<int32, []>(0)];
            tensor<bool, []> var_9555_interleave_0 = const()[name = tensor<string, []>("op_9555_interleave_0"), val = tensor<bool, []>(false)];
            tensor<fp16, [2, 128, 1, 1]> var_9555_cast = concat(axis = var_9554, interleave = var_9555_interleave_0, values = (var_9279_cast, var_9364_cast));
            tensor<int32, [1]> var_9557_axes_0 = const()[name = tensor<string, []>("op_9557_axes_0"), val = tensor<int32, [1]>([2])];
            tensor<fp16, [2, 128, 1]> var_9557_cast = squeeze(axes = var_9557_axes_0, x = var_9555_cast);
            tensor<int32, [1]> var_9559_axes_0 = const()[name = tensor<string, []>("op_9559_axes_0"), val = tensor<int32, [1]>([2])];
            tensor<fp16, [2, 128]> var_9559_cast = squeeze(axes = var_9559_axes_0, x = var_9557_cast);
            tensor<string, []> var_9559_cast_to_fp32_dtype_0 = const()[name = tensor<string, []>("op_9559_cast_to_fp32_dtype_0"), val = tensor<string, []>("fp32")];
            tensor<fp16, [1]> chunk_size_1_promoted_to_fp16 = const()[name = tensor<string, []>("chunk_size_1_promoted_to_fp16"), val = tensor<fp16, [1]>([4])];
            tensor<fp16, [128]> var_9566_cast = add(x = cast_57, y = chunk_size_1_promoted_to_fp16);
            tensor<string, []> var_9566_cast_to_fp32_dtype_0 = const()[name = tensor<string, []>("op_9566_cast_to_fp32_dtype_0"), val = tensor<string, []>("fp32")];
            tensor<int32, [4]> var_9569_perm_0 = const()[name = tensor<string, []>("op_9569_perm_0"), val = tensor<int32, [4]>([0, 3, 2, 1])];
            tensor<int32, [1]> var_9571_axes_0 = const()[name = tensor<string, []>("op_9571_axes_0"), val = tensor<int32, [1]>([2])];
            tensor<fp16, [1, 4, 1, 512]> transpose_15 = transpose(perm = var_9569_perm_0, x = xs_7_cast);
            tensor<fp16, [1, 4, 512]> var_9571_cast = squeeze(axes = var_9571_axes_0, x = transpose_15);
            tensor<string, []> var_9571_cast_to_fp32_dtype_0 = const()[name = tensor<string, []>("op_9571_cast_to_fp32_dtype_0"), val = tensor<string, []>("fp32")];
            tensor<fp16, []> var_9572_epsilon_0_to_fp16 = const()[name = tensor<string, []>("op_9572_epsilon_0_to_fp16"), val = tensor<fp16, []>(0)];
            tensor<fp16, [1, 6000, 1, 4]> var_9572_cast = log(epsilon = var_9572_epsilon_0_to_fp16, x = ctc_act_1_cast);
            tensor<int32, [4]> var_9575_perm_0 = const()[name = tensor<string, []>("op_9575_perm_0"), val = tensor<int32, [4]>([0, 3, 2, 1])];
            tensor<int32, [1]> ctc_act_3_axes_0 = const()[name = tensor<string, []>("ctc_act_3_axes_0"), val = tensor<int32, [1]>([2])];
            tensor<fp16, [1, 4, 1, 6000]> transpose_14 = transpose(perm = var_9575_perm_0, x = var_9572_cast);
            tensor<fp16, [1, 4, 6000]> ctc_act_3_cast = squeeze(axes = ctc_act_3_axes_0, x = transpose_14);
            tensor<fp16, []> var_9578_promoted_to_fp16 = const()[name = tensor<string, []>("op_9578_promoted_to_fp16"), val = tensor<fp16, []>(-12344)];
            tensor<fp16, []> var_9579_promoted_to_fp16 = const()[name = tensor<string, []>("op_9579_promoted_to_fp16"), val = tensor<fp16, []>(12344)];
            tensor<fp16, [1, 4, 6000]> var_9580_cast = clip(alpha = var_9578_promoted_to_fp16, beta = var_9579_promoted_to_fp16, x = ctc_act_3_cast);
            tensor<string, []> var_9580_cast_to_fp32_dtype_0 = const()[name = tensor<string, []>("op_9580_cast_to_fp32_dtype_0"), val = tensor<string, []>("fp32")];
            tensor<int32, []> var_9582 = const()[name = tensor<string, []>("op_9582"), val = tensor<int32, []>(0)];
            tensor<bool, []> var_9583_interleave_0 = const()[name = tensor<string, []>("op_9583_interleave_0"), val = tensor<bool, []>(false)];
            tensor<fp16, [2, 128, 8, 64]> var_9583_cast = concat(axis = var_9582, interleave = var_9583_interleave_0, values = (var_2370_cast, var_5496_cast));
            tensor<string, []> var_9583_cast_to_fp32_dtype_0 = const()[name = tensor<string, []>("op_9583_cast_to_fp32_dtype_0"), val = tensor<string, []>("fp32")];
            tensor<int32, []> var_9585 = const()[name = tensor<string, []>("op_9585"), val = tensor<int32, []>(0)];
            tensor<bool, []> var_9586_interleave_0 = const()[name = tensor<string, []>("op_9586_interleave_0"), val = tensor<bool, []>(false)];
            tensor<fp16, [12, 64, 8, 128]> var_9586_cast = concat(axis = var_9585, interleave = var_9586_interleave_0, values = (var_2372_cast, var_3018_cast, var_3492_cast, var_3966_cast, var_4440_cast, var_4914_cast, var_5498_cast, var_6144_cast, var_6618_cast, var_7092_cast, var_7566_cast, var_8040_cast));
            tensor<string, []> var_9586_cast_to_fp32_dtype_0 = const()[name = tensor<string, []>("op_9586_cast_to_fp32_dtype_0"), val = tensor<string, []>("fp32")];
            tensor<int32, []> var_9588 = const()[name = tensor<string, []>("op_9588"), val = tensor<int32, []>(0)];
            tensor<bool, []> var_9589_interleave_0 = const()[name = tensor<string, []>("op_9589_interleave_0"), val = tensor<bool, []>(false)];
            tensor<fp16, [12, 512, 1, 7]> var_9589_cast = concat(axis = var_9588, interleave = var_9589_interleave_0, values = (var_2629_cast, var_3112_cast, var_3586_cast, var_4060_cast, var_4534_cast, var_5008_cast, var_5755_cast, var_6238_cast, var_6712_cast, var_7186_cast, var_7660_cast, var_8134_cast));
            tensor<string, []> var_9589_cast_to_fp32_dtype_0 = const()[name = tensor<string, []>("op_9589_cast_to_fp32_dtype_0"), val = tensor<string, []>("fp32")];
            tensor<int32, []> var_9599 = const()[name = tensor<string, []>("op_9599"), val = tensor<int32, []>(2)];
            tensor<bool, []> var_9600_interleave_0 = const()[name = tensor<string, []>("op_9600_interleave_0"), val = tensor<bool, []>(false)];
            tensor<fp16, [1, 1, 4]> ones_1_to_fp16 = const()[name = tensor<string, []>("ones_1_to_fp16"), val = tensor<fp16, [1, 1, 4]>([[[1, 1, 1, 1]]])];
            tensor<fp16, [1, 1, 132]> var_9600_cast = concat(axis = var_9599, interleave = var_9600_interleave_0, values = (cast_56, ones_1_to_fp16));
            tensor<int32, [3]> var_9614_begin_0 = const()[name = tensor<string, []>("op_9614_begin_0"), val = tensor<int32, [3]>([0, 0, 4])];
            tensor<int32, [3]> var_9614_end_0 = const()[name = tensor<string, []>("op_9614_end_0"), val = tensor<int32, [3]>([1, 1, 132])];
            tensor<bool, [3]> var_9614_end_mask_0 = const()[name = tensor<string, []>("op_9614_end_mask_0"), val = tensor<bool, [3]>([true, true, true])];
            tensor<fp16, [1, 1, 128]> var_9614_cast = slice_by_index(begin = var_9614_begin_0, end = var_9614_end_0, end_mask = var_9614_end_mask_0, x = var_9600_cast);
            tensor<string, []> var_9614_cast_to_fp32_dtype_0 = const()[name = tensor<string, []>("op_9614_cast_to_fp32_dtype_0"), val = tensor<string, []>("fp32")];
            tensor<fp16, [1]> chunk_size_promoted_to_fp16 = const()[name = tensor<string, []>("chunk_size_promoted_to_fp16"), val = tensor<fp16, [1]>([8])];
            tensor<fp16, [128]> var_9621_cast = add(x = cast_63, y = chunk_size_promoted_to_fp16);
            tensor<string, []> var_9621_cast_to_fp32_dtype_0 = const()[name = tensor<string, []>("op_9621_cast_to_fp32_dtype_0"), val = tensor<string, []>("fp32")];
            tensor<fp16, []> var_9622_epsilon_0_to_fp16 = const()[name = tensor<string, []>("op_9622_epsilon_0_to_fp16"), val = tensor<fp16, []>(0)];
            tensor<fp16, [1, 51, 1, 8]> var_9622_cast = log(epsilon = var_9622_epsilon_0_to_fp16, x = ctc_act_5_cast);
            tensor<int32, [4]> var_9625_perm_0 = const()[name = tensor<string, []>("op_9625_perm_0"), val = tensor<int32, [4]>([0, 3, 2, 1])];
            tensor<int32, [1]> ctc_act_axes_0 = const()[name = tensor<string, []>("ctc_act_axes_0"), val = tensor<int32, [1]>([2])];
            tensor<fp16, [1, 8, 1, 51]> transpose_13 = transpose(perm = var_9625_perm_0, x = var_9622_cast);
            tensor<fp16, [1, 8, 51]> ctc_act_cast = squeeze(axes = ctc_act_axes_0, x = transpose_13);
            tensor<fp16, []> var_9628_promoted_to_fp16 = const()[name = tensor<string, []>("op_9628_promoted_to_fp16"), val = tensor<fp16, []>(-12344)];
            tensor<fp16, []> var_9629_promoted_to_fp16 = const()[name = tensor<string, []>("op_9629_promoted_to_fp16"), val = tensor<fp16, []>(12344)];
            tensor<fp16, [1, 8, 51]> var_9630_cast = clip(alpha = var_9628_promoted_to_fp16, beta = var_9629_promoted_to_fp16, x = ctc_act_cast);
            tensor<string, []> var_9630_cast_to_fp32_dtype_0 = const()[name = tensor<string, []>("op_9630_cast_to_fp32_dtype_0"), val = tensor<string, []>("fp32")];
            tensor<int32, []> var_9632 = const()[name = tensor<string, []>("op_9632"), val = tensor<int32, []>(0)];
            tensor<bool, []> var_9633_interleave_0 = const()[name = tensor<string, []>("op_9633_interleave_0"), val = tensor<bool, []>(false)];
            tensor<fp16, [2, 128, 8, 64]> var_9633_cast = concat(axis = var_9632, interleave = var_9633_interleave_0, values = (var_740_cast, var_1482_cast));
            tensor<string, []> var_9633_cast_to_fp32_dtype_0 = const()[name = tensor<string, []>("op_9633_cast_to_fp32_dtype_0"), val = tensor<string, []>("fp32")];
            tensor<int32, []> var_9635 = const()[name = tensor<string, []>("op_9635"), val = tensor<int32, []>(0)];
            tensor<bool, []> var_9636_interleave_0 = const()[name = tensor<string, []>("op_9636_interleave_0"), val = tensor<bool, []>(false)];
            tensor<fp16, [2, 64, 8, 128]> var_9636_cast = concat(axis = var_9635, interleave = var_9636_interleave_0, values = (var_742_cast, var_1484_cast));
            tensor<string, []> var_9636_cast_to_fp32_dtype_0 = const()[name = tensor<string, []>("op_9636_cast_to_fp32_dtype_0"), val = tensor<string, []>("fp32")];
            tensor<int32, []> var_9638 = const()[name = tensor<string, []>("op_9638"), val = tensor<int32, []>(0)];
            tensor<bool, []> var_9639_interleave_0 = const()[name = tensor<string, []>("op_9639_interleave_0"), val = tensor<bool, []>(false)];
            tensor<fp16, [2, 512, 1, 7]> var_9639_cast = concat(axis = var_9638, interleave = var_9639_interleave_0, values = (var_991_cast, var_1733_cast));
            tensor<string, []> var_9639_cast_to_fp32_dtype_0 = const()[name = tensor<string, []>("op_9639_cast_to_fp32_dtype_0"), val = tensor<string, []>("fp32")];
            tensor<int32, []> var_9649 = const()[name = tensor<string, []>("op_9649"), val = tensor<int32, []>(2)];
            tensor<bool, []> var_9650_interleave_0 = const()[name = tensor<string, []>("op_9650_interleave_0"), val = tensor<bool, []>(false)];
            tensor<fp16, [1, 1, 8]> ones_to_fp16 = const()[name = tensor<string, []>("ones_to_fp16"), val = tensor<fp16, [1, 1, 8]>([[[1, 1, 1, 1, 1, 1, 1, 1]]])];
            tensor<fp16, [1, 1, 136]> var_9650_cast = concat(axis = var_9649, interleave = var_9650_interleave_0, values = (cast_61, ones_to_fp16));
            tensor<int32, [3]> var_9664_begin_0 = const()[name = tensor<string, []>("op_9664_begin_0"), val = tensor<int32, [3]>([0, 0, 8])];
            tensor<int32, [3]> var_9664_end_0 = const()[name = tensor<string, []>("op_9664_end_0"), val = tensor<int32, [3]>([1, 1, 136])];
            tensor<bool, [3]> var_9664_end_mask_0 = const()[name = tensor<string, []>("op_9664_end_mask_0"), val = tensor<bool, [3]>([true, true, true])];
            tensor<fp16, [1, 1, 128]> var_9664_cast = slice_by_index(begin = var_9664_begin_0, end = var_9664_end_0, end_mask = var_9664_end_mask_0, x = var_9650_cast);
            tensor<string, []> var_9664_cast_to_fp32_dtype_0 = const()[name = tensor<string, []>("op_9664_cast_to_fp32_dtype_0"), val = tensor<string, []>("fp32")];
            tensor<fp32, [1, 4, 4]> ep_act = cast(dtype = var_9545_cast_to_fp32_dtype_0, x = var_9545_cast);
            tensor<fp32, [2, 128]> wp_h_cache_out = cast(dtype = var_9552_cast_to_fp32_dtype_0, x = var_9552_cast);
            tensor<fp32, [2, 128]> wp_c_cache_out = cast(dtype = var_9559_cast_to_fp32_dtype_0, x = var_9559_cast);
            tensor<fp32, [128]> wp_offset_out = cast(dtype = var_9566_cast_to_fp32_dtype_0, x = var_9566_cast);
            tensor<fp32, [1, 4, 512]> encoder_out = cast(dtype = var_9571_cast_to_fp32_dtype_0, x = var_9571_cast);
            tensor<fp32, [1, 4, 6000]> wordpiece_act = cast(dtype = var_9580_cast_to_fp32_dtype_0, x = var_9580_cast);
            tensor<fp32, [2, 128, 8, 64]> wp_att_key_cache_out = cast(dtype = var_9583_cast_to_fp32_dtype_0, x = var_9583_cast);
            tensor<fp32, [12, 64, 8, 128]> wp_att_value_cache_out = cast(dtype = var_9586_cast_to_fp32_dtype_0, x = var_9586_cast);
            tensor<fp32, [12, 512, 1, 7]> wp_cnn_cache_out = cast(dtype = var_9589_cast_to_fp32_dtype_0, x = var_9589_cast);
            tensor<fp32, [1, 1, 128]> wp_masks_out = cast(dtype = var_9614_cast_to_fp32_dtype_0, x = var_9614_cast);
            tensor<fp32, [128]> ph_offset_out = cast(dtype = var_9621_cast_to_fp32_dtype_0, x = var_9621_cast);
            tensor<fp32, [1, 8, 51]> phone_act = cast(dtype = var_9630_cast_to_fp32_dtype_0, x = var_9630_cast);
            tensor<fp32, [2, 128, 8, 64]> ph_att_key_cache_out = cast(dtype = var_9633_cast_to_fp32_dtype_0, x = var_9633_cast);
            tensor<fp32, [2, 64, 8, 128]> ph_att_value_cache_out = cast(dtype = var_9636_cast_to_fp32_dtype_0, x = var_9636_cast);
            tensor<fp32, [2, 512, 1, 7]> ph_cnn_cache_out = cast(dtype = var_9639_cast_to_fp32_dtype_0, x = var_9639_cast);
            tensor<fp32, [1, 1, 128]> ph_masks_out = cast(dtype = var_9664_cast_to_fp32_dtype_0, x = var_9664_cast);
        } -> (wp_att_key_cache_out, wp_att_value_cache_out, wp_cnn_cache_out, wp_masks_out, wp_offset_out, wp_h_cache_out, wp_c_cache_out, ph_att_key_cache_out, ph_att_value_cache_out, ph_cnn_cache_out, ph_masks_out, ph_offset_out, wordpiece_act, encoder_out, phone_act, ep_act);
}
