{
  "storage" : "wavernn_sub2_unroll_120.espresso.weights",
  "analyses" : {
    "N8Espresso34pass_constant_if_conditions_resultE" : {
      "constant_blobs" : {
        "i" : 10,
        "i_@ssa_version_1" : 10,
        "max_iter" : 10,
        "i_@ssa_version_3" : 10,
        "i_@ssa_version_2" : 10,
        "loop_cond" : 10
      }
    }
  },
  "properties" : {
    "anec_flags" : "EnableSingleChannelEWOpCopyRemoval,EnableAggressiveTensorCaching",
    "experimental.ane.skip_network_transform_pre_allocation" : "1",
    "experimental.ane.use_faux_dispatch" : "1",
    "experimental.ane.use_high_precision_activations" : "1",
    "hint_no_mutable_weights" : "1"
  },
  "format_version" : 200,
  "layers" : [
    {
      "alpha" : 1,
      "bottom" : "",
      "distribution" : 3,
      "weights" : {

      },
      "nd_rank" : 2,
      "out_h" : 120,
      "out_w" : 256,
      "top" : "O2__rand_v",
      "type" : "load_random",
      "name" : "gumbel_noise_2",
      "beta" : 0.0099999997764825821
    },
    {
      "alpha" : 1,
      "bottom" : "",
      "distribution" : 3,
      "weights" : {

      },
      "nd_rank" : 2,
      "out_h" : 120,
      "out_w" : 256,
      "top" : "O4__rand_v",
      "type" : "load_random",
      "name" : "gumbel_noise_4",
      "beta" : 0.0099999997764825821
    },
    {
      "has_prelu" : 0,
      "top" : "I__0",
      "has_biases" : 1,
      "weights" : {

      },
      "nC" : 1344,
      "blob_weights" : 3,
      "low_precision_accumulation" : 1,
      "type" : "inner_product",
      "has_relu" : 0,
      "attributes" : {
        "basic_block_head" : 1
      },
      "bottom" : "mel",
      "blob_biases" : 1,
      "has_tanh" : 0,
      "name" : "inner_product_0__0__unroll_0",
      "nB" : 80
    },
    {
      "end" : 1,
      "bottom" : "O2__rand_v",
      "start" : 0,
      "weights" : {

      },
      "axis" : 1,
      "top" : "O2__rand",
      "type" : "slice",
      "name" : "O2_rand_sliced__unroll_0"
    },
    {
      "end" : 1,
      "bottom" : "O4__rand_v",
      "start" : 0,
      "weights" : {

      },
      "axis" : 1,
      "top" : "O4__rand",
      "type" : "slice",
      "name" : "O4_rand_sliced__unroll_0"
    },
    {
      "nB" : 1,
      "top" : "I__1",
      "has_biases" : 1,
      "weights" : {

      },
      "nC" : 1344,
      "blob_weights" : 7,
      "low_precision_accumulation" : 1,
      "type" : "inner_product",
      "has_relu" : 0,
      "bottom" : "fine_bit_scaled",
      "blob_biases" : 5,
      "has_tanh" : 0,
      "name" : "inner_product_0__1__unroll_0",
      "has_prelu" : 0
    },
    {
      "nB" : 1,
      "top" : "I__2",
      "has_biases" : 1,
      "weights" : {

      },
      "nC" : 1344,
      "blob_weights" : 11,
      "low_precision_accumulation" : 1,
      "type" : "inner_product",
      "has_relu" : 0,
      "bottom" : "in_coarse_bit_scaled",
      "blob_biases" : 9,
      "has_tanh" : 0,
      "name" : "inner_product_0__2__unroll_0",
      "has_prelu" : 0
    },
    {
      "alpha" : 1,
      "bottom" : "I__0,I__1",
      "operation" : 0,
      "weights" : {

      },
      "fused_relu" : 0,
      "top" : "I__tmp_1",
      "type" : "elementwise",
      "name" : "inner_product_0__add1__unroll_0",
      "beta" : 0
    },
    {
      "alpha" : 1,
      "bottom" : "I__tmp_1,I__2",
      "operation" : 0,
      "weights" : {

      },
      "fused_relu" : 0,
      "top" : "I",
      "type" : "elementwise",
      "name" : "inner_product_0__add2__unroll_0",
      "beta" : 0
    },
    {
      "end" : 448,
      "bottom" : "I",
      "start" : 0,
      "weights" : {

      },
      "axis" : 0,
      "top" : "s3",
      "type" : "slice",
      "name" : "split_0__slice_0__unroll_0"
    },
    {
      "end" : 896,
      "bottom" : "I",
      "start" : 448,
      "weights" : {

      },
      "axis" : 0,
      "top" : "s4",
      "type" : "slice",
      "name" : "split_0__slice_1__unroll_0"
    },
    {
      "end" : 1344,
      "bottom" : "I",
      "start" : 896,
      "weights" : {

      },
      "axis" : 0,
      "top" : "s5",
      "type" : "slice",
      "name" : "split_0__slice_2__unroll_0"
    },
    {
      "nB" : 448,
      "top" : "R",
      "has_biases" : 1,
      "weights" : {

      },
      "nC" : 1344,
      "blob_weights" : 15,
      "low_precision_accumulation" : 1,
      "type" : "inner_product",
      "has_relu" : 0,
      "bottom" : "hidden_state",
      "blob_biases" : 13,
      "has_tanh" : 0,
      "name" : "inner_product_1__unroll_0",
      "has_prelu" : 0
    },
    {
      "end" : 448,
      "bottom" : "R",
      "start" : 0,
      "weights" : {

      },
      "axis" : 0,
      "top" : "s7",
      "type" : "slice",
      "name" : "split_1__slice_0__unroll_0"
    },
    {
      "end" : 896,
      "bottom" : "R",
      "start" : 448,
      "weights" : {

      },
      "axis" : 0,
      "top" : "s8",
      "type" : "slice",
      "name" : "split_1__slice_1__unroll_0"
    },
    {
      "end" : 1344,
      "bottom" : "R",
      "start" : 896,
      "weights" : {

      },
      "axis" : 0,
      "top" : "s9",
      "type" : "slice",
      "name" : "split_1__slice_2__unroll_0"
    },
    {
      "alpha" : 1,
      "bottom" : "s7,s3",
      "operation" : 0,
      "weights" : {

      },
      "fused_relu" : 0,
      "top" : "s10",
      "type" : "elementwise",
      "name" : "elementwise_0__unroll_0",
      "beta" : 0
    },
    {
      "mode" : 3,
      "weights" : {

      },
      "top" : "reset_gate_t",
      "type" : "activation",
      "name" : "activation_0__unroll_0",
      "bottom" : "s10"
    },
    {
      "alpha" : 1,
      "bottom" : "s8,s4",
      "operation" : 0,
      "weights" : {

      },
      "fused_relu" : 0,
      "top" : "s12",
      "type" : "elementwise",
      "name" : "elementwise_1__unroll_0",
      "beta" : 0
    },
    {
      "mode" : 3,
      "weights" : {

      },
      "top" : "update_gate_t",
      "type" : "activation",
      "name" : "activation_1__unroll_0",
      "bottom" : "s12"
    },
    {
      "alpha" : 1,
      "bottom" : "reset_gate_t,s9",
      "operation" : 1,
      "weights" : {

      },
      "fused_relu" : 0,
      "top" : "s14",
      "type" : "elementwise",
      "name" : "elementwise_2__unroll_0",
      "beta" : 0
    },
    {
      "alpha" : 1,
      "bottom" : "s14,s5",
      "operation" : 0,
      "weights" : {

      },
      "fused_relu" : 0,
      "top" : "s15",
      "type" : "elementwise",
      "name" : "elementwise_3__unroll_0",
      "beta" : 0
    },
    {
      "mode" : 1,
      "weights" : {

      },
      "top" : "new_gate_t",
      "type" : "activation",
      "name" : "activation_2__unroll_0",
      "bottom" : "s15"
    },
    {
      "alpha" : 1,
      "bottom" : "update_gate_t,hidden_state",
      "operation" : 1,
      "weights" : {

      },
      "fused_relu" : 0,
      "top" : "s17",
      "type" : "elementwise",
      "name" : "elementwise_4__unroll_0",
      "beta" : 0
    },
    {
      "alpha" : -1,
      "bottom" : "update_gate_t",
      "operation" : 3,
      "weights" : {

      },
      "fused_relu" : 0,
      "top" : "s18",
      "type" : "elementwise",
      "name" : "elementwise_5__unroll_0",
      "beta" : 0
    },
    {
      "alpha" : 1,
      "bottom" : "s18",
      "operation" : 2,
      "weights" : {

      },
      "fused_relu" : 0,
      "top" : "s19",
      "type" : "elementwise",
      "name" : "elementwise_6__unroll_0",
      "beta" : 0
    },
    {
      "alpha" : 1,
      "bottom" : "s19,new_gate_t",
      "operation" : 1,
      "weights" : {

      },
      "fused_relu" : 0,
      "top" : "s20",
      "type" : "elementwise",
      "name" : "elementwise_7__unroll_0",
      "beta" : 0
    },
    {
      "alpha" : 1,
      "bottom" : "s17,s20",
      "operation" : 0,
      "weights" : {

      },
      "fused_relu" : 0,
      "top" : "s21",
      "type" : "elementwise",
      "name" : "elementwise_8__unroll_0",
      "beta" : 0
    },
    {
      "end" : 224,
      "bottom" : "s21",
      "start" : 0,
      "weights" : {

      },
      "axis" : 0,
      "top" : "s22",
      "type" : "slice",
      "name" : "split_2__slice_0__unroll_0"
    },
    {
      "nB" : 224,
      "top" : "coarse_relu",
      "has_biases" : 1,
      "weights" : {

      },
      "nC" : 224,
      "blob_weights" : 19,
      "low_precision_accumulation" : 1,
      "type" : "inner_product",
      "has_relu" : 1,
      "bottom" : "s22",
      "blob_biases" : 17,
      "has_tanh" : 0,
      "name" : "inner_product_2__unroll_0",
      "has_prelu" : 0
    },
    {
      "nB" : 224,
      "top" : "O2",
      "has_biases" : 1,
      "weights" : {

      },
      "nC" : 256,
      "blob_weights" : 23,
      "low_precision_accumulation" : 1,
      "type" : "inner_product",
      "has_relu" : 0,
      "bottom" : "coarse_relu",
      "blob_biases" : 21,
      "has_tanh" : 0,
      "name" : "inner_product_3__unroll_0",
      "has_prelu" : 0
    },
    {
      "alpha" : 1,
      "bottom" : "O2,O2__rand",
      "operation" : 0,
      "weights" : {

      },
      "fused_relu" : 0,
      "top" : "coarse_bit__plus_rand",
      "type" : "elementwise",
      "name" : "softmax_0@gumbel_max__plus_rand__unroll_0",
      "beta" : 0
    },
    {
      "axis_mode" : 1,
      "bottom" : "coarse_bit__plus_rand",
      "weights" : {

      },
      "mode" : 11,
      "use_version" : 1,
      "top" : "coarse_bit",
      "type" : "reduce",
      "name" : "softmax_0@gumbel_max__argmax__unroll_0"
    },
    {
      "alpha" : 0.0078431377187371254,
      "bottom" : "coarse_bit",
      "operation" : 3,
      "weights" : {

      },
      "fused_relu" : 0,
      "top" : "s29",
      "type" : "elementwise",
      "name" : "elementwise_9__unroll_0",
      "beta" : 0
    },
    {
      "alpha" : -1,
      "bottom" : "s29",
      "operation" : 0,
      "weights" : {

      },
      "fused_relu" : 0,
      "top" : "coarse_bit_scaled",
      "type" : "elementwise",
      "name" : "elementwise_10__unroll_0",
      "beta" : 0
    },
    {
      "has_prelu" : 0,
      "top" : "s32",
      "has_biases" : 1,
      "name" : "elementwise_11__unroll_0",
      "nC" : 1344,
      "blob_weights" : 11,
      "type" : "inner_product",
      "has_relu" : 0,
      "bottom" : "coarse_bit_scaled",
      "blob_biases" : 9,
      "has_tanh" : 0,
      "share_weights_from_layer_named" : "inner_product_0__2__unroll_0",
      "weights" : {

      },
      "nB" : 1
    },
    {
      "alpha" : 1,
      "bottom" : "I,s32",
      "operation" : 0,
      "weights" : {

      },
      "fused_relu" : 0,
      "top" : "s33",
      "type" : "elementwise",
      "name" : "elementwise_12__unroll_0",
      "beta" : 0
    },
    {
      "end" : 448,
      "bottom" : "s33",
      "start" : 0,
      "weights" : {

      },
      "axis" : 0,
      "top" : "s34",
      "type" : "slice",
      "name" : "split_3__slice_0__unroll_0"
    },
    {
      "end" : 896,
      "bottom" : "s33",
      "start" : 448,
      "weights" : {

      },
      "axis" : 0,
      "top" : "s35",
      "type" : "slice",
      "name" : "split_3__slice_1__unroll_0"
    },
    {
      "end" : 1344,
      "bottom" : "s33",
      "start" : 896,
      "weights" : {

      },
      "axis" : 0,
      "top" : "s36",
      "type" : "slice",
      "name" : "split_3__slice_2__unroll_0"
    },
    {
      "alpha" : 1,
      "bottom" : "s7,s34",
      "operation" : 0,
      "weights" : {

      },
      "fused_relu" : 0,
      "top" : "s37",
      "type" : "elementwise",
      "name" : "elementwise_13__unroll_0",
      "beta" : 0
    },
    {
      "mode" : 3,
      "weights" : {

      },
      "top" : "reset_gate_t_1",
      "type" : "activation",
      "name" : "activation_4__unroll_0",
      "bottom" : "s37"
    },
    {
      "alpha" : 1,
      "bottom" : "s8,s35",
      "operation" : 0,
      "weights" : {

      },
      "fused_relu" : 0,
      "top" : "s39",
      "type" : "elementwise",
      "name" : "elementwise_14__unroll_0",
      "beta" : 0
    },
    {
      "mode" : 3,
      "weights" : {

      },
      "top" : "update_gate_t_1",
      "type" : "activation",
      "name" : "activation_5__unroll_0",
      "bottom" : "s39"
    },
    {
      "alpha" : 1,
      "bottom" : "reset_gate_t_1,s9",
      "operation" : 1,
      "weights" : {

      },
      "fused_relu" : 0,
      "top" : "s41",
      "type" : "elementwise",
      "name" : "elementwise_15__unroll_0",
      "beta" : 0
    },
    {
      "alpha" : 1,
      "bottom" : "s41,s36",
      "operation" : 0,
      "weights" : {

      },
      "fused_relu" : 0,
      "top" : "s42",
      "type" : "elementwise",
      "name" : "elementwise_16__unroll_0",
      "beta" : 0
    },
    {
      "mode" : 1,
      "weights" : {

      },
      "top" : "new_gate_t_1",
      "type" : "activation",
      "name" : "activation_6__unroll_0",
      "bottom" : "s42"
    },
    {
      "alpha" : 1,
      "bottom" : "update_gate_t_1,hidden_state",
      "operation" : 1,
      "weights" : {

      },
      "fused_relu" : 0,
      "top" : "s44",
      "type" : "elementwise",
      "name" : "elementwise_17__unroll_0",
      "beta" : 0
    },
    {
      "alpha" : -1,
      "bottom" : "update_gate_t_1",
      "operation" : 3,
      "weights" : {

      },
      "fused_relu" : 0,
      "top" : "s45",
      "type" : "elementwise",
      "name" : "elementwise_18__unroll_0",
      "beta" : 0
    },
    {
      "alpha" : 1,
      "bottom" : "s45",
      "operation" : 2,
      "weights" : {

      },
      "fused_relu" : 0,
      "top" : "s46",
      "type" : "elementwise",
      "name" : "elementwise_19__unroll_0",
      "beta" : 0
    },
    {
      "alpha" : 1,
      "bottom" : "s46,new_gate_t_1",
      "operation" : 1,
      "weights" : {

      },
      "fused_relu" : 0,
      "top" : "s47",
      "type" : "elementwise",
      "name" : "elementwise_20__unroll_0",
      "beta" : 0
    },
    {
      "alpha" : 1,
      "bottom" : "s44,s47",
      "operation" : 0,
      "weights" : {

      },
      "fused_relu" : 0,
      "top" : "hidden_state_unroll_1",
      "type" : "elementwise",
      "name" : "elementwise_21__unroll_0",
      "beta" : 0
    },
    {
      "end" : 448,
      "bottom" : "hidden_state_unroll_1",
      "start" : 224,
      "weights" : {

      },
      "axis" : 0,
      "top" : "s50",
      "type" : "slice",
      "name" : "split_4__slice_1__unroll_0"
    },
    {
      "nB" : 224,
      "top" : "fine_relu",
      "has_biases" : 1,
      "weights" : {

      },
      "nC" : 224,
      "blob_weights" : 27,
      "low_precision_accumulation" : 1,
      "type" : "inner_product",
      "has_relu" : 1,
      "bottom" : "s50",
      "blob_biases" : 25,
      "has_tanh" : 0,
      "name" : "inner_product_4__unroll_0",
      "has_prelu" : 0
    },
    {
      "nB" : 224,
      "top" : "O4",
      "has_biases" : 1,
      "weights" : {

      },
      "nC" : 256,
      "blob_weights" : 31,
      "low_precision_accumulation" : 1,
      "type" : "inner_product",
      "has_relu" : 0,
      "bottom" : "fine_relu",
      "blob_biases" : 29,
      "has_tanh" : 0,
      "name" : "inner_product_5__unroll_0",
      "has_prelu" : 0
    },
    {
      "alpha" : 1,
      "bottom" : "O4,O4__rand",
      "operation" : 0,
      "weights" : {

      },
      "fused_relu" : 0,
      "top" : "fine_bit__plus_rand",
      "type" : "elementwise",
      "name" : "softmax_1@gumbel_max__plus_rand__unroll_0",
      "beta" : 0
    },
    {
      "axis_mode" : 1,
      "bottom" : "fine_bit__plus_rand",
      "weights" : {

      },
      "mode" : 11,
      "use_version" : 1,
      "top" : "fine_bit",
      "type" : "reduce",
      "name" : "softmax_1@gumbel_max__argmax__unroll_0"
    },
    {
      "alpha" : 0.0078431377187371254,
      "bottom" : "fine_bit",
      "operation" : 3,
      "weights" : {

      },
      "fused_relu" : 0,
      "top" : "s56",
      "type" : "elementwise",
      "name" : "elementwise_22__unroll_0",
      "beta" : 0
    },
    {
      "alpha" : -1,
      "bottom" : "s56",
      "operation" : 0,
      "weights" : {

      },
      "fused_relu" : 0,
      "top" : "fine_bit_scaled_unroll_1",
      "type" : "elementwise",
      "name" : "elementwise_23__unroll_0",
      "beta" : 0
    },
    {
      "end" : 2,
      "bottom" : "O2__rand_v",
      "start" : 1,
      "weights" : {

      },
      "axis" : 1,
      "top" : "O2__rand_unroll_1",
      "type" : "slice",
      "name" : "O2_rand_sliced__unroll_1"
    },
    {
      "end" : 2,
      "bottom" : "O4__rand_v",
      "start" : 1,
      "weights" : {

      },
      "axis" : 1,
      "top" : "O4__rand_unroll_1",
      "type" : "slice",
      "name" : "O4_rand_sliced__unroll_1"
    },
    {
      "has_prelu" : 0,
      "top" : "I__1_unroll_1",
      "has_biases" : 1,
      "weights" : {

      },
      "nC" : 1344,
      "blob_weights" : 7,
      "low_precision_accumulation" : 1,
      "type" : "inner_product",
      "has_relu" : 0,
      "bottom" : "fine_bit_scaled_unroll_1",
      "blob_biases" : 5,
      "has_tanh" : 0,
      "share_weights_from_layer_named" : "inner_product_0__1__unroll_0",
      "name" : "inner_product_0__1__unroll_1",
      "nB" : 1
    },
    {
      "has_prelu" : 0,
      "top" : "I__2_unroll_1",
      "has_biases" : 1,
      "weights" : {

      },
      "nC" : 1344,
      "blob_weights" : 11,
      "low_precision_accumulation" : 1,
      "type" : "inner_product",
      "has_relu" : 0,
      "bottom" : "in_coarse_bit_scaled",
      "blob_biases" : 9,
      "has_tanh" : 0,
      "share_weights_from_layer_named" : "inner_product_0__2__unroll_0",
      "name" : "inner_product_0__2__unroll_1",
      "nB" : 1
    },
    {
      "alpha" : 1,
      "bottom" : "I__0,I__1_unroll_1",
      "operation" : 0,
      "weights" : {

      },
      "fused_relu" : 0,
      "top" : "I__tmp_1_unroll_1",
      "type" : "elementwise",
      "name" : "inner_product_0__add1__unroll_1",
      "beta" : 0
    },
    {
      "alpha" : 1,
      "bottom" : "I__tmp_1_unroll_1,I__2_unroll_1",
      "operation" : 0,
      "weights" : {

      },
      "fused_relu" : 0,
      "top" : "I_unroll_1",
      "type" : "elementwise",
      "name" : "inner_product_0__add2__unroll_1",
      "beta" : 0
    },
    {
      "end" : 448,
      "bottom" : "I_unroll_1",
      "start" : 0,
      "weights" : {

      },
      "axis" : 0,
      "top" : "s3_unroll_1",
      "type" : "slice",
      "name" : "split_0__slice_0__unroll_1"
    },
    {
      "end" : 896,
      "bottom" : "I_unroll_1",
      "start" : 448,
      "weights" : {

      },
      "axis" : 0,
      "top" : "s4_unroll_1",
      "type" : "slice",
      "name" : "split_0__slice_1__unroll_1"
    },
    {
      "end" : 1344,
      "bottom" : "I_unroll_1",
      "start" : 896,
      "weights" : {

      },
      "axis" : 0,
      "top" : "s5_unroll_1",
      "type" : "slice",
      "name" : "split_0__slice_2__unroll_1"
    },
    {
      "has_prelu" : 0,
      "top" : "R_unroll_1",
      "has_biases" : 1,
      "weights" : {

      },
      "nC" : 1344,
      "blob_weights" : 15,
      "low_precision_accumulation" : 1,
      "type" : "inner_product",
      "has_relu" : 0,
      "bottom" : "hidden_state_unroll_1",
      "blob_biases" : 13,
      "has_tanh" : 0,
      "share_weights_from_layer_named" : "inner_product_1__unroll_0",
      "name" : "inner_product_1__unroll_1",
      "nB" : 448
    },
    {
      "end" : 448,
      "bottom" : "R_unroll_1",
      "start" : 0,
      "weights" : {

      },
      "axis" : 0,
      "top" : "s7_unroll_1",
      "type" : "slice",
      "name" : "split_1__slice_0__unroll_1"
    },
    {
      "end" : 896,
      "bottom" : "R_unroll_1",
      "start" : 448,
      "weights" : {

      },
      "axis" : 0,
      "top" : "s8_unroll_1",
      "type" : "slice",
      "name" : "split_1__slice_1__unroll_1"
    },
    {
      "end" : 1344,
      "bottom" : "R_unroll_1",
      "start" : 896,
      "weights" : {

      },
      "axis" : 0,
      "top" : "s9_unroll_1",
      "type" : "slice",
      "name" : "split_1__slice_2__unroll_1"
    },
    {
      "alpha" : 1,
      "bottom" : "s7_unroll_1,s3_unroll_1",
      "operation" : 0,
      "weights" : {

      },
      "fused_relu" : 0,
      "top" : "s10_unroll_1",
      "type" : "elementwise",
      "name" : "elementwise_0__unroll_1",
      "beta" : 0
    },
    {
      "mode" : 3,
      "weights" : {

      },
      "top" : "reset_gate_t_unroll_1",
      "type" : "activation",
      "name" : "activation_0__unroll_1",
      "bottom" : "s10_unroll_1"
    },
    {
      "alpha" : 1,
      "bottom" : "s8_unroll_1,s4_unroll_1",
      "operation" : 0,
      "weights" : {

      },
      "fused_relu" : 0,
      "top" : "s12_unroll_1",
      "type" : "elementwise",
      "name" : "elementwise_1__unroll_1",
      "beta" : 0
    },
    {
      "mode" : 3,
      "weights" : {

      },
      "top" : "update_gate_t_unroll_1",
      "type" : "activation",
      "name" : "activation_1__unroll_1",
      "bottom" : "s12_unroll_1"
    },
    {
      "alpha" : 1,
      "bottom" : "reset_gate_t_unroll_1,s9_unroll_1",
      "operation" : 1,
      "weights" : {

      },
      "fused_relu" : 0,
      "top" : "s14_unroll_1",
      "type" : "elementwise",
      "name" : "elementwise_2__unroll_1",
      "beta" : 0
    },
    {
      "alpha" : 1,
      "bottom" : "s14_unroll_1,s5_unroll_1",
      "operation" : 0,
      "weights" : {

      },
      "fused_relu" : 0,
      "top" : "s15_unroll_1",
      "type" : "elementwise",
      "name" : "elementwise_3__unroll_1",
      "beta" : 0
    },
    {
      "mode" : 1,
      "weights" : {

      },
      "top" : "new_gate_t_unroll_1",
      "type" : "activation",
      "name" : "activation_2__unroll_1",
      "bottom" : "s15_unroll_1"
    },
    {
      "alpha" : 1,
      "bottom" : "update_gate_t_unroll_1,hidden_state_unroll_1",
      "operation" : 1,
      "weights" : {

      },
      "fused_relu" : 0,
      "top" : "s17_unroll_1",
      "type" : "elementwise",
      "name" : "elementwise_4__unroll_1",
      "beta" : 0
    },
    {
      "alpha" : -1,
      "bottom" : "update_gate_t_unroll_1",
      "operation" : 3,
      "weights" : {

      },
      "fused_relu" : 0,
      "top" : "s18_unroll_1",
      "type" : "elementwise",
      "name" : "elementwise_5__unroll_1",
      "beta" : 0
    },
    {
      "alpha" : 1,
      "bottom" : "s18_unroll_1",
      "operation" : 2,
      "weights" : {

      },
      "fused_relu" : 0,
      "top" : "s19_unroll_1",
      "type" : "elementwise",
      "name" : "elementwise_6__unroll_1",
      "beta" : 0
    },
    {
      "alpha" : 1,
      "bottom" : "s19_unroll_1,new_gate_t_unroll_1",
      "operation" : 1,
      "weights" : {

      },
      "fused_relu" : 0,
      "top" : "s20_unroll_1",
      "type" : "elementwise",
      "name" : "elementwise_7__unroll_1",
      "beta" : 0
    },
    {
      "alpha" : 1,
      "bottom" : "s17_unroll_1,s20_unroll_1",
      "operation" : 0,
      "weights" : {

      },
      "fused_relu" : 0,
      "top" : "s21_unroll_1",
      "type" : "elementwise",
      "name" : "elementwise_8__unroll_1",
      "beta" : 0
    },
    {
      "end" : 224,
      "bottom" : "s21_unroll_1",
      "start" : 0,
      "weights" : {

      },
      "axis" : 0,
      "top" : "s22_unroll_1",
      "type" : "slice",
      "name" : "split_2__slice_0__unroll_1"
    },
    {
      "has_prelu" : 0,
      "top" : "coarse_relu_unroll_1",
      "has_biases" : 1,
      "weights" : {

      },
      "nC" : 224,
      "blob_weights" : 19,
      "low_precision_accumulation" : 1,
      "type" : "inner_product",
      "has_relu" : 1,
      "bottom" : "s22_unroll_1",
      "blob_biases" : 17,
      "has_tanh" : 0,
      "share_weights_from_layer_named" : "inner_product_2__unroll_0",
      "name" : "inner_product_2__unroll_1",
      "nB" : 224
    },
    {
      "has_prelu" : 0,
      "top" : "O2_unroll_1",
      "has_biases" : 1,
      "weights" : {

      },
      "nC" : 256,
      "blob_weights" : 23,
      "low_precision_accumulation" : 1,
      "type" : "inner_product",
      "has_relu" : 0,
      "bottom" : "coarse_relu_unroll_1",
      "blob_biases" : 21,
      "has_tanh" : 0,
      "share_weights_from_layer_named" : "inner_product_3__unroll_0",
      "name" : "inner_product_3__unroll_1",
      "nB" : 224
    },
    {
      "alpha" : 1,
      "bottom" : "O2_unroll_1,O2__rand_unroll_1",
      "operation" : 0,
      "weights" : {

      },
      "fused_relu" : 0,
      "top" : "coarse_bit__plus_rand_unroll_1",
      "type" : "elementwise",
      "name" : "softmax_0@gumbel_max__plus_rand__unroll_1",
      "beta" : 0
    },
    {
      "axis_mode" : 1,
      "bottom" : "coarse_bit__plus_rand_unroll_1",
      "weights" : {

      },
      "mode" : 11,
      "use_version" : 1,
      "top" : "coarse_bit_unroll_1",
      "type" : "reduce",
      "name" : "softmax_0@gumbel_max__argmax__unroll_1"
    },
    {
      "alpha" : 0.0078431377187371254,
      "bottom" : "coarse_bit_unroll_1",
      "operation" : 3,
      "weights" : {

      },
      "fused_relu" : 0,
      "top" : "s29_unroll_1",
      "type" : "elementwise",
      "name" : "elementwise_9__unroll_1",
      "beta" : 0
    },
    {
      "alpha" : -1,
      "bottom" : "s29_unroll_1",
      "operation" : 0,
      "weights" : {

      },
      "fused_relu" : 0,
      "top" : "coarse_bit_scaled_unroll_1",
      "type" : "elementwise",
      "name" : "elementwise_10__unroll_1",
      "beta" : 0
    },
    {
      "has_prelu" : 0,
      "top" : "s32_unroll_1",
      "has_biases" : 1,
      "name" : "elementwise_11__unroll_1",
      "nC" : 1344,
      "blob_weights" : 11,
      "type" : "inner_product",
      "has_relu" : 0,
      "bottom" : "coarse_bit_scaled_unroll_1",
      "blob_biases" : 9,
      "has_tanh" : 0,
      "share_weights_from_layer_named" : "inner_product_0__2__unroll_0",
      "weights" : {

      },
      "nB" : 1
    },
    {
      "alpha" : 1,
      "bottom" : "I_unroll_1,s32_unroll_1",
      "operation" : 0,
      "weights" : {

      },
      "fused_relu" : 0,
      "top" : "s33_unroll_1",
      "type" : "elementwise",
      "name" : "elementwise_12__unroll_1",
      "beta" : 0
    },
    {
      "end" : 448,
      "bottom" : "s33_unroll_1",
      "start" : 0,
      "weights" : {

      },
      "axis" : 0,
      "top" : "s34_unroll_1",
      "type" : "slice",
      "name" : "split_3__slice_0__unroll_1"
    },
    {
      "end" : 896,
      "bottom" : "s33_unroll_1",
      "start" : 448,
      "weights" : {

      },
      "axis" : 0,
      "top" : "s35_unroll_1",
      "type" : "slice",
      "name" : "split_3__slice_1__unroll_1"
    },
    {
      "end" : 1344,
      "bottom" : "s33_unroll_1",
      "start" : 896,
      "weights" : {

      },
      "axis" : 0,
      "top" : "s36_unroll_1",
      "type" : "slice",
      "name" : "split_3__slice_2__unroll_1"
    },
    {
      "alpha" : 1,
      "bottom" : "s7_unroll_1,s34_unroll_1",
      "operation" : 0,
      "weights" : {

      },
      "fused_relu" : 0,
      "top" : "s37_unroll_1",
      "type" : "elementwise",
      "name" : "elementwise_13__unroll_1",
      "beta" : 0
    },
    {
      "mode" : 3,
      "weights" : {

      },
      "top" : "reset_gate_t_1_unroll_1",
      "type" : "activation",
      "name" : "activation_4__unroll_1",
      "bottom" : "s37_unroll_1"
    },
    {
      "alpha" : 1,
      "bottom" : "s8_unroll_1,s35_unroll_1",
      "operation" : 0,
      "weights" : {

      },
      "fused_relu" : 0,
      "top" : "s39_unroll_1",
      "type" : "elementwise",
      "name" : "elementwise_14__unroll_1",
      "beta" : 0
    },
    {
      "mode" : 3,
      "weights" : {

      },
      "top" : "update_gate_t_1_unroll_1",
      "type" : "activation",
      "name" : "activation_5__unroll_1",
      "bottom" : "s39_unroll_1"
    },
    {
      "alpha" : 1,
      "bottom" : "reset_gate_t_1_unroll_1,s9_unroll_1",
      "operation" : 1,
      "weights" : {

      },
      "fused_relu" : 0,
      "top" : "s41_unroll_1",
      "type" : "elementwise",
      "name" : "elementwise_15__unroll_1",
      "beta" : 0
    },
    {
      "alpha" : 1,
      "bottom" : "s41_unroll_1,s36_unroll_1",
      "operation" : 0,
      "weights" : {

      },
      "fused_relu" : 0,
      "top" : "s42_unroll_1",
      "type" : "elementwise",
      "name" : "elementwise_16__unroll_1",
      "beta" : 0
    },
    {
      "mode" : 1,
      "weights" : {

      },
      "top" : "new_gate_t_1_unroll_1",
      "type" : "activation",
      "name" : "activation_6__unroll_1",
      "bottom" : "s42_unroll_1"
    },
    {
      "alpha" : 1,
      "bottom" : "update_gate_t_1_unroll_1,hidden_state_unroll_1",
      "operation" : 1,
      "weights" : {

      },
      "fused_relu" : 0,
      "top" : "s44_unroll_1",
      "type" : "elementwise",
      "name" : "elementwise_17__unroll_1",
      "beta" : 0
    },
    {
      "alpha" : -1,
      "bottom" : "update_gate_t_1_unroll_1",
      "operation" : 3,
      "weights" : {

      },
      "fused_relu" : 0,
      "top" : "s45_unroll_1",
      "type" : "elementwise",
      "name" : "elementwise_18__unroll_1",
      "beta" : 0
    },
    {
      "alpha" : 1,
      "bottom" : "s45_unroll_1",
      "operation" : 2,
      "weights" : {

      },
      "fused_relu" : 0,
      "top" : "s46_unroll_1",
      "type" : "elementwise",
      "name" : "elementwise_19__unroll_1",
      "beta" : 0
    },
    {
      "alpha" : 1,
      "bottom" : "s46_unroll_1,new_gate_t_1_unroll_1",
      "operation" : 1,
      "weights" : {

      },
      "fused_relu" : 0,
      "top" : "s47_unroll_1",
      "type" : "elementwise",
      "name" : "elementwise_20__unroll_1",
      "beta" : 0
    },
    {
      "alpha" : 1,
      "bottom" : "s44_unroll_1,s47_unroll_1",
      "operation" : 0,
      "weights" : {

      },
      "fused_relu" : 0,
      "top" : "hidden_state_unroll_2",
      "type" : "elementwise",
      "name" : "elementwise_21__unroll_1",
      "beta" : 0
    },
    {
      "end" : 448,
      "bottom" : "hidden_state_unroll_2",
      "start" : 224,
      "weights" : {

      },
      "axis" : 0,
      "top" : "s50_unroll_1",
      "type" : "slice",
      "name" : "split_4__slice_1__unroll_1"
    },
    {
      "has_prelu" : 0,
      "top" : "fine_relu_unroll_1",
      "has_biases" : 1,
      "weights" : {

      },
      "nC" : 224,
      "blob_weights" : 27,
      "low_precision_accumulation" : 1,
      "type" : "inner_product",
      "has_relu" : 1,
      "bottom" : "s50_unroll_1",
      "blob_biases" : 25,
      "has_tanh" : 0,
      "share_weights_from_layer_named" : "inner_product_4__unroll_0",
      "name" : "inner_product_4__unroll_1",
      "nB" : 224
    },
    {
      "has_prelu" : 0,
      "top" : "O4_unroll_1",
      "has_biases" : 1,
      "weights" : {

      },
      "nC" : 256,
      "blob_weights" : 31,
      "low_precision_accumulation" : 1,
      "type" : "inner_product",
      "has_relu" : 0,
      "bottom" : "fine_relu_unroll_1",
      "blob_biases" : 29,
      "has_tanh" : 0,
      "share_weights_from_layer_named" : "inner_product_5__unroll_0",
      "name" : "inner_product_5__unroll_1",
      "nB" : 224
    },
    {
      "alpha" : 1,
      "bottom" : "O4_unroll_1,O4__rand_unroll_1",
      "operation" : 0,
      "weights" : {

      },
      "fused_relu" : 0,
      "top" : "fine_bit__plus_rand_unroll_1",
      "type" : "elementwise",
      "name" : "softmax_1@gumbel_max__plus_rand__unroll_1",
      "beta" : 0
    },
    {
      "axis_mode" : 1,
      "bottom" : "fine_bit__plus_rand_unroll_1",
      "weights" : {

      },
      "mode" : 11,
      "use_version" : 1,
      "top" : "fine_bit_unroll_1",
      "type" : "reduce",
      "name" : "softmax_1@gumbel_max__argmax__unroll_1"
    },
    {
      "alpha" : 0.0078431377187371254,
      "bottom" : "fine_bit_unroll_1",
      "operation" : 3,
      "weights" : {

      },
      "fused_relu" : 0,
      "top" : "s56_unroll_1",
      "type" : "elementwise",
      "name" : "elementwise_22__unroll_1",
      "beta" : 0
    },
    {
      "alpha" : -1,
      "bottom" : "s56_unroll_1",
      "operation" : 0,
      "weights" : {

      },
      "fused_relu" : 0,
      "top" : "fine_bit_scaled_unroll_2",
      "type" : "elementwise",
      "name" : "elementwise_23__unroll_1",
      "beta" : 0
    },
    {
      "end" : 3,
      "bottom" : "O2__rand_v",
      "start" : 2,
      "weights" : {

      },
      "axis" : 1,
      "top" : "O2__rand_unroll_2",
      "type" : "slice",
      "name" : "O2_rand_sliced__unroll_2"
    },
    {
      "end" : 3,
      "bottom" : "O4__rand_v",
      "start" : 2,
      "weights" : {

      },
      "axis" : 1,
      "top" : "O4__rand_unroll_2",
      "type" : "slice",
      "name" : "O4_rand_sliced__unroll_2"
    },
    {
      "has_prelu" : 0,
      "top" : "I__1_unroll_2",
      "has_biases" : 1,
      "weights" : {

      },
      "nC" : 1344,
      "blob_weights" : 7,
      "low_precision_accumulation" : 1,
      "type" : "inner_product",
      "has_relu" : 0,
      "bottom" : "fine_bit_scaled_unroll_2",
      "blob_biases" : 5,
      "has_tanh" : 0,
      "share_weights_from_layer_named" : "inner_product_0__1__unroll_0",
      "name" : "inner_product_0__1__unroll_2",
      "nB" : 1
    },
    {
      "has_prelu" : 0,
      "top" : "I__2_unroll_2",
      "has_biases" : 1,
      "weights" : {

      },
      "nC" : 1344,
      "blob_weights" : 11,
      "low_precision_accumulation" : 1,
      "type" : "inner_product",
      "has_relu" : 0,
      "bottom" : "in_coarse_bit_scaled",
      "blob_biases" : 9,
      "has_tanh" : 0,
      "share_weights_from_layer_named" : "inner_product_0__2__unroll_0",
      "name" : "inner_product_0__2__unroll_2",
      "nB" : 1
    },
    {
      "alpha" : 1,
      "bottom" : "I__0,I__1_unroll_2",
      "operation" : 0,
      "weights" : {

      },
      "fused_relu" : 0,
      "top" : "I__tmp_1_unroll_2",
      "type" : "elementwise",
      "name" : "inner_product_0__add1__unroll_2",
      "beta" : 0
    },
    {
      "alpha" : 1,
      "bottom" : "I__tmp_1_unroll_2,I__2_unroll_2",
      "operation" : 0,
      "weights" : {

      },
      "fused_relu" : 0,
      "top" : "I_unroll_2",
      "type" : "elementwise",
      "name" : "inner_product_0__add2__unroll_2",
      "beta" : 0
    },
    {
      "end" : 448,
      "bottom" : "I_unroll_2",
      "start" : 0,
      "weights" : {

      },
      "axis" : 0,
      "top" : "s3_unroll_2",
      "type" : "slice",
      "name" : "split_0__slice_0__unroll_2"
    },
    {
      "end" : 896,
      "bottom" : "I_unroll_2",
      "start" : 448,
      "weights" : {

      },
      "axis" : 0,
      "top" : "s4_unroll_2",
      "type" : "slice",
      "name" : "split_0__slice_1__unroll_2"
    },
    {
      "end" : 1344,
      "bottom" : "I_unroll_2",
      "start" : 896,
      "weights" : {

      },
      "axis" : 0,
      "top" : "s5_unroll_2",
      "type" : "slice",
      "name" : "split_0__slice_2__unroll_2"
    },
    {
      "has_prelu" : 0,
      "top" : "R_unroll_2",
      "has_biases" : 1,
      "weights" : {

      },
      "nC" : 1344,
      "blob_weights" : 15,
      "low_precision_accumulation" : 1,
      "type" : "inner_product",
      "has_relu" : 0,
      "bottom" : "hidden_state_unroll_2",
      "blob_biases" : 13,
      "has_tanh" : 0,
      "share_weights_from_layer_named" : "inner_product_1__unroll_0",
      "name" : "inner_product_1__unroll_2",
      "nB" : 448
    },
    {
      "end" : 448,
      "bottom" : "R_unroll_2",
      "start" : 0,
      "weights" : {

      },
      "axis" : 0,
      "top" : "s7_unroll_2",
      "type" : "slice",
      "name" : "split_1__slice_0__unroll_2"
    },
    {
      "end" : 896,
      "bottom" : "R_unroll_2",
      "start" : 448,
      "weights" : {

      },
      "axis" : 0,
      "top" : "s8_unroll_2",
      "type" : "slice",
      "name" : "split_1__slice_1__unroll_2"
    },
    {
      "end" : 1344,
      "bottom" : "R_unroll_2",
      "start" : 896,
      "weights" : {

      },
      "axis" : 0,
      "top" : "s9_unroll_2",
      "type" : "slice",
      "name" : "split_1__slice_2__unroll_2"
    },
    {
      "alpha" : 1,
      "bottom" : "s7_unroll_2,s3_unroll_2",
      "operation" : 0,
      "weights" : {

      },
      "fused_relu" : 0,
      "top" : "s10_unroll_2",
      "type" : "elementwise",
      "name" : "elementwise_0__unroll_2",
      "beta" : 0
    },
    {
      "mode" : 3,
      "weights" : {

      },
      "top" : "reset_gate_t_unroll_2",
      "type" : "activation",
      "name" : "activation_0__unroll_2",
      "bottom" : "s10_unroll_2"
    },
    {
      "alpha" : 1,
      "bottom" : "s8_unroll_2,s4_unroll_2",
      "operation" : 0,
      "weights" : {

      },
      "fused_relu" : 0,
      "top" : "s12_unroll_2",
      "type" : "elementwise",
      "name" : "elementwise_1__unroll_2",
      "beta" : 0
    },
    {
      "mode" : 3,
      "weights" : {

      },
      "top" : "update_gate_t_unroll_2",
      "type" : "activation",
      "name" : "activation_1__unroll_2",
      "bottom" : "s12_unroll_2"
    },
    {
      "alpha" : 1,
      "bottom" : "reset_gate_t_unroll_2,s9_unroll_2",
      "operation" : 1,
      "weights" : {

      },
      "fused_relu" : 0,
      "top" : "s14_unroll_2",
      "type" : "elementwise",
      "name" : "elementwise_2__unroll_2",
      "beta" : 0
    },
    {
      "alpha" : 1,
      "bottom" : "s14_unroll_2,s5_unroll_2",
      "operation" : 0,
      "weights" : {

      },
      "fused_relu" : 0,
      "top" : "s15_unroll_2",
      "type" : "elementwise",
      "name" : "elementwise_3__unroll_2",
      "beta" : 0
    },
    {
      "mode" : 1,
      "weights" : {

      },
      "top" : "new_gate_t_unroll_2",
      "type" : "activation",
      "name" : "activation_2__unroll_2",
      "bottom" : "s15_unroll_2"
    },
    {
      "alpha" : 1,
      "bottom" : "update_gate_t_unroll_2,hidden_state_unroll_2",
      "operation" : 1,
      "weights" : {

      },
      "fused_relu" : 0,
      "top" : "s17_unroll_2",
      "type" : "elementwise",
      "name" : "elementwise_4__unroll_2",
      "beta" : 0
    },
    {
      "alpha" : -1,
      "bottom" : "update_gate_t_unroll_2",
      "operation" : 3,
      "weights" : {

      },
      "fused_relu" : 0,
      "top" : "s18_unroll_2",
      "type" : "elementwise",
      "name" : "elementwise_5__unroll_2",
      "beta" : 0
    },
    {
      "alpha" : 1,
      "bottom" : "s18_unroll_2",
      "operation" : 2,
      "weights" : {

      },
      "fused_relu" : 0,
      "top" : "s19_unroll_2",
      "type" : "elementwise",
      "name" : "elementwise_6__unroll_2",
      "beta" : 0
    },
    {
      "alpha" : 1,
      "bottom" : "s19_unroll_2,new_gate_t_unroll_2",
      "operation" : 1,
      "weights" : {

      },
      "fused_relu" : 0,
      "top" : "s20_unroll_2",
      "type" : "elementwise",
      "name" : "elementwise_7__unroll_2",
      "beta" : 0
    },
    {
      "alpha" : 1,
      "bottom" : "s17_unroll_2,s20_unroll_2",
      "operation" : 0,
      "weights" : {

      },
      "fused_relu" : 0,
      "top" : "s21_unroll_2",
      "type" : "elementwise",
      "name" : "elementwise_8__unroll_2",
      "beta" : 0
    },
    {
      "end" : 224,
      "bottom" : "s21_unroll_2",
      "start" : 0,
      "weights" : {

      },
      "axis" : 0,
      "top" : "s22_unroll_2",
      "type" : "slice",
      "name" : "split_2__slice_0__unroll_2"
    },
    {
      "has_prelu" : 0,
      "top" : "coarse_relu_unroll_2",
      "has_biases" : 1,
      "weights" : {

      },
      "nC" : 224,
      "blob_weights" : 19,
      "low_precision_accumulation" : 1,
      "type" : "inner_product",
      "has_relu" : 1,
      "bottom" : "s22_unroll_2",
      "blob_biases" : 17,
      "has_tanh" : 0,
      "share_weights_from_layer_named" : "inner_product_2__unroll_0",
      "name" : "inner_product_2__unroll_2",
      "nB" : 224
    },
    {
      "has_prelu" : 0,
      "top" : "O2_unroll_2",
      "has_biases" : 1,
      "weights" : {

      },
      "nC" : 256,
      "blob_weights" : 23,
      "low_precision_accumulation" : 1,
      "type" : "inner_product",
      "has_relu" : 0,
      "bottom" : "coarse_relu_unroll_2",
      "blob_biases" : 21,
      "has_tanh" : 0,
      "share_weights_from_layer_named" : "inner_product_3__unroll_0",
      "name" : "inner_product_3__unroll_2",
      "nB" : 224
    },
    {
      "alpha" : 1,
      "bottom" : "O2_unroll_2,O2__rand_unroll_2",
      "operation" : 0,
      "weights" : {

      },
      "fused_relu" : 0,
      "top" : "coarse_bit__plus_rand_unroll_2",
      "type" : "elementwise",
      "name" : "softmax_0@gumbel_max__plus_rand__unroll_2",
      "beta" : 0
    },
    {
      "axis_mode" : 1,
      "bottom" : "coarse_bit__plus_rand_unroll_2",
      "weights" : {

      },
      "mode" : 11,
      "use_version" : 1,
      "top" : "coarse_bit_unroll_2",
      "type" : "reduce",
      "name" : "softmax_0@gumbel_max__argmax__unroll_2"
    },
    {
      "alpha" : 0.0078431377187371254,
      "bottom" : "coarse_bit_unroll_2",
      "operation" : 3,
      "weights" : {

      },
      "fused_relu" : 0,
      "top" : "s29_unroll_2",
      "type" : "elementwise",
      "name" : "elementwise_9__unroll_2",
      "beta" : 0
    },
    {
      "alpha" : -1,
      "bottom" : "s29_unroll_2",
      "operation" : 0,
      "weights" : {

      },
      "fused_relu" : 0,
      "top" : "coarse_bit_scaled_unroll_2",
      "type" : "elementwise",
      "name" : "elementwise_10__unroll_2",
      "beta" : 0
    },
    {
      "has_prelu" : 0,
      "top" : "s32_unroll_2",
      "has_biases" : 1,
      "name" : "elementwise_11__unroll_2",
      "nC" : 1344,
      "blob_weights" : 11,
      "type" : "inner_product",
      "has_relu" : 0,
      "bottom" : "coarse_bit_scaled_unroll_2",
      "blob_biases" : 9,
      "has_tanh" : 0,
      "share_weights_from_layer_named" : "inner_product_0__2__unroll_0",
      "weights" : {

      },
      "nB" : 1
    },
    {
      "alpha" : 1,
      "bottom" : "I_unroll_2,s32_unroll_2",
      "operation" : 0,
      "weights" : {

      },
      "fused_relu" : 0,
      "top" : "s33_unroll_2",
      "type" : "elementwise",
      "name" : "elementwise_12__unroll_2",
      "beta" : 0
    },
    {
      "end" : 448,
      "bottom" : "s33_unroll_2",
      "start" : 0,
      "weights" : {

      },
      "axis" : 0,
      "top" : "s34_unroll_2",
      "type" : "slice",
      "name" : "split_3__slice_0__unroll_2"
    },
    {
      "end" : 896,
      "bottom" : "s33_unroll_2",
      "start" : 448,
      "weights" : {

      },
      "axis" : 0,
      "top" : "s35_unroll_2",
      "type" : "slice",
      "name" : "split_3__slice_1__unroll_2"
    },
    {
      "end" : 1344,
      "bottom" : "s33_unroll_2",
      "start" : 896,
      "weights" : {

      },
      "axis" : 0,
      "top" : "s36_unroll_2",
      "type" : "slice",
      "name" : "split_3__slice_2__unroll_2"
    },
    {
      "alpha" : 1,
      "bottom" : "s7_unroll_2,s34_unroll_2",
      "operation" : 0,
      "weights" : {

      },
      "fused_relu" : 0,
      "top" : "s37_unroll_2",
      "type" : "elementwise",
      "name" : "elementwise_13__unroll_2",
      "beta" : 0
    },
    {
      "mode" : 3,
      "weights" : {

      },
      "top" : "reset_gate_t_1_unroll_2",
      "type" : "activation",
      "name" : "activation_4__unroll_2",
      "bottom" : "s37_unroll_2"
    },
    {
      "alpha" : 1,
      "bottom" : "s8_unroll_2,s35_unroll_2",
      "operation" : 0,
      "weights" : {

      },
      "fused_relu" : 0,
      "top" : "s39_unroll_2",
      "type" : "elementwise",
      "name" : "elementwise_14__unroll_2",
      "beta" : 0
    },
    {
      "mode" : 3,
      "weights" : {

      },
      "top" : "update_gate_t_1_unroll_2",
      "type" : "activation",
      "name" : "activation_5__unroll_2",
      "bottom" : "s39_unroll_2"
    },
    {
      "alpha" : 1,
      "bottom" : "reset_gate_t_1_unroll_2,s9_unroll_2",
      "operation" : 1,
      "weights" : {

      },
      "fused_relu" : 0,
      "top" : "s41_unroll_2",
      "type" : "elementwise",
      "name" : "elementwise_15__unroll_2",
      "beta" : 0
    },
    {
      "alpha" : 1,
      "bottom" : "s41_unroll_2,s36_unroll_2",
      "operation" : 0,
      "weights" : {

      },
      "fused_relu" : 0,
      "top" : "s42_unroll_2",
      "type" : "elementwise",
      "name" : "elementwise_16__unroll_2",
      "beta" : 0
    },
    {
      "mode" : 1,
      "weights" : {

      },
      "top" : "new_gate_t_1_unroll_2",
      "type" : "activation",
      "name" : "activation_6__unroll_2",
      "bottom" : "s42_unroll_2"
    },
    {
      "alpha" : 1,
      "bottom" : "update_gate_t_1_unroll_2,hidden_state_unroll_2",
      "operation" : 1,
      "weights" : {

      },
      "fused_relu" : 0,
      "top" : "s44_unroll_2",
      "type" : "elementwise",
      "name" : "elementwise_17__unroll_2",
      "beta" : 0
    },
    {
      "alpha" : -1,
      "bottom" : "update_gate_t_1_unroll_2",
      "operation" : 3,
      "weights" : {

      },
      "fused_relu" : 0,
      "top" : "s45_unroll_2",
      "type" : "elementwise",
      "name" : "elementwise_18__unroll_2",
      "beta" : 0
    },
    {
      "alpha" : 1,
      "bottom" : "s45_unroll_2",
      "operation" : 2,
      "weights" : {

      },
      "fused_relu" : 0,
      "top" : "s46_unroll_2",
      "type" : "elementwise",
      "name" : "elementwise_19__unroll_2",
      "beta" : 0
    },
    {
      "alpha" : 1,
      "bottom" : "s46_unroll_2,new_gate_t_1_unroll_2",
      "operation" : 1,
      "weights" : {

      },
      "fused_relu" : 0,
      "top" : "s47_unroll_2",
      "type" : "elementwise",
      "name" : "elementwise_20__unroll_2",
      "beta" : 0
    },
    {
      "alpha" : 1,
      "bottom" : "s44_unroll_2,s47_unroll_2",
      "operation" : 0,
      "weights" : {

      },
      "fused_relu" : 0,
      "top" : "hidden_state_unroll_3",
      "type" : "elementwise",
      "name" : "elementwise_21__unroll_2",
      "beta" : 0
    },
    {
      "end" : 448,
      "bottom" : "hidden_state_unroll_3",
      "start" : 224,
      "weights" : {

      },
      "axis" : 0,
      "top" : "s50_unroll_2",
      "type" : "slice",
      "name" : "split_4__slice_1__unroll_2"
    },
    {
      "has_prelu" : 0,
      "top" : "fine_relu_unroll_2",
      "has_biases" : 1,
      "weights" : {

      },
      "nC" : 224,
      "blob_weights" : 27,
      "low_precision_accumulation" : 1,
      "type" : "inner_product",
      "has_relu" : 1,
      "bottom" : "s50_unroll_2",
      "blob_biases" : 25,
      "has_tanh" : 0,
      "share_weights_from_layer_named" : "inner_product_4__unroll_0",
      "name" : "inner_product_4__unroll_2",
      "nB" : 224
    },
    {
      "has_prelu" : 0,
      "top" : "O4_unroll_2",
      "has_biases" : 1,
      "weights" : {

      },
      "nC" : 256,
      "blob_weights" : 31,
      "low_precision_accumulation" : 1,
      "type" : "inner_product",
      "has_relu" : 0,
      "bottom" : "fine_relu_unroll_2",
      "blob_biases" : 29,
      "has_tanh" : 0,
      "share_weights_from_layer_named" : "inner_product_5__unroll_0",
      "name" : "inner_product_5__unroll_2",
      "nB" : 224
    },
    {
      "alpha" : 1,
      "bottom" : "O4_unroll_2,O4__rand_unroll_2",
      "operation" : 0,
      "weights" : {

      },
      "fused_relu" : 0,
      "top" : "fine_bit__plus_rand_unroll_2",
      "type" : "elementwise",
      "name" : "softmax_1@gumbel_max__plus_rand__unroll_2",
      "beta" : 0
    },
    {
      "axis_mode" : 1,
      "bottom" : "fine_bit__plus_rand_unroll_2",
      "weights" : {

      },
      "mode" : 11,
      "use_version" : 1,
      "top" : "fine_bit_unroll_2",
      "type" : "reduce",
      "name" : "softmax_1@gumbel_max__argmax__unroll_2"
    },
    {
      "alpha" : 0.0078431377187371254,
      "bottom" : "fine_bit_unroll_2",
      "operation" : 3,
      "weights" : {

      },
      "fused_relu" : 0,
      "top" : "s56_unroll_2",
      "type" : "elementwise",
      "name" : "elementwise_22__unroll_2",
      "beta" : 0
    },
    {
      "alpha" : -1,
      "bottom" : "s56_unroll_2",
      "operation" : 0,
      "weights" : {

      },
      "fused_relu" : 0,
      "top" : "fine_bit_scaled_unroll_3",
      "type" : "elementwise",
      "name" : "elementwise_23__unroll_2",
      "beta" : 0
    },
    {
      "end" : 4,
      "bottom" : "O2__rand_v",
      "start" : 3,
      "weights" : {

      },
      "axis" : 1,
      "top" : "O2__rand_unroll_3",
      "type" : "slice",
      "name" : "O2_rand_sliced__unroll_3"
    },
    {
      "end" : 4,
      "bottom" : "O4__rand_v",
      "start" : 3,
      "weights" : {

      },
      "axis" : 1,
      "top" : "O4__rand_unroll_3",
      "type" : "slice",
      "name" : "O4_rand_sliced__unroll_3"
    },
    {
      "has_prelu" : 0,
      "top" : "I__1_unroll_3",
      "has_biases" : 1,
      "weights" : {

      },
      "nC" : 1344,
      "blob_weights" : 7,
      "low_precision_accumulation" : 1,
      "type" : "inner_product",
      "has_relu" : 0,
      "bottom" : "fine_bit_scaled_unroll_3",
      "blob_biases" : 5,
      "has_tanh" : 0,
      "share_weights_from_layer_named" : "inner_product_0__1__unroll_0",
      "name" : "inner_product_0__1__unroll_3",
      "nB" : 1
    },
    {
      "has_prelu" : 0,
      "top" : "I__2_unroll_3",
      "has_biases" : 1,
      "weights" : {

      },
      "nC" : 1344,
      "blob_weights" : 11,
      "low_precision_accumulation" : 1,
      "type" : "inner_product",
      "has_relu" : 0,
      "bottom" : "in_coarse_bit_scaled",
      "blob_biases" : 9,
      "has_tanh" : 0,
      "share_weights_from_layer_named" : "inner_product_0__2__unroll_0",
      "name" : "inner_product_0__2__unroll_3",
      "nB" : 1
    },
    {
      "alpha" : 1,
      "bottom" : "I__0,I__1_unroll_3",
      "operation" : 0,
      "weights" : {

      },
      "fused_relu" : 0,
      "top" : "I__tmp_1_unroll_3",
      "type" : "elementwise",
      "name" : "inner_product_0__add1__unroll_3",
      "beta" : 0
    },
    {
      "alpha" : 1,
      "bottom" : "I__tmp_1_unroll_3,I__2_unroll_3",
      "operation" : 0,
      "weights" : {

      },
      "fused_relu" : 0,
      "top" : "I_unroll_3",
      "type" : "elementwise",
      "name" : "inner_product_0__add2__unroll_3",
      "beta" : 0
    },
    {
      "end" : 448,
      "bottom" : "I_unroll_3",
      "start" : 0,
      "weights" : {

      },
      "axis" : 0,
      "top" : "s3_unroll_3",
      "type" : "slice",
      "name" : "split_0__slice_0__unroll_3"
    },
    {
      "end" : 896,
      "bottom" : "I_unroll_3",
      "start" : 448,
      "weights" : {

      },
      "axis" : 0,
      "top" : "s4_unroll_3",
      "type" : "slice",
      "name" : "split_0__slice_1__unroll_3"
    },
    {
      "end" : 1344,
      "bottom" : "I_unroll_3",
      "start" : 896,
      "weights" : {

      },
      "axis" : 0,
      "top" : "s5_unroll_3",
      "type" : "slice",
      "name" : "split_0__slice_2__unroll_3"
    },
    {
      "has_prelu" : 0,
      "top" : "R_unroll_3",
      "has_biases" : 1,
      "weights" : {

      },
      "nC" : 1344,
      "blob_weights" : 15,
      "low_precision_accumulation" : 1,
      "type" : "inner_product",
      "has_relu" : 0,
      "bottom" : "hidden_state_unroll_3",
      "blob_biases" : 13,
      "has_tanh" : 0,
      "share_weights_from_layer_named" : "inner_product_1__unroll_0",
      "name" : "inner_product_1__unroll_3",
      "nB" : 448
    },
    {
      "end" : 448,
      "bottom" : "R_unroll_3",
      "start" : 0,
      "weights" : {

      },
      "axis" : 0,
      "top" : "s7_unroll_3",
      "type" : "slice",
      "name" : "split_1__slice_0__unroll_3"
    },
    {
      "end" : 896,
      "bottom" : "R_unroll_3",
      "start" : 448,
      "weights" : {

      },
      "axis" : 0,
      "top" : "s8_unroll_3",
      "type" : "slice",
      "name" : "split_1__slice_1__unroll_3"
    },
    {
      "end" : 1344,
      "bottom" : "R_unroll_3",
      "start" : 896,
      "weights" : {

      },
      "axis" : 0,
      "top" : "s9_unroll_3",
      "type" : "slice",
      "name" : "split_1__slice_2__unroll_3"
    },
    {
      "alpha" : 1,
      "bottom" : "s7_unroll_3,s3_unroll_3",
      "operation" : 0,
      "weights" : {

      },
      "fused_relu" : 0,
      "top" : "s10_unroll_3",
      "type" : "elementwise",
      "name" : "elementwise_0__unroll_3",
      "beta" : 0
    },
    {
      "mode" : 3,
      "weights" : {

      },
      "top" : "reset_gate_t_unroll_3",
      "type" : "activation",
      "name" : "activation_0__unroll_3",
      "bottom" : "s10_unroll_3"
    },
    {
      "alpha" : 1,
      "bottom" : "s8_unroll_3,s4_unroll_3",
      "operation" : 0,
      "weights" : {

      },
      "fused_relu" : 0,
      "top" : "s12_unroll_3",
      "type" : "elementwise",
      "name" : "elementwise_1__unroll_3",
      "beta" : 0
    },
    {
      "mode" : 3,
      "weights" : {

      },
      "top" : "update_gate_t_unroll_3",
      "type" : "activation",
      "name" : "activation_1__unroll_3",
      "bottom" : "s12_unroll_3"
    },
    {
      "alpha" : 1,
      "bottom" : "reset_gate_t_unroll_3,s9_unroll_3",
      "operation" : 1,
      "weights" : {

      },
      "fused_relu" : 0,
      "top" : "s14_unroll_3",
      "type" : "elementwise",
      "name" : "elementwise_2__unroll_3",
      "beta" : 0
    },
    {
      "alpha" : 1,
      "bottom" : "s14_unroll_3,s5_unroll_3",
      "operation" : 0,
      "weights" : {

      },
      "fused_relu" : 0,
      "top" : "s15_unroll_3",
      "type" : "elementwise",
      "name" : "elementwise_3__unroll_3",
      "beta" : 0
    },
    {
      "mode" : 1,
      "weights" : {

      },
      "top" : "new_gate_t_unroll_3",
      "type" : "activation",
      "name" : "activation_2__unroll_3",
      "bottom" : "s15_unroll_3"
    },
    {
      "alpha" : 1,
      "bottom" : "update_gate_t_unroll_3,hidden_state_unroll_3",
      "operation" : 1,
      "weights" : {

      },
      "fused_relu" : 0,
      "top" : "s17_unroll_3",
      "type" : "elementwise",
      "name" : "elementwise_4__unroll_3",
      "beta" : 0
    },
    {
      "alpha" : -1,
      "bottom" : "update_gate_t_unroll_3",
      "operation" : 3,
      "weights" : {

      },
      "fused_relu" : 0,
      "top" : "s18_unroll_3",
      "type" : "elementwise",
      "name" : "elementwise_5__unroll_3",
      "beta" : 0
    },
    {
      "alpha" : 1,
      "bottom" : "s18_unroll_3",
      "operation" : 2,
      "weights" : {

      },
      "fused_relu" : 0,
      "top" : "s19_unroll_3",
      "type" : "elementwise",
      "name" : "elementwise_6__unroll_3",
      "beta" : 0
    },
    {
      "alpha" : 1,
      "bottom" : "s19_unroll_3,new_gate_t_unroll_3",
      "operation" : 1,
      "weights" : {

      },
      "fused_relu" : 0,
      "top" : "s20_unroll_3",
      "type" : "elementwise",
      "name" : "elementwise_7__unroll_3",
      "beta" : 0
    },
    {
      "alpha" : 1,
      "bottom" : "s17_unroll_3,s20_unroll_3",
      "operation" : 0,
      "weights" : {

      },
      "fused_relu" : 0,
      "top" : "s21_unroll_3",
      "type" : "elementwise",
      "name" : "elementwise_8__unroll_3",
      "beta" : 0
    },
    {
      "end" : 224,
      "bottom" : "s21_unroll_3",
      "start" : 0,
      "weights" : {

      },
      "axis" : 0,
      "top" : "s22_unroll_3",
      "type" : "slice",
      "name" : "split_2__slice_0__unroll_3"
    },
    {
      "has_prelu" : 0,
      "top" : "coarse_relu_unroll_3",
      "has_biases" : 1,
      "weights" : {

      },
      "nC" : 224,
      "blob_weights" : 19,
      "low_precision_accumulation" : 1,
      "type" : "inner_product",
      "has_relu" : 1,
      "bottom" : "s22_unroll_3",
      "blob_biases" : 17,
      "has_tanh" : 0,
      "share_weights_from_layer_named" : "inner_product_2__unroll_0",
      "name" : "inner_product_2__unroll_3",
      "nB" : 224
    },
    {
      "has_prelu" : 0,
      "top" : "O2_unroll_3",
      "has_biases" : 1,
      "weights" : {

      },
      "nC" : 256,
      "blob_weights" : 23,
      "low_precision_accumulation" : 1,
      "type" : "inner_product",
      "has_relu" : 0,
      "bottom" : "coarse_relu_unroll_3",
      "blob_biases" : 21,
      "has_tanh" : 0,
      "share_weights_from_layer_named" : "inner_product_3__unroll_0",
      "name" : "inner_product_3__unroll_3",
      "nB" : 224
    },
    {
      "alpha" : 1,
      "bottom" : "O2_unroll_3,O2__rand_unroll_3",
      "operation" : 0,
      "weights" : {

      },
      "fused_relu" : 0,
      "top" : "coarse_bit__plus_rand_unroll_3",
      "type" : "elementwise",
      "name" : "softmax_0@gumbel_max__plus_rand__unroll_3",
      "beta" : 0
    },
    {
      "axis_mode" : 1,
      "bottom" : "coarse_bit__plus_rand_unroll_3",
      "weights" : {

      },
      "mode" : 11,
      "use_version" : 1,
      "top" : "coarse_bit_unroll_3",
      "type" : "reduce",
      "name" : "softmax_0@gumbel_max__argmax__unroll_3"
    },
    {
      "alpha" : 0.0078431377187371254,
      "bottom" : "coarse_bit_unroll_3",
      "operation" : 3,
      "weights" : {

      },
      "fused_relu" : 0,
      "top" : "s29_unroll_3",
      "type" : "elementwise",
      "name" : "elementwise_9__unroll_3",
      "beta" : 0
    },
    {
      "alpha" : -1,
      "bottom" : "s29_unroll_3",
      "operation" : 0,
      "weights" : {

      },
      "fused_relu" : 0,
      "top" : "coarse_bit_scaled_unroll_3",
      "type" : "elementwise",
      "name" : "elementwise_10__unroll_3",
      "beta" : 0
    },
    {
      "has_prelu" : 0,
      "top" : "s32_unroll_3",
      "has_biases" : 1,
      "name" : "elementwise_11__unroll_3",
      "nC" : 1344,
      "blob_weights" : 11,
      "type" : "inner_product",
      "has_relu" : 0,
      "bottom" : "coarse_bit_scaled_unroll_3",
      "blob_biases" : 9,
      "has_tanh" : 0,
      "share_weights_from_layer_named" : "inner_product_0__2__unroll_0",
      "weights" : {

      },
      "nB" : 1
    },
    {
      "alpha" : 1,
      "bottom" : "I_unroll_3,s32_unroll_3",
      "operation" : 0,
      "weights" : {

      },
      "fused_relu" : 0,
      "top" : "s33_unroll_3",
      "type" : "elementwise",
      "name" : "elementwise_12__unroll_3",
      "beta" : 0
    },
    {
      "end" : 448,
      "bottom" : "s33_unroll_3",
      "start" : 0,
      "weights" : {

      },
      "axis" : 0,
      "top" : "s34_unroll_3",
      "type" : "slice",
      "name" : "split_3__slice_0__unroll_3"
    },
    {
      "end" : 896,
      "bottom" : "s33_unroll_3",
      "start" : 448,
      "weights" : {

      },
      "axis" : 0,
      "top" : "s35_unroll_3",
      "type" : "slice",
      "name" : "split_3__slice_1__unroll_3"
    },
    {
      "end" : 1344,
      "bottom" : "s33_unroll_3",
      "start" : 896,
      "weights" : {

      },
      "axis" : 0,
      "top" : "s36_unroll_3",
      "type" : "slice",
      "name" : "split_3__slice_2__unroll_3"
    },
    {
      "alpha" : 1,
      "bottom" : "s7_unroll_3,s34_unroll_3",
      "operation" : 0,
      "weights" : {

      },
      "fused_relu" : 0,
      "top" : "s37_unroll_3",
      "type" : "elementwise",
      "name" : "elementwise_13__unroll_3",
      "beta" : 0
    },
    {
      "mode" : 3,
      "weights" : {

      },
      "top" : "reset_gate_t_1_unroll_3",
      "type" : "activation",
      "name" : "activation_4__unroll_3",
      "bottom" : "s37_unroll_3"
    },
    {
      "alpha" : 1,
      "bottom" : "s8_unroll_3,s35_unroll_3",
      "operation" : 0,
      "weights" : {

      },
      "fused_relu" : 0,
      "top" : "s39_unroll_3",
      "type" : "elementwise",
      "name" : "elementwise_14__unroll_3",
      "beta" : 0
    },
    {
      "mode" : 3,
      "weights" : {

      },
      "top" : "update_gate_t_1_unroll_3",
      "type" : "activation",
      "name" : "activation_5__unroll_3",
      "bottom" : "s39_unroll_3"
    },
    {
      "alpha" : 1,
      "bottom" : "reset_gate_t_1_unroll_3,s9_unroll_3",
      "operation" : 1,
      "weights" : {

      },
      "fused_relu" : 0,
      "top" : "s41_unroll_3",
      "type" : "elementwise",
      "name" : "elementwise_15__unroll_3",
      "beta" : 0
    },
    {
      "alpha" : 1,
      "bottom" : "s41_unroll_3,s36_unroll_3",
      "operation" : 0,
      "weights" : {

      },
      "fused_relu" : 0,
      "top" : "s42_unroll_3",
      "type" : "elementwise",
      "name" : "elementwise_16__unroll_3",
      "beta" : 0
    },
    {
      "mode" : 1,
      "weights" : {

      },
      "top" : "new_gate_t_1_unroll_3",
      "type" : "activation",
      "name" : "activation_6__unroll_3",
      "bottom" : "s42_unroll_3"
    },
    {
      "alpha" : 1,
      "bottom" : "update_gate_t_1_unroll_3,hidden_state_unroll_3",
      "operation" : 1,
      "weights" : {

      },
      "fused_relu" : 0,
      "top" : "s44_unroll_3",
      "type" : "elementwise",
      "name" : "elementwise_17__unroll_3",
      "beta" : 0
    },
    {
      "alpha" : -1,
      "bottom" : "update_gate_t_1_unroll_3",
      "operation" : 3,
      "weights" : {

      },
      "fused_relu" : 0,
      "top" : "s45_unroll_3",
      "type" : "elementwise",
      "name" : "elementwise_18__unroll_3",
      "beta" : 0
    },
    {
      "alpha" : 1,
      "bottom" : "s45_unroll_3",
      "operation" : 2,
      "weights" : {

      },
      "fused_relu" : 0,
      "top" : "s46_unroll_3",
      "type" : "elementwise",
      "name" : "elementwise_19__unroll_3",
      "beta" : 0
    },
    {
      "alpha" : 1,
      "bottom" : "s46_unroll_3,new_gate_t_1_unroll_3",
      "operation" : 1,
      "weights" : {

      },
      "fused_relu" : 0,
      "top" : "s47_unroll_3",
      "type" : "elementwise",
      "name" : "elementwise_20__unroll_3",
      "beta" : 0
    },
    {
      "alpha" : 1,
      "bottom" : "s44_unroll_3,s47_unroll_3",
      "operation" : 0,
      "weights" : {

      },
      "fused_relu" : 0,
      "top" : "hidden_state_unroll_4",
      "type" : "elementwise",
      "name" : "elementwise_21__unroll_3",
      "beta" : 0
    },
    {
      "end" : 448,
      "bottom" : "hidden_state_unroll_4",
      "start" : 224,
      "weights" : {

      },
      "axis" : 0,
      "top" : "s50_unroll_3",
      "type" : "slice",
      "name" : "split_4__slice_1__unroll_3"
    },
    {
      "has_prelu" : 0,
      "top" : "fine_relu_unroll_3",
      "has_biases" : 1,
      "weights" : {

      },
      "nC" : 224,
      "blob_weights" : 27,
      "low_precision_accumulation" : 1,
      "type" : "inner_product",
      "has_relu" : 1,
      "bottom" : "s50_unroll_3",
      "blob_biases" : 25,
      "has_tanh" : 0,
      "share_weights_from_layer_named" : "inner_product_4__unroll_0",
      "name" : "inner_product_4__unroll_3",
      "nB" : 224
    },
    {
      "has_prelu" : 0,
      "top" : "O4_unroll_3",
      "has_biases" : 1,
      "weights" : {

      },
      "nC" : 256,
      "blob_weights" : 31,
      "low_precision_accumulation" : 1,
      "type" : "inner_product",
      "has_relu" : 0,
      "bottom" : "fine_relu_unroll_3",
      "blob_biases" : 29,
      "has_tanh" : 0,
      "share_weights_from_layer_named" : "inner_product_5__unroll_0",
      "name" : "inner_product_5__unroll_3",
      "nB" : 224
    },
    {
      "alpha" : 1,
      "bottom" : "O4_unroll_3,O4__rand_unroll_3",
      "operation" : 0,
      "weights" : {

      },
      "fused_relu" : 0,
      "top" : "fine_bit__plus_rand_unroll_3",
      "type" : "elementwise",
      "name" : "softmax_1@gumbel_max__plus_rand__unroll_3",
      "beta" : 0
    },
    {
      "axis_mode" : 1,
      "bottom" : "fine_bit__plus_rand_unroll_3",
      "weights" : {

      },
      "mode" : 11,
      "use_version" : 1,
      "top" : "fine_bit_unroll_3",
      "type" : "reduce",
      "name" : "softmax_1@gumbel_max__argmax__unroll_3"
    },
    {
      "alpha" : 0.0078431377187371254,
      "bottom" : "fine_bit_unroll_3",
      "operation" : 3,
      "weights" : {

      },
      "fused_relu" : 0,
      "top" : "s56_unroll_3",
      "type" : "elementwise",
      "name" : "elementwise_22__unroll_3",
      "beta" : 0
    },
    {
      "alpha" : -1,
      "bottom" : "s56_unroll_3",
      "operation" : 0,
      "weights" : {

      },
      "fused_relu" : 0,
      "top" : "fine_bit_scaled_unroll_4",
      "type" : "elementwise",
      "name" : "elementwise_23__unroll_3",
      "beta" : 0
    },
    {
      "end" : 5,
      "bottom" : "O2__rand_v",
      "start" : 4,
      "weights" : {

      },
      "axis" : 1,
      "top" : "O2__rand_unroll_4",
      "type" : "slice",
      "name" : "O2_rand_sliced__unroll_4"
    },
    {
      "end" : 5,
      "bottom" : "O4__rand_v",
      "start" : 4,
      "weights" : {

      },
      "axis" : 1,
      "top" : "O4__rand_unroll_4",
      "type" : "slice",
      "name" : "O4_rand_sliced__unroll_4"
    },
    {
      "has_prelu" : 0,
      "top" : "I__1_unroll_4",
      "has_biases" : 1,
      "weights" : {

      },
      "nC" : 1344,
      "blob_weights" : 7,
      "low_precision_accumulation" : 1,
      "type" : "inner_product",
      "has_relu" : 0,
      "bottom" : "fine_bit_scaled_unroll_4",
      "blob_biases" : 5,
      "has_tanh" : 0,
      "share_weights_from_layer_named" : "inner_product_0__1__unroll_0",
      "name" : "inner_product_0__1__unroll_4",
      "nB" : 1
    },
    {
      "has_prelu" : 0,
      "top" : "I__2_unroll_4",
      "has_biases" : 1,
      "weights" : {

      },
      "nC" : 1344,
      "blob_weights" : 11,
      "low_precision_accumulation" : 1,
      "type" : "inner_product",
      "has_relu" : 0,
      "bottom" : "in_coarse_bit_scaled",
      "blob_biases" : 9,
      "has_tanh" : 0,
      "share_weights_from_layer_named" : "inner_product_0__2__unroll_0",
      "name" : "inner_product_0__2__unroll_4",
      "nB" : 1
    },
    {
      "alpha" : 1,
      "bottom" : "I__0,I__1_unroll_4",
      "operation" : 0,
      "weights" : {

      },
      "fused_relu" : 0,
      "top" : "I__tmp_1_unroll_4",
      "type" : "elementwise",
      "name" : "inner_product_0__add1__unroll_4",
      "beta" : 0
    },
    {
      "alpha" : 1,
      "bottom" : "I__tmp_1_unroll_4,I__2_unroll_4",
      "operation" : 0,
      "weights" : {

      },
      "fused_relu" : 0,
      "top" : "I_unroll_4",
      "type" : "elementwise",
      "name" : "inner_product_0__add2__unroll_4",
      "beta" : 0
    },
    {
      "end" : 448,
      "bottom" : "I_unroll_4",
      "start" : 0,
      "weights" : {

      },
      "axis" : 0,
      "top" : "s3_unroll_4",
      "type" : "slice",
      "name" : "split_0__slice_0__unroll_4"
    },
    {
      "end" : 896,
      "bottom" : "I_unroll_4",
      "start" : 448,
      "weights" : {

      },
      "axis" : 0,
      "top" : "s4_unroll_4",
      "type" : "slice",
      "name" : "split_0__slice_1__unroll_4"
    },
    {
      "end" : 1344,
      "bottom" : "I_unroll_4",
      "start" : 896,
      "weights" : {

      },
      "axis" : 0,
      "top" : "s5_unroll_4",
      "type" : "slice",
      "name" : "split_0__slice_2__unroll_4"
    },
    {
      "has_prelu" : 0,
      "top" : "R_unroll_4",
      "has_biases" : 1,
      "weights" : {

      },
      "nC" : 1344,
      "blob_weights" : 15,
      "low_precision_accumulation" : 1,
      "type" : "inner_product",
      "has_relu" : 0,
      "bottom" : "hidden_state_unroll_4",
      "blob_biases" : 13,
      "has_tanh" : 0,
      "share_weights_from_layer_named" : "inner_product_1__unroll_0",
      "name" : "inner_product_1__unroll_4",
      "nB" : 448
    },
    {
      "end" : 448,
      "bottom" : "R_unroll_4",
      "start" : 0,
      "weights" : {

      },
      "axis" : 0,
      "top" : "s7_unroll_4",
      "type" : "slice",
      "name" : "split_1__slice_0__unroll_4"
    },
    {
      "end" : 896,
      "bottom" : "R_unroll_4",
      "start" : 448,
      "weights" : {

      },
      "axis" : 0,
      "top" : "s8_unroll_4",
      "type" : "slice",
      "name" : "split_1__slice_1__unroll_4"
    },
    {
      "end" : 1344,
      "bottom" : "R_unroll_4",
      "start" : 896,
      "weights" : {

      },
      "axis" : 0,
      "top" : "s9_unroll_4",
      "type" : "slice",
      "name" : "split_1__slice_2__unroll_4"
    },
    {
      "alpha" : 1,
      "bottom" : "s7_unroll_4,s3_unroll_4",
      "operation" : 0,
      "weights" : {

      },
      "fused_relu" : 0,
      "top" : "s10_unroll_4",
      "type" : "elementwise",
      "name" : "elementwise_0__unroll_4",
      "beta" : 0
    },
    {
      "mode" : 3,
      "weights" : {

      },
      "top" : "reset_gate_t_unroll_4",
      "type" : "activation",
      "name" : "activation_0__unroll_4",
      "bottom" : "s10_unroll_4"
    },
    {
      "alpha" : 1,
      "bottom" : "s8_unroll_4,s4_unroll_4",
      "operation" : 0,
      "weights" : {

      },
      "fused_relu" : 0,
      "top" : "s12_unroll_4",
      "type" : "elementwise",
      "name" : "elementwise_1__unroll_4",
      "beta" : 0
    },
    {
      "mode" : 3,
      "weights" : {

      },
      "top" : "update_gate_t_unroll_4",
      "type" : "activation",
      "name" : "activation_1__unroll_4",
      "bottom" : "s12_unroll_4"
    },
    {
      "alpha" : 1,
      "bottom" : "reset_gate_t_unroll_4,s9_unroll_4",
      "operation" : 1,
      "weights" : {

      },
      "fused_relu" : 0,
      "top" : "s14_unroll_4",
      "type" : "elementwise",
      "name" : "elementwise_2__unroll_4",
      "beta" : 0
    },
    {
      "alpha" : 1,
      "bottom" : "s14_unroll_4,s5_unroll_4",
      "operation" : 0,
      "weights" : {

      },
      "fused_relu" : 0,
      "top" : "s15_unroll_4",
      "type" : "elementwise",
      "name" : "elementwise_3__unroll_4",
      "beta" : 0
    },
    {
      "mode" : 1,
      "weights" : {

      },
      "top" : "new_gate_t_unroll_4",
      "type" : "activation",
      "name" : "activation_2__unroll_4",
      "bottom" : "s15_unroll_4"
    },
    {
      "alpha" : 1,
      "bottom" : "update_gate_t_unroll_4,hidden_state_unroll_4",
      "operation" : 1,
      "weights" : {

      },
      "fused_relu" : 0,
      "top" : "s17_unroll_4",
      "type" : "elementwise",
      "name" : "elementwise_4__unroll_4",
      "beta" : 0
    },
    {
      "alpha" : -1,
      "bottom" : "update_gate_t_unroll_4",
      "operation" : 3,
      "weights" : {

      },
      "fused_relu" : 0,
      "top" : "s18_unroll_4",
      "type" : "elementwise",
      "name" : "elementwise_5__unroll_4",
      "beta" : 0
    },
    {
      "alpha" : 1,
      "bottom" : "s18_unroll_4",
      "operation" : 2,
      "weights" : {

      },
      "fused_relu" : 0,
      "top" : "s19_unroll_4",
      "type" : "elementwise",
      "name" : "elementwise_6__unroll_4",
      "beta" : 0
    },
    {
      "alpha" : 1,
      "bottom" : "s19_unroll_4,new_gate_t_unroll_4",
      "operation" : 1,
      "weights" : {

      },
      "fused_relu" : 0,
      "top" : "s20_unroll_4",
      "type" : "elementwise",
      "name" : "elementwise_7__unroll_4",
      "beta" : 0
    },
    {
      "alpha" : 1,
      "bottom" : "s17_unroll_4,s20_unroll_4",
      "operation" : 0,
      "weights" : {

      },
      "fused_relu" : 0,
      "top" : "s21_unroll_4",
      "type" : "elementwise",
      "name" : "elementwise_8__unroll_4",
      "beta" : 0
    },
    {
      "end" : 224,
      "bottom" : "s21_unroll_4",
      "start" : 0,
      "weights" : {

      },
      "axis" : 0,
      "top" : "s22_unroll_4",
      "type" : "slice",
      "name" : "split_2__slice_0__unroll_4"
    },
    {
      "has_prelu" : 0,
      "top" : "coarse_relu_unroll_4",
      "has_biases" : 1,
      "weights" : {

      },
      "nC" : 224,
      "blob_weights" : 19,
      "low_precision_accumulation" : 1,
      "type" : "inner_product",
      "has_relu" : 1,
      "bottom" : "s22_unroll_4",
      "blob_biases" : 17,
      "has_tanh" : 0,
      "share_weights_from_layer_named" : "inner_product_2__unroll_0",
      "name" : "inner_product_2__unroll_4",
      "nB" : 224
    },
    {
      "has_prelu" : 0,
      "top" : "O2_unroll_4",
      "has_biases" : 1,
      "weights" : {

      },
      "nC" : 256,
      "blob_weights" : 23,
      "low_precision_accumulation" : 1,
      "type" : "inner_product",
      "has_relu" : 0,
      "bottom" : "coarse_relu_unroll_4",
      "blob_biases" : 21,
      "has_tanh" : 0,
      "share_weights_from_layer_named" : "inner_product_3__unroll_0",
      "name" : "inner_product_3__unroll_4",
      "nB" : 224
    },
    {
      "alpha" : 1,
      "bottom" : "O2_unroll_4,O2__rand_unroll_4",
      "operation" : 0,
      "weights" : {

      },
      "fused_relu" : 0,
      "top" : "coarse_bit__plus_rand_unroll_4",
      "type" : "elementwise",
      "name" : "softmax_0@gumbel_max__plus_rand__unroll_4",
      "beta" : 0
    },
    {
      "axis_mode" : 1,
      "bottom" : "coarse_bit__plus_rand_unroll_4",
      "weights" : {

      },
      "mode" : 11,
      "use_version" : 1,
      "top" : "coarse_bit_unroll_4",
      "type" : "reduce",
      "name" : "softmax_0@gumbel_max__argmax__unroll_4"
    },
    {
      "alpha" : 0.0078431377187371254,
      "bottom" : "coarse_bit_unroll_4",
      "operation" : 3,
      "weights" : {

      },
      "fused_relu" : 0,
      "top" : "s29_unroll_4",
      "type" : "elementwise",
      "name" : "elementwise_9__unroll_4",
      "beta" : 0
    },
    {
      "alpha" : -1,
      "bottom" : "s29_unroll_4",
      "operation" : 0,
      "weights" : {

      },
      "fused_relu" : 0,
      "top" : "coarse_bit_scaled_unroll_4",
      "type" : "elementwise",
      "name" : "elementwise_10__unroll_4",
      "beta" : 0
    },
    {
      "has_prelu" : 0,
      "top" : "s32_unroll_4",
      "has_biases" : 1,
      "name" : "elementwise_11__unroll_4",
      "nC" : 1344,
      "blob_weights" : 11,
      "type" : "inner_product",
      "has_relu" : 0,
      "bottom" : "coarse_bit_scaled_unroll_4",
      "blob_biases" : 9,
      "has_tanh" : 0,
      "share_weights_from_layer_named" : "inner_product_0__2__unroll_0",
      "weights" : {

      },
      "nB" : 1
    },
    {
      "alpha" : 1,
      "bottom" : "I_unroll_4,s32_unroll_4",
      "operation" : 0,
      "weights" : {

      },
      "fused_relu" : 0,
      "top" : "s33_unroll_4",
      "type" : "elementwise",
      "name" : "elementwise_12__unroll_4",
      "beta" : 0
    },
    {
      "end" : 448,
      "bottom" : "s33_unroll_4",
      "start" : 0,
      "weights" : {

      },
      "axis" : 0,
      "top" : "s34_unroll_4",
      "type" : "slice",
      "name" : "split_3__slice_0__unroll_4"
    },
    {
      "end" : 896,
      "bottom" : "s33_unroll_4",
      "start" : 448,
      "weights" : {

      },
      "axis" : 0,
      "top" : "s35_unroll_4",
      "type" : "slice",
      "name" : "split_3__slice_1__unroll_4"
    },
    {
      "end" : 1344,
      "bottom" : "s33_unroll_4",
      "start" : 896,
      "weights" : {

      },
      "axis" : 0,
      "top" : "s36_unroll_4",
      "type" : "slice",
      "name" : "split_3__slice_2__unroll_4"
    },
    {
      "alpha" : 1,
      "bottom" : "s7_unroll_4,s34_unroll_4",
      "operation" : 0,
      "weights" : {

      },
      "fused_relu" : 0,
      "top" : "s37_unroll_4",
      "type" : "elementwise",
      "name" : "elementwise_13__unroll_4",
      "beta" : 0
    },
    {
      "mode" : 3,
      "weights" : {

      },
      "top" : "reset_gate_t_1_unroll_4",
      "type" : "activation",
      "name" : "activation_4__unroll_4",
      "bottom" : "s37_unroll_4"
    },
    {
      "alpha" : 1,
      "bottom" : "s8_unroll_4,s35_unroll_4",
      "operation" : 0,
      "weights" : {

      },
      "fused_relu" : 0,
      "top" : "s39_unroll_4",
      "type" : "elementwise",
      "name" : "elementwise_14__unroll_4",
      "beta" : 0
    },
    {
      "mode" : 3,
      "weights" : {

      },
      "top" : "update_gate_t_1_unroll_4",
      "type" : "activation",
      "name" : "activation_5__unroll_4",
      "bottom" : "s39_unroll_4"
    },
    {
      "alpha" : 1,
      "bottom" : "reset_gate_t_1_unroll_4,s9_unroll_4",
      "operation" : 1,
      "weights" : {

      },
      "fused_relu" : 0,
      "top" : "s41_unroll_4",
      "type" : "elementwise",
      "name" : "elementwise_15__unroll_4",
      "beta" : 0
    },
    {
      "alpha" : 1,
      "bottom" : "s41_unroll_4,s36_unroll_4",
      "operation" : 0,
      "weights" : {

      },
      "fused_relu" : 0,
      "top" : "s42_unroll_4",
      "type" : "elementwise",
      "name" : "elementwise_16__unroll_4",
      "beta" : 0
    },
    {
      "mode" : 1,
      "weights" : {

      },
      "top" : "new_gate_t_1_unroll_4",
      "type" : "activation",
      "name" : "activation_6__unroll_4",
      "bottom" : "s42_unroll_4"
    },
    {
      "alpha" : 1,
      "bottom" : "update_gate_t_1_unroll_4,hidden_state_unroll_4",
      "operation" : 1,
      "weights" : {

      },
      "fused_relu" : 0,
      "top" : "s44_unroll_4",
      "type" : "elementwise",
      "name" : "elementwise_17__unroll_4",
      "beta" : 0
    },
    {
      "alpha" : -1,
      "bottom" : "update_gate_t_1_unroll_4",
      "operation" : 3,
      "weights" : {

      },
      "fused_relu" : 0,
      "top" : "s45_unroll_4",
      "type" : "elementwise",
      "name" : "elementwise_18__unroll_4",
      "beta" : 0
    },
    {
      "alpha" : 1,
      "bottom" : "s45_unroll_4",
      "operation" : 2,
      "weights" : {

      },
      "fused_relu" : 0,
      "top" : "s46_unroll_4",
      "type" : "elementwise",
      "name" : "elementwise_19__unroll_4",
      "beta" : 0
    },
    {
      "alpha" : 1,
      "bottom" : "s46_unroll_4,new_gate_t_1_unroll_4",
      "operation" : 1,
      "weights" : {

      },
      "fused_relu" : 0,
      "top" : "s47_unroll_4",
      "type" : "elementwise",
      "name" : "elementwise_20__unroll_4",
      "beta" : 0
    },
    {
      "alpha" : 1,
      "bottom" : "s44_unroll_4,s47_unroll_4",
      "operation" : 0,
      "weights" : {

      },
      "fused_relu" : 0,
      "top" : "hidden_state_unroll_5",
      "type" : "elementwise",
      "name" : "elementwise_21__unroll_4",
      "beta" : 0
    },
    {
      "end" : 448,
      "bottom" : "hidden_state_unroll_5",
      "start" : 224,
      "weights" : {

      },
      "axis" : 0,
      "top" : "s50_unroll_4",
      "type" : "slice",
      "name" : "split_4__slice_1__unroll_4"
    },
    {
      "has_prelu" : 0,
      "top" : "fine_relu_unroll_4",
      "has_biases" : 1,
      "weights" : {

      },
      "nC" : 224,
      "blob_weights" : 27,
      "low_precision_accumulation" : 1,
      "type" : "inner_product",
      "has_relu" : 1,
      "bottom" : "s50_unroll_4",
      "blob_biases" : 25,
      "has_tanh" : 0,
      "share_weights_from_layer_named" : "inner_product_4__unroll_0",
      "name" : "inner_product_4__unroll_4",
      "nB" : 224
    },
    {
      "has_prelu" : 0,
      "top" : "O4_unroll_4",
      "has_biases" : 1,
      "weights" : {

      },
      "nC" : 256,
      "blob_weights" : 31,
      "low_precision_accumulation" : 1,
      "type" : "inner_product",
      "has_relu" : 0,
      "bottom" : "fine_relu_unroll_4",
      "blob_biases" : 29,
      "has_tanh" : 0,
      "share_weights_from_layer_named" : "inner_product_5__unroll_0",
      "name" : "inner_product_5__unroll_4",
      "nB" : 224
    },
    {
      "alpha" : 1,
      "bottom" : "O4_unroll_4,O4__rand_unroll_4",
      "operation" : 0,
      "weights" : {

      },
      "fused_relu" : 0,
      "top" : "fine_bit__plus_rand_unroll_4",
      "type" : "elementwise",
      "name" : "softmax_1@gumbel_max__plus_rand__unroll_4",
      "beta" : 0
    },
    {
      "axis_mode" : 1,
      "bottom" : "fine_bit__plus_rand_unroll_4",
      "weights" : {

      },
      "mode" : 11,
      "use_version" : 1,
      "top" : "fine_bit_unroll_4",
      "type" : "reduce",
      "name" : "softmax_1@gumbel_max__argmax__unroll_4"
    },
    {
      "alpha" : 0.0078431377187371254,
      "bottom" : "fine_bit_unroll_4",
      "operation" : 3,
      "weights" : {

      },
      "fused_relu" : 0,
      "top" : "s56_unroll_4",
      "type" : "elementwise",
      "name" : "elementwise_22__unroll_4",
      "beta" : 0
    },
    {
      "alpha" : -1,
      "bottom" : "s56_unroll_4",
      "operation" : 0,
      "weights" : {

      },
      "fused_relu" : 0,
      "top" : "fine_bit_scaled_unroll_5",
      "type" : "elementwise",
      "name" : "elementwise_23__unroll_4",
      "beta" : 0
    },
    {
      "end" : 6,
      "bottom" : "O2__rand_v",
      "start" : 5,
      "weights" : {

      },
      "axis" : 1,
      "top" : "O2__rand_unroll_5",
      "type" : "slice",
      "name" : "O2_rand_sliced__unroll_5"
    },
    {
      "end" : 6,
      "bottom" : "O4__rand_v",
      "start" : 5,
      "weights" : {

      },
      "axis" : 1,
      "top" : "O4__rand_unroll_5",
      "type" : "slice",
      "name" : "O4_rand_sliced__unroll_5"
    },
    {
      "has_prelu" : 0,
      "top" : "I__1_unroll_5",
      "has_biases" : 1,
      "weights" : {

      },
      "nC" : 1344,
      "blob_weights" : 7,
      "low_precision_accumulation" : 1,
      "type" : "inner_product",
      "has_relu" : 0,
      "bottom" : "fine_bit_scaled_unroll_5",
      "blob_biases" : 5,
      "has_tanh" : 0,
      "share_weights_from_layer_named" : "inner_product_0__1__unroll_0",
      "name" : "inner_product_0__1__unroll_5",
      "nB" : 1
    },
    {
      "has_prelu" : 0,
      "top" : "I__2_unroll_5",
      "has_biases" : 1,
      "weights" : {

      },
      "nC" : 1344,
      "blob_weights" : 11,
      "low_precision_accumulation" : 1,
      "type" : "inner_product",
      "has_relu" : 0,
      "bottom" : "in_coarse_bit_scaled",
      "blob_biases" : 9,
      "has_tanh" : 0,
      "share_weights_from_layer_named" : "inner_product_0__2__unroll_0",
      "name" : "inner_product_0__2__unroll_5",
      "nB" : 1
    },
    {
      "alpha" : 1,
      "bottom" : "I__0,I__1_unroll_5",
      "operation" : 0,
      "weights" : {

      },
      "fused_relu" : 0,
      "top" : "I__tmp_1_unroll_5",
      "type" : "elementwise",
      "name" : "inner_product_0__add1__unroll_5",
      "beta" : 0
    },
    {
      "alpha" : 1,
      "bottom" : "I__tmp_1_unroll_5,I__2_unroll_5",
      "operation" : 0,
      "weights" : {

      },
      "fused_relu" : 0,
      "top" : "I_unroll_5",
      "type" : "elementwise",
      "name" : "inner_product_0__add2__unroll_5",
      "beta" : 0
    },
    {
      "end" : 448,
      "bottom" : "I_unroll_5",
      "start" : 0,
      "weights" : {

      },
      "axis" : 0,
      "top" : "s3_unroll_5",
      "type" : "slice",
      "name" : "split_0__slice_0__unroll_5"
    },
    {
      "end" : 896,
      "bottom" : "I_unroll_5",
      "start" : 448,
      "weights" : {

      },
      "axis" : 0,
      "top" : "s4_unroll_5",
      "type" : "slice",
      "name" : "split_0__slice_1__unroll_5"
    },
    {
      "end" : 1344,
      "bottom" : "I_unroll_5",
      "start" : 896,
      "weights" : {

      },
      "axis" : 0,
      "top" : "s5_unroll_5",
      "type" : "slice",
      "name" : "split_0__slice_2__unroll_5"
    },
    {
      "has_prelu" : 0,
      "top" : "R_unroll_5",
      "has_biases" : 1,
      "weights" : {

      },
      "nC" : 1344,
      "blob_weights" : 15,
      "low_precision_accumulation" : 1,
      "type" : "inner_product",
      "has_relu" : 0,
      "bottom" : "hidden_state_unroll_5",
      "blob_biases" : 13,
      "has_tanh" : 0,
      "share_weights_from_layer_named" : "inner_product_1__unroll_0",
      "name" : "inner_product_1__unroll_5",
      "nB" : 448
    },
    {
      "end" : 448,
      "bottom" : "R_unroll_5",
      "start" : 0,
      "weights" : {

      },
      "axis" : 0,
      "top" : "s7_unroll_5",
      "type" : "slice",
      "name" : "split_1__slice_0__unroll_5"
    },
    {
      "end" : 896,
      "bottom" : "R_unroll_5",
      "start" : 448,
      "weights" : {

      },
      "axis" : 0,
      "top" : "s8_unroll_5",
      "type" : "slice",
      "name" : "split_1__slice_1__unroll_5"
    },
    {
      "end" : 1344,
      "bottom" : "R_unroll_5",
      "start" : 896,
      "weights" : {

      },
      "axis" : 0,
      "top" : "s9_unroll_5",
      "type" : "slice",
      "name" : "split_1__slice_2__unroll_5"
    },
    {
      "alpha" : 1,
      "bottom" : "s7_unroll_5,s3_unroll_5",
      "operation" : 0,
      "weights" : {

      },
      "fused_relu" : 0,
      "top" : "s10_unroll_5",
      "type" : "elementwise",
      "name" : "elementwise_0__unroll_5",
      "beta" : 0
    },
    {
      "mode" : 3,
      "weights" : {

      },
      "top" : "reset_gate_t_unroll_5",
      "type" : "activation",
      "name" : "activation_0__unroll_5",
      "bottom" : "s10_unroll_5"
    },
    {
      "alpha" : 1,
      "bottom" : "s8_unroll_5,s4_unroll_5",
      "operation" : 0,
      "weights" : {

      },
      "fused_relu" : 0,
      "top" : "s12_unroll_5",
      "type" : "elementwise",
      "name" : "elementwise_1__unroll_5",
      "beta" : 0
    },
    {
      "mode" : 3,
      "weights" : {

      },
      "top" : "update_gate_t_unroll_5",
      "type" : "activation",
      "name" : "activation_1__unroll_5",
      "bottom" : "s12_unroll_5"
    },
    {
      "alpha" : 1,
      "bottom" : "reset_gate_t_unroll_5,s9_unroll_5",
      "operation" : 1,
      "weights" : {

      },
      "fused_relu" : 0,
      "top" : "s14_unroll_5",
      "type" : "elementwise",
      "name" : "elementwise_2__unroll_5",
      "beta" : 0
    },
    {
      "alpha" : 1,
      "bottom" : "s14_unroll_5,s5_unroll_5",
      "operation" : 0,
      "weights" : {

      },
      "fused_relu" : 0,
      "top" : "s15_unroll_5",
      "type" : "elementwise",
      "name" : "elementwise_3__unroll_5",
      "beta" : 0
    },
    {
      "mode" : 1,
      "weights" : {

      },
      "top" : "new_gate_t_unroll_5",
      "type" : "activation",
      "name" : "activation_2__unroll_5",
      "bottom" : "s15_unroll_5"
    },
    {
      "alpha" : 1,
      "bottom" : "update_gate_t_unroll_5,hidden_state_unroll_5",
      "operation" : 1,
      "weights" : {

      },
      "fused_relu" : 0,
      "top" : "s17_unroll_5",
      "type" : "elementwise",
      "name" : "elementwise_4__unroll_5",
      "beta" : 0
    },
    {
      "alpha" : -1,
      "bottom" : "update_gate_t_unroll_5",
      "operation" : 3,
      "weights" : {

      },
      "fused_relu" : 0,
      "top" : "s18_unroll_5",
      "type" : "elementwise",
      "name" : "elementwise_5__unroll_5",
      "beta" : 0
    },
    {
      "alpha" : 1,
      "bottom" : "s18_unroll_5",
      "operation" : 2,
      "weights" : {

      },
      "fused_relu" : 0,
      "top" : "s19_unroll_5",
      "type" : "elementwise",
      "name" : "elementwise_6__unroll_5",
      "beta" : 0
    },
    {
      "alpha" : 1,
      "bottom" : "s19_unroll_5,new_gate_t_unroll_5",
      "operation" : 1,
      "weights" : {

      },
      "fused_relu" : 0,
      "top" : "s20_unroll_5",
      "type" : "elementwise",
      "name" : "elementwise_7__unroll_5",
      "beta" : 0
    },
    {
      "alpha" : 1,
      "bottom" : "s17_unroll_5,s20_unroll_5",
      "operation" : 0,
      "weights" : {

      },
      "fused_relu" : 0,
      "top" : "s21_unroll_5",
      "type" : "elementwise",
      "name" : "elementwise_8__unroll_5",
      "beta" : 0
    },
    {
      "end" : 224,
      "bottom" : "s21_unroll_5",
      "start" : 0,
      "weights" : {

      },
      "axis" : 0,
      "top" : "s22_unroll_5",
      "type" : "slice",
      "name" : "split_2__slice_0__unroll_5"
    },
    {
      "has_prelu" : 0,
      "top" : "coarse_relu_unroll_5",
      "has_biases" : 1,
      "weights" : {

      },
      "nC" : 224,
      "blob_weights" : 19,
      "low_precision_accumulation" : 1,
      "type" : "inner_product",
      "has_relu" : 1,
      "bottom" : "s22_unroll_5",
      "blob_biases" : 17,
      "has_tanh" : 0,
      "share_weights_from_layer_named" : "inner_product_2__unroll_0",
      "name" : "inner_product_2__unroll_5",
      "nB" : 224
    },
    {
      "has_prelu" : 0,
      "top" : "O2_unroll_5",
      "has_biases" : 1,
      "weights" : {

      },
      "nC" : 256,
      "blob_weights" : 23,
      "low_precision_accumulation" : 1,
      "type" : "inner_product",
      "has_relu" : 0,
      "bottom" : "coarse_relu_unroll_5",
      "blob_biases" : 21,
      "has_tanh" : 0,
      "share_weights_from_layer_named" : "inner_product_3__unroll_0",
      "name" : "inner_product_3__unroll_5",
      "nB" : 224
    },
    {
      "alpha" : 1,
      "bottom" : "O2_unroll_5,O2__rand_unroll_5",
      "operation" : 0,
      "weights" : {

      },
      "fused_relu" : 0,
      "top" : "coarse_bit__plus_rand_unroll_5",
      "type" : "elementwise",
      "name" : "softmax_0@gumbel_max__plus_rand__unroll_5",
      "beta" : 0
    },
    {
      "axis_mode" : 1,
      "bottom" : "coarse_bit__plus_rand_unroll_5",
      "weights" : {

      },
      "mode" : 11,
      "use_version" : 1,
      "top" : "coarse_bit_unroll_5",
      "type" : "reduce",
      "name" : "softmax_0@gumbel_max__argmax__unroll_5"
    },
    {
      "alpha" : 0.0078431377187371254,
      "bottom" : "coarse_bit_unroll_5",
      "operation" : 3,
      "weights" : {

      },
      "fused_relu" : 0,
      "top" : "s29_unroll_5",
      "type" : "elementwise",
      "name" : "elementwise_9__unroll_5",
      "beta" : 0
    },
    {
      "alpha" : -1,
      "bottom" : "s29_unroll_5",
      "operation" : 0,
      "weights" : {

      },
      "fused_relu" : 0,
      "top" : "coarse_bit_scaled_unroll_5",
      "type" : "elementwise",
      "name" : "elementwise_10__unroll_5",
      "beta" : 0
    },
    {
      "has_prelu" : 0,
      "top" : "s32_unroll_5",
      "has_biases" : 1,
      "name" : "elementwise_11__unroll_5",
      "nC" : 1344,
      "blob_weights" : 11,
      "type" : "inner_product",
      "has_relu" : 0,
      "bottom" : "coarse_bit_scaled_unroll_5",
      "blob_biases" : 9,
      "has_tanh" : 0,
      "share_weights_from_layer_named" : "inner_product_0__2__unroll_0",
      "weights" : {

      },
      "nB" : 1
    },
    {
      "alpha" : 1,
      "bottom" : "I_unroll_5,s32_unroll_5",
      "operation" : 0,
      "weights" : {

      },
      "fused_relu" : 0,
      "top" : "s33_unroll_5",
      "type" : "elementwise",
      "name" : "elementwise_12__unroll_5",
      "beta" : 0
    },
    {
      "end" : 448,
      "bottom" : "s33_unroll_5",
      "start" : 0,
      "weights" : {

      },
      "axis" : 0,
      "top" : "s34_unroll_5",
      "type" : "slice",
      "name" : "split_3__slice_0__unroll_5"
    },
    {
      "end" : 896,
      "bottom" : "s33_unroll_5",
      "start" : 448,
      "weights" : {

      },
      "axis" : 0,
      "top" : "s35_unroll_5",
      "type" : "slice",
      "name" : "split_3__slice_1__unroll_5"
    },
    {
      "end" : 1344,
      "bottom" : "s33_unroll_5",
      "start" : 896,
      "weights" : {

      },
      "axis" : 0,
      "top" : "s36_unroll_5",
      "type" : "slice",
      "name" : "split_3__slice_2__unroll_5"
    },
    {
      "alpha" : 1,
      "bottom" : "s7_unroll_5,s34_unroll_5",
      "operation" : 0,
      "weights" : {

      },
      "fused_relu" : 0,
      "top" : "s37_unroll_5",
      "type" : "elementwise",
      "name" : "elementwise_13__unroll_5",
      "beta" : 0
    },
    {
      "mode" : 3,
      "weights" : {

      },
      "top" : "reset_gate_t_1_unroll_5",
      "type" : "activation",
      "name" : "activation_4__unroll_5",
      "bottom" : "s37_unroll_5"
    },
    {
      "alpha" : 1,
      "bottom" : "s8_unroll_5,s35_unroll_5",
      "operation" : 0,
      "weights" : {

      },
      "fused_relu" : 0,
      "top" : "s39_unroll_5",
      "type" : "elementwise",
      "name" : "elementwise_14__unroll_5",
      "beta" : 0
    },
    {
      "mode" : 3,
      "weights" : {

      },
      "top" : "update_gate_t_1_unroll_5",
      "type" : "activation",
      "name" : "activation_5__unroll_5",
      "bottom" : "s39_unroll_5"
    },
    {
      "alpha" : 1,
      "bottom" : "reset_gate_t_1_unroll_5,s9_unroll_5",
      "operation" : 1,
      "weights" : {

      },
      "fused_relu" : 0,
      "top" : "s41_unroll_5",
      "type" : "elementwise",
      "name" : "elementwise_15__unroll_5",
      "beta" : 0
    },
    {
      "alpha" : 1,
      "bottom" : "s41_unroll_5,s36_unroll_5",
      "operation" : 0,
      "weights" : {

      },
      "fused_relu" : 0,
      "top" : "s42_unroll_5",
      "type" : "elementwise",
      "name" : "elementwise_16__unroll_5",
      "beta" : 0
    },
    {
      "mode" : 1,
      "weights" : {

      },
      "top" : "new_gate_t_1_unroll_5",
      "type" : "activation",
      "name" : "activation_6__unroll_5",
      "bottom" : "s42_unroll_5"
    },
    {
      "alpha" : 1,
      "bottom" : "update_gate_t_1_unroll_5,hidden_state_unroll_5",
      "operation" : 1,
      "weights" : {

      },
      "fused_relu" : 0,
      "top" : "s44_unroll_5",
      "type" : "elementwise",
      "name" : "elementwise_17__unroll_5",
      "beta" : 0
    },
    {
      "alpha" : -1,
      "bottom" : "update_gate_t_1_unroll_5",
      "operation" : 3,
      "weights" : {

      },
      "fused_relu" : 0,
      "top" : "s45_unroll_5",
      "type" : "elementwise",
      "name" : "elementwise_18__unroll_5",
      "beta" : 0
    },
    {
      "alpha" : 1,
      "bottom" : "s45_unroll_5",
      "operation" : 2,
      "weights" : {

      },
      "fused_relu" : 0,
      "top" : "s46_unroll_5",
      "type" : "elementwise",
      "name" : "elementwise_19__unroll_5",
      "beta" : 0
    },
    {
      "alpha" : 1,
      "bottom" : "s46_unroll_5,new_gate_t_1_unroll_5",
      "operation" : 1,
      "weights" : {

      },
      "fused_relu" : 0,
      "top" : "s47_unroll_5",
      "type" : "elementwise",
      "name" : "elementwise_20__unroll_5",
      "beta" : 0
    },
    {
      "alpha" : 1,
      "bottom" : "s44_unroll_5,s47_unroll_5",
      "operation" : 0,
      "weights" : {

      },
      "fused_relu" : 0,
      "top" : "hidden_state_unroll_6",
      "type" : "elementwise",
      "name" : "elementwise_21__unroll_5",
      "beta" : 0
    },
    {
      "end" : 448,
      "bottom" : "hidden_state_unroll_6",
      "start" : 224,
      "weights" : {

      },
      "axis" : 0,
      "top" : "s50_unroll_5",
      "type" : "slice",
      "name" : "split_4__slice_1__unroll_5"
    },
    {
      "has_prelu" : 0,
      "top" : "fine_relu_unroll_5",
      "has_biases" : 1,
      "weights" : {

      },
      "nC" : 224,
      "blob_weights" : 27,
      "low_precision_accumulation" : 1,
      "type" : "inner_product",
      "has_relu" : 1,
      "bottom" : "s50_unroll_5",
      "blob_biases" : 25,
      "has_tanh" : 0,
      "share_weights_from_layer_named" : "inner_product_4__unroll_0",
      "name" : "inner_product_4__unroll_5",
      "nB" : 224
    },
    {
      "has_prelu" : 0,
      "top" : "O4_unroll_5",
      "has_biases" : 1,
      "weights" : {

      },
      "nC" : 256,
      "blob_weights" : 31,
      "low_precision_accumulation" : 1,
      "type" : "inner_product",
      "has_relu" : 0,
      "bottom" : "fine_relu_unroll_5",
      "blob_biases" : 29,
      "has_tanh" : 0,
      "share_weights_from_layer_named" : "inner_product_5__unroll_0",
      "name" : "inner_product_5__unroll_5",
      "nB" : 224
    },
    {
      "alpha" : 1,
      "bottom" : "O4_unroll_5,O4__rand_unroll_5",
      "operation" : 0,
      "weights" : {

      },
      "fused_relu" : 0,
      "top" : "fine_bit__plus_rand_unroll_5",
      "type" : "elementwise",
      "name" : "softmax_1@gumbel_max__plus_rand__unroll_5",
      "beta" : 0
    },
    {
      "axis_mode" : 1,
      "bottom" : "fine_bit__plus_rand_unroll_5",
      "weights" : {

      },
      "mode" : 11,
      "use_version" : 1,
      "top" : "fine_bit_unroll_5",
      "type" : "reduce",
      "name" : "softmax_1@gumbel_max__argmax__unroll_5"
    },
    {
      "alpha" : 0.0078431377187371254,
      "bottom" : "fine_bit_unroll_5",
      "operation" : 3,
      "weights" : {

      },
      "fused_relu" : 0,
      "top" : "s56_unroll_5",
      "type" : "elementwise",
      "name" : "elementwise_22__unroll_5",
      "beta" : 0
    },
    {
      "alpha" : -1,
      "bottom" : "s56_unroll_5",
      "operation" : 0,
      "weights" : {

      },
      "fused_relu" : 0,
      "top" : "fine_bit_scaled_unroll_6",
      "type" : "elementwise",
      "name" : "elementwise_23__unroll_5",
      "beta" : 0
    },
    {
      "end" : 7,
      "bottom" : "O2__rand_v",
      "start" : 6,
      "weights" : {

      },
      "axis" : 1,
      "top" : "O2__rand_unroll_6",
      "type" : "slice",
      "name" : "O2_rand_sliced__unroll_6"
    },
    {
      "end" : 7,
      "bottom" : "O4__rand_v",
      "start" : 6,
      "weights" : {

      },
      "axis" : 1,
      "top" : "O4__rand_unroll_6",
      "type" : "slice",
      "name" : "O4_rand_sliced__unroll_6"
    },
    {
      "has_prelu" : 0,
      "top" : "I__1_unroll_6",
      "has_biases" : 1,
      "weights" : {

      },
      "nC" : 1344,
      "blob_weights" : 7,
      "low_precision_accumulation" : 1,
      "type" : "inner_product",
      "has_relu" : 0,
      "bottom" : "fine_bit_scaled_unroll_6",
      "blob_biases" : 5,
      "has_tanh" : 0,
      "share_weights_from_layer_named" : "inner_product_0__1__unroll_0",
      "name" : "inner_product_0__1__unroll_6",
      "nB" : 1
    },
    {
      "has_prelu" : 0,
      "top" : "I__2_unroll_6",
      "has_biases" : 1,
      "weights" : {

      },
      "nC" : 1344,
      "blob_weights" : 11,
      "low_precision_accumulation" : 1,
      "type" : "inner_product",
      "has_relu" : 0,
      "bottom" : "in_coarse_bit_scaled",
      "blob_biases" : 9,
      "has_tanh" : 0,
      "share_weights_from_layer_named" : "inner_product_0__2__unroll_0",
      "name" : "inner_product_0__2__unroll_6",
      "nB" : 1
    },
    {
      "alpha" : 1,
      "bottom" : "I__0,I__1_unroll_6",
      "operation" : 0,
      "weights" : {

      },
      "fused_relu" : 0,
      "top" : "I__tmp_1_unroll_6",
      "type" : "elementwise",
      "name" : "inner_product_0__add1__unroll_6",
      "beta" : 0
    },
    {
      "alpha" : 1,
      "bottom" : "I__tmp_1_unroll_6,I__2_unroll_6",
      "operation" : 0,
      "weights" : {

      },
      "fused_relu" : 0,
      "top" : "I_unroll_6",
      "type" : "elementwise",
      "name" : "inner_product_0__add2__unroll_6",
      "beta" : 0
    },
    {
      "end" : 448,
      "bottom" : "I_unroll_6",
      "start" : 0,
      "weights" : {

      },
      "axis" : 0,
      "top" : "s3_unroll_6",
      "type" : "slice",
      "name" : "split_0__slice_0__unroll_6"
    },
    {
      "end" : 896,
      "bottom" : "I_unroll_6",
      "start" : 448,
      "weights" : {

      },
      "axis" : 0,
      "top" : "s4_unroll_6",
      "type" : "slice",
      "name" : "split_0__slice_1__unroll_6"
    },
    {
      "end" : 1344,
      "bottom" : "I_unroll_6",
      "start" : 896,
      "weights" : {

      },
      "axis" : 0,
      "top" : "s5_unroll_6",
      "type" : "slice",
      "name" : "split_0__slice_2__unroll_6"
    },
    {
      "has_prelu" : 0,
      "top" : "R_unroll_6",
      "has_biases" : 1,
      "weights" : {

      },
      "nC" : 1344,
      "blob_weights" : 15,
      "low_precision_accumulation" : 1,
      "type" : "inner_product",
      "has_relu" : 0,
      "bottom" : "hidden_state_unroll_6",
      "blob_biases" : 13,
      "has_tanh" : 0,
      "share_weights_from_layer_named" : "inner_product_1__unroll_0",
      "name" : "inner_product_1__unroll_6",
      "nB" : 448
    },
    {
      "end" : 448,
      "bottom" : "R_unroll_6",
      "start" : 0,
      "weights" : {

      },
      "axis" : 0,
      "top" : "s7_unroll_6",
      "type" : "slice",
      "name" : "split_1__slice_0__unroll_6"
    },
    {
      "end" : 896,
      "bottom" : "R_unroll_6",
      "start" : 448,
      "weights" : {

      },
      "axis" : 0,
      "top" : "s8_unroll_6",
      "type" : "slice",
      "name" : "split_1__slice_1__unroll_6"
    },
    {
      "end" : 1344,
      "bottom" : "R_unroll_6",
      "start" : 896,
      "weights" : {

      },
      "axis" : 0,
      "top" : "s9_unroll_6",
      "type" : "slice",
      "name" : "split_1__slice_2__unroll_6"
    },
    {
      "alpha" : 1,
      "bottom" : "s7_unroll_6,s3_unroll_6",
      "operation" : 0,
      "weights" : {

      },
      "fused_relu" : 0,
      "top" : "s10_unroll_6",
      "type" : "elementwise",
      "name" : "elementwise_0__unroll_6",
      "beta" : 0
    },
    {
      "mode" : 3,
      "weights" : {

      },
      "top" : "reset_gate_t_unroll_6",
      "type" : "activation",
      "name" : "activation_0__unroll_6",
      "bottom" : "s10_unroll_6"
    },
    {
      "alpha" : 1,
      "bottom" : "s8_unroll_6,s4_unroll_6",
      "operation" : 0,
      "weights" : {

      },
      "fused_relu" : 0,
      "top" : "s12_unroll_6",
      "type" : "elementwise",
      "name" : "elementwise_1__unroll_6",
      "beta" : 0
    },
    {
      "mode" : 3,
      "weights" : {

      },
      "top" : "update_gate_t_unroll_6",
      "type" : "activation",
      "name" : "activation_1__unroll_6",
      "bottom" : "s12_unroll_6"
    },
    {
      "alpha" : 1,
      "bottom" : "reset_gate_t_unroll_6,s9_unroll_6",
      "operation" : 1,
      "weights" : {

      },
      "fused_relu" : 0,
      "top" : "s14_unroll_6",
      "type" : "elementwise",
      "name" : "elementwise_2__unroll_6",
      "beta" : 0
    },
    {
      "alpha" : 1,
      "bottom" : "s14_unroll_6,s5_unroll_6",
      "operation" : 0,
      "weights" : {

      },
      "fused_relu" : 0,
      "top" : "s15_unroll_6",
      "type" : "elementwise",
      "name" : "elementwise_3__unroll_6",
      "beta" : 0
    },
    {
      "mode" : 1,
      "weights" : {

      },
      "top" : "new_gate_t_unroll_6",
      "type" : "activation",
      "name" : "activation_2__unroll_6",
      "bottom" : "s15_unroll_6"
    },
    {
      "alpha" : 1,
      "bottom" : "update_gate_t_unroll_6,hidden_state_unroll_6",
      "operation" : 1,
      "weights" : {

      },
      "fused_relu" : 0,
      "top" : "s17_unroll_6",
      "type" : "elementwise",
      "name" : "elementwise_4__unroll_6",
      "beta" : 0
    },
    {
      "alpha" : -1,
      "bottom" : "update_gate_t_unroll_6",
      "operation" : 3,
      "weights" : {

      },
      "fused_relu" : 0,
      "top" : "s18_unroll_6",
      "type" : "elementwise",
      "name" : "elementwise_5__unroll_6",
      "beta" : 0
    },
    {
      "alpha" : 1,
      "bottom" : "s18_unroll_6",
      "operation" : 2,
      "weights" : {

      },
      "fused_relu" : 0,
      "top" : "s19_unroll_6",
      "type" : "elementwise",
      "name" : "elementwise_6__unroll_6",
      "beta" : 0
    },
    {
      "alpha" : 1,
      "bottom" : "s19_unroll_6,new_gate_t_unroll_6",
      "operation" : 1,
      "weights" : {

      },
      "fused_relu" : 0,
      "top" : "s20_unroll_6",
      "type" : "elementwise",
      "name" : "elementwise_7__unroll_6",
      "beta" : 0
    },
    {
      "alpha" : 1,
      "bottom" : "s17_unroll_6,s20_unroll_6",
      "operation" : 0,
      "weights" : {

      },
      "fused_relu" : 0,
      "top" : "s21_unroll_6",
      "type" : "elementwise",
      "name" : "elementwise_8__unroll_6",
      "beta" : 0
    },
    {
      "end" : 224,
      "bottom" : "s21_unroll_6",
      "start" : 0,
      "weights" : {

      },
      "axis" : 0,
      "top" : "s22_unroll_6",
      "type" : "slice",
      "name" : "split_2__slice_0__unroll_6"
    },
    {
      "has_prelu" : 0,
      "top" : "coarse_relu_unroll_6",
      "has_biases" : 1,
      "weights" : {

      },
      "nC" : 224,
      "blob_weights" : 19,
      "low_precision_accumulation" : 1,
      "type" : "inner_product",
      "has_relu" : 1,
      "bottom" : "s22_unroll_6",
      "blob_biases" : 17,
      "has_tanh" : 0,
      "share_weights_from_layer_named" : "inner_product_2__unroll_0",
      "name" : "inner_product_2__unroll_6",
      "nB" : 224
    },
    {
      "has_prelu" : 0,
      "top" : "O2_unroll_6",
      "has_biases" : 1,
      "weights" : {

      },
      "nC" : 256,
      "blob_weights" : 23,
      "low_precision_accumulation" : 1,
      "type" : "inner_product",
      "has_relu" : 0,
      "bottom" : "coarse_relu_unroll_6",
      "blob_biases" : 21,
      "has_tanh" : 0,
      "share_weights_from_layer_named" : "inner_product_3__unroll_0",
      "name" : "inner_product_3__unroll_6",
      "nB" : 224
    },
    {
      "alpha" : 1,
      "bottom" : "O2_unroll_6,O2__rand_unroll_6",
      "operation" : 0,
      "weights" : {

      },
      "fused_relu" : 0,
      "top" : "coarse_bit__plus_rand_unroll_6",
      "type" : "elementwise",
      "name" : "softmax_0@gumbel_max__plus_rand__unroll_6",
      "beta" : 0
    },
    {
      "axis_mode" : 1,
      "bottom" : "coarse_bit__plus_rand_unroll_6",
      "weights" : {

      },
      "mode" : 11,
      "use_version" : 1,
      "top" : "coarse_bit_unroll_6",
      "type" : "reduce",
      "name" : "softmax_0@gumbel_max__argmax__unroll_6"
    },
    {
      "alpha" : 0.0078431377187371254,
      "bottom" : "coarse_bit_unroll_6",
      "operation" : 3,
      "weights" : {

      },
      "fused_relu" : 0,
      "top" : "s29_unroll_6",
      "type" : "elementwise",
      "name" : "elementwise_9__unroll_6",
      "beta" : 0
    },
    {
      "alpha" : -1,
      "bottom" : "s29_unroll_6",
      "operation" : 0,
      "weights" : {

      },
      "fused_relu" : 0,
      "top" : "coarse_bit_scaled_unroll_6",
      "type" : "elementwise",
      "name" : "elementwise_10__unroll_6",
      "beta" : 0
    },
    {
      "has_prelu" : 0,
      "top" : "s32_unroll_6",
      "has_biases" : 1,
      "name" : "elementwise_11__unroll_6",
      "nC" : 1344,
      "blob_weights" : 11,
      "type" : "inner_product",
      "has_relu" : 0,
      "bottom" : "coarse_bit_scaled_unroll_6",
      "blob_biases" : 9,
      "has_tanh" : 0,
      "share_weights_from_layer_named" : "inner_product_0__2__unroll_0",
      "weights" : {

      },
      "nB" : 1
    },
    {
      "alpha" : 1,
      "bottom" : "I_unroll_6,s32_unroll_6",
      "operation" : 0,
      "weights" : {

      },
      "fused_relu" : 0,
      "top" : "s33_unroll_6",
      "type" : "elementwise",
      "name" : "elementwise_12__unroll_6",
      "beta" : 0
    },
    {
      "end" : 448,
      "bottom" : "s33_unroll_6",
      "start" : 0,
      "weights" : {

      },
      "axis" : 0,
      "top" : "s34_unroll_6",
      "type" : "slice",
      "name" : "split_3__slice_0__unroll_6"
    },
    {
      "end" : 896,
      "bottom" : "s33_unroll_6",
      "start" : 448,
      "weights" : {

      },
      "axis" : 0,
      "top" : "s35_unroll_6",
      "type" : "slice",
      "name" : "split_3__slice_1__unroll_6"
    },
    {
      "end" : 1344,
      "bottom" : "s33_unroll_6",
      "start" : 896,
      "weights" : {

      },
      "axis" : 0,
      "top" : "s36_unroll_6",
      "type" : "slice",
      "name" : "split_3__slice_2__unroll_6"
    },
    {
      "alpha" : 1,
      "bottom" : "s7_unroll_6,s34_unroll_6",
      "operation" : 0,
      "weights" : {

      },
      "fused_relu" : 0,
      "top" : "s37_unroll_6",
      "type" : "elementwise",
      "name" : "elementwise_13__unroll_6",
      "beta" : 0
    },
    {
      "mode" : 3,
      "weights" : {

      },
      "top" : "reset_gate_t_1_unroll_6",
      "type" : "activation",
      "name" : "activation_4__unroll_6",
      "bottom" : "s37_unroll_6"
    },
    {
      "alpha" : 1,
      "bottom" : "s8_unroll_6,s35_unroll_6",
      "operation" : 0,
      "weights" : {

      },
      "fused_relu" : 0,
      "top" : "s39_unroll_6",
      "type" : "elementwise",
      "name" : "elementwise_14__unroll_6",
      "beta" : 0
    },
    {
      "mode" : 3,
      "weights" : {

      },
      "top" : "update_gate_t_1_unroll_6",
      "type" : "activation",
      "name" : "activation_5__unroll_6",
      "bottom" : "s39_unroll_6"
    },
    {
      "alpha" : 1,
      "bottom" : "reset_gate_t_1_unroll_6,s9_unroll_6",
      "operation" : 1,
      "weights" : {

      },
      "fused_relu" : 0,
      "top" : "s41_unroll_6",
      "type" : "elementwise",
      "name" : "elementwise_15__unroll_6",
      "beta" : 0
    },
    {
      "alpha" : 1,
      "bottom" : "s41_unroll_6,s36_unroll_6",
      "operation" : 0,
      "weights" : {

      },
      "fused_relu" : 0,
      "top" : "s42_unroll_6",
      "type" : "elementwise",
      "name" : "elementwise_16__unroll_6",
      "beta" : 0
    },
    {
      "mode" : 1,
      "weights" : {

      },
      "top" : "new_gate_t_1_unroll_6",
      "type" : "activation",
      "name" : "activation_6__unroll_6",
      "bottom" : "s42_unroll_6"
    },
    {
      "alpha" : 1,
      "bottom" : "update_gate_t_1_unroll_6,hidden_state_unroll_6",
      "operation" : 1,
      "weights" : {

      },
      "fused_relu" : 0,
      "top" : "s44_unroll_6",
      "type" : "elementwise",
      "name" : "elementwise_17__unroll_6",
      "beta" : 0
    },
    {
      "alpha" : -1,
      "bottom" : "update_gate_t_1_unroll_6",
      "operation" : 3,
      "weights" : {

      },
      "fused_relu" : 0,
      "top" : "s45_unroll_6",
      "type" : "elementwise",
      "name" : "elementwise_18__unroll_6",
      "beta" : 0
    },
    {
      "alpha" : 1,
      "bottom" : "s45_unroll_6",
      "operation" : 2,
      "weights" : {

      },
      "fused_relu" : 0,
      "top" : "s46_unroll_6",
      "type" : "elementwise",
      "name" : "elementwise_19__unroll_6",
      "beta" : 0
    },
    {
      "alpha" : 1,
      "bottom" : "s46_unroll_6,new_gate_t_1_unroll_6",
      "operation" : 1,
      "weights" : {

      },
      "fused_relu" : 0,
      "top" : "s47_unroll_6",
      "type" : "elementwise",
      "name" : "elementwise_20__unroll_6",
      "beta" : 0
    },
    {
      "alpha" : 1,
      "bottom" : "s44_unroll_6,s47_unroll_6",
      "operation" : 0,
      "weights" : {

      },
      "fused_relu" : 0,
      "top" : "hidden_state_unroll_7",
      "type" : "elementwise",
      "name" : "elementwise_21__unroll_6",
      "beta" : 0
    },
    {
      "end" : 448,
      "bottom" : "hidden_state_unroll_7",
      "start" : 224,
      "weights" : {

      },
      "axis" : 0,
      "top" : "s50_unroll_6",
      "type" : "slice",
      "name" : "split_4__slice_1__unroll_6"
    },
    {
      "has_prelu" : 0,
      "top" : "fine_relu_unroll_6",
      "has_biases" : 1,
      "weights" : {

      },
      "nC" : 224,
      "blob_weights" : 27,
      "low_precision_accumulation" : 1,
      "type" : "inner_product",
      "has_relu" : 1,
      "bottom" : "s50_unroll_6",
      "blob_biases" : 25,
      "has_tanh" : 0,
      "share_weights_from_layer_named" : "inner_product_4__unroll_0",
      "name" : "inner_product_4__unroll_6",
      "nB" : 224
    },
    {
      "has_prelu" : 0,
      "top" : "O4_unroll_6",
      "has_biases" : 1,
      "weights" : {

      },
      "nC" : 256,
      "blob_weights" : 31,
      "low_precision_accumulation" : 1,
      "type" : "inner_product",
      "has_relu" : 0,
      "bottom" : "fine_relu_unroll_6",
      "blob_biases" : 29,
      "has_tanh" : 0,
      "share_weights_from_layer_named" : "inner_product_5__unroll_0",
      "name" : "inner_product_5__unroll_6",
      "nB" : 224
    },
    {
      "alpha" : 1,
      "bottom" : "O4_unroll_6,O4__rand_unroll_6",
      "operation" : 0,
      "weights" : {

      },
      "fused_relu" : 0,
      "top" : "fine_bit__plus_rand_unroll_6",
      "type" : "elementwise",
      "name" : "softmax_1@gumbel_max__plus_rand__unroll_6",
      "beta" : 0
    },
    {
      "axis_mode" : 1,
      "bottom" : "fine_bit__plus_rand_unroll_6",
      "weights" : {

      },
      "mode" : 11,
      "use_version" : 1,
      "top" : "fine_bit_unroll_6",
      "type" : "reduce",
      "name" : "softmax_1@gumbel_max__argmax__unroll_6"
    },
    {
      "alpha" : 0.0078431377187371254,
      "bottom" : "fine_bit_unroll_6",
      "operation" : 3,
      "weights" : {

      },
      "fused_relu" : 0,
      "top" : "s56_unroll_6",
      "type" : "elementwise",
      "name" : "elementwise_22__unroll_6",
      "beta" : 0
    },
    {
      "alpha" : -1,
      "bottom" : "s56_unroll_6",
      "operation" : 0,
      "weights" : {

      },
      "fused_relu" : 0,
      "top" : "fine_bit_scaled_unroll_7",
      "type" : "elementwise",
      "name" : "elementwise_23__unroll_6",
      "beta" : 0
    },
    {
      "end" : 8,
      "bottom" : "O2__rand_v",
      "start" : 7,
      "weights" : {

      },
      "axis" : 1,
      "top" : "O2__rand_unroll_7",
      "type" : "slice",
      "name" : "O2_rand_sliced__unroll_7"
    },
    {
      "end" : 8,
      "bottom" : "O4__rand_v",
      "start" : 7,
      "weights" : {

      },
      "axis" : 1,
      "top" : "O4__rand_unroll_7",
      "type" : "slice",
      "name" : "O4_rand_sliced__unroll_7"
    },
    {
      "has_prelu" : 0,
      "top" : "I__1_unroll_7",
      "has_biases" : 1,
      "weights" : {

      },
      "nC" : 1344,
      "blob_weights" : 7,
      "low_precision_accumulation" : 1,
      "type" : "inner_product",
      "has_relu" : 0,
      "bottom" : "fine_bit_scaled_unroll_7",
      "blob_biases" : 5,
      "has_tanh" : 0,
      "share_weights_from_layer_named" : "inner_product_0__1__unroll_0",
      "name" : "inner_product_0__1__unroll_7",
      "nB" : 1
    },
    {
      "has_prelu" : 0,
      "top" : "I__2_unroll_7",
      "has_biases" : 1,
      "weights" : {

      },
      "nC" : 1344,
      "blob_weights" : 11,
      "low_precision_accumulation" : 1,
      "type" : "inner_product",
      "has_relu" : 0,
      "bottom" : "in_coarse_bit_scaled",
      "blob_biases" : 9,
      "has_tanh" : 0,
      "share_weights_from_layer_named" : "inner_product_0__2__unroll_0",
      "name" : "inner_product_0__2__unroll_7",
      "nB" : 1
    },
    {
      "alpha" : 1,
      "bottom" : "I__0,I__1_unroll_7",
      "operation" : 0,
      "weights" : {

      },
      "fused_relu" : 0,
      "top" : "I__tmp_1_unroll_7",
      "type" : "elementwise",
      "name" : "inner_product_0__add1__unroll_7",
      "beta" : 0
    },
    {
      "alpha" : 1,
      "bottom" : "I__tmp_1_unroll_7,I__2_unroll_7",
      "operation" : 0,
      "weights" : {

      },
      "fused_relu" : 0,
      "top" : "I_unroll_7",
      "type" : "elementwise",
      "name" : "inner_product_0__add2__unroll_7",
      "beta" : 0
    },
    {
      "end" : 448,
      "bottom" : "I_unroll_7",
      "start" : 0,
      "weights" : {

      },
      "axis" : 0,
      "top" : "s3_unroll_7",
      "type" : "slice",
      "name" : "split_0__slice_0__unroll_7"
    },
    {
      "end" : 896,
      "bottom" : "I_unroll_7",
      "start" : 448,
      "weights" : {

      },
      "axis" : 0,
      "top" : "s4_unroll_7",
      "type" : "slice",
      "name" : "split_0__slice_1__unroll_7"
    },
    {
      "end" : 1344,
      "bottom" : "I_unroll_7",
      "start" : 896,
      "weights" : {

      },
      "axis" : 0,
      "top" : "s5_unroll_7",
      "type" : "slice",
      "name" : "split_0__slice_2__unroll_7"
    },
    {
      "has_prelu" : 0,
      "top" : "R_unroll_7",
      "has_biases" : 1,
      "weights" : {

      },
      "nC" : 1344,
      "blob_weights" : 15,
      "low_precision_accumulation" : 1,
      "type" : "inner_product",
      "has_relu" : 0,
      "bottom" : "hidden_state_unroll_7",
      "blob_biases" : 13,
      "has_tanh" : 0,
      "share_weights_from_layer_named" : "inner_product_1__unroll_0",
      "name" : "inner_product_1__unroll_7",
      "nB" : 448
    },
    {
      "end" : 448,
      "bottom" : "R_unroll_7",
      "start" : 0,
      "weights" : {

      },
      "axis" : 0,
      "top" : "s7_unroll_7",
      "type" : "slice",
      "name" : "split_1__slice_0__unroll_7"
    },
    {
      "end" : 896,
      "bottom" : "R_unroll_7",
      "start" : 448,
      "weights" : {

      },
      "axis" : 0,
      "top" : "s8_unroll_7",
      "type" : "slice",
      "name" : "split_1__slice_1__unroll_7"
    },
    {
      "end" : 1344,
      "bottom" : "R_unroll_7",
      "start" : 896,
      "weights" : {

      },
      "axis" : 0,
      "top" : "s9_unroll_7",
      "type" : "slice",
      "name" : "split_1__slice_2__unroll_7"
    },
    {
      "alpha" : 1,
      "bottom" : "s7_unroll_7,s3_unroll_7",
      "operation" : 0,
      "weights" : {

      },
      "fused_relu" : 0,
      "top" : "s10_unroll_7",
      "type" : "elementwise",
      "name" : "elementwise_0__unroll_7",
      "beta" : 0
    },
    {
      "mode" : 3,
      "weights" : {

      },
      "top" : "reset_gate_t_unroll_7",
      "type" : "activation",
      "name" : "activation_0__unroll_7",
      "bottom" : "s10_unroll_7"
    },
    {
      "alpha" : 1,
      "bottom" : "s8_unroll_7,s4_unroll_7",
      "operation" : 0,
      "weights" : {

      },
      "fused_relu" : 0,
      "top" : "s12_unroll_7",
      "type" : "elementwise",
      "name" : "elementwise_1__unroll_7",
      "beta" : 0
    },
    {
      "mode" : 3,
      "weights" : {

      },
      "top" : "update_gate_t_unroll_7",
      "type" : "activation",
      "name" : "activation_1__unroll_7",
      "bottom" : "s12_unroll_7"
    },
    {
      "alpha" : 1,
      "bottom" : "reset_gate_t_unroll_7,s9_unroll_7",
      "operation" : 1,
      "weights" : {

      },
      "fused_relu" : 0,
      "top" : "s14_unroll_7",
      "type" : "elementwise",
      "name" : "elementwise_2__unroll_7",
      "beta" : 0
    },
    {
      "alpha" : 1,
      "bottom" : "s14_unroll_7,s5_unroll_7",
      "operation" : 0,
      "weights" : {

      },
      "fused_relu" : 0,
      "top" : "s15_unroll_7",
      "type" : "elementwise",
      "name" : "elementwise_3__unroll_7",
      "beta" : 0
    },
    {
      "mode" : 1,
      "weights" : {

      },
      "top" : "new_gate_t_unroll_7",
      "type" : "activation",
      "name" : "activation_2__unroll_7",
      "bottom" : "s15_unroll_7"
    },
    {
      "alpha" : 1,
      "bottom" : "update_gate_t_unroll_7,hidden_state_unroll_7",
      "operation" : 1,
      "weights" : {

      },
      "fused_relu" : 0,
      "top" : "s17_unroll_7",
      "type" : "elementwise",
      "name" : "elementwise_4__unroll_7",
      "beta" : 0
    },
    {
      "alpha" : -1,
      "bottom" : "update_gate_t_unroll_7",
      "operation" : 3,
      "weights" : {

      },
      "fused_relu" : 0,
      "top" : "s18_unroll_7",
      "type" : "elementwise",
      "name" : "elementwise_5__unroll_7",
      "beta" : 0
    },
    {
      "alpha" : 1,
      "bottom" : "s18_unroll_7",
      "operation" : 2,
      "weights" : {

      },
      "fused_relu" : 0,
      "top" : "s19_unroll_7",
      "type" : "elementwise",
      "name" : "elementwise_6__unroll_7",
      "beta" : 0
    },
    {
      "alpha" : 1,
      "bottom" : "s19_unroll_7,new_gate_t_unroll_7",
      "operation" : 1,
      "weights" : {

      },
      "fused_relu" : 0,
      "top" : "s20_unroll_7",
      "type" : "elementwise",
      "name" : "elementwise_7__unroll_7",
      "beta" : 0
    },
    {
      "alpha" : 1,
      "bottom" : "s17_unroll_7,s20_unroll_7",
      "operation" : 0,
      "weights" : {

      },
      "fused_relu" : 0,
      "top" : "s21_unroll_7",
      "type" : "elementwise",
      "name" : "elementwise_8__unroll_7",
      "beta" : 0
    },
    {
      "end" : 224,
      "bottom" : "s21_unroll_7",
      "start" : 0,
      "weights" : {

      },
      "axis" : 0,
      "top" : "s22_unroll_7",
      "type" : "slice",
      "name" : "split_2__slice_0__unroll_7"
    },
    {
      "has_prelu" : 0,
      "top" : "coarse_relu_unroll_7",
      "has_biases" : 1,
      "weights" : {

      },
      "nC" : 224,
      "blob_weights" : 19,
      "low_precision_accumulation" : 1,
      "type" : "inner_product",
      "has_relu" : 1,
      "bottom" : "s22_unroll_7",
      "blob_biases" : 17,
      "has_tanh" : 0,
      "share_weights_from_layer_named" : "inner_product_2__unroll_0",
      "name" : "inner_product_2__unroll_7",
      "nB" : 224
    },
    {
      "has_prelu" : 0,
      "top" : "O2_unroll_7",
      "has_biases" : 1,
      "weights" : {

      },
      "nC" : 256,
      "blob_weights" : 23,
      "low_precision_accumulation" : 1,
      "type" : "inner_product",
      "has_relu" : 0,
      "bottom" : "coarse_relu_unroll_7",
      "blob_biases" : 21,
      "has_tanh" : 0,
      "share_weights_from_layer_named" : "inner_product_3__unroll_0",
      "name" : "inner_product_3__unroll_7",
      "nB" : 224
    },
    {
      "alpha" : 1,
      "bottom" : "O2_unroll_7,O2__rand_unroll_7",
      "operation" : 0,
      "weights" : {

      },
      "fused_relu" : 0,
      "top" : "coarse_bit__plus_rand_unroll_7",
      "type" : "elementwise",
      "name" : "softmax_0@gumbel_max__plus_rand__unroll_7",
      "beta" : 0
    },
    {
      "axis_mode" : 1,
      "bottom" : "coarse_bit__plus_rand_unroll_7",
      "weights" : {

      },
      "mode" : 11,
      "use_version" : 1,
      "top" : "coarse_bit_unroll_7",
      "type" : "reduce",
      "name" : "softmax_0@gumbel_max__argmax__unroll_7"
    },
    {
      "alpha" : 0.0078431377187371254,
      "bottom" : "coarse_bit_unroll_7",
      "operation" : 3,
      "weights" : {

      },
      "fused_relu" : 0,
      "top" : "s29_unroll_7",
      "type" : "elementwise",
      "name" : "elementwise_9__unroll_7",
      "beta" : 0
    },
    {
      "alpha" : -1,
      "bottom" : "s29_unroll_7",
      "operation" : 0,
      "weights" : {

      },
      "fused_relu" : 0,
      "top" : "coarse_bit_scaled_unroll_7",
      "type" : "elementwise",
      "name" : "elementwise_10__unroll_7",
      "beta" : 0
    },
    {
      "has_prelu" : 0,
      "top" : "s32_unroll_7",
      "has_biases" : 1,
      "name" : "elementwise_11__unroll_7",
      "nC" : 1344,
      "blob_weights" : 11,
      "type" : "inner_product",
      "has_relu" : 0,
      "bottom" : "coarse_bit_scaled_unroll_7",
      "blob_biases" : 9,
      "has_tanh" : 0,
      "share_weights_from_layer_named" : "inner_product_0__2__unroll_0",
      "weights" : {

      },
      "nB" : 1
    },
    {
      "alpha" : 1,
      "bottom" : "I_unroll_7,s32_unroll_7",
      "operation" : 0,
      "weights" : {

      },
      "fused_relu" : 0,
      "top" : "s33_unroll_7",
      "type" : "elementwise",
      "name" : "elementwise_12__unroll_7",
      "beta" : 0
    },
    {
      "end" : 448,
      "bottom" : "s33_unroll_7",
      "start" : 0,
      "weights" : {

      },
      "axis" : 0,
      "top" : "s34_unroll_7",
      "type" : "slice",
      "name" : "split_3__slice_0__unroll_7"
    },
    {
      "end" : 896,
      "bottom" : "s33_unroll_7",
      "start" : 448,
      "weights" : {

      },
      "axis" : 0,
      "top" : "s35_unroll_7",
      "type" : "slice",
      "name" : "split_3__slice_1__unroll_7"
    },
    {
      "end" : 1344,
      "bottom" : "s33_unroll_7",
      "start" : 896,
      "weights" : {

      },
      "axis" : 0,
      "top" : "s36_unroll_7",
      "type" : "slice",
      "name" : "split_3__slice_2__unroll_7"
    },
    {
      "alpha" : 1,
      "bottom" : "s7_unroll_7,s34_unroll_7",
      "operation" : 0,
      "weights" : {

      },
      "fused_relu" : 0,
      "top" : "s37_unroll_7",
      "type" : "elementwise",
      "name" : "elementwise_13__unroll_7",
      "beta" : 0
    },
    {
      "mode" : 3,
      "weights" : {

      },
      "top" : "reset_gate_t_1_unroll_7",
      "type" : "activation",
      "name" : "activation_4__unroll_7",
      "bottom" : "s37_unroll_7"
    },
    {
      "alpha" : 1,
      "bottom" : "s8_unroll_7,s35_unroll_7",
      "operation" : 0,
      "weights" : {

      },
      "fused_relu" : 0,
      "top" : "s39_unroll_7",
      "type" : "elementwise",
      "name" : "elementwise_14__unroll_7",
      "beta" : 0
    },
    {
      "mode" : 3,
      "weights" : {

      },
      "top" : "update_gate_t_1_unroll_7",
      "type" : "activation",
      "name" : "activation_5__unroll_7",
      "bottom" : "s39_unroll_7"
    },
    {
      "alpha" : 1,
      "bottom" : "reset_gate_t_1_unroll_7,s9_unroll_7",
      "operation" : 1,
      "weights" : {

      },
      "fused_relu" : 0,
      "top" : "s41_unroll_7",
      "type" : "elementwise",
      "name" : "elementwise_15__unroll_7",
      "beta" : 0
    },
    {
      "alpha" : 1,
      "bottom" : "s41_unroll_7,s36_unroll_7",
      "operation" : 0,
      "weights" : {

      },
      "fused_relu" : 0,
      "top" : "s42_unroll_7",
      "type" : "elementwise",
      "name" : "elementwise_16__unroll_7",
      "beta" : 0
    },
    {
      "mode" : 1,
      "weights" : {

      },
      "top" : "new_gate_t_1_unroll_7",
      "type" : "activation",
      "name" : "activation_6__unroll_7",
      "bottom" : "s42_unroll_7"
    },
    {
      "alpha" : 1,
      "bottom" : "update_gate_t_1_unroll_7,hidden_state_unroll_7",
      "operation" : 1,
      "weights" : {

      },
      "fused_relu" : 0,
      "top" : "s44_unroll_7",
      "type" : "elementwise",
      "name" : "elementwise_17__unroll_7",
      "beta" : 0
    },
    {
      "alpha" : -1,
      "bottom" : "update_gate_t_1_unroll_7",
      "operation" : 3,
      "weights" : {

      },
      "fused_relu" : 0,
      "top" : "s45_unroll_7",
      "type" : "elementwise",
      "name" : "elementwise_18__unroll_7",
      "beta" : 0
    },
    {
      "alpha" : 1,
      "bottom" : "s45_unroll_7",
      "operation" : 2,
      "weights" : {

      },
      "fused_relu" : 0,
      "top" : "s46_unroll_7",
      "type" : "elementwise",
      "name" : "elementwise_19__unroll_7",
      "beta" : 0
    },
    {
      "alpha" : 1,
      "bottom" : "s46_unroll_7,new_gate_t_1_unroll_7",
      "operation" : 1,
      "weights" : {

      },
      "fused_relu" : 0,
      "top" : "s47_unroll_7",
      "type" : "elementwise",
      "name" : "elementwise_20__unroll_7",
      "beta" : 0
    },
    {
      "alpha" : 1,
      "bottom" : "s44_unroll_7,s47_unroll_7",
      "operation" : 0,
      "weights" : {

      },
      "fused_relu" : 0,
      "top" : "hidden_state_unroll_8",
      "type" : "elementwise",
      "name" : "elementwise_21__unroll_7",
      "beta" : 0
    },
    {
      "end" : 448,
      "bottom" : "hidden_state_unroll_8",
      "start" : 224,
      "weights" : {

      },
      "axis" : 0,
      "top" : "s50_unroll_7",
      "type" : "slice",
      "name" : "split_4__slice_1__unroll_7"
    },
    {
      "has_prelu" : 0,
      "top" : "fine_relu_unroll_7",
      "has_biases" : 1,
      "weights" : {

      },
      "nC" : 224,
      "blob_weights" : 27,
      "low_precision_accumulation" : 1,
      "type" : "inner_product",
      "has_relu" : 1,
      "bottom" : "s50_unroll_7",
      "blob_biases" : 25,
      "has_tanh" : 0,
      "share_weights_from_layer_named" : "inner_product_4__unroll_0",
      "name" : "inner_product_4__unroll_7",
      "nB" : 224
    },
    {
      "has_prelu" : 0,
      "top" : "O4_unroll_7",
      "has_biases" : 1,
      "weights" : {

      },
      "nC" : 256,
      "blob_weights" : 31,
      "low_precision_accumulation" : 1,
      "type" : "inner_product",
      "has_relu" : 0,
      "bottom" : "fine_relu_unroll_7",
      "blob_biases" : 29,
      "has_tanh" : 0,
      "share_weights_from_layer_named" : "inner_product_5__unroll_0",
      "name" : "inner_product_5__unroll_7",
      "nB" : 224
    },
    {
      "alpha" : 1,
      "bottom" : "O4_unroll_7,O4__rand_unroll_7",
      "operation" : 0,
      "weights" : {

      },
      "fused_relu" : 0,
      "top" : "fine_bit__plus_rand_unroll_7",
      "type" : "elementwise",
      "name" : "softmax_1@gumbel_max__plus_rand__unroll_7",
      "beta" : 0
    },
    {
      "axis_mode" : 1,
      "bottom" : "fine_bit__plus_rand_unroll_7",
      "weights" : {

      },
      "mode" : 11,
      "use_version" : 1,
      "top" : "fine_bit_unroll_7",
      "type" : "reduce",
      "name" : "softmax_1@gumbel_max__argmax__unroll_7"
    },
    {
      "alpha" : 0.0078431377187371254,
      "bottom" : "fine_bit_unroll_7",
      "operation" : 3,
      "weights" : {

      },
      "fused_relu" : 0,
      "top" : "s56_unroll_7",
      "type" : "elementwise",
      "name" : "elementwise_22__unroll_7",
      "beta" : 0
    },
    {
      "alpha" : -1,
      "bottom" : "s56_unroll_7",
      "operation" : 0,
      "weights" : {

      },
      "fused_relu" : 0,
      "top" : "fine_bit_scaled_unroll_8",
      "type" : "elementwise",
      "name" : "elementwise_23__unroll_7",
      "beta" : 0
    },
    {
      "end" : 9,
      "bottom" : "O2__rand_v",
      "start" : 8,
      "weights" : {

      },
      "axis" : 1,
      "top" : "O2__rand_unroll_8",
      "type" : "slice",
      "name" : "O2_rand_sliced__unroll_8"
    },
    {
      "end" : 9,
      "bottom" : "O4__rand_v",
      "start" : 8,
      "weights" : {

      },
      "axis" : 1,
      "top" : "O4__rand_unroll_8",
      "type" : "slice",
      "name" : "O4_rand_sliced__unroll_8"
    },
    {
      "has_prelu" : 0,
      "top" : "I__1_unroll_8",
      "has_biases" : 1,
      "weights" : {

      },
      "nC" : 1344,
      "blob_weights" : 7,
      "low_precision_accumulation" : 1,
      "type" : "inner_product",
      "has_relu" : 0,
      "bottom" : "fine_bit_scaled_unroll_8",
      "blob_biases" : 5,
      "has_tanh" : 0,
      "share_weights_from_layer_named" : "inner_product_0__1__unroll_0",
      "name" : "inner_product_0__1__unroll_8",
      "nB" : 1
    },
    {
      "has_prelu" : 0,
      "top" : "I__2_unroll_8",
      "has_biases" : 1,
      "weights" : {

      },
      "nC" : 1344,
      "blob_weights" : 11,
      "low_precision_accumulation" : 1,
      "type" : "inner_product",
      "has_relu" : 0,
      "bottom" : "in_coarse_bit_scaled",
      "blob_biases" : 9,
      "has_tanh" : 0,
      "share_weights_from_layer_named" : "inner_product_0__2__unroll_0",
      "name" : "inner_product_0__2__unroll_8",
      "nB" : 1
    },
    {
      "alpha" : 1,
      "bottom" : "I__0,I__1_unroll_8",
      "operation" : 0,
      "weights" : {

      },
      "fused_relu" : 0,
      "top" : "I__tmp_1_unroll_8",
      "type" : "elementwise",
      "name" : "inner_product_0__add1__unroll_8",
      "beta" : 0
    },
    {
      "alpha" : 1,
      "bottom" : "I__tmp_1_unroll_8,I__2_unroll_8",
      "operation" : 0,
      "weights" : {

      },
      "fused_relu" : 0,
      "top" : "I_unroll_8",
      "type" : "elementwise",
      "name" : "inner_product_0__add2__unroll_8",
      "beta" : 0
    },
    {
      "end" : 448,
      "bottom" : "I_unroll_8",
      "start" : 0,
      "weights" : {

      },
      "axis" : 0,
      "top" : "s3_unroll_8",
      "type" : "slice",
      "name" : "split_0__slice_0__unroll_8"
    },
    {
      "end" : 896,
      "bottom" : "I_unroll_8",
      "start" : 448,
      "weights" : {

      },
      "axis" : 0,
      "top" : "s4_unroll_8",
      "type" : "slice",
      "name" : "split_0__slice_1__unroll_8"
    },
    {
      "end" : 1344,
      "bottom" : "I_unroll_8",
      "start" : 896,
      "weights" : {

      },
      "axis" : 0,
      "top" : "s5_unroll_8",
      "type" : "slice",
      "name" : "split_0__slice_2__unroll_8"
    },
    {
      "has_prelu" : 0,
      "top" : "R_unroll_8",
      "has_biases" : 1,
      "weights" : {

      },
      "nC" : 1344,
      "blob_weights" : 15,
      "low_precision_accumulation" : 1,
      "type" : "inner_product",
      "has_relu" : 0,
      "bottom" : "hidden_state_unroll_8",
      "blob_biases" : 13,
      "has_tanh" : 0,
      "share_weights_from_layer_named" : "inner_product_1__unroll_0",
      "name" : "inner_product_1__unroll_8",
      "nB" : 448
    },
    {
      "end" : 448,
      "bottom" : "R_unroll_8",
      "start" : 0,
      "weights" : {

      },
      "axis" : 0,
      "top" : "s7_unroll_8",
      "type" : "slice",
      "name" : "split_1__slice_0__unroll_8"
    },
    {
      "end" : 896,
      "bottom" : "R_unroll_8",
      "start" : 448,
      "weights" : {

      },
      "axis" : 0,
      "top" : "s8_unroll_8",
      "type" : "slice",
      "name" : "split_1__slice_1__unroll_8"
    },
    {
      "end" : 1344,
      "bottom" : "R_unroll_8",
      "start" : 896,
      "weights" : {

      },
      "axis" : 0,
      "top" : "s9_unroll_8",
      "type" : "slice",
      "name" : "split_1__slice_2__unroll_8"
    },
    {
      "alpha" : 1,
      "bottom" : "s7_unroll_8,s3_unroll_8",
      "operation" : 0,
      "weights" : {

      },
      "fused_relu" : 0,
      "top" : "s10_unroll_8",
      "type" : "elementwise",
      "name" : "elementwise_0__unroll_8",
      "beta" : 0
    },
    {
      "mode" : 3,
      "weights" : {

      },
      "top" : "reset_gate_t_unroll_8",
      "type" : "activation",
      "name" : "activation_0__unroll_8",
      "bottom" : "s10_unroll_8"
    },
    {
      "alpha" : 1,
      "bottom" : "s8_unroll_8,s4_unroll_8",
      "operation" : 0,
      "weights" : {

      },
      "fused_relu" : 0,
      "top" : "s12_unroll_8",
      "type" : "elementwise",
      "name" : "elementwise_1__unroll_8",
      "beta" : 0
    },
    {
      "mode" : 3,
      "weights" : {

      },
      "top" : "update_gate_t_unroll_8",
      "type" : "activation",
      "name" : "activation_1__unroll_8",
      "bottom" : "s12_unroll_8"
    },
    {
      "alpha" : 1,
      "bottom" : "reset_gate_t_unroll_8,s9_unroll_8",
      "operation" : 1,
      "weights" : {

      },
      "fused_relu" : 0,
      "top" : "s14_unroll_8",
      "type" : "elementwise",
      "name" : "elementwise_2__unroll_8",
      "beta" : 0
    },
    {
      "alpha" : 1,
      "bottom" : "s14_unroll_8,s5_unroll_8",
      "operation" : 0,
      "weights" : {

      },
      "fused_relu" : 0,
      "top" : "s15_unroll_8",
      "type" : "elementwise",
      "name" : "elementwise_3__unroll_8",
      "beta" : 0
    },
    {
      "mode" : 1,
      "weights" : {

      },
      "top" : "new_gate_t_unroll_8",
      "type" : "activation",
      "name" : "activation_2__unroll_8",
      "bottom" : "s15_unroll_8"
    },
    {
      "alpha" : 1,
      "bottom" : "update_gate_t_unroll_8,hidden_state_unroll_8",
      "operation" : 1,
      "weights" : {

      },
      "fused_relu" : 0,
      "top" : "s17_unroll_8",
      "type" : "elementwise",
      "name" : "elementwise_4__unroll_8",
      "beta" : 0
    },
    {
      "alpha" : -1,
      "bottom" : "update_gate_t_unroll_8",
      "operation" : 3,
      "weights" : {

      },
      "fused_relu" : 0,
      "top" : "s18_unroll_8",
      "type" : "elementwise",
      "name" : "elementwise_5__unroll_8",
      "beta" : 0
    },
    {
      "alpha" : 1,
      "bottom" : "s18_unroll_8",
      "operation" : 2,
      "weights" : {

      },
      "fused_relu" : 0,
      "top" : "s19_unroll_8",
      "type" : "elementwise",
      "name" : "elementwise_6__unroll_8",
      "beta" : 0
    },
    {
      "alpha" : 1,
      "bottom" : "s19_unroll_8,new_gate_t_unroll_8",
      "operation" : 1,
      "weights" : {

      },
      "fused_relu" : 0,
      "top" : "s20_unroll_8",
      "type" : "elementwise",
      "name" : "elementwise_7__unroll_8",
      "beta" : 0
    },
    {
      "alpha" : 1,
      "bottom" : "s17_unroll_8,s20_unroll_8",
      "operation" : 0,
      "weights" : {

      },
      "fused_relu" : 0,
      "top" : "s21_unroll_8",
      "type" : "elementwise",
      "name" : "elementwise_8__unroll_8",
      "beta" : 0
    },
    {
      "end" : 224,
      "bottom" : "s21_unroll_8",
      "start" : 0,
      "weights" : {

      },
      "axis" : 0,
      "top" : "s22_unroll_8",
      "type" : "slice",
      "name" : "split_2__slice_0__unroll_8"
    },
    {
      "has_prelu" : 0,
      "top" : "coarse_relu_unroll_8",
      "has_biases" : 1,
      "weights" : {

      },
      "nC" : 224,
      "blob_weights" : 19,
      "low_precision_accumulation" : 1,
      "type" : "inner_product",
      "has_relu" : 1,
      "bottom" : "s22_unroll_8",
      "blob_biases" : 17,
      "has_tanh" : 0,
      "share_weights_from_layer_named" : "inner_product_2__unroll_0",
      "name" : "inner_product_2__unroll_8",
      "nB" : 224
    },
    {
      "has_prelu" : 0,
      "top" : "O2_unroll_8",
      "has_biases" : 1,
      "weights" : {

      },
      "nC" : 256,
      "blob_weights" : 23,
      "low_precision_accumulation" : 1,
      "type" : "inner_product",
      "has_relu" : 0,
      "bottom" : "coarse_relu_unroll_8",
      "blob_biases" : 21,
      "has_tanh" : 0,
      "share_weights_from_layer_named" : "inner_product_3__unroll_0",
      "name" : "inner_product_3__unroll_8",
      "nB" : 224
    },
    {
      "alpha" : 1,
      "bottom" : "O2_unroll_8,O2__rand_unroll_8",
      "operation" : 0,
      "weights" : {

      },
      "fused_relu" : 0,
      "top" : "coarse_bit__plus_rand_unroll_8",
      "type" : "elementwise",
      "name" : "softmax_0@gumbel_max__plus_rand__unroll_8",
      "beta" : 0
    },
    {
      "axis_mode" : 1,
      "bottom" : "coarse_bit__plus_rand_unroll_8",
      "weights" : {

      },
      "mode" : 11,
      "use_version" : 1,
      "top" : "coarse_bit_unroll_8",
      "type" : "reduce",
      "name" : "softmax_0@gumbel_max__argmax__unroll_8"
    },
    {
      "alpha" : 0.0078431377187371254,
      "bottom" : "coarse_bit_unroll_8",
      "operation" : 3,
      "weights" : {

      },
      "fused_relu" : 0,
      "top" : "s29_unroll_8",
      "type" : "elementwise",
      "name" : "elementwise_9__unroll_8",
      "beta" : 0
    },
    {
      "alpha" : -1,
      "bottom" : "s29_unroll_8",
      "operation" : 0,
      "weights" : {

      },
      "fused_relu" : 0,
      "top" : "coarse_bit_scaled_unroll_8",
      "type" : "elementwise",
      "name" : "elementwise_10__unroll_8",
      "beta" : 0
    },
    {
      "has_prelu" : 0,
      "top" : "s32_unroll_8",
      "has_biases" : 1,
      "name" : "elementwise_11__unroll_8",
      "nC" : 1344,
      "blob_weights" : 11,
      "type" : "inner_product",
      "has_relu" : 0,
      "bottom" : "coarse_bit_scaled_unroll_8",
      "blob_biases" : 9,
      "has_tanh" : 0,
      "share_weights_from_layer_named" : "inner_product_0__2__unroll_0",
      "weights" : {

      },
      "nB" : 1
    },
    {
      "alpha" : 1,
      "bottom" : "I_unroll_8,s32_unroll_8",
      "operation" : 0,
      "weights" : {

      },
      "fused_relu" : 0,
      "top" : "s33_unroll_8",
      "type" : "elementwise",
      "name" : "elementwise_12__unroll_8",
      "beta" : 0
    },
    {
      "end" : 448,
      "bottom" : "s33_unroll_8",
      "start" : 0,
      "weights" : {

      },
      "axis" : 0,
      "top" : "s34_unroll_8",
      "type" : "slice",
      "name" : "split_3__slice_0__unroll_8"
    },
    {
      "end" : 896,
      "bottom" : "s33_unroll_8",
      "start" : 448,
      "weights" : {

      },
      "axis" : 0,
      "top" : "s35_unroll_8",
      "type" : "slice",
      "name" : "split_3__slice_1__unroll_8"
    },
    {
      "end" : 1344,
      "bottom" : "s33_unroll_8",
      "start" : 896,
      "weights" : {

      },
      "axis" : 0,
      "top" : "s36_unroll_8",
      "type" : "slice",
      "name" : "split_3__slice_2__unroll_8"
    },
    {
      "alpha" : 1,
      "bottom" : "s7_unroll_8,s34_unroll_8",
      "operation" : 0,
      "weights" : {

      },
      "fused_relu" : 0,
      "top" : "s37_unroll_8",
      "type" : "elementwise",
      "name" : "elementwise_13__unroll_8",
      "beta" : 0
    },
    {
      "mode" : 3,
      "weights" : {

      },
      "top" : "reset_gate_t_1_unroll_8",
      "type" : "activation",
      "name" : "activation_4__unroll_8",
      "bottom" : "s37_unroll_8"
    },
    {
      "alpha" : 1,
      "bottom" : "s8_unroll_8,s35_unroll_8",
      "operation" : 0,
      "weights" : {

      },
      "fused_relu" : 0,
      "top" : "s39_unroll_8",
      "type" : "elementwise",
      "name" : "elementwise_14__unroll_8",
      "beta" : 0
    },
    {
      "mode" : 3,
      "weights" : {

      },
      "top" : "update_gate_t_1_unroll_8",
      "type" : "activation",
      "name" : "activation_5__unroll_8",
      "bottom" : "s39_unroll_8"
    },
    {
      "alpha" : 1,
      "bottom" : "reset_gate_t_1_unroll_8,s9_unroll_8",
      "operation" : 1,
      "weights" : {

      },
      "fused_relu" : 0,
      "top" : "s41_unroll_8",
      "type" : "elementwise",
      "name" : "elementwise_15__unroll_8",
      "beta" : 0
    },
    {
      "alpha" : 1,
      "bottom" : "s41_unroll_8,s36_unroll_8",
      "operation" : 0,
      "weights" : {

      },
      "fused_relu" : 0,
      "top" : "s42_unroll_8",
      "type" : "elementwise",
      "name" : "elementwise_16__unroll_8",
      "beta" : 0
    },
    {
      "mode" : 1,
      "weights" : {

      },
      "top" : "new_gate_t_1_unroll_8",
      "type" : "activation",
      "name" : "activation_6__unroll_8",
      "bottom" : "s42_unroll_8"
    },
    {
      "alpha" : 1,
      "bottom" : "update_gate_t_1_unroll_8,hidden_state_unroll_8",
      "operation" : 1,
      "weights" : {

      },
      "fused_relu" : 0,
      "top" : "s44_unroll_8",
      "type" : "elementwise",
      "name" : "elementwise_17__unroll_8",
      "beta" : 0
    },
    {
      "alpha" : -1,
      "bottom" : "update_gate_t_1_unroll_8",
      "operation" : 3,
      "weights" : {

      },
      "fused_relu" : 0,
      "top" : "s45_unroll_8",
      "type" : "elementwise",
      "name" : "elementwise_18__unroll_8",
      "beta" : 0
    },
    {
      "alpha" : 1,
      "bottom" : "s45_unroll_8",
      "operation" : 2,
      "weights" : {

      },
      "fused_relu" : 0,
      "top" : "s46_unroll_8",
      "type" : "elementwise",
      "name" : "elementwise_19__unroll_8",
      "beta" : 0
    },
    {
      "alpha" : 1,
      "bottom" : "s46_unroll_8,new_gate_t_1_unroll_8",
      "operation" : 1,
      "weights" : {

      },
      "fused_relu" : 0,
      "top" : "s47_unroll_8",
      "type" : "elementwise",
      "name" : "elementwise_20__unroll_8",
      "beta" : 0
    },
    {
      "alpha" : 1,
      "bottom" : "s44_unroll_8,s47_unroll_8",
      "operation" : 0,
      "weights" : {

      },
      "fused_relu" : 0,
      "top" : "hidden_state_unroll_9",
      "type" : "elementwise",
      "name" : "elementwise_21__unroll_8",
      "beta" : 0
    },
    {
      "end" : 448,
      "bottom" : "hidden_state_unroll_9",
      "start" : 224,
      "weights" : {

      },
      "axis" : 0,
      "top" : "s50_unroll_8",
      "type" : "slice",
      "name" : "split_4__slice_1__unroll_8"
    },
    {
      "has_prelu" : 0,
      "top" : "fine_relu_unroll_8",
      "has_biases" : 1,
      "weights" : {

      },
      "nC" : 224,
      "blob_weights" : 27,
      "low_precision_accumulation" : 1,
      "type" : "inner_product",
      "has_relu" : 1,
      "bottom" : "s50_unroll_8",
      "blob_biases" : 25,
      "has_tanh" : 0,
      "share_weights_from_layer_named" : "inner_product_4__unroll_0",
      "name" : "inner_product_4__unroll_8",
      "nB" : 224
    },
    {
      "has_prelu" : 0,
      "top" : "O4_unroll_8",
      "has_biases" : 1,
      "weights" : {

      },
      "nC" : 256,
      "blob_weights" : 31,
      "low_precision_accumulation" : 1,
      "type" : "inner_product",
      "has_relu" : 0,
      "bottom" : "fine_relu_unroll_8",
      "blob_biases" : 29,
      "has_tanh" : 0,
      "share_weights_from_layer_named" : "inner_product_5__unroll_0",
      "name" : "inner_product_5__unroll_8",
      "nB" : 224
    },
    {
      "alpha" : 1,
      "bottom" : "O4_unroll_8,O4__rand_unroll_8",
      "operation" : 0,
      "weights" : {

      },
      "fused_relu" : 0,
      "top" : "fine_bit__plus_rand_unroll_8",
      "type" : "elementwise",
      "name" : "softmax_1@gumbel_max__plus_rand__unroll_8",
      "beta" : 0
    },
    {
      "axis_mode" : 1,
      "bottom" : "fine_bit__plus_rand_unroll_8",
      "weights" : {

      },
      "mode" : 11,
      "use_version" : 1,
      "top" : "fine_bit_unroll_8",
      "type" : "reduce",
      "name" : "softmax_1@gumbel_max__argmax__unroll_8"
    },
    {
      "alpha" : 0.0078431377187371254,
      "bottom" : "fine_bit_unroll_8",
      "operation" : 3,
      "weights" : {

      },
      "fused_relu" : 0,
      "top" : "s56_unroll_8",
      "type" : "elementwise",
      "name" : "elementwise_22__unroll_8",
      "beta" : 0
    },
    {
      "alpha" : -1,
      "bottom" : "s56_unroll_8",
      "operation" : 0,
      "weights" : {

      },
      "fused_relu" : 0,
      "top" : "fine_bit_scaled_unroll_9",
      "type" : "elementwise",
      "name" : "elementwise_23__unroll_8",
      "beta" : 0
    },
    {
      "end" : 10,
      "bottom" : "O2__rand_v",
      "start" : 9,
      "weights" : {

      },
      "axis" : 1,
      "top" : "O2__rand_unroll_9",
      "type" : "slice",
      "name" : "O2_rand_sliced__unroll_9"
    },
    {
      "end" : 10,
      "bottom" : "O4__rand_v",
      "start" : 9,
      "weights" : {

      },
      "axis" : 1,
      "top" : "O4__rand_unroll_9",
      "type" : "slice",
      "name" : "O4_rand_sliced__unroll_9"
    },
    {
      "has_prelu" : 0,
      "top" : "I__1_unroll_9",
      "has_biases" : 1,
      "weights" : {

      },
      "nC" : 1344,
      "blob_weights" : 7,
      "low_precision_accumulation" : 1,
      "type" : "inner_product",
      "has_relu" : 0,
      "bottom" : "fine_bit_scaled_unroll_9",
      "blob_biases" : 5,
      "has_tanh" : 0,
      "share_weights_from_layer_named" : "inner_product_0__1__unroll_0",
      "name" : "inner_product_0__1__unroll_9",
      "nB" : 1
    },
    {
      "has_prelu" : 0,
      "top" : "I__2_unroll_9",
      "has_biases" : 1,
      "weights" : {

      },
      "nC" : 1344,
      "blob_weights" : 11,
      "low_precision_accumulation" : 1,
      "type" : "inner_product",
      "has_relu" : 0,
      "bottom" : "in_coarse_bit_scaled",
      "blob_biases" : 9,
      "has_tanh" : 0,
      "share_weights_from_layer_named" : "inner_product_0__2__unroll_0",
      "name" : "inner_product_0__2__unroll_9",
      "nB" : 1
    },
    {
      "alpha" : 1,
      "bottom" : "I__0,I__1_unroll_9",
      "operation" : 0,
      "weights" : {

      },
      "fused_relu" : 0,
      "top" : "I__tmp_1_unroll_9",
      "type" : "elementwise",
      "name" : "inner_product_0__add1__unroll_9",
      "beta" : 0
    },
    {
      "alpha" : 1,
      "bottom" : "I__tmp_1_unroll_9,I__2_unroll_9",
      "operation" : 0,
      "weights" : {

      },
      "fused_relu" : 0,
      "top" : "I_unroll_9",
      "type" : "elementwise",
      "name" : "inner_product_0__add2__unroll_9",
      "beta" : 0
    },
    {
      "end" : 448,
      "bottom" : "I_unroll_9",
      "start" : 0,
      "weights" : {

      },
      "axis" : 0,
      "top" : "s3_unroll_9",
      "type" : "slice",
      "name" : "split_0__slice_0__unroll_9"
    },
    {
      "end" : 896,
      "bottom" : "I_unroll_9",
      "start" : 448,
      "weights" : {

      },
      "axis" : 0,
      "top" : "s4_unroll_9",
      "type" : "slice",
      "name" : "split_0__slice_1__unroll_9"
    },
    {
      "end" : 1344,
      "bottom" : "I_unroll_9",
      "start" : 896,
      "weights" : {

      },
      "axis" : 0,
      "top" : "s5_unroll_9",
      "type" : "slice",
      "name" : "split_0__slice_2__unroll_9"
    },
    {
      "has_prelu" : 0,
      "top" : "R_unroll_9",
      "has_biases" : 1,
      "weights" : {

      },
      "nC" : 1344,
      "blob_weights" : 15,
      "low_precision_accumulation" : 1,
      "type" : "inner_product",
      "has_relu" : 0,
      "bottom" : "hidden_state_unroll_9",
      "blob_biases" : 13,
      "has_tanh" : 0,
      "share_weights_from_layer_named" : "inner_product_1__unroll_0",
      "name" : "inner_product_1__unroll_9",
      "nB" : 448
    },
    {
      "end" : 448,
      "bottom" : "R_unroll_9",
      "start" : 0,
      "weights" : {

      },
      "axis" : 0,
      "top" : "s7_unroll_9",
      "type" : "slice",
      "name" : "split_1__slice_0__unroll_9"
    },
    {
      "end" : 896,
      "bottom" : "R_unroll_9",
      "start" : 448,
      "weights" : {

      },
      "axis" : 0,
      "top" : "s8_unroll_9",
      "type" : "slice",
      "name" : "split_1__slice_1__unroll_9"
    },
    {
      "end" : 1344,
      "bottom" : "R_unroll_9",
      "start" : 896,
      "weights" : {

      },
      "axis" : 0,
      "top" : "s9_unroll_9",
      "type" : "slice",
      "name" : "split_1__slice_2__unroll_9"
    },
    {
      "alpha" : 1,
      "bottom" : "s7_unroll_9,s3_unroll_9",
      "operation" : 0,
      "weights" : {

      },
      "fused_relu" : 0,
      "top" : "s10_unroll_9",
      "type" : "elementwise",
      "name" : "elementwise_0__unroll_9",
      "beta" : 0
    },
    {
      "mode" : 3,
      "weights" : {

      },
      "top" : "reset_gate_t_unroll_9",
      "type" : "activation",
      "name" : "activation_0__unroll_9",
      "bottom" : "s10_unroll_9"
    },
    {
      "alpha" : 1,
      "bottom" : "s8_unroll_9,s4_unroll_9",
      "operation" : 0,
      "weights" : {

      },
      "fused_relu" : 0,
…
      "weights" : {

      },
      "fused_relu" : 0,
      "top" : "s20_unroll_117",
      "type" : "elementwise",
      "name" : "elementwise_7__unroll_117",
      "beta" : 0
    },
    {
      "alpha" : 1,
      "bottom" : "s17_unroll_117,s20_unroll_117",
      "operation" : 0,
      "weights" : {

      },
      "fused_relu" : 0,
      "top" : "s21_unroll_117",
      "type" : "elementwise",
      "name" : "elementwise_8__unroll_117",
      "beta" : 0
    },
    {
      "end" : 224,
      "bottom" : "s21_unroll_117",
      "start" : 0,
      "weights" : {

      },
      "axis" : 0,
      "top" : "s22_unroll_117",
      "type" : "slice",
      "name" : "split_2__slice_0__unroll_117"
    },
    {
      "has_prelu" : 0,
      "top" : "coarse_relu_unroll_117",
      "has_biases" : 1,
      "weights" : {

      },
      "nC" : 224,
      "blob_weights" : 19,
      "low_precision_accumulation" : 1,
      "type" : "inner_product",
      "has_relu" : 1,
      "bottom" : "s22_unroll_117",
      "blob_biases" : 17,
      "has_tanh" : 0,
      "share_weights_from_layer_named" : "inner_product_2__unroll_0",
      "name" : "inner_product_2__unroll_117",
      "nB" : 224
    },
    {
      "has_prelu" : 0,
      "top" : "O2_unroll_117",
      "has_biases" : 1,
      "weights" : {

      },
      "nC" : 256,
      "blob_weights" : 23,
      "low_precision_accumulation" : 1,
      "type" : "inner_product",
      "has_relu" : 0,
      "bottom" : "coarse_relu_unroll_117",
      "blob_biases" : 21,
      "has_tanh" : 0,
      "share_weights_from_layer_named" : "inner_product_3__unroll_0",
      "name" : "inner_product_3__unroll_117",
      "nB" : 224
    },
    {
      "alpha" : 1,
      "bottom" : "O2_unroll_117,O2__rand_unroll_117",
      "operation" : 0,
      "weights" : {

      },
      "fused_relu" : 0,
      "top" : "coarse_bit__plus_rand_unroll_117",
      "type" : "elementwise",
      "name" : "softmax_0@gumbel_max__plus_rand__unroll_117",
      "beta" : 0
    },
    {
      "axis_mode" : 1,
      "bottom" : "coarse_bit__plus_rand_unroll_117",
      "weights" : {

      },
      "mode" : 11,
      "use_version" : 1,
      "top" : "coarse_bit_unroll_117",
      "type" : "reduce",
      "name" : "softmax_0@gumbel_max__argmax__unroll_117"
    },
    {
      "alpha" : 0.0078431377187371254,
      "bottom" : "coarse_bit_unroll_117",
      "operation" : 3,
      "weights" : {

      },
      "fused_relu" : 0,
      "top" : "s29_unroll_117",
      "type" : "elementwise",
      "name" : "elementwise_9__unroll_117",
      "beta" : 0
    },
    {
      "alpha" : -1,
      "bottom" : "s29_unroll_117",
      "operation" : 0,
      "weights" : {

      },
      "fused_relu" : 0,
      "top" : "coarse_bit_scaled_unroll_117",
      "type" : "elementwise",
      "name" : "elementwise_10__unroll_117",
      "beta" : 0
    },
    {
      "has_prelu" : 0,
      "top" : "s32_unroll_117",
      "has_biases" : 1,
      "name" : "elementwise_11__unroll_117",
      "nC" : 1344,
      "blob_weights" : 11,
      "type" : "inner_product",
      "has_relu" : 0,
      "bottom" : "coarse_bit_scaled_unroll_117",
      "blob_biases" : 9,
      "has_tanh" : 0,
      "share_weights_from_layer_named" : "inner_product_0__2__unroll_0",
      "weights" : {

      },
      "nB" : 1
    },
    {
      "alpha" : 1,
      "bottom" : "I_unroll_117,s32_unroll_117",
      "operation" : 0,
      "weights" : {

      },
      "fused_relu" : 0,
      "top" : "s33_unroll_117",
      "type" : "elementwise",
      "name" : "elementwise_12__unroll_117",
      "beta" : 0
    },
    {
      "end" : 448,
      "bottom" : "s33_unroll_117",
      "start" : 0,
      "weights" : {

      },
      "axis" : 0,
      "top" : "s34_unroll_117",
      "type" : "slice",
      "name" : "split_3__slice_0__unroll_117"
    },
    {
      "end" : 896,
      "bottom" : "s33_unroll_117",
      "start" : 448,
      "weights" : {

      },
      "axis" : 0,
      "top" : "s35_unroll_117",
      "type" : "slice",
      "name" : "split_3__slice_1__unroll_117"
    },
    {
      "end" : 1344,
      "bottom" : "s33_unroll_117",
      "start" : 896,
      "weights" : {

      },
      "axis" : 0,
      "top" : "s36_unroll_117",
      "type" : "slice",
      "name" : "split_3__slice_2__unroll_117"
    },
    {
      "alpha" : 1,
      "bottom" : "s7_unroll_117,s34_unroll_117",
      "operation" : 0,
      "weights" : {

      },
      "fused_relu" : 0,
      "top" : "s37_unroll_117",
      "type" : "elementwise",
      "name" : "elementwise_13__unroll_117",
      "beta" : 0
    },
    {
      "mode" : 3,
      "weights" : {

      },
      "top" : "reset_gate_t_1_unroll_117",
      "type" : "activation",
      "name" : "activation_4__unroll_117",
      "bottom" : "s37_unroll_117"
    },
    {
      "alpha" : 1,
      "bottom" : "s8_unroll_117,s35_unroll_117",
      "operation" : 0,
      "weights" : {

      },
      "fused_relu" : 0,
      "top" : "s39_unroll_117",
      "type" : "elementwise",
      "name" : "elementwise_14__unroll_117",
      "beta" : 0
    },
    {
      "mode" : 3,
      "weights" : {

      },
      "top" : "update_gate_t_1_unroll_117",
      "type" : "activation",
      "name" : "activation_5__unroll_117",
      "bottom" : "s39_unroll_117"
    },
    {
      "alpha" : 1,
      "bottom" : "reset_gate_t_1_unroll_117,s9_unroll_117",
      "operation" : 1,
      "weights" : {

      },
      "fused_relu" : 0,
      "top" : "s41_unroll_117",
      "type" : "elementwise",
      "name" : "elementwise_15__unroll_117",
      "beta" : 0
    },
    {
      "alpha" : 1,
      "bottom" : "s41_unroll_117,s36_unroll_117",
      "operation" : 0,
      "weights" : {

      },
      "fused_relu" : 0,
      "top" : "s42_unroll_117",
      "type" : "elementwise",
      "name" : "elementwise_16__unroll_117",
      "beta" : 0
    },
    {
      "mode" : 1,
      "weights" : {

      },
      "top" : "new_gate_t_1_unroll_117",
      "type" : "activation",
      "name" : "activation_6__unroll_117",
      "bottom" : "s42_unroll_117"
    },
    {
      "alpha" : 1,
      "bottom" : "update_gate_t_1_unroll_117,hidden_state_unroll_117",
      "operation" : 1,
      "weights" : {

      },
      "fused_relu" : 0,
      "top" : "s44_unroll_117",
      "type" : "elementwise",
      "name" : "elementwise_17__unroll_117",
      "beta" : 0
    },
    {
      "alpha" : -1,
      "bottom" : "update_gate_t_1_unroll_117",
      "operation" : 3,
      "weights" : {

      },
      "fused_relu" : 0,
      "top" : "s45_unroll_117",
      "type" : "elementwise",
      "name" : "elementwise_18__unroll_117",
      "beta" : 0
    },
    {
      "alpha" : 1,
      "bottom" : "s45_unroll_117",
      "operation" : 2,
      "weights" : {

      },
      "fused_relu" : 0,
      "top" : "s46_unroll_117",
      "type" : "elementwise",
      "name" : "elementwise_19__unroll_117",
      "beta" : 0
    },
    {
      "alpha" : 1,
      "bottom" : "s46_unroll_117,new_gate_t_1_unroll_117",
      "operation" : 1,
      "weights" : {

      },
      "fused_relu" : 0,
      "top" : "s47_unroll_117",
      "type" : "elementwise",
      "name" : "elementwise_20__unroll_117",
      "beta" : 0
    },
    {
      "alpha" : 1,
      "bottom" : "s44_unroll_117,s47_unroll_117",
      "operation" : 0,
      "weights" : {

      },
      "fused_relu" : 0,
      "top" : "hidden_state_unroll_118",
      "type" : "elementwise",
      "name" : "elementwise_21__unroll_117",
      "beta" : 0
    },
    {
      "end" : 448,
      "bottom" : "hidden_state_unroll_118",
      "start" : 224,
      "weights" : {

      },
      "axis" : 0,
      "top" : "s50_unroll_117",
      "type" : "slice",
      "name" : "split_4__slice_1__unroll_117"
    },
    {
      "has_prelu" : 0,
      "top" : "fine_relu_unroll_117",
      "has_biases" : 1,
      "weights" : {

      },
      "nC" : 224,
      "blob_weights" : 27,
      "low_precision_accumulation" : 1,
      "type" : "inner_product",
      "has_relu" : 1,
      "bottom" : "s50_unroll_117",
      "blob_biases" : 25,
      "has_tanh" : 0,
      "share_weights_from_layer_named" : "inner_product_4__unroll_0",
      "name" : "inner_product_4__unroll_117",
      "nB" : 224
    },
    {
      "has_prelu" : 0,
      "top" : "O4_unroll_117",
      "has_biases" : 1,
      "weights" : {

      },
      "nC" : 256,
      "blob_weights" : 31,
      "low_precision_accumulation" : 1,
      "type" : "inner_product",
      "has_relu" : 0,
      "bottom" : "fine_relu_unroll_117",
      "blob_biases" : 29,
      "has_tanh" : 0,
      "share_weights_from_layer_named" : "inner_product_5__unroll_0",
      "name" : "inner_product_5__unroll_117",
      "nB" : 224
    },
    {
      "alpha" : 1,
      "bottom" : "O4_unroll_117,O4__rand_unroll_117",
      "operation" : 0,
      "weights" : {

      },
      "fused_relu" : 0,
      "top" : "fine_bit__plus_rand_unroll_117",
      "type" : "elementwise",
      "name" : "softmax_1@gumbel_max__plus_rand__unroll_117",
      "beta" : 0
    },
    {
      "axis_mode" : 1,
      "bottom" : "fine_bit__plus_rand_unroll_117",
      "weights" : {

      },
      "mode" : 11,
      "use_version" : 1,
      "top" : "fine_bit_unroll_117",
      "type" : "reduce",
      "name" : "softmax_1@gumbel_max__argmax__unroll_117"
    },
    {
      "alpha" : 0.0078431377187371254,
      "bottom" : "fine_bit_unroll_117",
      "operation" : 3,
      "weights" : {

      },
      "fused_relu" : 0,
      "top" : "s56_unroll_117",
      "type" : "elementwise",
      "name" : "elementwise_22__unroll_117",
      "beta" : 0
    },
    {
      "alpha" : -1,
      "bottom" : "s56_unroll_117",
      "operation" : 0,
      "weights" : {

      },
      "fused_relu" : 0,
      "top" : "fine_bit_scaled_unroll_118",
      "type" : "elementwise",
      "name" : "elementwise_23__unroll_117",
      "beta" : 0
    },
    {
      "end" : 119,
      "bottom" : "O2__rand_v",
      "start" : 118,
      "weights" : {

      },
      "axis" : 1,
      "top" : "O2__rand_unroll_118",
      "type" : "slice",
      "name" : "O2_rand_sliced__unroll_118"
    },
    {
      "end" : 119,
      "bottom" : "O4__rand_v",
      "start" : 118,
      "weights" : {

      },
      "axis" : 1,
      "top" : "O4__rand_unroll_118",
      "type" : "slice",
      "name" : "O4_rand_sliced__unroll_118"
    },
    {
      "has_prelu" : 0,
      "top" : "I__1_unroll_118",
      "has_biases" : 1,
      "weights" : {

      },
      "nC" : 1344,
      "blob_weights" : 7,
      "low_precision_accumulation" : 1,
      "type" : "inner_product",
      "has_relu" : 0,
      "bottom" : "fine_bit_scaled_unroll_118",
      "blob_biases" : 5,
      "has_tanh" : 0,
      "share_weights_from_layer_named" : "inner_product_0__1__unroll_0",
      "name" : "inner_product_0__1__unroll_118",
      "nB" : 1
    },
    {
      "has_prelu" : 0,
      "top" : "I__2_unroll_118",
      "has_biases" : 1,
      "weights" : {

      },
      "nC" : 1344,
      "blob_weights" : 11,
      "low_precision_accumulation" : 1,
      "type" : "inner_product",
      "has_relu" : 0,
      "bottom" : "in_coarse_bit_scaled",
      "blob_biases" : 9,
      "has_tanh" : 0,
      "share_weights_from_layer_named" : "inner_product_0__2__unroll_0",
      "name" : "inner_product_0__2__unroll_118",
      "nB" : 1
    },
    {
      "alpha" : 1,
      "bottom" : "I__0,I__1_unroll_118",
      "operation" : 0,
      "weights" : {

      },
      "fused_relu" : 0,
      "top" : "I__tmp_1_unroll_118",
      "type" : "elementwise",
      "name" : "inner_product_0__add1__unroll_118",
      "beta" : 0
    },
    {
      "alpha" : 1,
      "bottom" : "I__tmp_1_unroll_118,I__2_unroll_118",
      "operation" : 0,
      "weights" : {

      },
      "fused_relu" : 0,
      "top" : "I_unroll_118",
      "type" : "elementwise",
      "name" : "inner_product_0__add2__unroll_118",
      "beta" : 0
    },
    {
      "end" : 448,
      "bottom" : "I_unroll_118",
      "start" : 0,
      "weights" : {

      },
      "axis" : 0,
      "top" : "s3_unroll_118",
      "type" : "slice",
      "name" : "split_0__slice_0__unroll_118"
    },
    {
      "end" : 896,
      "bottom" : "I_unroll_118",
      "start" : 448,
      "weights" : {

      },
      "axis" : 0,
      "top" : "s4_unroll_118",
      "type" : "slice",
      "name" : "split_0__slice_1__unroll_118"
    },
    {
      "end" : 1344,
      "bottom" : "I_unroll_118",
      "start" : 896,
      "weights" : {

      },
      "axis" : 0,
      "top" : "s5_unroll_118",
      "type" : "slice",
      "name" : "split_0__slice_2__unroll_118"
    },
    {
      "has_prelu" : 0,
      "top" : "R_unroll_118",
      "has_biases" : 1,
      "weights" : {

      },
      "nC" : 1344,
      "blob_weights" : 15,
      "low_precision_accumulation" : 1,
      "type" : "inner_product",
      "has_relu" : 0,
      "bottom" : "hidden_state_unroll_118",
      "blob_biases" : 13,
      "has_tanh" : 0,
      "share_weights_from_layer_named" : "inner_product_1__unroll_0",
      "name" : "inner_product_1__unroll_118",
      "nB" : 448
    },
    {
      "end" : 448,
      "bottom" : "R_unroll_118",
      "start" : 0,
      "weights" : {

      },
      "axis" : 0,
      "top" : "s7_unroll_118",
      "type" : "slice",
      "name" : "split_1__slice_0__unroll_118"
    },
    {
      "end" : 896,
      "bottom" : "R_unroll_118",
      "start" : 448,
      "weights" : {

      },
      "axis" : 0,
      "top" : "s8_unroll_118",
      "type" : "slice",
      "name" : "split_1__slice_1__unroll_118"
    },
    {
      "end" : 1344,
      "bottom" : "R_unroll_118",
      "start" : 896,
      "weights" : {

      },
      "axis" : 0,
      "top" : "s9_unroll_118",
      "type" : "slice",
      "name" : "split_1__slice_2__unroll_118"
    },
    {
      "alpha" : 1,
      "bottom" : "s7_unroll_118,s3_unroll_118",
      "operation" : 0,
      "weights" : {

      },
      "fused_relu" : 0,
      "top" : "s10_unroll_118",
      "type" : "elementwise",
      "name" : "elementwise_0__unroll_118",
      "beta" : 0
    },
    {
      "mode" : 3,
      "weights" : {

      },
      "top" : "reset_gate_t_unroll_118",
      "type" : "activation",
      "name" : "activation_0__unroll_118",
      "bottom" : "s10_unroll_118"
    },
    {
      "alpha" : 1,
      "bottom" : "s8_unroll_118,s4_unroll_118",
      "operation" : 0,
      "weights" : {

      },
      "fused_relu" : 0,
      "top" : "s12_unroll_118",
      "type" : "elementwise",
      "name" : "elementwise_1__unroll_118",
      "beta" : 0
    },
    {
      "mode" : 3,
      "weights" : {

      },
      "top" : "update_gate_t_unroll_118",
      "type" : "activation",
      "name" : "activation_1__unroll_118",
      "bottom" : "s12_unroll_118"
    },
    {
      "alpha" : 1,
      "bottom" : "reset_gate_t_unroll_118,s9_unroll_118",
      "operation" : 1,
      "weights" : {

      },
      "fused_relu" : 0,
      "top" : "s14_unroll_118",
      "type" : "elementwise",
      "name" : "elementwise_2__unroll_118",
      "beta" : 0
    },
    {
      "alpha" : 1,
      "bottom" : "s14_unroll_118,s5_unroll_118",
      "operation" : 0,
      "weights" : {

      },
      "fused_relu" : 0,
      "top" : "s15_unroll_118",
      "type" : "elementwise",
      "name" : "elementwise_3__unroll_118",
      "beta" : 0
    },
    {
      "mode" : 1,
      "weights" : {

      },
      "top" : "new_gate_t_unroll_118",
      "type" : "activation",
      "name" : "activation_2__unroll_118",
      "bottom" : "s15_unroll_118"
    },
    {
      "alpha" : 1,
      "bottom" : "update_gate_t_unroll_118,hidden_state_unroll_118",
      "operation" : 1,
      "weights" : {

      },
      "fused_relu" : 0,
      "top" : "s17_unroll_118",
      "type" : "elementwise",
      "name" : "elementwise_4__unroll_118",
      "beta" : 0
    },
    {
      "alpha" : -1,
      "bottom" : "update_gate_t_unroll_118",
      "operation" : 3,
      "weights" : {

      },
      "fused_relu" : 0,
      "top" : "s18_unroll_118",
      "type" : "elementwise",
      "name" : "elementwise_5__unroll_118",
      "beta" : 0
    },
    {
      "alpha" : 1,
      "bottom" : "s18_unroll_118",
      "operation" : 2,
      "weights" : {

      },
      "fused_relu" : 0,
      "top" : "s19_unroll_118",
      "type" : "elementwise",
      "name" : "elementwise_6__unroll_118",
      "beta" : 0
    },
    {
      "alpha" : 1,
      "bottom" : "s19_unroll_118,new_gate_t_unroll_118",
      "operation" : 1,
      "weights" : {

      },
      "fused_relu" : 0,
      "top" : "s20_unroll_118",
      "type" : "elementwise",
      "name" : "elementwise_7__unroll_118",
      "beta" : 0
    },
    {
      "alpha" : 1,
      "bottom" : "s17_unroll_118,s20_unroll_118",
      "operation" : 0,
      "weights" : {

      },
      "fused_relu" : 0,
      "top" : "s21_unroll_118",
      "type" : "elementwise",
      "name" : "elementwise_8__unroll_118",
      "beta" : 0
    },
    {
      "end" : 224,
      "bottom" : "s21_unroll_118",
      "start" : 0,
      "weights" : {

      },
      "axis" : 0,
      "top" : "s22_unroll_118",
      "type" : "slice",
      "name" : "split_2__slice_0__unroll_118"
    },
    {
      "has_prelu" : 0,
      "top" : "coarse_relu_unroll_118",
      "has_biases" : 1,
      "weights" : {

      },
      "nC" : 224,
      "blob_weights" : 19,
      "low_precision_accumulation" : 1,
      "type" : "inner_product",
      "has_relu" : 1,
      "bottom" : "s22_unroll_118",
      "blob_biases" : 17,
      "has_tanh" : 0,
      "share_weights_from_layer_named" : "inner_product_2__unroll_0",
      "name" : "inner_product_2__unroll_118",
      "nB" : 224
    },
    {
      "has_prelu" : 0,
      "top" : "O2_unroll_118",
      "has_biases" : 1,
      "weights" : {

      },
      "nC" : 256,
      "blob_weights" : 23,
      "low_precision_accumulation" : 1,
      "type" : "inner_product",
      "has_relu" : 0,
      "bottom" : "coarse_relu_unroll_118",
      "blob_biases" : 21,
      "has_tanh" : 0,
      "share_weights_from_layer_named" : "inner_product_3__unroll_0",
      "name" : "inner_product_3__unroll_118",
      "nB" : 224
    },
    {
      "alpha" : 1,
      "bottom" : "O2_unroll_118,O2__rand_unroll_118",
      "operation" : 0,
      "weights" : {

      },
      "fused_relu" : 0,
      "top" : "coarse_bit__plus_rand_unroll_118",
      "type" : "elementwise",
      "name" : "softmax_0@gumbel_max__plus_rand__unroll_118",
      "beta" : 0
    },
    {
      "axis_mode" : 1,
      "bottom" : "coarse_bit__plus_rand_unroll_118",
      "weights" : {

      },
      "mode" : 11,
      "use_version" : 1,
      "top" : "coarse_bit_unroll_118",
      "type" : "reduce",
      "name" : "softmax_0@gumbel_max__argmax__unroll_118"
    },
    {
      "alpha" : 0.0078431377187371254,
      "bottom" : "coarse_bit_unroll_118",
      "operation" : 3,
      "weights" : {

      },
      "fused_relu" : 0,
      "top" : "s29_unroll_118",
      "type" : "elementwise",
      "name" : "elementwise_9__unroll_118",
      "beta" : 0
    },
    {
      "alpha" : -1,
      "bottom" : "s29_unroll_118",
      "operation" : 0,
      "weights" : {

      },
      "fused_relu" : 0,
      "top" : "coarse_bit_scaled_unroll_118",
      "type" : "elementwise",
      "name" : "elementwise_10__unroll_118",
      "beta" : 0
    },
    {
      "has_prelu" : 0,
      "top" : "s32_unroll_118",
      "has_biases" : 1,
      "name" : "elementwise_11__unroll_118",
      "nC" : 1344,
      "blob_weights" : 11,
      "type" : "inner_product",
      "has_relu" : 0,
      "bottom" : "coarse_bit_scaled_unroll_118",
      "blob_biases" : 9,
      "has_tanh" : 0,
      "share_weights_from_layer_named" : "inner_product_0__2__unroll_0",
      "weights" : {

      },
      "nB" : 1
    },
    {
      "alpha" : 1,
      "bottom" : "I_unroll_118,s32_unroll_118",
      "operation" : 0,
      "weights" : {

      },
      "fused_relu" : 0,
      "top" : "s33_unroll_118",
      "type" : "elementwise",
      "name" : "elementwise_12__unroll_118",
      "beta" : 0
    },
    {
      "end" : 448,
      "bottom" : "s33_unroll_118",
      "start" : 0,
      "weights" : {

      },
      "axis" : 0,
      "top" : "s34_unroll_118",
      "type" : "slice",
      "name" : "split_3__slice_0__unroll_118"
    },
    {
      "end" : 896,
      "bottom" : "s33_unroll_118",
      "start" : 448,
      "weights" : {

      },
      "axis" : 0,
      "top" : "s35_unroll_118",
      "type" : "slice",
      "name" : "split_3__slice_1__unroll_118"
    },
    {
      "end" : 1344,
      "bottom" : "s33_unroll_118",
      "start" : 896,
      "weights" : {

      },
      "axis" : 0,
      "top" : "s36_unroll_118",
      "type" : "slice",
      "name" : "split_3__slice_2__unroll_118"
    },
    {
      "alpha" : 1,
      "bottom" : "s7_unroll_118,s34_unroll_118",
      "operation" : 0,
      "weights" : {

      },
      "fused_relu" : 0,
      "top" : "s37_unroll_118",
      "type" : "elementwise",
      "name" : "elementwise_13__unroll_118",
      "beta" : 0
    },
    {
      "mode" : 3,
      "weights" : {

      },
      "top" : "reset_gate_t_1_unroll_118",
      "type" : "activation",
      "name" : "activation_4__unroll_118",
      "bottom" : "s37_unroll_118"
    },
    {
      "alpha" : 1,
      "bottom" : "s8_unroll_118,s35_unroll_118",
      "operation" : 0,
      "weights" : {

      },
      "fused_relu" : 0,
      "top" : "s39_unroll_118",
      "type" : "elementwise",
      "name" : "elementwise_14__unroll_118",
      "beta" : 0
    },
    {
      "mode" : 3,
      "weights" : {

      },
      "top" : "update_gate_t_1_unroll_118",
      "type" : "activation",
      "name" : "activation_5__unroll_118",
      "bottom" : "s39_unroll_118"
    },
    {
      "alpha" : 1,
      "bottom" : "reset_gate_t_1_unroll_118,s9_unroll_118",
      "operation" : 1,
      "weights" : {

      },
      "fused_relu" : 0,
      "top" : "s41_unroll_118",
      "type" : "elementwise",
      "name" : "elementwise_15__unroll_118",
      "beta" : 0
    },
    {
      "alpha" : 1,
      "bottom" : "s41_unroll_118,s36_unroll_118",
      "operation" : 0,
      "weights" : {

      },
      "fused_relu" : 0,
      "top" : "s42_unroll_118",
      "type" : "elementwise",
      "name" : "elementwise_16__unroll_118",
      "beta" : 0
    },
    {
      "mode" : 1,
      "weights" : {

      },
      "top" : "new_gate_t_1_unroll_118",
      "type" : "activation",
      "name" : "activation_6__unroll_118",
      "bottom" : "s42_unroll_118"
    },
    {
      "alpha" : 1,
      "bottom" : "update_gate_t_1_unroll_118,hidden_state_unroll_118",
      "operation" : 1,
      "weights" : {

      },
      "fused_relu" : 0,
      "top" : "s44_unroll_118",
      "type" : "elementwise",
      "name" : "elementwise_17__unroll_118",
      "beta" : 0
    },
    {
      "alpha" : -1,
      "bottom" : "update_gate_t_1_unroll_118",
      "operation" : 3,
      "weights" : {

      },
      "fused_relu" : 0,
      "top" : "s45_unroll_118",
      "type" : "elementwise",
      "name" : "elementwise_18__unroll_118",
      "beta" : 0
    },
    {
      "alpha" : 1,
      "bottom" : "s45_unroll_118",
      "operation" : 2,
      "weights" : {

      },
      "fused_relu" : 0,
      "top" : "s46_unroll_118",
      "type" : "elementwise",
      "name" : "elementwise_19__unroll_118",
      "beta" : 0
    },
    {
      "alpha" : 1,
      "bottom" : "s46_unroll_118,new_gate_t_1_unroll_118",
      "operation" : 1,
      "weights" : {

      },
      "fused_relu" : 0,
      "top" : "s47_unroll_118",
      "type" : "elementwise",
      "name" : "elementwise_20__unroll_118",
      "beta" : 0
    },
    {
      "alpha" : 1,
      "bottom" : "s44_unroll_118,s47_unroll_118",
      "operation" : 0,
      "weights" : {

      },
      "fused_relu" : 0,
      "top" : "hidden_state_unroll_119",
      "type" : "elementwise",
      "name" : "elementwise_21__unroll_118",
      "beta" : 0
    },
    {
      "end" : 448,
      "bottom" : "hidden_state_unroll_119",
      "start" : 224,
      "weights" : {

      },
      "axis" : 0,
      "top" : "s50_unroll_118",
      "type" : "slice",
      "name" : "split_4__slice_1__unroll_118"
    },
    {
      "has_prelu" : 0,
      "top" : "fine_relu_unroll_118",
      "has_biases" : 1,
      "weights" : {

      },
      "nC" : 224,
      "blob_weights" : 27,
      "low_precision_accumulation" : 1,
      "type" : "inner_product",
      "has_relu" : 1,
      "bottom" : "s50_unroll_118",
      "blob_biases" : 25,
      "has_tanh" : 0,
      "share_weights_from_layer_named" : "inner_product_4__unroll_0",
      "name" : "inner_product_4__unroll_118",
      "nB" : 224
    },
    {
      "has_prelu" : 0,
      "top" : "O4_unroll_118",
      "has_biases" : 1,
      "weights" : {

      },
      "nC" : 256,
      "blob_weights" : 31,
      "low_precision_accumulation" : 1,
      "type" : "inner_product",
      "has_relu" : 0,
      "bottom" : "fine_relu_unroll_118",
      "blob_biases" : 29,
      "has_tanh" : 0,
      "share_weights_from_layer_named" : "inner_product_5__unroll_0",
      "name" : "inner_product_5__unroll_118",
      "nB" : 224
    },
    {
      "alpha" : 1,
      "bottom" : "O4_unroll_118,O4__rand_unroll_118",
      "operation" : 0,
      "weights" : {

      },
      "fused_relu" : 0,
      "top" : "fine_bit__plus_rand_unroll_118",
      "type" : "elementwise",
      "name" : "softmax_1@gumbel_max__plus_rand__unroll_118",
      "beta" : 0
    },
    {
      "axis_mode" : 1,
      "bottom" : "fine_bit__plus_rand_unroll_118",
      "weights" : {

      },
      "mode" : 11,
      "use_version" : 1,
      "top" : "fine_bit_unroll_118",
      "type" : "reduce",
      "name" : "softmax_1@gumbel_max__argmax__unroll_118"
    },
    {
      "alpha" : 0.0078431377187371254,
      "bottom" : "fine_bit_unroll_118",
      "operation" : 3,
      "weights" : {

      },
      "fused_relu" : 0,
      "top" : "s56_unroll_118",
      "type" : "elementwise",
      "name" : "elementwise_22__unroll_118",
      "beta" : 0
    },
    {
      "alpha" : -1,
      "bottom" : "s56_unroll_118",
      "operation" : 0,
      "weights" : {

      },
      "fused_relu" : 0,
      "top" : "fine_bit_scaled_unroll_119",
      "type" : "elementwise",
      "name" : "elementwise_23__unroll_118",
      "beta" : 0
    },
    {
      "end" : 120,
      "bottom" : "O2__rand_v",
      "start" : 119,
      "weights" : {

      },
      "axis" : 1,
      "top" : "O2__rand_unroll_119",
      "type" : "slice",
      "name" : "O2_rand_sliced__unroll_119"
    },
    {
      "end" : 120,
      "bottom" : "O4__rand_v",
      "start" : 119,
      "weights" : {

      },
      "axis" : 1,
      "top" : "O4__rand_unroll_119",
      "type" : "slice",
      "name" : "O4_rand_sliced__unroll_119"
    },
    {
      "has_prelu" : 0,
      "top" : "I__1_unroll_119",
      "has_biases" : 1,
      "weights" : {

      },
      "nC" : 1344,
      "blob_weights" : 7,
      "low_precision_accumulation" : 1,
      "type" : "inner_product",
      "has_relu" : 0,
      "bottom" : "fine_bit_scaled_unroll_119",
      "blob_biases" : 5,
      "has_tanh" : 0,
      "share_weights_from_layer_named" : "inner_product_0__1__unroll_0",
      "name" : "inner_product_0__1__unroll_119",
      "nB" : 1
    },
    {
      "has_prelu" : 0,
      "top" : "I__2_unroll_119",
      "has_biases" : 1,
      "weights" : {

      },
      "nC" : 1344,
      "blob_weights" : 11,
      "low_precision_accumulation" : 1,
      "type" : "inner_product",
      "has_relu" : 0,
      "bottom" : "in_coarse_bit_scaled",
      "blob_biases" : 9,
      "has_tanh" : 0,
      "share_weights_from_layer_named" : "inner_product_0__2__unroll_0",
      "name" : "inner_product_0__2__unroll_119",
      "nB" : 1
    },
    {
      "alpha" : 1,
      "bottom" : "I__0,I__1_unroll_119",
      "operation" : 0,
      "weights" : {

      },
      "fused_relu" : 0,
      "top" : "I__tmp_1_unroll_119",
      "type" : "elementwise",
      "name" : "inner_product_0__add1__unroll_119",
      "beta" : 0
    },
    {
      "alpha" : 1,
      "bottom" : "I__tmp_1_unroll_119,I__2_unroll_119",
      "operation" : 0,
      "weights" : {

      },
      "fused_relu" : 0,
      "top" : "I_unroll_119",
      "type" : "elementwise",
      "name" : "inner_product_0__add2__unroll_119",
      "beta" : 0
    },
    {
      "end" : 448,
      "bottom" : "I_unroll_119",
      "start" : 0,
      "weights" : {

      },
      "axis" : 0,
      "top" : "s3_unroll_119",
      "type" : "slice",
      "name" : "split_0__slice_0__unroll_119"
    },
    {
      "end" : 896,
      "bottom" : "I_unroll_119",
      "start" : 448,
      "weights" : {

      },
      "axis" : 0,
      "top" : "s4_unroll_119",
      "type" : "slice",
      "name" : "split_0__slice_1__unroll_119"
    },
    {
      "end" : 1344,
      "bottom" : "I_unroll_119",
      "start" : 896,
      "weights" : {

      },
      "axis" : 0,
      "top" : "s5_unroll_119",
      "type" : "slice",
      "name" : "split_0__slice_2__unroll_119"
    },
    {
      "has_prelu" : 0,
      "top" : "R_unroll_119",
      "has_biases" : 1,
      "weights" : {

      },
      "nC" : 1344,
      "blob_weights" : 15,
      "low_precision_accumulation" : 1,
      "type" : "inner_product",
      "has_relu" : 0,
      "bottom" : "hidden_state_unroll_119",
      "blob_biases" : 13,
      "has_tanh" : 0,
      "share_weights_from_layer_named" : "inner_product_1__unroll_0",
      "name" : "inner_product_1__unroll_119",
      "nB" : 448
    },
    {
      "end" : 448,
      "bottom" : "R_unroll_119",
      "start" : 0,
      "weights" : {

      },
      "axis" : 0,
      "top" : "s7_unroll_119",
      "type" : "slice",
      "name" : "split_1__slice_0__unroll_119"
    },
    {
      "end" : 896,
      "bottom" : "R_unroll_119",
      "start" : 448,
      "weights" : {

      },
      "axis" : 0,
      "top" : "s8_unroll_119",
      "type" : "slice",
      "name" : "split_1__slice_1__unroll_119"
    },
    {
      "end" : 1344,
      "bottom" : "R_unroll_119",
      "start" : 896,
      "weights" : {

      },
      "axis" : 0,
      "top" : "s9_unroll_119",
      "type" : "slice",
      "name" : "split_1__slice_2__unroll_119"
    },
    {
      "alpha" : 1,
      "bottom" : "s7_unroll_119,s3_unroll_119",
      "operation" : 0,
      "weights" : {

      },
      "fused_relu" : 0,
      "top" : "s10_unroll_119",
      "type" : "elementwise",
      "name" : "elementwise_0__unroll_119",
      "beta" : 0
    },
    {
      "mode" : 3,
      "weights" : {

      },
      "top" : "reset_gate_t_unroll_119",
      "type" : "activation",
      "name" : "activation_0__unroll_119",
      "bottom" : "s10_unroll_119"
    },
    {
      "alpha" : 1,
      "bottom" : "s8_unroll_119,s4_unroll_119",
      "operation" : 0,
      "weights" : {

      },
      "fused_relu" : 0,
      "top" : "s12_unroll_119",
      "type" : "elementwise",
      "name" : "elementwise_1__unroll_119",
      "beta" : 0
    },
    {
      "mode" : 3,
      "weights" : {

      },
      "top" : "update_gate_t_unroll_119",
      "type" : "activation",
      "name" : "activation_1__unroll_119",
      "bottom" : "s12_unroll_119"
    },
    {
      "alpha" : 1,
      "bottom" : "reset_gate_t_unroll_119,s9_unroll_119",
      "operation" : 1,
      "weights" : {

      },
      "fused_relu" : 0,
      "top" : "s14_unroll_119",
      "type" : "elementwise",
      "name" : "elementwise_2__unroll_119",
      "beta" : 0
    },
    {
      "alpha" : 1,
      "bottom" : "s14_unroll_119,s5_unroll_119",
      "operation" : 0,
      "weights" : {

      },
      "fused_relu" : 0,
      "top" : "s15_unroll_119",
      "type" : "elementwise",
      "name" : "elementwise_3__unroll_119",
      "beta" : 0
    },
    {
      "mode" : 1,
      "weights" : {

      },
      "top" : "new_gate_t_unroll_119",
      "type" : "activation",
      "name" : "activation_2__unroll_119",
      "bottom" : "s15_unroll_119"
    },
    {
      "alpha" : 1,
      "bottom" : "update_gate_t_unroll_119,hidden_state_unroll_119",
      "operation" : 1,
      "weights" : {

      },
      "fused_relu" : 0,
      "top" : "s17_unroll_119",
      "type" : "elementwise",
      "name" : "elementwise_4__unroll_119",
      "beta" : 0
    },
    {
      "alpha" : -1,
      "bottom" : "update_gate_t_unroll_119",
      "operation" : 3,
      "weights" : {

      },
      "fused_relu" : 0,
      "top" : "s18_unroll_119",
      "type" : "elementwise",
      "name" : "elementwise_5__unroll_119",
      "beta" : 0
    },
    {
      "alpha" : 1,
      "bottom" : "s18_unroll_119",
      "operation" : 2,
      "weights" : {

      },
      "fused_relu" : 0,
      "top" : "s19_unroll_119",
      "type" : "elementwise",
      "name" : "elementwise_6__unroll_119",
      "beta" : 0
    },
    {
      "alpha" : 1,
      "bottom" : "s19_unroll_119,new_gate_t_unroll_119",
      "operation" : 1,
      "weights" : {

      },
      "fused_relu" : 0,
      "top" : "s20_unroll_119",
      "type" : "elementwise",
      "name" : "elementwise_7__unroll_119",
      "beta" : 0
    },
    {
      "alpha" : 1,
      "bottom" : "s17_unroll_119,s20_unroll_119",
      "operation" : 0,
      "weights" : {

      },
      "fused_relu" : 0,
      "top" : "s21_unroll_119",
      "type" : "elementwise",
      "name" : "elementwise_8__unroll_119",
      "beta" : 0
    },
    {
      "end" : 224,
      "bottom" : "s21_unroll_119",
      "start" : 0,
      "weights" : {

      },
      "axis" : 0,
      "top" : "s22_unroll_119",
      "type" : "slice",
      "name" : "split_2__slice_0__unroll_119"
    },
    {
      "has_prelu" : 0,
      "top" : "coarse_relu_unroll_119",
      "has_biases" : 1,
      "weights" : {

      },
      "nC" : 224,
      "blob_weights" : 19,
      "low_precision_accumulation" : 1,
      "type" : "inner_product",
      "has_relu" : 1,
      "bottom" : "s22_unroll_119",
      "blob_biases" : 17,
      "has_tanh" : 0,
      "share_weights_from_layer_named" : "inner_product_2__unroll_0",
      "name" : "inner_product_2__unroll_119",
      "nB" : 224
    },
    {
      "has_prelu" : 0,
      "top" : "O2_unroll_119",
      "has_biases" : 1,
      "weights" : {

      },
      "nC" : 256,
      "blob_weights" : 23,
      "low_precision_accumulation" : 1,
      "type" : "inner_product",
      "has_relu" : 0,
      "bottom" : "coarse_relu_unroll_119",
      "blob_biases" : 21,
      "has_tanh" : 0,
      "share_weights_from_layer_named" : "inner_product_3__unroll_0",
      "name" : "inner_product_3__unroll_119",
      "nB" : 224
    },
    {
      "alpha" : 1,
      "bottom" : "O2_unroll_119,O2__rand_unroll_119",
      "operation" : 0,
      "weights" : {

      },
      "fused_relu" : 0,
      "top" : "coarse_bit__plus_rand_unroll_119",
      "type" : "elementwise",
      "name" : "softmax_0@gumbel_max__plus_rand__unroll_119",
      "beta" : 0
    },
    {
      "axis_mode" : 1,
      "bottom" : "coarse_bit__plus_rand_unroll_119",
      "weights" : {

      },
      "mode" : 11,
      "use_version" : 1,
      "top" : "coarse_bit_unroll_119",
      "type" : "reduce",
      "name" : "softmax_0@gumbel_max__argmax__unroll_119"
    },
    {
      "alpha" : 0.0078431377187371254,
      "bottom" : "coarse_bit_unroll_119",
      "operation" : 3,
      "weights" : {

      },
      "fused_relu" : 0,
      "top" : "s29_unroll_119",
      "type" : "elementwise",
      "name" : "elementwise_9__unroll_119",
      "beta" : 0
    },
    {
      "alpha" : -1,
      "bottom" : "s29_unroll_119",
      "operation" : 0,
      "weights" : {

      },
      "fused_relu" : 0,
      "top" : "coarse_bit_scaled_unroll_119",
      "type" : "elementwise",
      "name" : "elementwise_10__unroll_119",
      "beta" : 0
    },
    {
      "has_prelu" : 0,
      "top" : "s32_unroll_119",
      "has_biases" : 1,
      "name" : "elementwise_11__unroll_119",
      "nC" : 1344,
      "blob_weights" : 11,
      "type" : "inner_product",
      "has_relu" : 0,
      "bottom" : "coarse_bit_scaled_unroll_119",
      "blob_biases" : 9,
      "has_tanh" : 0,
      "share_weights_from_layer_named" : "inner_product_0__2__unroll_0",
      "weights" : {

      },
      "nB" : 1
    },
    {
      "alpha" : 1,
      "bottom" : "I_unroll_119,s32_unroll_119",
      "operation" : 0,
      "weights" : {

      },
      "fused_relu" : 0,
      "top" : "s33_unroll_119",
      "type" : "elementwise",
      "name" : "elementwise_12__unroll_119",
      "beta" : 0
    },
    {
      "end" : 448,
      "bottom" : "s33_unroll_119",
      "start" : 0,
      "weights" : {

      },
      "axis" : 0,
      "top" : "s34_unroll_119",
      "type" : "slice",
      "name" : "split_3__slice_0__unroll_119"
    },
    {
      "end" : 896,
      "bottom" : "s33_unroll_119",
      "start" : 448,
      "weights" : {

      },
      "axis" : 0,
      "top" : "s35_unroll_119",
      "type" : "slice",
      "name" : "split_3__slice_1__unroll_119"
    },
    {
      "end" : 1344,
      "bottom" : "s33_unroll_119",
      "start" : 896,
      "weights" : {

      },
      "axis" : 0,
      "top" : "s36_unroll_119",
      "type" : "slice",
      "name" : "split_3__slice_2__unroll_119"
    },
    {
      "alpha" : 1,
      "bottom" : "s7_unroll_119,s34_unroll_119",
      "operation" : 0,
      "weights" : {

      },
      "fused_relu" : 0,
      "top" : "s37_unroll_119",
      "type" : "elementwise",
      "name" : "elementwise_13__unroll_119",
      "beta" : 0
    },
    {
      "mode" : 3,
      "weights" : {

      },
      "top" : "reset_gate_t_1_unroll_119",
      "type" : "activation",
      "name" : "activation_4__unroll_119",
      "bottom" : "s37_unroll_119"
    },
    {
      "alpha" : 1,
      "bottom" : "s8_unroll_119,s35_unroll_119",
      "operation" : 0,
      "weights" : {

      },
      "fused_relu" : 0,
      "top" : "s39_unroll_119",
      "type" : "elementwise",
      "name" : "elementwise_14__unroll_119",
      "beta" : 0
    },
    {
      "mode" : 3,
      "weights" : {

      },
      "top" : "update_gate_t_1_unroll_119",
      "type" : "activation",
      "name" : "activation_5__unroll_119",
      "bottom" : "s39_unroll_119"
    },
    {
      "alpha" : 1,
      "bottom" : "reset_gate_t_1_unroll_119,s9_unroll_119",
      "operation" : 1,
      "weights" : {

      },
      "fused_relu" : 0,
      "top" : "s41_unroll_119",
      "type" : "elementwise",
      "name" : "elementwise_15__unroll_119",
      "beta" : 0
    },
    {
      "alpha" : 1,
      "bottom" : "s41_unroll_119,s36_unroll_119",
      "operation" : 0,
      "weights" : {

      },
      "fused_relu" : 0,
      "top" : "s42_unroll_119",
      "type" : "elementwise",
      "name" : "elementwise_16__unroll_119",
      "beta" : 0
    },
    {
      "mode" : 1,
      "weights" : {

      },
      "top" : "new_gate_t_1_unroll_119",
      "type" : "activation",
      "name" : "activation_6__unroll_119",
      "bottom" : "s42_unroll_119"
    },
    {
      "alpha" : 1,
      "bottom" : "update_gate_t_1_unroll_119,hidden_state_unroll_119",
      "operation" : 1,
      "weights" : {

      },
      "fused_relu" : 0,
      "top" : "s44_unroll_119",
      "type" : "elementwise",
      "name" : "elementwise_17__unroll_119",
      "beta" : 0
    },
    {
      "alpha" : -1,
      "bottom" : "update_gate_t_1_unroll_119",
      "operation" : 3,
      "weights" : {

      },
      "fused_relu" : 0,
      "top" : "s45_unroll_119",
      "type" : "elementwise",
      "name" : "elementwise_18__unroll_119",
      "beta" : 0
    },
    {
      "alpha" : 1,
      "bottom" : "s45_unroll_119",
      "operation" : 2,
      "weights" : {

      },
      "fused_relu" : 0,
      "top" : "s46_unroll_119",
      "type" : "elementwise",
      "name" : "elementwise_19__unroll_119",
      "beta" : 0
    },
    {
      "alpha" : 1,
      "bottom" : "s46_unroll_119,new_gate_t_1_unroll_119",
      "operation" : 1,
      "weights" : {

      },
      "fused_relu" : 0,
      "top" : "s47_unroll_119",
      "type" : "elementwise",
      "name" : "elementwise_20__unroll_119",
      "beta" : 0
    },
    {
      "alpha" : 1,
      "bottom" : "s44_unroll_119,s47_unroll_119",
      "operation" : 0,
      "weights" : {

      },
      "fused_relu" : 0,
      "top" : "hidden_state_unroll_120",
      "type" : "elementwise",
      "name" : "elementwise_21__unroll_119",
      "beta" : 0
    },
    {
      "end" : 448,
      "bottom" : "hidden_state_unroll_120",
      "start" : 224,
      "weights" : {

      },
      "axis" : 0,
      "top" : "s50_unroll_119",
      "type" : "slice",
      "name" : "split_4__slice_1__unroll_119"
    },
    {
      "has_prelu" : 0,
      "top" : "fine_relu_unroll_119",
      "has_biases" : 1,
      "weights" : {

      },
      "nC" : 224,
      "blob_weights" : 27,
      "low_precision_accumulation" : 1,
      "type" : "inner_product",
      "has_relu" : 1,
      "bottom" : "s50_unroll_119",
      "blob_biases" : 25,
      "has_tanh" : 0,
      "share_weights_from_layer_named" : "inner_product_4__unroll_0",
      "name" : "inner_product_4__unroll_119",
      "nB" : 224
    },
    {
      "has_prelu" : 0,
      "top" : "O4_unroll_119",
      "has_biases" : 1,
      "weights" : {

      },
      "nC" : 256,
      "blob_weights" : 31,
      "low_precision_accumulation" : 1,
      "type" : "inner_product",
      "has_relu" : 0,
      "bottom" : "fine_relu_unroll_119",
      "blob_biases" : 29,
      "has_tanh" : 0,
      "share_weights_from_layer_named" : "inner_product_5__unroll_0",
      "name" : "inner_product_5__unroll_119",
      "nB" : 224
    },
    {
      "alpha" : 1,
      "bottom" : "O4_unroll_119,O4__rand_unroll_119",
      "operation" : 0,
      "weights" : {

      },
      "fused_relu" : 0,
      "top" : "fine_bit__plus_rand_unroll_119",
      "type" : "elementwise",
      "name" : "softmax_1@gumbel_max__plus_rand__unroll_119",
      "beta" : 0
    },
    {
      "axis_mode" : 1,
      "bottom" : "fine_bit__plus_rand_unroll_119",
      "weights" : {

      },
      "mode" : 11,
      "use_version" : 1,
      "top" : "fine_bit_unroll_119",
      "type" : "reduce",
      "name" : "softmax_1@gumbel_max__argmax__unroll_119"
    },
    {
      "alpha" : 0.0078431377187371254,
      "bottom" : "fine_bit_unroll_119",
      "operation" : 3,
      "weights" : {

      },
      "fused_relu" : 0,
      "top" : "s56_unroll_119",
      "type" : "elementwise",
      "name" : "elementwise_22__unroll_119",
      "beta" : 0
    },
    {
      "alpha" : -1,
      "bottom" : "s56_unroll_119",
      "operation" : 0,
      "weights" : {

      },
      "fused_relu" : 0,
      "top" : "fine_bit_scaled_unroll_120",
      "type" : "elementwise",
      "name" : "elementwise_23__unroll_119",
      "beta" : 0
    },
    {
      "axis" : 2,
      "weights" : {

      },
      "top" : "out_coarse_bit_scaled",
      "type" : "general_concat",
      "name" : "coarse_bit_scaled_concat",
      "bottom" : "coarse_bit_scaled,coarse_bit_scaled_unroll_1,coarse_bit_scaled_unroll_2,coarse_bit_scaled_unroll_3,coarse_bit_scaled_unroll_4,coarse_bit_scaled_unroll_5,coarse_bit_scaled_unroll_6,coarse_bit_scaled_unroll_7,coarse_bit_scaled_unroll_8,coarse_bit_scaled_unroll_9,coarse_bit_scaled_unroll_10,coarse_bit_scaled_unroll_11,coarse_bit_scaled_unroll_12,coarse_bit_scaled_unroll_13,coarse_bit_scaled_unroll_14,coarse_bit_scaled_unroll_15,coarse_bit_scaled_unroll_16,coarse_bit_scaled_unroll_17,coarse_bit_scaled_unroll_18,coarse_bit_scaled_unroll_19,coarse_bit_scaled_unroll_20,coarse_bit_scaled_unroll_21,coarse_bit_scaled_unroll_22,coarse_bit_scaled_unroll_23,coarse_bit_scaled_unroll_24,coarse_bit_scaled_unroll_25,coarse_bit_scaled_unroll_26,coarse_bit_scaled_unroll_27,coarse_bit_scaled_unroll_28,coarse_bit_scaled_unroll_29,coarse_bit_scaled_unroll_30,coarse_bit_scaled_unroll_31,coarse_bit_scaled_unroll_32,coarse_bit_scaled_unroll_33,coarse_bit_scaled_unroll_34,coarse_bit_scaled_unroll_35,coarse_bit_scaled_unroll_36,coarse_bit_scaled_unroll_37,coarse_bit_scaled_unroll_38,coarse_bit_scaled_unroll_39,coarse_bit_scaled_unroll_40,coarse_bit_scaled_unroll_41,coarse_bit_scaled_unroll_42,coarse_bit_scaled_unroll_43,coarse_bit_scaled_unroll_44,coarse_bit_scaled_unroll_45,coarse_bit_scaled_unroll_46,coarse_bit_scaled_unroll_47,coarse_bit_scaled_unroll_48,coarse_bit_scaled_unroll_49,coarse_bit_scaled_unroll_50,coarse_bit_scaled_unroll_51,coarse_bit_scaled_unroll_52,coarse_bit_scaled_unroll_53,coarse_bit_scaled_unroll_54,coarse_bit_scaled_unroll_55,coarse_bit_scaled_unroll_56,coarse_bit_scaled_unroll_57,coarse_bit_scaled_unroll_58,coarse_bit_scaled_unroll_59,coarse_bit_scaled_unroll_60,coarse_bit_scaled_unroll_61,coarse_bit_scaled_unroll_62,coarse_bit_scaled_unroll_63,coarse_bit_scaled_unroll_64,coarse_bit_scaled_unroll_65,coarse_bit_scaled_unroll_66,coarse_bit_scaled_unroll_67,coarse_bit_scaled_unroll_68,coarse_bit_scaled_unroll_69,coarse_bit_scaled_unroll_70,coarse_bit_scaled_unroll_71,coarse_bit_scaled_unroll_72,coarse_bit_scaled_unroll_73,coarse_bit_scaled_unroll_74,coarse_bit_scaled_unroll_75,coarse_bit_scaled_unroll_76,coarse_bit_scaled_unroll_77,coarse_bit_scaled_unroll_78,coarse_bit_scaled_unroll_79,coarse_bit_scaled_unroll_80,coarse_bit_scaled_unroll_81,coarse_bit_scaled_unroll_82,coarse_bit_scaled_unroll_83,coarse_bit_scaled_unroll_84,coarse_bit_scaled_unroll_85,coarse_bit_scaled_unroll_86,coarse_bit_scaled_unroll_87,coarse_bit_scaled_unroll_88,coarse_bit_scaled_unroll_89,coarse_bit_scaled_unroll_90,coarse_bit_scaled_unroll_91,coarse_bit_scaled_unroll_92,coarse_bit_scaled_unroll_93,coarse_bit_scaled_unroll_94,coarse_bit_scaled_unroll_95,coarse_bit_scaled_unroll_96,coarse_bit_scaled_unroll_97,coarse_bit_scaled_unroll_98,coarse_bit_scaled_unroll_99,coarse_bit_scaled_unroll_100,coarse_bit_scaled_unroll_101,coarse_bit_scaled_unroll_102,coarse_bit_scaled_unroll_103,coarse_bit_scaled_unroll_104,coarse_bit_scaled_unroll_105,coarse_bit_scaled_unroll_106,coarse_bit_scaled_unroll_107,coarse_bit_scaled_unroll_108,coarse_bit_scaled_unroll_109,coarse_bit_scaled_unroll_110,coarse_bit_scaled_unroll_111,coarse_bit_scaled_unroll_112,coarse_bit_scaled_unroll_113,coarse_bit_scaled_unroll_114,coarse_bit_scaled_unroll_115,coarse_bit_scaled_unroll_116,coarse_bit_scaled_unroll_117,coarse_bit_scaled_unroll_118,coarse_bit_scaled_unroll_119"
    },
    {
      "axis" : 2,
      "weights" : {

      },
      "top" : "out_fine_bit_scaled",
      "type" : "general_concat",
      "name" : "fine_bit_scaled_concat",
      "bottom" : "fine_bit_scaled_unroll_1,fine_bit_scaled_unroll_2,fine_bit_scaled_unroll_3,fine_bit_scaled_unroll_4,fine_bit_scaled_unroll_5,fine_bit_scaled_unroll_6,fine_bit_scaled_unroll_7,fine_bit_scaled_unroll_8,fine_bit_scaled_unroll_9,fine_bit_scaled_unroll_10,fine_bit_scaled_unroll_11,fine_bit_scaled_unroll_12,fine_bit_scaled_unroll_13,fine_bit_scaled_unroll_14,fine_bit_scaled_unroll_15,fine_bit_scaled_unroll_16,fine_bit_scaled_unroll_17,fine_bit_scaled_unroll_18,fine_bit_scaled_unroll_19,fine_bit_scaled_unroll_20,fine_bit_scaled_unroll_21,fine_bit_scaled_unroll_22,fine_bit_scaled_unroll_23,fine_bit_scaled_unroll_24,fine_bit_scaled_unroll_25,fine_bit_scaled_unroll_26,fine_bit_scaled_unroll_27,fine_bit_scaled_unroll_28,fine_bit_scaled_unroll_29,fine_bit_scaled_unroll_30,fine_bit_scaled_unroll_31,fine_bit_scaled_unroll_32,fine_bit_scaled_unroll_33,fine_bit_scaled_unroll_34,fine_bit_scaled_unroll_35,fine_bit_scaled_unroll_36,fine_bit_scaled_unroll_37,fine_bit_scaled_unroll_38,fine_bit_scaled_unroll_39,fine_bit_scaled_unroll_40,fine_bit_scaled_unroll_41,fine_bit_scaled_unroll_42,fine_bit_scaled_unroll_43,fine_bit_scaled_unroll_44,fine_bit_scaled_unroll_45,fine_bit_scaled_unroll_46,fine_bit_scaled_unroll_47,fine_bit_scaled_unroll_48,fine_bit_scaled_unroll_49,fine_bit_scaled_unroll_50,fine_bit_scaled_unroll_51,fine_bit_scaled_unroll_52,fine_bit_scaled_unroll_53,fine_bit_scaled_unroll_54,fine_bit_scaled_unroll_55,fine_bit_scaled_unroll_56,fine_bit_scaled_unroll_57,fine_bit_scaled_unroll_58,fine_bit_scaled_unroll_59,fine_bit_scaled_unroll_60,fine_bit_scaled_unroll_61,fine_bit_scaled_unroll_62,fine_bit_scaled_unroll_63,fine_bit_scaled_unroll_64,fine_bit_scaled_unroll_65,fine_bit_scaled_unroll_66,fine_bit_scaled_unroll_67,fine_bit_scaled_unroll_68,fine_bit_scaled_unroll_69,fine_bit_scaled_unroll_70,fine_bit_scaled_unroll_71,fine_bit_scaled_unroll_72,fine_bit_scaled_unroll_73,fine_bit_scaled_unroll_74,fine_bit_scaled_unroll_75,fine_bit_scaled_unroll_76,fine_bit_scaled_unroll_77,fine_bit_scaled_unroll_78,fine_bit_scaled_unroll_79,fine_bit_scaled_unroll_80,fine_bit_scaled_unroll_81,fine_bit_scaled_unroll_82,fine_bit_scaled_unroll_83,fine_bit_scaled_unroll_84,fine_bit_scaled_unroll_85,fine_bit_scaled_unroll_86,fine_bit_scaled_unroll_87,fine_bit_scaled_unroll_88,fine_bit_scaled_unroll_89,fine_bit_scaled_unroll_90,fine_bit_scaled_unroll_91,fine_bit_scaled_unroll_92,fine_bit_scaled_unroll_93,fine_bit_scaled_unroll_94,fine_bit_scaled_unroll_95,fine_bit_scaled_unroll_96,fine_bit_scaled_unroll_97,fine_bit_scaled_unroll_98,fine_bit_scaled_unroll_99,fine_bit_scaled_unroll_100,fine_bit_scaled_unroll_101,fine_bit_scaled_unroll_102,fine_bit_scaled_unroll_103,fine_bit_scaled_unroll_104,fine_bit_scaled_unroll_105,fine_bit_scaled_unroll_106,fine_bit_scaled_unroll_107,fine_bit_scaled_unroll_108,fine_bit_scaled_unroll_109,fine_bit_scaled_unroll_110,fine_bit_scaled_unroll_111,fine_bit_scaled_unroll_112,fine_bit_scaled_unroll_113,fine_bit_scaled_unroll_114,fine_bit_scaled_unroll_115,fine_bit_scaled_unroll_116,fine_bit_scaled_unroll_117,fine_bit_scaled_unroll_118,fine_bit_scaled_unroll_119,fine_bit_scaled_unroll_120"
    },
    {
      "weights" : {

      },
      "top" : "out_hidden_state",
      "type" : "copy",
      "name" : "hidden_state_out",
      "bottom" : "hidden_state_unroll_120"
    }
  ]
}